p1_navigation/checkpoint.pth (torch_old, 19696 bytes, 6 tensors)

layers.0.weight f4 [64, 37]
00000000: 93db 1e3e 11db 11bd 9022 86be d32b 4ebe
00000010: 4dd1 d0be b7ca 873e effc eabd fe4f 263c
00000020: 360f ccbd bcf2 a33d 1816 ecb9 ba58 18bd
00000030: 6001 36be ea15 68be 0d6b 2dbe 673c 243d
00000040: 6b66 1abe 5e04 d53d 5e6b 02bc 2b8c 87be
00000050: 08f3 153e 0d61 cc3c c6c5 0b3e ecb8 26be
00000060: 4451 c23c b90f 8c3d 9335 b1bd 325d dbbd
00000070: b99f b23d d667 0d3e bb19 6e3c aca5 f73d
00000080: a478 c5bd 5724 03be 75eb 4fbd 0e78 4cbe
00000090: efd8 f2bc cb5f 913d a9e6 9f3d b983 4a3e
000000a0: 698a 0b3e 259c 7f3c d13d 683d d2b3 0ebe
000000b0: 15e8 abbc 9dfe 0abe 2078 323e ee32 1e3e
000000c0: a011 5cbd 4e20 95bd f388 3b3e 543e 2e3e
000000d0: 567d 4c3e a013 bc3d c559 c1bb e118 90be
000000e0: 0068 1d3c 954f d3bd 405b 14bd 1e1a 3539
000000f0: 5b01 08be 3f4e 193e 5899 ed3d 3002 133d
00000100: 6b38 fa3c 84e5 85be 3752 30be 63ac 373e
00000110: 6d2d 163e 4c94 203d 3eee 23be 3e34 3ebe
00000120: daeb f73c 193d 553c 56c0 b73d db23 9f3d
00000130: 0272 0a3e d547 993d 6d51 0b3e ef97 bdbe
00000140: 487b 163e 932d 7a3e f1a5 5fbc 5345 ffbe
00000150: b781 26bd 095d a83d f213 ff3c 0b8f c0bd
00000160: e544 34bd b668 77bb d8cf c13c 681e 243e
00000170: 86b8 f5bb 0304 e73d 4ece 01bf 3c63 e73d
00000180: 2a7d a33d 6a8a fe3c 3e06 41bf 31a0 10bd
00000190: 4af4 063e f522 c33c cc1a a63d c738 8cbd
000001a0: 8d44 4bbe 6022 1b3d 1e96 a5bd 71b3 ecbd
000001b0: 2299 8cbe 9171 18bd 8a60 37bc 5972 143d
000001c0: 8405 b1bd eeb9 053d 24d4 56be be9a f7be
000001d0: 7296 b9bd f7dc a13a a9b8 b73d ab51 54be
000001e0: 2a53 09bf 8049 98be 9889 a93d bcda e0bc
000001f0: be83 593d bb8c 4dbe e3c3 fd3a d197 72bd
00000200: e430 ffbd 9666 d0be 929d c2be e46f a9bc
00000210: 23cb cdbe 5419 d13d ffb6 b6bd 91fc 9abe
00000220: c2a0 28bb 0cd0 39be 387e 59bd 23a5 5b3d
00000230: 34b7 e7be e47c 2a3e b186 3a3d 6996 49bd
00000240: b556 9dbe 6c29 dbbe b630 943e 2281 2b3c
00000250: 9342 1dbe a94a a5bd f6a7 9bbd a025 67be
00000260: e977 53be 8189 933d 3a5e cd3d a050 83bd
00000270: 5570 1d3e 87c8 153e 8ce5 093c 34a7 aebc
00000280: 2a1b 2fbd 67ad fdbd 685a 5ebe 3330 4abe
00000290: ba05 8f3d 764b 19bd c832 683d 5652 3c3e
000002a0: 4633 65be 7cb9 a03d 41c0 993d 2967 0d3e
000002b0: 4f7a 983e 0df2 9d3e 7637 ffbe 7ebf 5abe
000002c0: 28cf 8cbe cc1e 85bf 6daf bd3d 09cb 1abe
000002d0: c894 d73d bd33 38bd 62db f73d 21ba b13c
000002e0: 1d55 a1ba 7339 a0bc f6a6 07be 4d75 12be
000002f0: d846 ccbd 34f1 9fbd 7b0b 5ebd 1b06 b9bd
00000300: 0127 ed3d 28c0 c1be 8e8c 84bf 84b7 3fbe
00000310: 23d4 c4bd ee02 a73d 4319 b7be 35ad 07bf
00000320: 578f d9bd bfbf 0ebe d47b abbd 1408 52bd
00000330: 61e4 84be 8e5e b93d af65 b8be c78a 313e
00000340: 7065 2abe 30e0 00bf 2d2c a4bd 91de 44be
00000350: cf24 e63d 7a4d 86be 3d58 13bf 4af9 44be
00000360: 2f50 a1bd 8157 d43d 4927 8fbe d682 93bf
00000370: e953 56be 456d 6d3d 5c11 d93d 6fec 8b3d
00000380: 61b5 49bd 2905 08bb 44d2 79be e599 26be
00000390: ebc6 343d 2ba9 b23d c500 c83b 1726 143e
000003a0: 61f4 98bc 0d6a 3b3d add2 353e be90 223e
000003b0: 6935 443e abb4 03be 735b 5b3c 96d1 5f3d
000003c0: 956b 1a3d 655e fa3d 6e9b e3bd d0d5 adbc
000003d0: b13f 143e 2deb 3a3d a34b b03e 45b9 adbd
000003e0: f7ad 4f3c 188f ecbd 37bf 133e 017d 173e
000003f0: 0fa6 19be 78e1 233d 4467 15bc bd2c 5c3e
0.15513448 -0.03560931 -0.26198244 -0.20133905 -0.40784684 0.26521847 -0.114740245 0.010150908
-0.09963839 0.08005282 -0.0004502989 -0.03719399 -0.17773962 -0.2266461 -0.16935368 0.040096667
-0.15078132 0.104012236 -0.007960169 -0.26474127 0.1464349 0.024948621 0.13649663 -0.1628148
0.023720391 0.06838936 -0.086527966 -0.10711135 0.08721871 0.13809142 0.014532502 0.12092146
-0.09642151 -0.12806831 -0.05076166 -0.19967672 -0.029644458 0.07098349 0.07807667 0.1977681
0.13627018 0.015601193 0.056699578 -0.13935784 -0.020984689 -0.1357369 0.17428637 0.15449116
-0.053727746 -0.07281552 0.1831396 0.17015964 0.19969687 0.09183431 -0.005900594 -0.2814398
0.009607315 -0.103179134 -0.036219835 0.00017271235 -0.13281767 0.14971255 0.116015136 0.035890758
0.03054448 -0.2615167 -0.17218862 0.17936854 0.14665766 0.039203927 -0.16008851 -0.18574616
0.03026383 0.013015055 0.08972232 0.07770511 0.13520053 0.07484404 0.1360528 -0.3702998
0.14695466 0.24431448 -0.013650403 -0.49857578 -0.04065105 0.0822087 0.03113744 -0.09402283
-0.044011015 -0.0037751622 0.023658678 0.16027224 -0.0074988035 0.11280062 -0.5070542 0.11298224
0.079828575 0.03107186 -0.7540015 -0.03530902 0.13179126 0.02382038 0.0811058 -0.06846767
-0.19850369 0.03787458 -0.08085273 -0.11557663 -0.2746058 -0.03721768 -0.01119245 0.036241863
-0.0864363 0.03264802 -0.20979363 -0.48360246 -0.09061898 0.0012349178 0.08970768 -0.20734279
-0.53642523 -0.29743576 0.08278197 -0.02744805 0.053104155 -0.20073216 0.0019360747 -0.059226815
-0.12460497 -0.40703267 -0.38010842 -0.020683236 -0.40194044 0.10209909 -0.089216225 -0.30270818
-0.0025730585 -0.1814577 -0.053098887 0.053624284 -0.4525696 0.16649204 0.045538608 -0.049215708
-0.30730215 -0.4280504 0.28943413 0.010467799 -0.15357427 -0.08070881 -0.076003954 -0.22572947
-0.20651211 0.07203961 0.10027738 -0.064118624 0.15374883 0.14627276 0.008416545 -0.021319963
-0.042750515 -0.123865895 -0.21714175 -0.19744949 0.06983514 -0.03742548 0.056689054 0.18390784
-0.2238284 0.07847878 0.07507373 0.13808884 0.29780814 0.30848733 -0.49847 -0.21362111
-0.27501798 -1.0400023 0.092619754 -0.15116514 0.10526425 -0.044971216 0.12102391 0.021695198
-0.0012308691 -0.019558644 -0.13247284 -0.14302559 -0.0997445 -0.07809678 -0.054210167 -0.09034368
0.11579705 -0.37841916 -1.0355394 -0.1872235 -0.09610774 0.08154856 -0.3576146 -0.5299867
-0.10623043 -0.13940333 -0.08373228 -0.051277235 -0.2595549 0.09051238 -0.36015078 0.17338096
-0.16640258 -0.5034208 -0.08016238 -0.19225527 0.112374894 -0.26230985 -0.57556516 -0.19235721
-0.07876622 0.103682525 -0.2795966 -1.1524303 -0.20930447 0.057965536 0.10599014 0.068322055
-0.049245242 -0.0020755029 -0.24396616 -0.16269644 0.044135015 0.087236725 0.0061036074 0.14467655
-0.018671216 0.045755435 0.17756148 0.15875527 0.19161 -0.12861888 0.013388502 0.054643236
0.037700254 0.122250356 -0.1111363 -0.021220118 0.14477421 0.045634437 0.34432706 -0.08482603
0.012675754 -0.115507305 0.14428411 0.14793779 -0.15004753 0.040009946 -0.009118859 0.21501441

layers.0.bias f4 [64]
00000000: 878b 083e 3582 d33c a8ac 2bbe 4ba9 ecbd
00000010: b03a 293e 7ea8 a5bd bf74 5dbd b026 9bbc
00000020: 12f8 20bc 9f48 3abe e503 143e 9ca0 303e
00000030: 0e4e d63d 8d32 733e 031b 983d fd19 8cbd
00000040: 110e 0bbd a515 93bb 0113 e9bc 4193 80be
00000050: 015f 0dbd c255 c23d 3d03 75bd 1be1 2ebd
00000060: e8c3 11be beb6 783e 32fa 57ba 3366 0abe
00000070: b164 d63d 5845 353e 63f3 b8bd 2906 23be
00000080: 848d 653e e458 9abb c13c 81be bd22 123d
00000090: 6a43 1ebd 42f6 843c 11e9 04be d660 4dbe
000000a0: 03c5 45bd 501b 8e3a 905f 22bc 1dc4 593e
000000b0: 12be 8b3b 933e 88bd 3af1 1c3e 49a6 80be
000000c0: c560 ed3b 5cc4 66bc 5307 17be 3a1e da3c
000000d0: 4316 13bc 3bd7 67bd 2d4a 6bbe 6285 94bd
000000e0: 33a6 013e c371 4a3d 3ce0 dcbd 1f76 32be
000000f0: df54 a23d bba5 323d 5a63 ef3d 813a 083e
0.13334475 0.025818923 -0.16765082 -0.115557276 0.16526294 -0.08088778 -0.054066416 -0.018939346
-0.00982477 -0.18191765 0.1445461 0.17248768 0.104641065 0.23749752 0.07427027 -0.06840894
-0.03394896 -0.004488664 -0.028451445 -0.25112346 -0.03451443 0.09489013 -0.05981754 -0.042695146
-0.14234889 0.2428846 -0.0008238881 -0.13515548 0.10468424 0.17702234 -0.09030797 -0.15920319
0.22417265 -0.0047103036 -0.25241664 0.03567766 -0.03863851 0.016230706 -0.12979533 -0.20056471
-0.04828359 0.001084188 -0.009910479 0.21266218 0.0042646015 -0.0665256 0.15326396 -0.25126866
0.007244202 -0.014084902 -0.14748888 0.026625741 -0.008977476 -0.056601744 -0.22977515 -0.07252003
0.12661056 0.049424898 -0.10784957 -0.17427872 0.07926344 0.043615084 0.11688872 0.13303567

layers.2.weight f4 [32, 64]
00000000: 1695 eabd d581 f7bc 8917 a8bd 0596 9d3e
00000010: 97be 943e 06e0 9ebd bd8a 81bc 8c37 03be
00000020: bf01 7f3d 0a56 983d 039a 503c 0c14 36bd
00000030: c8ca 283e 45ce a03d 2158 59be 9d52 53bd
00000040: 5152 493c a350 84be af0d 1cbd 2a24 0c3c
00000050: af7d 98bd 18e6 b43c eb6f 30bd 260d 9b3e
00000060: 669a 52be 37b8 06be 9864 a53e 79ef bfbe
00000070: 3b6a d3bb 15a4 0dbd 4d5a 0b3c 964d 6bbe
00000080: 787c af3e 2e5b 723d e46a 613d 06c8 ff3d
00000090: 0e3d 22be 4cfd c13d c2c8 6c3e 0ab7 68be
000000a0: ef17 7ebe df50 bc3d 6904 8f3e b712 823e
000000b0: 9e65 133f 9764 11bd 0a3e cfbd 24ff f3bd
000000c0: b626 c13b c2a3 b3be 9477 29be 8101 87bd
000000d0: 2f64 72be ec92 7f3d 8e0e 90bc be0a 06bd
000000e0: a03a b7bd 52d6 8d3c 2780 e9be 5984 563d
000000f0: 548c 173d 87e9 383e 2215 10be b7ef 6e3d
00000100: c33b aa3c db42 633e df88 82be e157 40bd
00000110: dd48 983e eb44 023c 0357 37be e213 653e
00000120: 25b1 d4be 44db 96be e708 1a3d 4d64 dd3d
00000130: 2dec 77be a8d5 f93d c324 febd 20e2 9c3d
00000140: 5ff4 edbb e19d ccbd 2816 90be 6ef1 27be
00000150: 286f c53d c79c cbbd b7f1 873d fb71 c1bd
00000160: 3f8b 4fbc 4fb3 8cbd 5738 0abe 7ec5 5cbe
00000170: 5c1d 103e 0449 1fbe b6c8 c33c 34a4 b0bd
00000180: 3c4f d7bb 7a3b 823d dce9 e4bd 515b 22be
00000190: c86e 68bd 19f9 003e dbfb 7e3e 1c90 09be
000001a0: e848 f2bd da99 7e3d 10ac 8a3c 398e b2be
000001b0: ec29 d3bd b69e 98bb b9b6 f3bd ca32 3abe
000001c0: e667 85be 9f2a 95bd 9eee 9ebd 8268 2cbe
000001d0: a70a 2dbe 282d 273e 86a0 ecbe 746a 41bc
000001e0: a698 cabe 7108 37be dbc1 883c 3a3d 9cbd
000001f0: f532 f6be cab6 1a3e b5c5 62bd 715a d2bd
00000200: a808 abbd 6af8 56be 36d3 893e 9d3f adbd
00000210: 9326 66bd e9ec f13d 3fb4 983b 04be 46bd
00000220: fca0 f23c f4f8 203d a532 20bd e4f5 08bd
00000230: ce83 e03d 376e b43d 9e3a e0bc 725e 38bd
00000240: 5551 93bd 6ed4 e13d a5d8 2b3e a4ea 713d
00000250: 58ff babd 4184 8e3e ad41 87bd 06f5 36be
00000260: fa52 13be dc31 023d 79b9 873d c428 333d
00000270: e816 81be 40ab af3d 029f e23d 3776 1cbe
00000280: 921e c3bb 8d5a cabd 515a e7bd eafc 1e3e
00000290: 8c06 3b3e c74a 003e 7e40 0dbd 8466 98bd
000002a0: 9d92 d93d fbb2 97bc ee9a 27be c2ab 12be
000002b0: 78c0 e0bd 0409 0a3d e0d3 223d f1ac 63be
000002c0: d41b 09be cfdc 13bd 141d 533d b075 0b3d
000002d0: 0f8c 08bc 9d2e 483d f1a7 1fbe 1f66 5cbd
000002e0: c664 b6bd fb16 c6bd 897b 523d 5694 503d
000002f0: edf0 fbbd 0f08 cc3d baea 733d 4bba 6f3d
00000300: 0191 8c3c 29c7 acbd 8f0d ed3d 5358 54be
00000310: 6d67 9a3d f7f1 a1bc eda6 14be 7603 8fbe
00000320: 6738 51bd 6f45 efbc 797c 00be 04fa 0a3e
00000330: 140a 5bbb 1aa6 833d 9f59 fc3c 6240 c6bd
00000340: 1bb3 0c3e 185d 48be d478 89bc 4bb3 113d
00000350: edec c13d 3132 7bbc 8158 3d3c db31 1cbd
00000360: d2e5 d63d 60b9 013d df17 8f3e 965f 14bd
00000370: 0556 2b3d 46a2 00be 453d afbd c9ee 9c3d
00000380: 4a6e 3f3e 80a8 a1bc 0b65 4b3d 223d 5c3e
00000390: 6ccb ecbd 38fc 873d 523d 383e 019d da3d
000003a0: cf4b 93be f3d4 ae3d f313 40be 92e0 403e
000003b0: a6a6 afbe 79be c83e 16ee 643d 53b0 afbe
000003c0: e4f9 143d daf9 0f3e 19b9 82be be74 c9bc
000003d0: cf36 8c3d 83c2 1abe 375f b33d 4213 1a3e
000003e0: 20f9 19be fb34 37be a799 69bd 9a17 cd3c
000003f0: 1528 b6bd 0755 f5bc 3389 57be 6592 8ebd
-0.11454217 -0.030213276 -0.08207614 0.30778518 0.2905166 -0.07757573 -0.015813226 -0.12814158
0.062257525 0.07438286 0.012732032 -0.044452712 0.16483605 0.07851843 -0.21225025 -0.051592458
0.012287692 -0.2584277 -0.038098987 0.008553544 -0.07445847 0.022082373 -0.043075483 0.3028347
-0.20566711 -0.1315621 0.3230331 -0.3748739 -0.0064518726 -0.03458031 0.008505416 -0.22978815
0.3427465 0.059168987 0.05503358 0.12489323 -0.15843603 0.09472141 0.23123458 -0.22726074
-0.24813817 0.091951124 0.27933052 0.25404903 0.5757693 -0.03549632 -0.10119255 -0.119138986
0.0058945073 -0.35085875 -0.16549522 -0.06592084 -0.2367103 0.062395975 -0.017585065 -0.03272509
-0.08946729 0.01731411 -0.45605585 0.05237231 0.03699906 0.18057834 -0.14070562 0.05833408
0.02078045 0.22193472 -0.2549505 -0.046958808 0.2974309 0.007951002 -0.17904286 0.22370866
-0.415414 -0.2946416 0.037606146 0.108101465 -0.24211188 0.12198955 -0.124093555 0.076603174
-0.0072617973 -0.099910505 -0.28141904 -0.16400692 0.09640342 -0.09942012 0.066379 -0.09445568
-0.012667476 -0.06870138 -0.13498054 -0.21559712 0.140737 -0.15555197 0.023899417 -0.08625069
-0.006570725 0.063590005 -0.11177418 -0.15855147 -0.056746274 0.12595023 0.24900763 -0.1343388
-0.11830312 0.062158443 0.016927749 -0.34874132 -0.1031073 -0.0046575917 -0.11900086 -0.18183437
-0.2605583 -0.0728352 -0.07760356 -0.16836742 -0.16898595 0.1632582 -0.4621622 -0.011805166
-0.39569587 -0.17874314 0.016694 -0.076288655 -0.48085752 0.15108791 -0.05536433 -0.102711566
-0.083512604 -0.209932 0.26918954 -0.08459399 -0.05618913 0.11812765 0.004660159 -0.048521057
0.029617779 0.03929992 -0.0391108 -0.033437625 0.1096264 0.08810084 -0.0273717 -0.045011945
-0.07193247 0.11026846 0.16781862 0.05906166 -0.09130734 0.27835277 -0.066043235 -0.17866907
-0.14387122 0.03178583 0.06627173 0.04374005 -0.2521279 0.08577585 0.110654846 -0.1527947
-0.005954572 -0.098805524 -0.11296523 0.15526167 0.18264216 0.12528525 -0.034485333 -0.07441428
0.106236674 -0.018517962 -0.16367695 -0.14323333 -0.109742105 0.033700004 0.03975284 -0.2223394
-0.13389522 -0.03609925 0.051541403 0.034047782 -0.008334174 0.04887258 -0.15591408 -0.053808328
-0.0890594 -0.09672352 0.051387344 0.050922714 -0.12301812 0.099624746 0.059550025 0.058527272
0.017158987 -0.08436424 0.11574852 -0.20736818 0.07539258 -0.019768698 -0.14516802 -0.27932328
-0.05107918 -0.029207913 -0.12547483 0.13571936 -0.0033422755 0.06428166 0.030804453 -0.09680249
0.13740198 -0.19566762 -0.016781248 0.035571378 0.09469018 -0.015331791 0.0115567455 -0.038133483
0.104930535 0.031670928 0.279479 -0.03622397 0.04183008 -0.12561902 -0.08556608 0.07662732
0.18694416 -0.019733667 0.04965691 0.21507695 -0.11562237 0.06639904 0.17992142 0.10674477
-0.28768775 0.085367106 -0.1875761 0.18835667 -0.3430683 0.3920782 0.05589112 -0.34314212
0.036371127 0.14060155 -0.25531843 -0.0245918 0.068463914 -0.15113263 0.08758395 0.15046409
-0.1503644 -0.17891304 -0.0570313 0.025035668 -0.08894364 -0.02994777 -0.21048431 -0.06961516

layers.2.bias f4 [32]
00000000: 9d05 993d 7b9a a4bd 8f23 b9bd 00fa 76bd
00000010: 6d09 743d e59d f63d c27b 3dbd 319c c6bd
00000020: 46b9 4b3d f520 29be 5538 c93e 2c4f ebbc
00000030: eb10 063e bd56 f23d cc0f 0e3d 4a5b 583d
00000040: a574 fbba f789 843e 91e4 293e 7f4e efbd
00000050: 48e0 513d 4ee0 3d3e 0398 bc3e 9baf 783d
00000060: bfb3 853e f005 1dbe c321 8f3d 0b7e 023d
00000070: 3dae 5e3d ee20 ce3c 63e5 923d f63b de3e
0.07471774 -0.08037277 -0.090399854 -0.060297012 0.0595793 0.12041835 -0.046260603 -0.0969776
0.049737237 -0.16516478 0.3930079 -0.028724276 0.13092391 0.1183295 0.034683034 0.052821435
-0.0019184543 0.2588651 0.16591097 -0.11684894 0.051239282 0.18542597 0.36834726 0.060714345
0.26113698 -0.15334296 0.069888614 0.031858485 0.054365385 0.025162186 0.07172658 0.43405122

layers.4.weight f4 [4, 32]
00000000: ee0f 8c3e b26f c5be 97ce f03d 70a5 1d3d
00000010: d9a6 893d 92f5 8e3e d27a bb3d 0d47 ddbc
00000020: d118 c4be 34a3 74bd d638 713e 4680 993d
00000030: 8190 f23e 803d bf3e 388f 8d3e 3493 5f3e
00000040: 083a a83e 2537 7a3e c624 43be e64d 5cbe
00000050: 0741 42be 583f 7e3e 5b3b fc3d 1dec 8b3e
00000060: 862d ed3d d9a9 84bd 2774 0fbe cbfe 24be
00000070: 8774 b53d 968d c5bd 24b7 9ebe fdfe 7d3e
00000080: b6d8 6d3e 8a1a 3bbc 81bf b8bd 0b61 af3d
00000090: 917f 65bc 7c13 b63e 1973 143e d0ca 0dbb
000000a0: 2ae1 b3bc 57f2 f4bc 4af2 073e 241d 0b3e
000000b0: a675 ea3e 4032 503e b779 a33e 2460 0d3e
000000c0: 95da 7a3e 2ce0 823e 15f8 e03d 033a 14be
000000d0: 3fb1 53be 2dac 7a3e 9e2b 603e 4805 f63e
000000e0: a3e6 d83d 60eb 00be 3e17 67be 881d 513d
000000f0: 8381 683e f5e8 ab3a 8677 eb3d 321b 4f3e
00000100: cba0 b93e c306 27be 6c4f 583e 204e d83c
00000110: d63a 813e b0b6 1a3e e297 2cbe 1786 29be
00000120: 8ce6 fbbc 044c 9ebd 1868 f53d 3345 7b3e
00000130: c587 553e 978d f7bd 2ad4 e53e bad1 583b
00000140: c3a6 b33d 032f 513e 1f61 683e e7a5 48be
00000150: 1bb7 e5bd e4d8 663e d1e3 c93c ec64 11bd
00000160: 28d3 133e 5df7 ffbd 06e5 92be dabc 713e
00000170: c461 8ebd e4c1 ef3d 0705 1bbe a0dd aa3e
00000180: 6f4c 373e f9f2 9cbe 1bbc 6a3d e385 8c3e
00000190: 0cce 843e 2588 703e b2a4 96bd 0907 77be
000001a0: 9d4b 0fbe 2ef1 31be b2d0 5f3e 9fb7 45be
000001b0: d6cd 043f ceef 823e 4e10 783b cde5 b33e
000001c0: e681 0e3e 93ca 3b3e f3cf 843b 634d 133d
000001d0: 493a 9cbd 297b 353e 9261 753e f02f cb3e
000001e0: c7b8 8b3e f6be db3d 2560 28be 6e27 93be
000001f0: 894c b43e 9a66 6d3e cd91 11bd f91b f73d
0.27355903 -0.3856178 0.11758154 0.03848785 0.06721277 0.2792173 0.091542855 -0.027011419
-0.38300183 -0.059725955 0.23556837 0.07495169 0.47375873 0.37351608 0.2764833 0.21833497
0.32856774 0.24435098 -0.19056997 -0.21514091 -0.18970118 0.24828851 0.12316009 0.27328578
0.115809485 -0.06477708 -0.14009152 -0.16112821 0.088601165 -0.09646146 -0.309991 0.24804302
0.232272 -0.011419902 -0.090209015 0.08563431 -0.014007465 0.3556174 0.14497031 -0.0021635778
-0.021957953 -0.029900713 0.1327602 0.13585335 0.45792884 0.20331669 0.319288 0.13806206
0.24497445 0.25561655 0.10984818 -0.14475255 -0.20673083 0.24479742 0.21891639 0.48050904
0.105908655 -0.12589788 -0.2256746 0.051053554 0.22705655 0.0013115691 0.11497407 0.20225218
0.36255488 -0.16311173 0.21124047 0.02640444 0.252402 0.15108752 -0.16854814 -0.16555057
-0.030749582 -0.077293426 0.11982745 0.24538116 0.20852573 -0.12087553 0.4488843 0.003308399
0.08772042 0.2042809 0.22693299 -0.19594537 -0.11216565 0.22543675 0.024644764 -0.035496637
0.14436018 -0.12498353 -0.28690356 0.23607197 -0.06952241 0.117069036 -0.15138637 0.3337221
0.17900251 -0.30654123 0.057308298 0.27445897 0.2593845 0.23489435 -0.07355632 -0.24123777
-0.13993688 -0.17377159 0.21856955 -0.19308327 0.5187658 0.2557358 0.0037851515 0.35136262
0.1391674 0.18338995 0.00405311 0.035962474 -0.076283045 0.17722763 0.23963001 0.3968501
0.2728941 0.10729782 -0.16442926 -0.2874102 0.35214642 0.2318367 -0.035539437 0.12065882

layers.4.bias f4 [4]
00000000: 3dc1 af3e dfba 943e b59e a13e 02bb 7c3e
0.34327117 0.2904882 0.31566396 0.24680713
