p3_collab-compet/checkpoints/00checkpoint_critic-v2.pth (torch_old, 297382 bytes, 9 tensors)

fc1.weight f4 [256, 24]
00000000: 2ba4 30bf 29e5 083e aef6 0bbd cc19 293d
00000010: da1e 953d fbfb 58bf b164 c3bd f9f9 093d
00000020: 19fa 34bf 755e 973e 7116 b83d fcce 013e
00000030: 4735 8abc 76ec b1bf d8bf 353e dfa1 0c3e
00000040: 3d26 5fbf 002b a93e c494 9dbe 0cf7 60bc
00000050: 963e 02be bfca f9bf 6937 92be 32e4 c93c
00000060: f9bc 5d3d f686 4abd 5cdc b83d f426 e6bb
00000070: 29e5 e0bd 6507 70bd ecdb 903d 591f 80bd
00000080: 285a 4c3d 1d91 7abc 1d75 8fbc b6b6 51bd
00000090: 4f8f 4ebd 9aa9 963d d18f df3b 20bb 6fbd
000000a0: 4346 d53a 6e9c 63bd da1f d63c d1e9 85bd
000000b0: 387b 7ebc 33d2 33bc 8e82 b23d f17d 38bd
000000c0: 11b1 bc3f 68c8 373e 36a0 943f f30e 46be
000000d0: d67e f63e f4e0 a7bf bcc6 963f 65f2 67be
000000e0: aaa9 a63e 33e5 c7be b702 c33c 4181 ebbf
000000f0: 398d 953e abf1 273e e498 e13c 6f1c e7bf
00000100: 63bb bdbe 1b05 74bf 9eba 12bd cab9 b9be
00000110: cf26 1a3e 6880 91bd f4dc 1dbc 790a abbe
00000120: 2805 4cbe d68a a040 c079 64bd 9b77 be3d
00000130: 007a 53bf 8bee a5bf d9e7 b2bd fe4c 683c
00000140: 5a6c 30bf ee84 1f40 11bb e53d 81a6 053e
00000150: dc9b dcbe 4a2d 7540 9215 a53c 4849 023e
00000160: 7260 b4bf 7789 0140 1e35 603e 5643 b0be
00000170: 6900 46bf 9a0c bc40 da62 3e3e 1dfb d3be
00000180: fcbd 27be 102f 13bd 97cc 99be c0ce 413d
00000190: ce77 b2bd 162e 88bf ea79 9dbe f54e 4c3d
000001a0: 765f 0f3e eb4c 343e 169f a43c c503 ba3e
000001b0: 3e88 8bbd 6785 9cbf ff2d 963d 0826 a53e
000001c0: 4f71 abbd 8fbe ff3d 656d 56be be4b 0a3d
000001d0: 1284 16be 8264 cdbe 3191 49be 74e0 473d
000001e0: dc97 b13f 3465 883c d16e f03e 7b90 6bbf
000001f0: 3e5d 58c0 67e2 fd3e 513d 0d3f 08e3 69bf
00000200: 8f67 3840 545f 3e3f 22e8 d43e 56dd 95be
00000210: ca23 4bc0 6dbd 6c3f 8c48 003f 6bc0 b2be
00000220: 3156 0c40 7936 b93f e06d 683e 1928 373e
00000230: 3bd9 58c0 af20 a23f c8ab 713e 4e36 9a3d
00000240: 88e9 b9be 5b3f 043e 0fa9 57bf d804 adbe
00000250: c7f3 943d 73c8 43be 9310 57bf d9cc 8dbe
00000260: c73f 3ebe 6efe a83d 1719 723d 63a3 373e
00000270: 10a3 b33e 4b7b c23d a86a 423d 1126 213e
00000280: 05e0 0bbd 1d63 503e 7687 9f3e 1ab8 c53e
00000290: 4887 043f 372f 093f 2a7f 7f3e c40b bf3e
000002a0: f2ef 903f 9265 863f e7e3 f63d 18c3 f03e
000002b0: fd20 74be 9121 21c0 398d f53d 46c7 d23e
000002c0: 081b 793d c463 813e 1c81 0fbf 22bb e33f
000002d0: 03fe a4be 015e 3ac0 0d1d e6be 44ad e13f
000002e0: e6f9 10bf 551f 613f 09d4 e1be f0dc 3040
000002f0: 8dba 8dbc 3942 4dc0 0643 d5be e480 2d40
00000300: ddc6 ab3e 3135 4f3f 33d4 033d cd73 eabe
00000310: 61bd bc3e 5e21 453f 37e5 9e3c 225d 06bf
00000320: fd94 403e 9a41 9f3f f130 173e 88cf 3bbd
00000330: d714 38c0 b2c7 6bbe b4e7 d33d f0ab d3bd
00000340: 0301 33be 2f53 603f 4589 7abe 1950 60bf
00000350: fdf2 45c0 e17c 2c3f b043 2cbe 42b4 67bf
00000360: 2d03 3f3e 5e70 693f b78e 473e 5270 ba3e
00000370: 1620 513e f7e8 4a3e 65ca 2e3e 14a6 cd3e
00000380: eec1 9a3e dd7d 5c3f fd92 603e e0f5 a2be
00000390: 2f30 60bc 37a9 0b3f fc1d 743e 635c a7be
000003a0: 2dd9 c53e d434 0d3f 83c3 9b3e 5aff 90bf
000003b0: b6fa 44be 0183 5f3f 1e1d 9b3e 6a2d 96bf
000003c0: 3c08 67bc 1932 b63d b552 8cbe 98f9 133e
000003d0: aefd 27be f45e 24bd 11f8 babe 856c 563e
000003e0: 2038 08be 68a1 853d 91b0 adbe 34de db3c
000003f0: 4d9d 7cbe c9a0 89bd 8609 8bbe 12b4 abbc
-0.690005 0.13368668 -0.0341708 0.041284367 0.07281275 -0.8475949 -0.0954069 0.033685658
-0.7069412 0.29564252 0.08988655 0.12676615 -0.016871108 -1.3900287 0.17748964 0.13733624
-0.8716772 0.3304062 -0.30777562 -0.013730776 -0.12719187 -1.9514998 -0.285579 0.024644945
0.054135296 -0.049445115 0.09026405 -0.0070236865 -0.10981209 -0.058600802 0.07073197 -0.06255979
0.049890667 -0.015293387 -0.017511899 -0.051199637 -0.05042964 0.07356568 0.006822564 -0.058528066
0.001627155 -0.055569105 0.026138235 -0.065387376 -0.015532307 -0.010975408 0.087163076 -0.045041982
1.4741536 0.17947543 1.1611392 -0.1934164 0.48143643 -1.3115525 1.1779399 -0.2265106
0.32551318 -0.39042053 0.023805005 -1.839882 0.29209307 0.16400783 0.027538724 -1.8055552
-0.37057027 -0.9532029 -0.035822503 -0.36274558 0.15053867 -0.0710457 -0.009635199 -0.33406428
-0.19923842 5.0169477 -0.055780172 0.09300157 -0.8260803 -1.2963423 -0.08735628 0.014178513
-0.6891533 2.4924884 0.11217321 0.13051797 -0.4308766 3.8308892 0.020151887 0.12723267
-1.4091933 2.0240152 0.21895263 -0.34426373 -0.77344376 5.8765383 0.18592396 -0.41402522
-0.16381067 -0.035933554 -0.30038902 0.047316313 -0.08714257 -1.0639064 -0.30757076 0.049879987
0.14001259 0.17607467 0.02009539 0.36331 -0.068130955 -1.2228211 0.07332992 0.32255578
-0.08371221 0.12487518 -0.20940168 0.03376364 -0.14698818 -0.40115744 -0.19684292 0.04879804
1.3874469 0.01664982 0.46959546 -0.92017335 -3.380691 0.49586794 0.55171686 -0.9136205
2.8813207 0.7436421 0.41583353 -0.29270428 -3.1740594 0.9247654 0.501107 -0.34912428
2.1927607 1.4469749 0.22698164 0.1788639 -3.3882587 1.2666224 0.23600686 0.07529889
-0.36310983 0.12914793 -0.8424234 -0.33792758 0.07273059 -0.19119434 -0.84009665 -0.2769535
-0.18579017 0.082516536 0.05910596 0.17933421 0.35085344 0.094961725 0.047464997 0.15737177
-0.03414919 0.20350309 0.31158036 0.3861702 0.5176892 0.5358767 0.24950853 0.37313664
1.1323225 1.0499747 0.12055188 0.47023845 -0.23840709 -2.5176737 0.11989827 0.4116766
0.060816795 0.25271428 -0.5605638 1.7791483 -0.32225046 -2.9119875 -0.4494404 1.7631001
-0.56631315 0.87938434 -0.44107082 2.763485 -0.017300868 -3.207167 -0.41652697 2.7109919
0.33550158 0.8094054 0.03218479 -0.45791474 0.36863235 0.7700404 0.019396408 -0.5248586
0.18806835 1.2441895 0.14764763 -0.045852214 -2.876272 -0.23025396 0.10346928 -0.10335529
-0.17480855 0.8762693 -0.24466427 -0.8762222 -3.0929558 0.6737805 -0.16822696 -0.90509427
0.18653555 0.91187084 0.19488035 0.3641382 0.20422396 0.19815432 0.17069395 0.4016577
0.30226082 0.8612955 0.21931072 -0.31828213 -0.013683363 0.54555076 0.23839563 -0.32687673
0.38642254 0.55158734 0.304226 -1.1327927 -0.19236264 0.8730927 0.30295652 -1.1732609
-0.014101084 0.08896274 -0.2740685 0.14450681 -0.16405365 -0.040129617 -0.36517385 0.20939834
-0.1330266 0.065249264 -0.33923772 0.026839353 -0.2466938 -0.067201205 -0.27155703 -0.020959888

fc1.bias f4 [256]
00000000: ed71 d63d c5ba 14be 24d5 103e 1850 0bbe
00000010: 9518 3b3e 4b2b 0e3e 05c0 953d f36b 4cbe
00000020: 3f97 a7bd 41a2 c33d 1f9c 3ebe 86db c73d
00000030: 2c44 a8bd 49c2 18be aa08 12bb 0326 003d
00000040: 59f5 1d3e b7fc 04be a7d4 29be 90c0 8cbd
00000050: a6c8 1e3d 7944 babd da32 9fbd 84f6 91bd
00000060: 9e4a b33d 666f db3c 4637 373e 3f8a 043e
00000070: 0b0a 35be 207c 573d be0d 37be 9f40 40be
00000080: 075b 91bd e52c 503e b2ae 953c 0a4c 16be
00000090: 84a2 3cbe 8391 1d3e 8ddc 213e 08fb e7bd
000000a0: 377a 113e 896f 9a3d 4432 d7bd c4ae 7f3d
000000b0: e2dc fb3b 2764 57bd c6d1 55bd 7bad 1a3e
000000c0: ad84 b43d b940 b63d 6d73 733d f7f0 0e3e
000000d0: 32f2 55bd 0f7f 37bb 7eea 2c3e 5199 fa3d
000000e0: 54ca 4f3d dce5 d4bd a3cd 56bd ebbc 033d
000000f0: 8c32 01be a958 bd3d 92c2 01be d85b 14be
00000100: 2933 963d 34c4 cebd 52ee 50be 7912 033e
00000110: a09b aabd e155 9ebd 8e81 c2bd 45f0 eebd
00000120: 5e72 0cbe 8ecb b6bd 22c4 18be 7f59 91bc
00000130: c636 853d 5f31 02be 52b4 48be 6ed6 913d
00000140: 03f4 e6bd 1299 643d c56a 81bc 5faf 373d
00000150: 5232 16bb b9d2 82bd 5442 22be 5c9b 0f3e
00000160: 41de c53d 1266 ae3c 633c 323e 47e7 3f3e
00000170: 9d1b 28be 5507 d23d d403 403e ec96 3abc
00000180: 28d3 45be 1d13 98bd ab22 9a3c 5676 32bd
00000190: 7ecf c83d 3ccc a23d f1da 46be e997 e13c
000001a0: 98ed 043d 8875 053e 07c4 d63c ed8f e33d
000001b0: 8b6d 2b3d e2f1 0abe 5d1e 22be d797 8ebd
000001c0: f2a7 613a 6f12 f4bd d026 39be 430b 333e
000001d0: ffca bb3c 535e a13d b141 d4bd 441a 0a3d
000001e0: 96ac 83bc 012b db3d 8974 98bd fc1d 3a3e
000001f0: 11af 2d3c 49f3 0b3c eead 123e 76ce d8bb
00000200: 57f7 733d c8ee 66bc 9760 213e 6538 4bbe
00000210: 668c 493e 792f f6bd 7347 4c3e 0c92 8d3d
00000220: 66ea 04be 7692 32be 9057 653d 9ec0 a93d
00000230: f1da 0ebe 2541 053e 79da bebd f737 253e
00000240: 08a2 083d 4d5f 33be 9b15 063d 7676 5dbd
00000250: cfd1 5c3d 370c 9dbd c41f 373e ed58 eebd
00000260: aad5 2b3e ef01 4fbe 455a 173e 35ea 0fbe
00000270: 011b 1b3d 18da 54bd 8af2 4fbe 2051 243e
00000280: 1fd0 453d e079 e83d 5a12 c8bd 803e 81bd
00000290: 27c7 c0bd 71ee 40be 2b2e 373d 9b2e 983d
000002a0: 65d9 cabc a0fe 07be f03a ca3c 9a24 b33d
000002b0: bc3d 9d3c 9e51 4fbe 97da cc3d f109 183e
000002c0: a0ad 88bd 495e 36bd 5b6a 923b eb59 2a3d
000002d0: b66b 393e 7d42 153e 0e9d ba3d a1c6 09be
000002e0: c4aa fa3d 2dec cb3d e6d4 433e ffc3 a1bd
000002f0: 0b69 933d 47f4 093e 7ac2 c33d b3c2 a6bc
00000300: da2f 70bd e248 19bd cbb8 e83d 7810 84bd
00000310: 96b7 4fbe 98e8 05bd f703 40be a0e7 23be
00000320: 575f 343e a991 03be 4a94 f23d 9e6b fbbd
00000330: 3959 4dbe 94ac 963b 8ee3 d63d 9d48 183c
00000340: ec15 f03d 991f 08bc 67e4 14be 1e89 ff3d
00000350: 418c 0f3d e351 e7bd efa0 abbc 3490 933d
00000360: 9bf5 2fbd ac07 17bc e470 533d c3d3 853d
00000370: ff74 f03d dda9 54bd 17cd 783d e438 453d
00000380: 9d65 a0bd d960 003d 06d0 e53b fdc6 19be
00000390: 8ed4 3bbe 3e37 363e aab9 bfbd 1df2 183e
000003a0: 4b1b 283d c8c6 ec3d 719a e3bc c664 30bd
000003b0: 89c4 9abd 9093 46be 79a5 3cba 4329 303e
000003c0: 1b1d 283d d280 8bbd 2a59 04be 6c8a 44bd
000003d0: 7bc0 adbd bec2 ff3d e3e4 bc3d e002 583d
000003e0: 654a f53c 46e9 ed3b ec36 dcbd d4b4 cabc
000003f0: ca77 053e cc43 d5bc 4916 903d 48f5 e7bc
0.10470948 -0.14524372 0.14143807 -0.13604772 0.18271096 0.13883702 0.073120154 -0.19963054
-0.08183145 0.09552432 -0.18614243 0.09758668 -0.08216128 -0.14917864 -0.0022282996 0.03128625
0.15425624 -0.12987028 -0.16585027 -0.06872666 0.038765572 -0.090950914 -0.07773371 -0.07127097
0.087544665 0.026786517 0.17892179 0.12943362 -0.17679612 0.05260861 -0.17876336 -0.18774651
-0.0709744 0.20329626 0.018271778 -0.14677444 -0.1842137 0.1538754 0.1580679 -0.11327177
0.14206778 0.07540805 -0.10507634 0.06242253 0.0076862434 -0.052585747 -0.05220201 0.1510524
0.088143684 0.088990636 0.05943625 0.13959108 -0.05223293 -0.0027999317 0.16886327 0.12236274
0.050730065 -0.10395405 -0.052442204 0.032162588 -0.12616938 0.09245426 -0.12671879 -0.1448816
0.07333977 -0.100960165 -0.20403412 0.12800016 -0.08330464 -0.07731224 -0.09497367 -0.116669215
-0.13715503 -0.08925544 -0.14918569 -0.01774287 0.06504588 -0.12714146 -0.19600037 0.07120977
-0.1127701 0.05581004 -0.015797982 0.04484498 -0.0022918177 -0.063878484 -0.15845615 0.14024109
0.09661532 0.021288905 0.17405848 0.18740569 -0.16416784 0.10255305 0.1875146 -0.011388522
-0.19318831 -0.074255206 0.01881536 -0.043569885 0.09805201 0.07949111 -0.19419457 0.027538257
0.03245315 0.13033116 0.02621652 0.11111436 0.041852515 -0.13568833 -0.15831895 -0.06962555
0.00086080946 -0.119175784 -0.18081212 0.17484765 0.022923945 0.07879319 -0.10364092 0.033716455
-0.016073506 0.10701562 -0.07444102 0.181755 0.010600821 0.00854189 0.14324161 -0.006616409
0.059562054 -0.014095016 0.15759502 -0.19845732 0.19682464 -0.120207734 0.1994913 0.06912622
-0.12980041 -0.17438683 0.05599171 0.08288692 -0.13950707 0.13013132 -0.09319014 0.1613463
0.03335765 -0.17516823 0.03273545 -0.05406805 0.053911027 -0.076683454 0.17883211 -0.11638055
0.16780725 -0.20215581 0.14780529 -0.14054187 0.03786755 -0.051965803 -0.20307365 0.16046572
0.048294183 0.11351371 -0.09769125 -0.06310749 -0.09412985 -0.18840958 0.044721764 0.07430764
-0.024761865 -0.13280725 0.024686307 0.087472156 0.019194476 -0.20245978 0.1000263 0.14847542
-0.06673741 -0.04452351 0.004468245 0.04158966 0.18107495 0.14576145 0.09111987 -0.13454677
0.12239602 0.09957156 0.19124183 -0.078987114 0.0719777 0.1347209 0.09558578 -0.020356512
-0.058639385 -0.037423022 0.113633715 -0.06448454 -0.20284876 -0.03269252 -0.18751512 -0.16006327
0.17614494 -0.12848534 0.1184469 -0.12276386 -0.20053567 0.0045982096 0.10492621 0.009294656
0.11722931 -0.008308315 -0.14540254 0.12477325 0.035045866 -0.112949155 -0.020950763 0.07205239
-0.042958837 -0.009218138 0.051621333 0.06534531 0.11741065 -0.051919807 0.060742464 0.04814996
-0.07831881 0.03134236 0.0070133237 -0.15017314 -0.18342802 0.1779451 -0.093615845 0.14936109
0.041041654 0.11561352 -0.027783604 -0.043064855 -0.07557017 -0.19392228 -0.0007196288 0.1720324
0.041043382 -0.0681168 -0.12924638 -0.047983572 -0.08483978 0.12488316 0.09223344 0.052737117
0.0299427 0.0072604744 -0.10752663 -0.024744429 0.13033977 -0.026033305 0.070355006 -0.028315201

bn1.weight f4 [256]
00000000: 58f0 0f3e 02f7 333d c83e 343e cea2 853f
00000010: cf4c 303c 4ad4 4a3f 5167 5f3d e396 0a3f
00000020: a243 633e 6366 27bb 3dfa d23c 41cc 8c3e
00000030: 1cc9 643f 3edf 023e 8ade db3b 77a4 563c
00000040: 52ce 813f 46c5 3a3f ae63 673f 6bee 323f
00000050: aecb 5b3f 1344 ec3e a1d4 61bb 61be 02bd
00000060: a731 2b3f 69d0 35bc 09e1 edba 2418 fbbc
00000070: b94c 043f 65ee 713f e3c6 62bd db13 803f
00000080: 21ef 443f 97a1 a03e 84bb d93a 7a52 f73d
00000090: edd1 683e 52b0 9f3f a0fb 473d 7a54 2a3c
000000a0: 3c93 2f3f 5d25 923d 84ae 213f 74ec 483f
000000b0: 26eb 883d 6523 443e 5ca6 3a3f 17f3 2d3f
000000c0: 5433 67bd c2d0 893f 5991 593f 6929 f03e
000000d0: 360f 1f3e f703 b6bc 017b 613f 8014 393f
000000e0: eff4 c63e f26f 0f3e 0516 ff3d 7ace 3b3f
000000f0: 3986 4c3f e574 df3e 2050 ed3e c3a7 983a
00000100: d368 e83d d8d3 ad3e ab68 383f 7434 213f
00000110: 17e6 1e3e 4b8f bd3e cf36 603f c2ea b03e
00000120: a6c5 62bd 69d9 f93c f1aa 1f3f 87b0 33bd
00000130: 525c 0d3f bed8 5d3d b929 dd3d 8df3 cf3b
00000140: c332 2b3d e1a0 4a3f db23 0f3f 60d5 063d
00000150: 8f75 953e d786 173f eb00 903f 1ec4 713c
00000160: cec4 833f 5cda 673f 3a25 3c3f 2a04 883f
00000170: 7b75 963f f95f 823d f9f1 433f e2ab 8a3d
00000180: 5ae4 123f d271 9bbd 96c0 b23e 1e8f 413f
00000190: 24f5 66bd 1d8c d0bc 1570 593f a754 09bd
000001a0: 6694 623f cd38 483c 2f1d db3c 9d41 35bd
000001b0: 75da 4a3f 0c80 04ba 2585 583f 5948 143e
000001c0: f475 9b3d 642d 403f ae86 2ebd a642 ad3e
000001d0: 8114 c43e c54f 053e acb6 8b3f 0249 48bd
000001e0: 45fd 863f 9797 da3e ad3f b13e ed18 e93d
000001f0: cd13 f1ba 86ce cdbc bc3d 5f39 6cd1 11bd
00000200: ac2c 693f 84ac b83e 4597 103e f21a c83d
00000210: 3c3c 573d e4b0 f1bc 2e09 393f 55d2 3a3f
00000220: 8576 913e a585 d83d 0a32 3e3f f640 0a3b
00000230: 97d0 8ebc fe08 463f e66e 423c d4fe 1ebd
00000240: bf63 6f3e 1779 533e 773a 853e 11b6 e63c
00000250: dbe9 053f f18c 183f 2a4f 1f3b 976c 65bb
00000260: 3141 473f 77b9 5c3f 7e7d 983c c497 4d3c
00000270: b1e1 613f da8d 403f 6ecd 273f 3654 293f
00000280: 5583 3c3f c97b ca3d a1a8 453e 61fd 62bd
00000290: 6488 5c3f 0e2c d3bb a17b 413f 87f7 9e3f
000002a0: 2d47 73bc 98a3 0b3b 935c 723f 19f0 6e3f
000002b0: 1af3 a53f b083 233f 0ebd e3bc 2d7e a83e
000002c0: 1fb4 443f fc0e 223f 8f7b 503f 3f48 1d3f
000002d0: 6a81 10bc 5e14 113f 45d1 f13c 412b 473f
000002e0: 23be 4c3f 77a1 233f 384b 6c3f 2ea6 563d
000002f0: 6904 86bc d06f 903c b429 293f 4892 013e
00000300: 3e24 fa3d 4bd5 7bbd 90d6 923f e7cf 163f
00000310: 708b e7bc 89e0 983f 9de9 133f 31bc 5e36
00000320: e8a8 083e bbc4 8c3c b75f fa3e d53f d93f
00000330: 04ff 05bd 0fa8 3f3d 7937 373f 8e7c 753f
00000340: 2eb0 fb3c e697 843a 87ab 103d 4ac0 e3bb
00000350: 260b ce3d ae63 c43e 7a1f 323f 4fce 59bb
00000360: ffed 6d3c 9ab1 063f f318 c23e b549 233f
00000370: 36fc adbc f86e 913f 07a5 7e3e cbcc 103d
00000380: 2244 b23e 42c5 02bc 0a40 d8bb ae22 a1bc
00000390: f6d8 053f 903b 9f3e 45bc 993f 692f 0c3f
000003a0: 3d22 5f3c 4f91 6a3f a648 393f c2db 233f
000003b0: a93b e93e 007d 25bc 1c5e 17bc f0b4 4e3f
000003c0: bb93 863d c4c0 8f3b f4c3 3cbb 8b44 0f3f
000003d0: d99c 253f f613 273d 3a3e 1a3d 8d66 8b3c
000003e0: 1be7 9b3c dfde 6e3d 1df4 4c3c b3fd 143f
000003f0: 67ac 073f cf54 323f 649a 303d 1427 043f
0.14056528 0.043936737 0.17602074 1.0440309 0.0107605 0.7923018 0.05454189 0.54136485
0.22193769 -0.0025543205 0.025754089 0.27499583 0.8936937 0.12780473 0.0067098783 0.013100735
1.0141089 0.72957265 0.90386474 0.69895047 0.85857666 0.46145687 -0.0034459012 -0.03191984
0.6687264 -0.011097052 -0.0018148731 -0.03065116 0.5167957 0.94504386 -0.055365454 1.000606
0.7692738 0.31373283 0.001661167 0.12076278 0.2273633 1.2475684 0.048823953 0.010396117
0.68584037 0.07136033 0.63156915 0.784858 0.06685476 0.19154127 0.72910094 0.6794905
-0.056445435 1.0766833 0.8498741 0.46906593 0.15533146 -0.022218687 0.88078314 0.72296906
0.38858745 0.14007547 0.12455372 0.73361933 0.7989231 0.4364387 0.46350193 0.0011646677
0.11348119 0.33950686 0.7203471 0.6297066 0.1551746 0.37023386 0.8758363 0.34554106
-0.055364273 0.030499177 0.6237021 -0.04386952 0.55218995 0.05416178 0.107989736 0.006346172
0.041796457 0.7915173 0.55914086 0.032918334 0.29191253 0.59190124 1.125028 0.014756231
1.0294435 0.90567565 0.73494303 1.0626271 1.1754602 0.063659616 0.76541096 0.06771065
0.57379687 -0.07590069 0.34912556 0.75609004 -0.056386128 -0.025457436 0.8493665 -0.033527996
0.8850769 0.012220574 0.026747314 -0.044252027 0.7923959 -0.0005054481 0.8457816 0.14480723
0.07590857 0.7506926 -0.04260891 0.3383991 0.38296893 0.13018711 1.0915122 -0.04889775
1.0546042 0.4269378 0.34618893 0.11381707 -0.0018392742 -0.025122892 0.00021289935 -0.03560011
0.9108379 0.3606912 0.14120205 0.097707644 0.05254768 -0.029503293 0.7227963 0.7297719
0.28410736 0.10572366 0.74295104 0.0021095849 -0.017433448 0.7735747 0.011867261 -0.03881724
0.23377894 0.20651661 0.26021168 0.028162988 0.5230996 0.5959006 0.002430866 -0.0035007352
0.7783385 0.86220497 0.018614527 0.012548391 0.88235 0.7521645 0.65547836 0.6614412
0.73637897 0.098868914 0.19302608 -0.055417422 0.86145616 -0.0064444607 0.7557927 1.2419289
-0.014848513 0.0021307226 0.9467251 0.9333511 1.2964814 0.63872814 -0.02780011 0.32908764
0.7683734 0.63304114 0.81438535 0.61438364 -0.008819917 0.566717 0.029518733 0.77800375
0.79977626 0.6391825 0.92302275 0.052404575 -0.016359525 0.017631441 0.6607926 0.12653458
0.12213944 -0.06148271 1.1471729 0.58910984 -0.028264731 1.1943523 0.5777834 3.319012e-06
0.13345683 0.017183652 0.4890115 1.6972605 -0.032713905 0.046791133 0.7156902 0.9589318
0.030723657 0.001011607 0.03531983 -0.006950413 0.1006072 0.383573 0.6957928 -0.0033234542
0.014522075 0.5261475 0.3790966 0.63784343 -0.021238428 1.136199 0.2486764 0.035351556
0.34817606 -0.0079816 -0.006599431 -0.019669857 0.5228418 0.3110013 1.201058 0.5475984
0.013619003 0.91627973 0.7237648 0.640072 0.4555333 -0.010100603 -0.009238746 0.8074484
0.06571146 0.004386993 -0.002880332 0.55963963 0.64692456 0.04079052 0.037657 0.017016673
0.019031098 0.058318015 0.012509373 0.58199614 0.5299744 0.6966066 0.04311599 0.5162213

bn1.bias f4 [256]
00000000: 619c 3bbf ecc2 84be 9097 77bf 0da6 20bf
00000010: 24cb 2cbf 8c8c cbbf 4371 08bf 24c2 ddbf
00000020: 7ed0 3fbf 3a25 71be dd49 87be daaf 44bf
00000030: 7028 64bf cf70 63bf 88ab 1abf 6dca 4abd
00000040: fac0 55bb 124e 90bf d7a5 4abf 59f3 80bf
00000050: 0e65 52bf b7a8 0cbf 5c57 83bd 5fcd 22be
00000060: a698 19bd dda6 c1be e2b6 d3bc 6963 b4be
00000070: 6bf7 aebe e998 59bf 4394 d5be 01dc aabe
00000080: a4f7 a1bf c63e 48bf ab33 04be 5a48 37bf
00000090: 3eb6 3b3d 7ca9 05bf cbf3 88be ef4e 2bbf
000000a0: a27b 6fbe 6ada 1dbf 6e79 a13e 300e 7abf
000000b0: 79e9 3fbf 3dad 56bf 83a9 81bf 0d17 62be
000000c0: 5f03 0abf a2e9 55be 08a2 53be 253c f7be
000000d0: 9541 42bf 98d9 cdbe 2fd9 cbbe dfd7 94bf
000000e0: 7c3d 0ebf 3331 f4be 9a68 1dbf a566 b3bf
000000f0: 5a63 89bf 7bfc 0b3d 5317 02be 9adf 04bd
00000100: 3b98 f4be b27a 79bf b33f 99bf ea90 8cbf
00000110: ff93 31bf 21bb abbf 2ca8 e0be 3833 a7bf
00000120: bb00 a2be 5ddc 63be f2f3 b1bf 442e a2be
00000130: 9674 a1bf 0cdb 27bf 9095 33bf c41b 76bd
00000140: f40f bbbe 2b19 f8be eaf9 2fbf ac91 d1be
00000150: f652 91bf de9a bfbf 546c a9bf 029f 02bf
00000160: f598 28bd bf75 5bbf 66a7 31bf 0328 58be
00000170: 00f0 6dbf 21f7 1fbf 1a98 82bf c28f 06bf
00000180: d0f8 a3bf db72 debe 2f08 6dbf 5cf0 afbd
00000190: 8bdd bcbe 9be1 57be d8b2 a2bf 235d 62be
000001a0: 9573 81bf 7e10 63bd 8019 81be b2dd bebe
000001b0: e454 8bbf e812 aebc b30d 10bf 22e6 23bf
000001c0: bed8 27bf 07fd 8fbf 7b5e a3be 1d81 9abf
000001d0: b2f7 4ebe 841b 4fbf e65e 96bf b87d 9fbe
000001e0: 4d86 7cbf 7d4c 84bd 1536 41bf ff56 90bf
000001f0: eebc f5bc ed5f 7bbe e44c 33bc 725f 00bf
00000200: 02bd 7fbf 3aa1 98bf ddeb 05bf a4c5 ddbe
00000210: 927e 99be fd93 0ebf 4b3e 49bf 3f8b 80be
00000220: ad1c 213e c3f7 10bf 488b 33bf 6ad6 4ebe
00000230: a1c1 5cbf a084 bbbf 1a43 b1be d40e 29bf
00000240: e523 063e 57c4 76bf 5313 d93d 03f3 8abe
00000250: ae07 a3be 90b5 b4bf 4946 51bd 1118 40be
00000260: 6d1a d3bf 8413 02bf b2bd 2abe 9efb adbe
00000270: e509 cebe edc1 8abf 5cb4 58bf fb03 edbe
00000280: 4c87 86bf 888a 52bf ba5e 78bf 7f6c 01bf
00000290: 5455 703e a850 22bd 5494 01bf f18c b5be
000002a0: d9b2 99be f29c 28be a53f dcbe 3a9f 95bf
000002b0: 17b9 18bf 8b7e 9cbf d81e b1be 0aaf 79bf
000002c0: 51d1 33bf eed6 b33d 2916 e2bf 23a0 3abf
000002d0: d554 c2bd 6403 4fbf aad1 abbe b879 98bf
000002e0: 659d c0bf 65c0 b5bf 0ea5 2dbf 0511 c6be
000002f0: c3e3 f7be fb26 a1bd 5358 85bf 87cd 25bf
00000300: 3e24 aaba 3111 91be 0a9a 95bf ffbe 6ebd
00000310: 645d 0dbf c0e4 3abf da04 e2bf b066 afbe
00000320: f266 1ebf 853f b2bd b5b3 84bf 1544 cabd
00000330: 24ed f0be 6bb1 abbe 2e08 71bf 6fe6 57bf
00000340: eb63 a8be e778 a0be 57f3 31be 41b4 1ebd
00000350: df15 18bf 7eed bcbf 453e 59bc 2327 92bc
00000360: a48c b8be ac6e 98bf 27bb adbf 672b 8dbf
00000370: 7f2d 69be 5a56 84bf 2e92 ae3c 7fa8 debe
00000380: b991 99bf 8d9e 2fbf e0cb f8be 7e71 06bf
00000390: 854a a2bf 9f5e 9cbf 6d7a 3abf d84d 30bf
000003a0: 6037 14bf 5d11 58bf 4a20 ea3e a235 d0be
000003b0: ebd5 cbbf 4f94 8ebe 5067 30bd 80a7 81bf
000003c0: 89a4 b3be 02c6 73be 5ab8 61bd 4d90 c0bf
000003d0: c731 54bf 1b3d 53be 87fe 4fbe 5342 28bf
000003e0: 197a d2be 8508 82be 8fe6 6fbd 4f5a 01bf
000003f0: f1e9 e1be 19e7 63bf c433 b6be 1693 8bbf
-0.7328549 -0.25929964 -0.9671564 -0.62753373 -0.6749747 -1.5902267 -0.53297824 -1.7324872
-0.7492751 -0.23549357 -0.2642354 -0.7683083 -0.891242 -0.8884401 -0.60417986 -0.049509455
-0.0032616244 -1.1273825 -0.791593 -1.0074264 -0.8218545 -0.5494494 -0.06413147 -0.15898655
-0.037499093 -0.3782262 -0.025844041 -0.35232094 -0.3417314 -0.8499895 -0.41714677 -0.33370975
-1.2653699 -0.78220785 -0.12910335 -0.71594775 0.045828097 -0.5221174 -0.267485 -0.6691732
-0.23387006 -0.616614 0.31537956 -0.976779 -0.74965626 -0.8385809 -1.0129856 -0.22079106
-0.53911394 -0.20889905 -0.20667279 -0.48288074 -0.7588132 -0.40205073 -0.39814135 -1.1628379
-0.5556257 -0.47693786 -0.61487734 -1.40157 -1.0733445 0.03417633 -0.1270421 -0.032439806
-0.47772393 -0.97452843 -1.1972564 -1.0981724 -0.6936645 -1.3416482 -0.43878305 -1.3062506
-0.31641182 -0.2225203 -1.3902571 -0.31675923 -1.2613704 -0.65568614 -0.7015009 -0.060085073
-0.3653561 -0.48456702 -0.68740714 -0.4093145 -1.1353443 -1.4969137 -1.3236184 -0.51023877
-0.041161496 -0.8572654 -0.69396055 -0.21109013 -0.92944336 -0.62486464 -1.0202668 -0.52563107
-1.2810307 -0.43447003 -0.9259061 -0.08590767 -0.36887774 -0.21082155 -1.2710829 -0.22105841
-1.0113398 -0.05543565 -0.25214767 -0.37278515 -1.0885282 -0.02124925 -0.56270903 -0.6402303
-0.655651 -1.1249093 -0.3190802 -1.2070652 -0.20211676 -0.8090136 -1.1747711 -0.31150603
-0.98642427 -0.064599015 -0.7547315 -1.1276549 -0.029997315 -0.24548312 -0.010943625 -0.5014564
-0.9989778 -1.1924202 -0.52313024 -0.4331485 -0.29979378 -0.5569456 -0.78610677 -0.25106236
0.15733595 -0.56628054 -0.701344 -0.2019898 -0.86232954 -1.4649849 -0.34621507 -0.6603825
0.1309963 -0.9639334 0.10599389 -0.27138528 -0.31841797 -1.4117908 -0.05109242 -0.1875918
-1.649244 -0.5081103 -0.16673926 -0.3398103 -0.40241924 -1.0840431 -0.84650207 -0.462921
-1.0510039 -0.8224263 -0.9701954 -0.50556177 0.2347005 -0.0396277 -0.50616956 -0.35459092
-0.30019262 -0.1646612 -0.43017307 -1.1689217 -0.59657425 -1.2226118 -0.34593844 -0.97532713
-0.70241266 0.08781229 -1.7663013 -0.729006 -0.09488837 -0.8086455 -0.33558398 -1.1912146
-1.5048033 -1.4199339 -0.6782998 -0.3868486 -0.48415956 -0.07868763 -1.041758 -0.64766735
-0.0012980772 -0.28333429 -1.1687634 -0.058287617 -0.5522063 -0.73005295 -1.765773 -0.34258032
-0.6187583 -0.08703522 -1.0367342 -0.09876267 -0.47055924 -0.33533797 -0.94153106 -0.8433599
-0.3288873 -0.3134224 -0.17377983 -0.038746122 -0.5940837 -1.4759977 -0.013259475 -0.017840927
-0.360448 -1.1908774 -1.3572739 -1.102887 -0.22771262 -1.0338852 0.021309938 -0.43487927
-1.1997596 -0.68601304 -0.48593044 -0.52516925 -1.2678992 -1.2216376 -0.72843057 -0.6886878
-0.57896996 -0.84401494 0.4572776 -0.4066592 -1.5924658 -0.27847525 -0.043067276 -1.0129242
-0.35086468 -0.23806003 -0.055107452 -1.5044037 -0.82888454 -0.20628779 -0.20311938 -0.657262
-0.41108778 -0.25397125 -0.058569487 -0.50528425 -0.44123796 -0.890245 -0.3558637 -1.0904262

bn1.running_mean f4 [256]
00000000: 54ab c540 eff3 90bf 77a5 9bc1 c82b 5e42
00000010: 46aa 15c1 be4e 51c2 24ab f040 21ba 0fc2
00000020: 1d4a dcbc 599c 3fc0 477a 27bf f42d 2242
00000030: 590f c23f 7b61 6741 d06e 80c0 68b3 13c1
00000040: b47e 1142 2db1 07c2 d8e4 b642 c2d4 8942
00000050: fed5 9e42 8efc 8a42 ba0c 8d40 6df5 7340
00000060: 7de5 7742 1fd9 8a40 ede9 3c3f b0a1 2041
00000070: 1f54 8541 4ae9 0142 0244 8b3f bc76 ca42
00000080: 75a9 d642 30b2 9541 aeac 0ac0 d5fe 0241
00000090: 4862 42c1 c7a2 a741 2122 e03f 0915 0641
000000a0: 9d2c 3140 361c 84c0 5c37 32c2 b374 c042
000000b0: a36b a2be f646 b241 6fb9 abc2 a2e9 3942
000000c0: aeff 0cc1 ad22 4142 4eaf 24c2 c781 c1c2
000000d0: e8d9 e441 a8f3 aec0 3f54 0842 0479 4ec2
000000e0: 25b4 14c1 c026 6b42 8e08 00c2 8eac ef41
000000f0: 7420 d141 4b23 4b42 f327 c342 0489 0cbf
00000100: 2558 fe40 ebe0 bc40 5bb4 c341 2d2e dc3e
00000110: 1768 6f41 24cd 8942 556e 53c1 9465 6e42
00000120: c1a0 b840 b342 d140 941a abc2 412b 1041
00000130: bc54 acc1 491c 82c1 fc2f 0abf 48e9 8b3f
00000140: b60d bfbe 6c71 9e42 4b01 acc2 0583 c441
00000150: ed69 4f42 835d f340 c9cb 5d42 bd83 7fc0
00000160: f66e a341 57b4 9242 3632 5042 5ec3 4540
00000170: 8022 1440 1001 5141 e472 cac2 b300 fdc1
00000180: 24f3 bcc2 ca59 9c40 cfd1 7142 0724 bd42
00000190: 8e50 ecbf 87dc 56c0 8fb9 8442 0ffe 34bf
000001a0: 4326 3bc0 299f b23f 252b 20c0 9620 8640
000001b0: e67a 18c0 a0b9 91be 569d 01c1 3196 2dc1
000001c0: 9c12 4240 a660 c741 1a97 e9c0 1e13 c941
000001d0: b267 c640 ccb0 36c1 b33e 2042 2979 a041
000001e0: 781d bf41 dacb 61c2 7918 3342 bb8d ca41
000001f0: 675e d1bf 0ac7 db3f c35b cc3f 082a f93f
00000200: 13ba 0942 ea7c 6f42 bd93 1c41 7db9 4640
00000210: ae03 2c40 9ae6 0bc0 8dd7 4542 101e 4842
00000220: b064 1742 4495 be41 e471 0142 1460 c440
00000230: da91 15c2 3809 f0c2 b3e1 3d41 23d1 e8bf
00000240: 85d2 1d42 d1f1 7c41 f968 d842 5a2d af40
00000250: c822 0f42 8a7f 5ec2 254f b83f ef19 e1bf
00000260: ca66 fec2 93f6 2f42 3638 3540 98ec fa3c
00000270: 398e d241 b72d 28c2 1ef2 d7c0 11e5 7b41
00000280: 2eae df42 82d4 d841 56c2 91c1 deed 1b41
00000290: 4b2d 2042 5ba4 0640 3ea8 5c42 8890 c8c0
000002a0: 61c1 aa40 b384 bc3f ffb4 3842 27db 0242
000002b0: 7e4d fe41 2aee d742 cab8 6740 11c3 2a40
000002c0: cae9 2e3e f87f a4c0 1389 7c41 cb08 d6c1
000002d0: 6e4c 9b3f e24b 9d41 2abb 0141 3d6f dc42
000002e0: 07ae 5e41 1328 a1c2 c287 2041 d426 243e
000002f0: f85d 1abf 14ab bf3f ba2b 2841 6b24 e8c1
00000300: 15e5 64be 593f 38bf f874 9b41 5072 2042
00000310: e59a 1341 7274 de41 5fee 7042 1c5f b0bf
00000320: f381 6040 db64 ca3f a405 41c2 b1bf 6241
00000330: f28e 04c0 44e8 d440 bb5c e941 056d b241
00000340: c896 f2be 9223 9240 4240 0741 4630 b0bf
00000350: 7ff2 4dc0 9963 60c1 0fcd 3942 bcdc 4b3e
00000360: cba3 d740 445e 74c2 ee79 1ec2 ae7b cbc1
00000370: 0671 9ec0 5079 eb41 ddc2 cbc1 b972 a840
00000380: 0630 ac41 1d75 5641 5e8a 0441 1ef1 8c40
00000390: 710c c140 646e fdc1 597d 0a42 4d75 71c2
000003a0: eb11 b93f 4f3f 9b41 94f2 b1c0 95a2 7b41
000003b0: 40a8 ffc1 a527 8041 eed1 05bf e3f1 03c2
000003c0: 28e8 ff40 0280 3a40 8cf9 d13e 7c9d bac0
000003d0: 37ca a3c2 c086 ae40 8c54 06c0 72d7 d140
000003e0: 334b 6240 b084 af40 1016 d73f b36b ab42
000003f0: 25e5 52c2 f34f 8fc2 5fe3 2c41 0bf6 02c2
6.177164 -1.1324443 -19.455793 55.542755 -9.354071 -52.326897 7.520891 -35.931767
-0.026890809 -2.9939177 -0.65420955 40.544876 1.5160934 14.461299 -4.013527 -9.2313
36.373734 -33.923023 91.44696 68.91554 79.41795 69.49327 4.4078035 3.8118546
61.97411 4.339004 0.7379444 10.0394745 16.666075 32.47782 1.0880129 101.2319
107.33097 18.712006 -2.1667895 8.187215 -12.148994 20.954481 1.7510415 8.380136
2.768348 -4.1284437 -44.55406 96.22793 -0.31722745 22.284649 -85.862175 46.478157
-8.812422 48.283863 -41.171196 -96.75347 28.6064 -5.467243 34.08227 -51.61818
-9.293981 58.78784 -32.008354 29.959255 26.140846 50.784466 97.578026 -0.5489657
7.94826 5.902456 24.463064 0.4300398 14.962913 68.900665 -13.214437 59.599197
5.7696233 6.539392 -85.55191 9.01056 -21.541374 -16.263811 -0.5397947 1.0930567
-0.37315148 79.22153 -86.002525 24.563974 51.853443 7.605165 55.44901 -3.9924157
20.42918 73.35223 52.049034 3.0900493 2.3146057 13.062759 -101.224396 -31.625341
-94.474884 4.8859606 60.45489 94.570366 -1.8462083 -3.35721 66.36242 -0.7070016
-2.9242103 1.3954822 -2.5026333 4.191478 -2.3825011 -0.28461933 -8.100912 -10.849168
3.0323858 24.922192 -7.299695 25.134335 6.200158 -11.418163 40.06123 20.05916
23.889389 -56.449074 44.7739 25.319204 -1.6356934 1.7170117 1.5965503 1.9465952
34.431713 59.871986 9.786069 3.1050713 2.6877246 -2.1859498 49.4605 50.029358
37.848328 23.822884 32.36122 6.1367283 -37.392433 -120.018005 11.867602 -1.8188823
39.455585 15.809037 108.205025 5.474286 35.783966 -55.62455 1.4399153 -1.7586039
-127.20076 43.990795 2.8315558 0.030630395 26.319445 -42.044643 -6.7483053 15.743424
111.840195 27.103764 -18.21989 9.745573 40.04423 2.1037815 55.1643 -6.267643
5.336106 1.4727997 46.176754 32.714016 31.787838 107.965164 3.6206536 2.668156
0.17081371 -5.140621 15.783465 -26.754293 1.21327 19.662052 8.108194 110.21726
13.917487 -80.57827 10.033144 0.16030437 -0.60299635 1.4974084 10.510675 -29.017782
-0.22353013 -0.7197166 19.432114 40.111633 9.225316 27.806858 60.232784 -1.3779025
3.5079315 1.5812029 -48.25551 14.1718 -2.0712247 6.6533527 29.170279 22.303232
-0.47380662 4.566842 8.453188 -1.3764732 -3.2179258 -14.024316 46.450253 0.19908422
6.7387443 -61.092056 -39.619072 -25.43539 -4.951297 29.434235 -25.470148 5.264004
21.523449 13.403592 8.283781 4.4044333 6.0327687 -31.678902 34.62241 -60.36455
1.4458593 19.405912 -5.5608616 15.727193 -31.957153 16.019358 -0.5227345 -32.986217
7.9970894 2.914063 0.41010702 -5.831724 -81.89495 5.453949 -2.0989103 6.5575495
3.5358398 5.484947 1.6803608 85.71035 -52.723774 -71.65615 10.8055105 -32.740276

bn1.running_var f4 [256]
00000000: 1d7f 0c43 ad71 1441 0fac 9b44 b34d 0244
00000010: 846e f642 3038 7745 56fe d843 5d0b ad44
00000020: d893 9844 a6ce 8943 75a9 b742 4507 8144
00000030: a8ff 6c44 cb32 5e43 e54e eb42 752c 5544
00000040: 7c52 3145 899f 5a45 e792 a744 46e3 2045
00000050: c8b0 f843 a5b6 1545 336a f941 c690 8f42
00000060: fc98 8445 bd3c 1a43 4589 1f40 3b21 4143
00000070: 7828 c144 bc5a f542 7631 4842 a409 1544
00000080: 45df 9b44 4b85 c444 87ce 4940 f2ad 5043
00000090: 4521 1543 315d a044 6d2e 0a41 780c 7943
000000a0: f0be b242 71a3 7144 4924 4e45 f7cb b944
000000b0: 24ec f942 c067 2a44 7ae4 6445 ea66 a944
000000c0: caed 6d42 af53 4545 40e6 3f44 bb22 f543
000000d0: 3fb4 a943 ef22 0a43 076f f644 3f7a ba44
000000e0: ab6b ed43 7460 9344 4abc f943 e831 1944
000000f0: 9f55 0944 ac8f 8f44 869b 0845 bdac 9140
00000100: c577 ef42 ecd8 1045 fba8 b844 f6e6 a544
00000110: 8c15 4f44 d98a c444 ab23 d744 9d46 d343
00000120: c7a3 c741 a218 1442 bfd2 8a44 9e08 3e42
00000130: 00c3 ec44 1e61 3743 1c3d 6743 eec8 2b40
00000140: 7609 1441 9ad8 9744 356f a544 7669 3d43
00000150: 80cc 9743 a859 9944 2e31 ba44 ef90 9842
00000160: 17c2 5445 84fc 8544 70eb 4043 d889 fe45
00000170: 447a a644 1f0b be42 7405 4a45 8dce c443
00000180: 6356 8f44 a81d 6a42 d59e 8644 144e 9444
00000190: a806 3842 275b 2343 30a7 f844 1822 5743
000001a0: eb0b b444 366f 9540 2091 4342 97bc 5b42
000001b0: bcbc 4f44 2cdc 7140 ab90 c444 a9e7 7942
000001c0: 37c8 b142 8dd0 9244 7e7b 0d44 abca 0e45
000001d0: 1b8d dc44 31c4 f243 109b 2c44 90c5 7243
000001e0: b9c1 5d44 9837 4945 4a81 e044 1e55 bd43
000001f0: 682f b940 98b8 6943 055a 8240 63ab 1343
00000200: 7736 d843 ab05 4e44 66ed 2943 eda8 8442
00000210: 377d 4742 3e58 0943 78d3 c844 2557 7544
00000220: 6835 0445 cec3 7243 e5d1 2d44 52e0 8342
00000230: 9b7a 6d43 e403 7445 450c 6742 64a1 4a43
00000240: c191 0945 956d c744 27f3 6c44 8482 f641
00000250: 04fe b844 33e5 1f44 a8d6 c640 d85b 9842
00000260: 86db a044 11a9 4644 d1fd 9141 2c64 0242
00000270: a015 4845 77a4 1245 04b6 e243 42d0 8943
00000280: c896 9544 c21c 7b43 b745 4e44 8e54 f842
00000290: 7585 8844 6264 b33f dee2 1e44 14ed 4744
000002a0: c9be b042 8fad 7e41 689a 5b43 d043 b444
000002b0: d9cd 5d43 a838 4644 1828 a941 c177 c244
000002c0: 15db 8344 7251 3643 a35d 4943 f537 6744
000002d0: 954d 0641 d905 c044 d3eb 9842 8ee6 e144
000002e0: 7191 ad44 f307 8344 0f1d 1c43 1737 5342
000002f0: 65f2 c142 5318 1341 d1da f044 9613 cf43
00000300: d1d1 c644 5d73 9241 c625 1c44 0360 d644
00000310: 2cfc 0743 3fb3 7743 1031 5144 597f f741
00000320: 48b2 b642 6b15 3d41 2f1b 7a44 6107 fa45
00000330: df33 ee42 93f8 ea42 58a2 db44 41d3 9543
00000340: 8f46 e741 acbe d941 25a9 3742 37c5 2541
00000350: 1020 2943 5811 a344 507d ac44 ad47 8a40
00000360: 3b0a 1143 6fce 8e44 1294 c444 2837 9044
00000370: 1d20 0b43 8b18 d743 c108 ba44 d2af 6a41
00000380: 1bde 5d44 0dba 3e43 3e5f 1e42 f6e2 1443
00000390: ad03 ea44 aca6 8144 840b 3544 5b34 df43
000003a0: 78ed dc42 0a79 7f44 059a 4344 5b5c 5744
000003b0: 3190 a244 7468 a943 112d d040 a4f6 ea43
000003c0: ed39 eb42 a97c 5843 342a a341 efc5 8a44
000003d0: 274e 5b44 8bbe b342 2317 4542 8c16 c142
000003e0: e85c 0943 03db 8943 a635 8d40 9335 cd44
000003f0: dac8 6244 a1eb ba44 c0ae 3443 e803 2845
140.49654 9.277753 1245.3768 521.21405 123.21585 3955.5117 433.987 1384.3551
1220.6201 275.61444 91.83097 1032.2272 947.9946 222.19841 117.65409 852.69464
2837.1553 3497.971 1340.5907 2574.2046 497.3811 2395.4153 31.176855 71.78276
4243.123 154.23726 2.4927533 193.1298 1545.2646 122.677216 50.0483 596.15063
1246.9772 1572.1654 3.1532304 208.67947 149.12996 1282.9122 8.636334 249.0487
89.372925 966.5538 3298.2678 1486.3739 124.96121 681.6211 3662.2798 1355.2161
59.482216 3157.2302 767.59766 490.27133 339.40817 138.13646 1971.4696 1491.8202
474.84116 1179.0142 499.471 612.7798 549.3378 1148.4897 2185.7202 4.552336
119.733925 2317.5576 1477.2806 1327.2175 828.3367 1572.339 1721.1146 422.55167
24.95497 37.024055 1110.5858 47.508415 1894.0938 183.37936 231.23871 2.6841388
9.25231 1214.7688 1323.4752 189.41196 303.59766 1226.8018 1489.5369 76.28307
3404.1306 1071.8911 192.91968 8145.2305 1331.8208 95.02172 3232.3408 393.61368
1146.6996 58.52896 1076.9635 1186.44 46.0065 163.35606 1989.2246 215.13318
1440.3724 4.6698256 48.891724 54.93417 830.949 3.7790632 1572.5209 62.47623
88.891045 1174.5172 565.92957 2284.6667 1764.4095 485.53275 690.42285 242.77173
887.0269 3219.4746 1796.0403 378.66498 5.787037 233.72107 4.0734887 147.66948
432.4255 824.08856 169.92734 66.32993 49.87228 137.3447 1606.6084 981.36163
2115.338 242.76486 695.2796 65.938126 237.47893 3904.2432 57.761982 202.63043
2201.1096 1595.4244 947.79926 30.813728 1479.938 639.58124 6.213703 76.17938
1286.8601 794.64166 18.248934 32.597824 3201.3516 2346.279 453.422 275.627
1196.7119 251.11234 825.0893 124.165146 1092.1705 1.4015009 635.5448 799.70435
88.37263 15.917373 219.60315 1442.1191 221.8041 792.88525 21.144577 1555.7423
1054.8463 182.31815 201.36577 924.8743 8.393941 1536.1827 76.460594 1807.2048
1388.545 1048.2484 156.11351 52.8038 96.97343 9.193439 1926.838 414.153
1590.5568 18.30633 624.5902 1715.0004 135.98505 247.70018 836.7666 30.937181
91.348206 11.817729 1000.42474 8000.9224 119.10131 117.4855 1757.0732 299.65042
28.909452 27.218102 45.91518 10.360648 169.12524 1304.542 1379.916 4.3212495
145.03996 1142.451 1572.6272 1153.7236 139.12544 430.19174 1488.2736 14.667925
887.4704 190.72676 39.59301 148.88657 1872.1149 1037.2085 724.17993 446.40903
110.463806 1021.89124 782.40656 861.44305 1300.506 338.81604 6.5055013 469.92688
117.61314 216.48695 20.395607 1110.1854 877.2211 89.872154 49.272594 96.54404
137.36292 275.71103 4.412799 1641.6742 907.1383 1495.3634 180.68262 2688.2441

fc2.weight f4 [256, 258]
00000000: f987 53be 149a 113c 5479 09bc 5c16 b6bd
00000010: a15c 22be f3f3 24be 444e b7bd 6b30 b4bd
00000020: ab7f cebd da46 a83c cb48 b63c 8f8a 33be
00000030: c8fc 0abe 6d13 f3bd bcb5 343c f318 ddbc
00000040: 0542 01bb faca 9abe e247 2a3c 6353 07be
00000050: be4f 0dbe 48d7 76be d25a 1c3c 3a77 4ebc
00000060: 2179 03be 60d8 db3a 2d4e 063d 8e86 cabd
00000070: e968 acbe 4add c4ba 86b2 673c b89c 17bd
00000080: 37d0 9cbe 627d 383d e78d 30bc c495 663d
00000090: a076 ecbd e608 73bd e9c0 cbbc 4fca d2bd
000000a0: f8cb bbbd 8e5d b63c d421 c63a d9ed 0ebd
000000b0: 7c97 c7bc 5f43 11bd edf7 11be dfaa 1fbe
000000c0: 9800 37be 3896 88bd bfaa b8bd e3d4 a7be
000000d0: c4e6 b2bd b834 b9bd 9786 a4be 8a0d 28be
000000e0: 51f3 02be e22f 103d fc2e 53bd 2bff 40be
000000f0: c3de e9bd d42a 8d3e bf7f 19be a466 223b
00000100: 36c1 b2bd f60c 8b3b 2e12 233d fb13 bebd
00000110: e445 35be 28a6 2bbe 2e44 81bd 9594 e8bd
00000120: c0b7 35be 8204 9d39 747d a3bd 67a9 4cbd
00000130: 9ea8 d2bd 3d61 94bd 3f22 72bd 23d2 2e3d
00000140: f72a 86bd da47 d3bd 1113 0bbe 994d a4ba
00000150: dc06 8cbd 2181 5ebd 4177 8e3c bcb5 5fbc
00000160: a35b 69bd 4bb5 5dbe 304f 253d b584 60bd
00000170: 952a 91be 9b63 8e3c b887 77be 7e62 dcbc
00000180: f247 49be c70f f73a 18b2 a2bd 99b1 7cbd
00000190: 9cc5 24bd 3a66 11bd 11d6 0cbe da7d a6bd
000001a0: 0988 c7bd 2a8b 45bd e454 a4bd 83b8 94b8
000001b0: e085 11be b517 84bc 05a8 1bbc bf5f 93be
000001c0: 2a39 87bd 61ca 0cbe 9287 d1bb fb11 71be
000001d0: 8bef d2bd c8f6 04be 2332 2ebd ff19 573c
000001e0: be61 adbd 8319 83bd ff5d c7bd 55ee 95bd
000001f0: 653e cfbb ad84 1cbd e11c 273c cfd3 e9bd
00000200: 370f 6abd 78bd c8bd 1180 cabd a878 39bc
00000210: 8999 92bd d305 00be 6f86 98bd f3a4 b1bd
00000220: 654e 97bd ee16 c8bd 4ead 35bb c0e0 acbe
00000230: 6bcc 50be 55ec 06be 770d a4bd a073 12be
00000240: 0f06 02be 0f5a 6f3c f0ff 01be 867a 85bd
00000250: b9b8 89bd c6d2 20bd 08e8 1cbd a5fb 11be
00000260: e02e a2be 719d e1bd 3b60 80bd 4f53 c8bd
00000270: 35e0 38bd 2371 31bc afd9 7cbb 281f 4fbe
00000280: f186 12be 56aa a5bd c72c 86bd b5d5 01be
00000290: 4373 24be c1cd 383d 2ef2 bbbd 1432 dcbd
000002a0: e94d 87bd ab24 17be 6611 8a3d 57e9 67bd
000002b0: 4ef0 03bd 38a8 b3bd d95b d2bc 7a05 74bd
000002c0: d4e2 11bd 558b 91be 35e6 a5bd 0604 f0be
000002d0: 9e31 8fbc a7d5 04be e1d6 b33b cef2 1ebe
000002e0: 05d6 97bd 0973 d5bc d64c 92bb 2abb afbd
000002f0: 712a e5bd 12a7 073d abf7 2cbe 71ba eebd
00000300: 0289 8f3b 58c0 1cbd 4be6 41be 2cff 8dbd
00000310: fb3a 30be fab2 95bd c8ca ad3b 6416 a4bd
00000320: a3dd 9fbd a199 32bd bd61 debc deb6 9dbd
00000330: 2a14 8ebd 516a 57be 57be dfbc e5ee 30be
00000340: b384 f3bc 435d d9bd 7a76 a73d ca5d 71bd
00000350: a03f 5dbe eba0 c6bd d17a 03bb cf65 823c
00000360: 36cb 8fbd e24a 32be fe6a 23be c681 c6bd
00000370: 5bd6 08be c310 26be 5002 b8bd f644 2c3e
00000380: d46d 213d d2b6 05bd ed43 28bd e946 98bc
00000390: d552 45be 7430 40bd ed27 20be aed7 b3be
000003a0: 2067 e1bd bf22 11be 6425 33bd ee94 38be
000003b0: 1264 43be 8081 10bd 0225 17bd a2c1 cbbe
000003c0: 9c1c c6bd f9e2 96bd 636d 8cbd f7b2 c3bd
000003d0: 5ad8 893d 744a 053d 2477 583c 37b7 1fbe
000003e0: 4cab f8bd 1f1c 46be 991b 693a 4862 b5bc
000003f0: 2cbc f6bd eaff c3bd 3a08 0dbe b31a b63c
-0.20657338 0.008886833 -0.008390743 -0.088909835 -0.15855648 -0.16108684 -0.08950475 -0.087982975
-0.100829445 0.020541597 0.022251507 -0.17533325 -0.13572991 -0.118689395 0.011029657 -0.026989436
-0.0019723189 -0.30232984 0.010393115 -0.13215403 -0.1379995 -0.24105561 0.009543138 -0.012601668
-0.12839176 0.0016772859 0.032789398 -0.098889455 -0.3367379 -0.0015019563 0.014141684 -0.037014693
-0.30627605 0.04504145 -0.01077602 0.05629517 -0.115460634 -0.059334658 -0.02487226 -0.102924936
-0.09169763 0.022261407 0.0015116283 -0.034894798 -0.024364226 -0.03546464 -0.14254732 -0.15592526
-0.1787132 -0.06669277 -0.09016942 -0.32779607 -0.08735421 -0.090432584 -0.32133934 -0.16411415
-0.1278813 0.035201915 -0.05155848 -0.18847339 -0.114194416 0.27571738 -0.14990138 0.0024780417
-0.08728258 0.0042434884 0.03981226 -0.09281155 -0.17702442 -0.16762602 -0.06311832 -0.11356465
-0.17745876 0.00029948732 -0.07982913 -0.049966242 -0.102860674 -0.07245109 -0.05911469 0.04268087
-0.06551164 -0.10316439 -0.13581492 -0.0012535333 -0.06837246 -0.054322366 0.01739085 -0.013654169
-0.056972157 -0.21651189 0.040358722 -0.05481406 -0.283528 0.01738148 -0.24172866 -0.026902433
-0.19656351 0.0018849307 -0.07944125 -0.061692808 -0.040227517 -0.03549788 -0.13753535 -0.08129473
-0.097427435 -0.04822842 -0.08024004 -7.091558e-05 -0.14211226 -0.016124586 -0.009500508 -0.28783986
-0.066027 -0.13749076 -0.006394335 -0.23542015 -0.102995954 -0.12984765 -0.042528283 0.013128757
-0.084659085 -0.0640135 -0.09734725 -0.07320849 -0.0063245767 -0.038212467 0.010199756 -0.114173524
-0.057143416 -0.09801763 -0.09887708 -0.011320271 -0.07158191 -0.12502222 -0.07447516 -0.0867404
-0.073879994 -0.097699985 -0.0027721706 -0.3376522 -0.2039048 -0.13176091 -0.08010381 -0.1430192
-0.12697624 0.014608874 -0.12695289 -0.0651751 -0.06724686 -0.03926351 -0.03830722 -0.14256151
-0.31676388 -0.11016358 -0.062683545 -0.09781515 -0.045135695 -0.010830197 -0.0038581898 -0.20226729
-0.14309289 -0.080891296 -0.06551509 -0.12679179 -0.16059594 0.045118097 -0.091770515 -0.10751739
-0.06606657 -0.14760081 0.067416 -0.056619015 -0.032211594 -0.087723196 -0.025678562 -0.059575535
-0.03561671 -0.28426614 -0.08100549 -0.4687807 -0.017479714 -0.12972127 0.005488262 -0.1552231
-0.07413868 -0.02605583 -0.004464726 -0.085806206 -0.11189736 0.033118315 -0.16891353 -0.116566546
0.0043803463 -0.03826937 -0.18935506 -0.06933436 -0.1721 -0.07309528 0.0053037144 -0.08012083
-0.07805946 -0.043603543 -0.027146215 -0.07700895 -0.0693744 -0.2103665 -0.02731244 -0.17278631
-0.029726362 -0.106134914 0.081768945 -0.058927335 -0.21606302 -0.096986614 -0.0020062218 0.015917687
-0.07021181 -0.17411378 -0.15958783 -0.09692721 -0.1336302 -0.16217332 -0.08984816 0.16823182
0.03941138 -0.032645054 -0.041080404 -0.0185885 -0.19269879 -0.04692121 -0.1564023 -0.35125488
-0.11005998 -0.14173411 -0.04373683 -0.18025562 -0.19081143 -0.03527975 -0.036900528 -0.39796168
-0.096734256 -0.0736751 -0.06856801 -0.09555619 0.06730719 0.032541707 0.013211999 -0.15597235
-0.12142047 -0.19346665 0.0008892357 -0.02214159 -0.1204761 -0.09570296 -0.1377267 0.022229528

fc2.bias f4 [256]
00000000: 3dae 38be 5421 04be 9f63 54be 7da4 41be
00000010: f3c5 30be 310c c7be 56bf 91bd 75ef 13bd
00000020: 2f5b 4fbe e667 74bd 9d1f 50be d639 7fbe
00000030: 9b13 88be 53fb edbe 0e20 15be 1b83 04be
00000040: bc5a 60be 076a 4dbe 49c6 99be 529c 53be
00000050: ecb6 05be 1b63 05be 5c17 55bd 3ae2 07be
00000060: b824 2fbd 5362 5fbe 5c81 b5bd 5b2d 6ebe
00000070: 0b3b b2be 6d33 36be ca7e f3be 4478 2d3d
00000080: 3c5c bbbd fac2 91be 784d 28be 15cb 2dbe
00000090: e536 28be 8773 fbbd e658 9ebc a579 adbd
000000a0: bfa2 41be eb50 97be 48f0 b9bd cbb3 5ebe
000000b0: 5ea2 3abe 86c7 b6be 6db2 e8bd 6d06 a4be
000000c0: a197 dabd b296 4cbe 1012 3bbe 96e3 0abe
000000d0: a392 94be 9a7b 5ebe 58c7 7dbe 80ab 58be
000000e0: 73a5 35be 5420 82be 4a2b 6bbe 86e8 b7be
000000f0: f042 7cbe 4ff5 f1bd 2424 5cbe ea4f adbd
00000100: 455a 2dbe bf2f 5ebe e310 dabd 95b8 82be
00000110: eb5e 28be 659f 25be 1a09 bfbe b951 6abd
00000120: eb26 9bbe 33b4 b8bd 5aa4 1abe 0cf3 40be
00000130: 5d3e 6abe 935c 6bbe 19b9 44be f88d 86be
00000140: 936f afbd 858b 20bd 16b1 3dbe 6152 15be
00000150: 1949 b2be 003d 70be 12e9 95be e326 0bbe
00000160: 6167 ddbf cf02 00bf 230f f2bd 444f acbd
00000170: 131f 59be b57b d4be 6743 adbd 0c63 2cbe
00000180: 9858 acbe 45a2 47be 841c 68be 3910 01be
00000190: a720 86bd 9327 4fbc 546d 1fbe ad51 48be
000001a0: 1993 bebd 7bbb 8cbe ac74 5ebe d5a7 35be
000001b0: ba7e 85bd 0a1d 9cbd 3d2f 25be 3fbf 6bbe
000001c0: 0d9a 98be e35c 6cbe 1103 a9be aa89 2bbe
000001d0: ba4c 9abe d83b 85bd b7ad 90bd ac1c d3bd
000001e0: ee26 46be a0a6 0cbe cbcd 55be d85c a2be
000001f0: cb90 febd 59b7 39be bce4 c6bd c81a bfbd
00000200: be79 67be 8034 eebe 8836 04be 4137 15bd
00000210: c848 7ebe c55e 90be 1f2c 01be 1469 4bbe
00000220: 0540 72be b59c 47be d264 d1bd 0856 82be
00000230: 68c6 2dbe a90b 1abe 8c7b 06be 00fe 1fbe
00000240: fba2 73be 9420 65be 9f97 6bbe 85e4 47bd
00000250: 5f59 dbbd e68b 6ebe 2039 15be ff04 5abe
00000260: 5f20 f5bd 4efc 23be 0fd5 cdbd 6426 a2bd
00000270: 7706 6abe 05b2 93be 8b8e b3bd a2c7 75be
00000280: 9114 6dbd 68c7 73be 1889 b8bd 3186 d5bd
00000290: 4ef8 bfbd 3391 debe 21a4 3dbe b206 22be
000002a0: 1d12 7dbe e4e6 38be 6dbd 25bd c263 88be
000002b0: 7d8b 9f3e 5e41 6ebe e3fc 61bd 6d9a c53c
000002c0: 095b 39be ce02 02be 63e5 90be fbad 86be
000002d0: 7dea 50be ed2f c6be ae5b b1bc 759b 0fbe
000002e0: 2030 62be aa2c a1bd 5b18 7cbe 8590 40be
000002f0: 04f2 61be 8566 76be 3e04 58be c2fc 2bbe
00000300: bcdb 30be 3466 7abe 3240 07be 2b82 38bd
00000310: 48be 12be b77d 12be 0276 05be 2650 bbbd
00000320: b5e3 19be b62b 53be c54a dbbd c6a4 b8be
00000330: 6cbd d9be d9fa c1bd 46e6 96be 1915 90be
00000340: c6b8 0cbe 50eb 6dbe a938 8cbe 78cc b7bd
00000350: dc64 4ebe 80c0 b0bd 333d 8ebe befe 08be
00000360: 54f0 11be 9a59 6ebe 0427 35be 3fcc 1d3f
00000370: 1d44 85be f73b 5fbe 3a13 f8bd 740b abbe
00000380: 9232 9ebe 1a74 8abe 0faf 63be 9372 47be
00000390: c166 44be cbec 27be fe29 c0bd 3333 b8be
000003a0: b7a5 2dbe c612 aebe 15c2 40be 0d54 83bd
000003b0: 35f0 f8be 27dd acbe ea82 92be 6bcb 3ebd
000003c0: 3480 13bf 0e5a d2bc d8c2 3bbe 51a7 49be
000003d0: 3c4f b8bd 6952 a8bd 2f2f bfbe 5d4f b5be
000003e0: f142 49be c5e5 25be 37d6 52be 680a 91be
000003f0: 1bd9 fbbe 750e 9cbe 44e5 4ebe 44da b3bd
-0.18035217 -0.12903339 -0.20741127 -0.18910404 -0.17263012 -0.3887649 -0.071165726 -0.036117036
-0.20249628 -0.059669398 -0.2032456 -0.24924406 -0.26577458 -0.46480808 -0.14563009 -0.12940638
-0.21909612 -0.20059977 -0.30034092 -0.206651 -0.1305806 -0.13026087 -0.05202423 -0.13269892
-0.042759627 -0.21814851 -0.08862564 -0.23259489 -0.3481067 -0.17793055 -0.4755767 0.042351022
-0.09148452 -0.28469068 -0.16435802 -0.16972001 -0.1642719 -0.122778945 -0.0193295 -0.084704675
-0.18909739 -0.29553923 -0.09079033 -0.21748273 -0.18226 -0.356991 -0.11362157 -0.32036152
-0.10673452 -0.1997936 -0.18268609 -0.1356338 -0.29018125 -0.21726838 -0.24783075 -0.21159172
-0.17738895 -0.2541529 -0.22965732 -0.3591959 -0.2463491 -0.11814367 -0.21498162 -0.08462508
-0.16928966 -0.21697901 -0.10647752 -0.2553145 -0.16442458 -0.16174085 -0.3731163 -0.057206843
-0.3030313 -0.09018745 -0.15101758 -0.18842715 -0.22875352 -0.22984533 -0.19211234 -0.2628019
-0.08566203 -0.039195556 -0.18524584 -0.14582206 -0.34821394 -0.2346077 -0.2927938 -0.13589053
-1.7297174 -0.50004286 -0.11819293 -0.08413556 -0.2120326 -0.4150063 -0.084601216 -0.16834658
-0.33661342 -0.19495495 -0.22667128 -0.12603845 -0.06549197 -0.012643713 -0.15569049 -0.19562407
-0.093054004 -0.27486786 -0.21724194 -0.17739804 -0.06518312 -0.07622726 -0.16131301 -0.23022173
-0.2980503 -0.23082308 -0.33010152 -0.16751733 -0.30136663 -0.06505555 -0.070643835 -0.10308203
-0.19350788 -0.13735437 -0.20879285 -0.3171146 -0.12429961 -0.18136348 -0.09711596 -0.0933128
-0.22605035 -0.4652443 -0.12911427 -0.036429647 -0.24832451 -0.28197303 -0.12614487 -0.19864303
-0.23657234 -0.19493373 -0.10224308 -0.25456262 -0.16970217 -0.1504351 -0.13133067 -0.15624237
-0.23792641 -0.22375709 -0.23007058 -0.048801918 -0.107104056 -0.23295555 -0.14572573 -0.21290968
-0.11969065 -0.16014215 -0.10050403 -0.07917479 -0.22854029 -0.28846756 -0.08767422 -0.24001935
-0.05788094 -0.23806536 -0.090105236 -0.104259856 -0.09373532 -0.43470153 -0.18519641 -0.15822867
-0.24713941 -0.18056828 -0.040463854 -0.2663861 0.3116111 -0.23267123 -0.055172812 0.024121488
-0.18101133 -0.12696382 -0.28300008 -0.26304612 -0.2040195 -0.3870844 -0.021650162 -0.14024146
-0.2208867 -0.07869847 -0.24618666 -0.1880513 -0.22064978 -0.24062546 -0.21095368 -0.16795638
-0.17271322 -0.2445305 -0.13208082 -0.045046013 -0.14330399 -0.14305769 -0.13033298 -0.091461465
-0.1502827 -0.20622143 -0.107076205 -0.36063212 -0.4252733 -0.094716735 -0.2947256 -0.28141096
-0.1374236 -0.23234296 -0.27386978 -0.08974546 -0.20155662 -0.086304665 -0.27781066 -0.13378426
-0.14251834 -0.23276368 -0.17690665 0.6163978 -0.2602853 -0.21800219 -0.12113042 -0.33407176
-0.30897957 -0.27041703 -0.22234748 -0.194773 -0.19179823 -0.16398923 -0.093830094 -0.35976562
-0.16957746 -0.33998698 -0.18824036 -0.06412516 -0.48620763 -0.33762476 -0.28615505 -0.046580713
-0.576175 -0.025677707 -0.18336046 -0.19692732 -0.08999488 -0.082188435 -0.37340686 -0.35412112
-0.19654442 -0.16200931 -0.20589529 -0.28328252 -0.49189076 -0.3047978 -0.20204645 -0.08781865
