p3_collab-compet/checkpoints/00checkpoint_critic-v1.pth (torch_old, 297382 bytes, 9 tensors)

fc1.weight f4 [256, 24]
000000 d3 48 bb be c8 24 c5 3f 48 c7 03 bd e1 4c ee be
       -0.36578998 1.540185 -0.03217247 -0.4654303
000010 7c 20 ba 3f bd 55 06 40 0d 4d bf bd d3 30 f2 be
       1.4541163 2.098983 -0.09340868 -0.47302875
000020 41 9c 96 be f0 0b f5 3f cc 9d 92 bd e2 ac 72 be
       -0.29416087 1.9144268 -0.071590036 -0.23698762
000030 0f 1d a0 bd 3f 65 98 3f 0f 2e 83 3c df d9 67 be
       -0.078180425 1.1905898 0.016013173 -0.22641705
000040 78 e1 94 3f d0 a8 08 40 fc c9 8a bd 9c 4a fa bc
       1.1631308 2.1353035 -0.06776807 -0.030553155
000050 07 8e 97 c0 cf 1d fb 3f 0f aa 3a bd 18 29 00 3c
       -4.7360873 1.9618472 -0.045572337 0.0078222975
000060 a2 b3 16 c0 ba d8 69 bf 40 d9 2f 3d 02 df 06 bf
       -2.354714 -0.91346323 0.042931795 -0.5268403
000070 7e 92 fe bf 87 d2 8b bf 44 b0 bf 3c 8f 16 15 bf
       -1.9888456 -1.0923623 0.02339948 -0.58237547
000080 59 ce bd bf f3 4c 7c 3e 30 18 3e 3e d4 74 7f bd
       -1.4828597 0.24638729 0.18563914 -0.062367275
000090 aa 5d 4f 3e 82 c9 8b 3f 5c 03 57 3e 41 bc 8e bd
       0.20250574 1.092087 0.20997375 -0.069695
0000a0 a3 77 d0 be fd b4 94 be 88 b3 0b 3d 17 f2 0a bf
       -0.40716276 -0.29044333 0.03410676 -0.5427565
0000b0 9b 27 14 40 e9 88 79 40 83 d4 c2 3d c6 bc 05 bf
       2.3149173 3.8989813 0.0951319 -0.5224117
0000c0 54 85 d3 3e 04 89 6e c0 cd 23 26 be ac 45 95 be
       0.4131266 -3.7271128 -0.16224594 -0.29154718
0000d0 a5 0d 11 3e 3e 1d e3 bf e2 ef 14 be 51 37 a6 be
       0.14165361 -1.7743299 -0.14544633 -0.32464078
0000e0 c9 1c 95 3e f7 25 3b bf fc 67 af 3b 88 3c 95 3d
       0.29123524 -0.73104805 0.005352972 0.07286936
0000f0 8f 45 4b bd 27 bb a3 be 50 e0 14 3c cd 89 db 3d
       -0.049626883 -0.31978723 0.009086683 0.10719643
000100 b0 11 e8 bd a2 92 5b be 00 3e 5e bf 13 a0 13 3f
       -0.113314986 -0.21442655 -0.86813354 0.5766613
000110 7c 0f 3e 3e 60 73 3a c0 d3 89 57 bf bb f7 1a 3f
       0.18560594 -2.913292 -0.8419468 0.60534257
000120 6f 06 9f 3e ef 99 01 c0 f1 45 fe bb c6 0c d9 3e
       0.31059596 -2.0250204 -0.0077598025 0.42392558
000130 93 05 38 bf d4 b2 86 3f 89 1e 21 bd f3 b0 b0 3e
       -0.71883506 1.0523324 -0.03933576 0.34510002
000140 ec 6b d7 3d a2 ee 57 bf 13 ae 1f 3d 30 65 85 3d
       0.10518631 -0.843485 0.03898437 0.065134406
000150 f0 9d 9e be 7f 05 3a 40 d9 3c 59 bd 53 56 7d 3d
       -0.30979872 2.9065855 -0.053036544 0.061849903
000160 0c f1 b8 be 8d 6f 22 be fe 26 8c 3c dc cd 35 3e
       -0.36121404 -0.15862866 0.017108437 0.1775431
000170 5f 6d 84 40 1e f5 4e 40 77 6c 82 bc 90 be dc 3d
       4.138351 3.2337108 -0.01592086 0.107785344
000180 fe 98 9e bf 35 4f e3 3e da 90 08 3d 98 ed 04 40
       -1.239044 0.44396368 0.033341266 2.0770016
000190 20 94 4a bf b3 d5 de 3f 0d 4c d6 3c 9a 17 05 40
       -0.7913227 1.7408966 0.02615931 2.0795655
0001a0 d1 79 99 bf ea 3d 37 3f 7e 53 83 3e 65 15 08 40
       -1.19903 0.7157885 0.25649637 2.1263058
0001b0 aa 0b 69 be ac 50 3a 40 c7 94 9e 3e ab 79 05 40
       -0.22758356 2.9111738 0.30972883 2.085551
0001c0 25 52 8c bf 29 c9 ff 3f a0 7d d9 3e b6 f5 06 40
       -1.0962569 1.9983264 0.42478657 2.108747
0001d0 f8 4b a9 3f f1 d2 87 3f bc eb df 3e 0b ec 07 40
       1.3226309 1.0611249 0.4373454 2.123782
0001e0 d1 1b 13 3f de 6f b7 3f fb 17 de bd f6 03 46 bf
       0.5746432 1.4331014 -0.10844418 -0.77349794
0001f0 07 db fa 3c e0 e5 a4 3e 76 9f d7 bc a2 56 44 bf
       0.030622019 0.3220663 -0.026321154 -0.7669469
000200 50 8d b9 be c1 47 4f 3f c5 5c 92 be 21 6c b6 be
       -0.36240625 0.8096886 -0.28586403 -0.3562937
000210 c1 c9 a2 be 50 06 19 3f 59 68 4d be b7 4f d3 be
       -0.3179455 0.5977526 -0.20059337 -0.41271755
000220 ab 14 92 bd 82 9e 73 3f 82 33 34 3f c0 03 3d 3e
       -0.07132848 0.9516374 0.70391095 0.18458462
000230 56 d4 3e bf 0c ae e6 3e fa 82 36 3f 93 eb a5 3d
       -0.7454275 0.45054662 0.71293604 0.08101573
000240 48 57 0d 3f f9 b1 2d bf b3 e7 97 be 08 14 c3 be
       0.55211306 -0.6784969 -0.2966896 -0.3810122
000250 49 91 71 bb bd d9 b4 bf c0 b6 96 be 1f dc a3 be
       -0.0036860278 -1.4128948 -0.29436302 -0.32003877
000260 8a cb a9 bf a7 92 2d bf 4d 6d c0 3e 85 f9 80 3f
       -1.326524 -0.678019 0.3758339 1.0076147
000270 00 ca 99 3e 28 49 35 bf 6d 77 ba 3e e5 53 7c 3f
       0.30036926 -0.7081475 0.3641924 0.9856551
000280 bd 49 11 c0 79 8d cf bf 7e 50 a8 3f f7 17 3a 40
       -2.2701256 -1.6215049 1.3149564 2.9077127
000290 28 fc 33 bd 55 5b 03 40 84 5e a0 3f 69 42 39 40
       -0.043941647 2.0524495 1.2528844 2.8946784
0002a0 0f 18 ce be 9f bf 16 3c 25 57 60 3c 07 91 08 bd
       -0.4025273 0.0092009595 0.013692652 -0.033341434
0002b0 30 7f 57 bf 0a d9 5e c0 a3 a0 55 3c 18 38 bc bd
       -0.8417845 -3.481997 0.013038787 -0.091903865
0002c0 20 b8 99 be 16 3b 05 3f d7 7f b0 bd cb db 9c 3f
       -0.3002329 0.52043283 -0.086181335 1.2254575
0002d0 96 ca d4 3e 68 55 a9 be 3f 4d cc 3c e5 cd 9a 3f
       0.4156081 -0.33072972 0.024939178 1.2094084
0002e0 7c 2c a9 3f ac 33 38 40 5c 67 57 bd 04 25 91 bd
       1.32167 2.8781538 -0.052588806 -0.07087138
0002f0 1d f5 bb 3f c8 41 ff 40 a1 bc e5 bc 83 a8 fc bd
       1.4684178 7.97678 -0.028044047 -0.123368286
000300 e7 5c cd 3f 54 eb a5 3f 80 32 9f 3e fc d8 2a be
       1.6043977 1.2962441 0.31093216 -0.16684335
000310 b0 50 4b ba f2 56 05 40 56 a6 98 3e a9 65 6f be
       -0.0007755859 2.0834317 0.29814404 -0.23378624
000320 67 d4 f6 3f 3e f7 e3 3f 4e 4a b4 3e 9d b0 8d be
       1.928357 1.7809827 0.3521294 -0.27673808
000330 77 37 8b be 63 8f c3 3f b8 ab 9d 3e 89 21 ab be
       -0.27190754 1.5278133 0.30795074 -0.33424023
000340 1b 1e d4 3f 9b bb f8 3f 65 b0 26 be d6 f8 e5 be
       1.6571687 1.9432253 -0.16278227 -0.4491641
000350 b3 71 8b bf ea 77 ce 3f f1 d4 b0 bd 65 c1 f4 be
       -1.0894073 1.6130345 -0.08634365 -0.47803798
000360 96 bd e5 bf 84 91 c2 40 b0 5c 5c 3e a4 f8 08 bf
       -1.7948482 6.080263 0.21519732 -0.53504395
000370 c2 92 c8 bd 7d 85 89 c0 62 98 43 3e 6f bb fe be
       -0.09793617 -4.297545 0.19101098 -0.49752375
000380 d4 b9 36 3e e8 99 67 40 88 76 1d be 25 cd 89 bf
       0.17844325 3.6187687 -0.15377247 -1.076573
000390 55 42 c3 3e 12 70 f7 bf 71 eb 09 be cf e6 8a bf
       0.38136545 -1.9331076 -0.1346872 -1.0851687
0003a0 17 0d 57 40 8a 68 95 3f 59 43 bf be 80 18 90 3e
       3.360174 1.1672528 -0.3735607 0.28143692
0003b0 6e c4 89 3f 69 2f a4 3f c1 e9 bf be 6a c0 76 3e
       1.076307 1.2826968 -0.37483028 0.24096838
0003c0 27 a6 38 bf 40 e2 35 40 d7 2a 35 3d 27 be 05 bd
       -0.7212853 2.8419342 0.04423031 -0.032652047
0003d0 ce 1d 11 40 6e 6b 97 bf 3d 00 40 bd ec 0e 04 3d
       2.2674441 -1.182966 -0.046875227 0.032240793
0003e0 9c 89 79 be 6c 23 9f 40 d7 60 c2 bd dd a0 ed 3e
       -0.243689 4.973074 -0.09491127 0.4641179
0003f0 ce ee f9 bd 78 5a 3b 3f 6c 13 df bc f0 27 d5 3e
       -0.122037515 0.7318492 -0.02723094 0.41632032

fc1.bias f4 [256]
000000 d6 76 d6 3d f3 de 14 be 92 d5 10 3e 7d d3 0b be
       0.10471885 -0.14538173 0.1414397 -0.13654895
000010 06 0d 3b 3e 71 3a 0e 3e cf b6 95 3d ff 63 4c be
       0.18266687 0.13889481 0.073102586 -0.1996002
000020 b6 a2 a7 bd db 9b c3 3d 35 7b 3e be d4 bf c7 3d
       -0.081853315 0.095512114 -0.18601687 0.09753385
000030 45 d2 a8 bd d3 b4 18 be db d0 12 bb 1d 7f 00 3d
       -0.08243231 -0.14912729 -0.002240232 0.031371225
000040 29 08 1e 3e a9 0f 05 be c7 c9 29 be e2 a2 8c bd
       0.154328 -0.12994255 -0.16580878 -0.06867005
000050 fa d0 1e 3d c3 3f ba bd 7d 3d 9f bd 9a f6 91 bd
       0.038773514 -0.09094193 -0.077754 -0.07127114
000060 14 4a b3 3d 21 6f db 3c 47 37 37 3e 1f 8a 04 3e
       0.08754364 0.026786389 0.1789218 0.12943314
000070 f3 08 35 be 68 ed 57 3d 01 00 37 be e0 c3 40 be
       -0.17679195 0.052716643 -0.17871095 -0.1882472
000080 d1 5f 91 bd b4 3c 50 3e e2 ac 95 3c 85 36 16 be
       -0.07098354 0.20335656 0.018270914 -0.14669235
000090 ad 7d 3c be 81 93 1d 3e 8b 88 21 3e 83 f6 e7 bd
       -0.18407317 0.153883 0.15774743 -0.11326315
0000a0 d7 6d 11 3e de 6c 9a 3d c6 1a d7 bd 98 ff 7f 3d
       0.14202057 0.07540296 -0.105031535 0.062499613
0000b0 70 bd 00 3c 5a 88 57 bd fc 5e 55 bd 38 91 1a 3e
       0.007857665 -0.05262027 -0.052092537 0.15094459
0000c0 28 5c b4 3d 1c 5b b6 3d 11 56 73 3d d6 d0 0e 3e
       0.0880664 0.089040965 0.05940825 0.13946852
0000d0 23 f6 55 bd 4a 89 37 bb ca ef 2c 3e d8 b6 fa 3d
       -0.052236687 -0.0028005415 0.16888347 0.12241906
0000e0 f5 7f 4f 3d e4 d3 d4 bd 4a c1 56 bd d5 e0 02 3d
       0.05065914 -0.103919774 -0.05243043 0.031952698
0000f0 f6 2e 01 be 92 5d bd 3d ec c9 01 be d8 5b 14 be
       -0.1261557 0.09246363 -0.12674683 -0.1448816
000100 62 53 96 3d e0 be ce bd ec ef 50 be 28 e7 02 3e
       0.07340123 -0.10095 -0.20404023 0.12783492
000110 62 9f aa bd 4a 5a 9e bd 17 5e c2 bd 0b f7 ee bd
       -0.08331181 -0.07732065 -0.094906025 -0.116682135
000120 f4 74 0c be 32 d8 b6 bd 7e de 18 be 6a 49 91 bc
       -0.13716489 -0.08927955 -0.14928624 -0.017735202
000130 8e 1e 85 3d 55 34 02 be e4 ad 48 be 61 d6 91 3d
       0.064999685 -0.12715276 -0.19597584 0.07120968
000140 55 f3 e6 bd 11 28 65 3d b4 bb 80 bc 19 ec 37 3d
       -0.11276881 0.055946413 -0.015714504 0.044902895
000150 85 64 12 bb 96 e1 82 bd 5b 26 22 be ec 1e 10 3e
       -0.0022337746 -0.06390683 -0.15834944 0.14074296
000160 84 d7 c5 3d 36 25 ad 3c 65 4f 32 3e a9 e1 3f 3e
       0.09660247 0.021135908 0.17413099 0.18738426
000170 c8 a2 27 be ec 16 d2 3d 3a 15 40 3e 68 23 3a bc
       -0.1637069 0.10258278 0.18758097 -0.011360981
000180 18 4a 45 be 7f 3f 98 bd 1e 27 9a 3c ef 94 31 bd
       -0.19266546 -0.07433986 0.01881748 -0.043354925
000190 17 de c8 3d 91 c8 a2 3d 86 be 46 be ef aa e1 3c
       0.09807985 0.07948411 -0.19408616 0.027547328
0001a0 5f 64 08 3d 8a 75 05 3e 10 d6 d6 3c 98 9d e3 3d
       0.033298846 0.13033119 0.02622512 0.11114043
0001b0 75 b3 29 3d 51 f1 0a be f3 23 22 be a2 8c 8e bd
       0.04143091 -0.13568617 -0.15834026 -0.06960417
0001c0 e4 80 62 3a 32 10 f4 bd d6 2d 39 be 74 0e 33 3e
       0.0008640422 -0.119171515 -0.18083891 0.17485982
0001d0 8b c3 bb 3c f2 72 a1 3d e3 64 d4 bd 31 2f 0a 3d
       0.02292039 0.07883252 -0.10370805 0.03373641
0001e0 83 8a 83 bc 55 06 db 3d 7d 5a 98 bd ad 0d 3a 3e
       -0.016057258 0.10694567 -0.07439134 0.1816928
0001f0 22 af 2d 3c 65 f1 0b 3c a0 ad 12 3e d7 d8 d9 bb
       0.010600837 0.00854144 0.14324045 -0.006648164
000200 8b d9 73 3d 9a aa 67 bc f9 5d 21 3e 8f 33 4b be
       0.059533637 -0.014139796 0.15758504 -0.19843887
000210 fb 9e 49 3e 26 2d f6 bd 18 4c 4c 3e 7b 91 8d 3d
       0.19689552 -0.1202033 0.19950902 0.06912514
000220 d2 f4 04 be 02 72 32 be 07 8c 65 3d 9a 28 aa 3d
       -0.12984017 -0.17426303 0.056041744 0.083085254
000230 91 dd 0e be 00 37 05 3e c9 f5 be bd ce 29 25 3e
       -0.13951708 0.13009262 -0.093242235 0.16129228
000240 b2 91 08 3d 70 5c 33 be d9 28 06 3d 83 58 5d bd
       0.03334207 -0.17515731 0.0327538 -0.05403949
000250 f2 2b 5d 3d 1c 33 9d bd c4 1f 37 3e b1 b0 ed bd
       0.053996988 -0.07675764 0.17883211 -0.11605967
000260 25 b6 2b 3e 6c 44 4f be 42 5a 17 3e 38 ea 0f be
       0.16768701 -0.20240945 0.14780524 -0.14054191
000270 79 35 1b 3d 1b fb 54 bd f0 35 50 be 58 4b 24 3e
       0.037892792 -0.051997285 -0.20333076 0.16044366
000280 68 a9 45 3d a9 78 e8 3d 8b 0c c8 bd 1c 2f 81 bd
       0.04825726 0.11351139 -0.097680174 -0.063078135
000290 74 e9 c0 bd 71 ee 40 be 94 22 36 3d 9d 27 98 3d
       -0.09419528 -0.18840958 0.04446657 0.07429431
0002a0 10 d6 ca bc cc fa 07 be 6c 00 c8 3c 12 5c b3 3d
       -0.024760276 -0.13279265 0.024414264 0.087577954
0002b0 00 da 99 3c ce ff 4e be 2f ff cc 3d 78 16 18 3e
       0.018780708 -0.20214769 0.1000961 0.14852321
0002c0 fd fb 87 bd 8f f3 35 bd fb 77 92 3b 0b 44 2a 3d
       -0.0663986 -0.04442173 0.004469869 0.041568797
0002d0 bb 6b 39 3e 31 4b 15 3e 2c 94 ba 3d d0 c2 09 be
       0.18107502 0.14579464 0.09110293 -0.13453221
0002e0 4a bc fa 3d 24 65 ca 3d fb d7 43 3e 68 93 a1 bd
       0.122429445 0.09882572 0.19125359 -0.07889444
0002f0 c1 65 93 3d be f4 09 3e 2c b3 c3 3d 6a 67 a7 bc
       0.071971424 0.13472268 0.09555659 -0.020435054
000300 ad 59 70 bd ce 45 19 bd 89 de e8 3d 57 fc 83 bd
       -0.05867927 -0.037420087 0.1137057 -0.064446144
000310 2a bf 4f be 82 cd 06 bd d3 d4 3f be dc dd 23 be
       -0.20287767 -0.03291083 -0.1873353 -0.16002601
000320 ad 54 34 3e 91 9f 03 be 9f ad f2 3d ef 5c fb bd
       0.17610426 -0.12853839 0.11849522 -0.12273585
000330 86 59 4d be ca 8c 95 3b f7 98 d6 3d ab b3 1e 3c
       -0.20053682 0.0045639025 0.104783945 0.009686391
000340 92 12 f0 3d a7 b0 07 bc df e4 14 be 24 89 ff 3d
       0.11722292 -0.008281863 -0.14540432 0.124773294
000350 b7 30 10 3d b2 4e e7 bd 7e 08 ac bc 91 8f 93 3d
       0.035202708 -0.11294307 -0.021000143 0.072051175
000360 42 f4 2f bd 22 b2 16 bc 9e 5f 53 3d 41 cd 85 3d
       -0.04295755 -0.009197744 0.05160486 0.0653329
000370 7e 74 f0 3d 35 08 54 bd 19 73 78 3d 95 25 45 3d
       0.11740969 -0.05176564 0.06065664 0.048131544
000380 98 5b a0 bd dc 82 00 3d 86 1d e6 3b d7 bf 19 be
       -0.0782997 0.031374797 0.0070225624 -0.15014587
000390 b8 cf 3b be 78 2f 36 3e 2a 11 bf bd da f1 18 3e
       -0.18340957 0.17791545 -0.09329446 0.14936009
0003a0 cb fa 28 3d 38 eb ec 3d a3 b8 e2 bc e4 6a 30 bd
       0.0412548 0.11568302 -0.027675932 -0.04307069
0003b0 9c d0 9a bd 42 87 46 be 8a a9 3c ba ea f8 2f 3e
       -0.0755932 -0.19387534 -0.0007196894 0.17184797
0003c0 91 2d 28 3d aa 76 8b bd 1b 59 04 be 57 7b 44 bd
       0.04105908 -0.06809743 -0.12924616 -0.04796919
0003d0 90 b7 ad bd d2 c2 ff 3d c7 e9 bc 3d 35 18 58 3d
       -0.084822774 0.12488331 0.09224277 0.05275746
0003e0 27 25 f5 3c eb c0 ed 3b e9 36 dc bd 4d d1 cb bc
       0.029924942 0.0072556636 -0.10752661 -0.024880076
0003f0 69 68 05 3e 5a 0c d5 bc 80 16 90 3d c3 98 e8 bc
       0.1302811 -0.026006866 0.070355415 -0.028393155

bn1.weight f4 [256]
000000 ee 40 4f 3f 8c 55 20 3f 8f be a5 3e 62 99 91 3f
       0.8095845 0.62630534 0.32371947 1.1374934
000010 41 8f 37 3f 89 74 9d 3d ed 72 2a 3f ee 9d 7f 3f
       0.71702963 0.07688243 0.6658161 0.99850357
000020 64 c6 4f 3e 73 53 0d 3f 8a f3 69 3f 20 c9 74 3f
       0.20290524 0.5520546 0.91387236 0.9561939
000030 cf f3 4a 3f af 5f 09 3f ab c1 3f 3f 26 71 60 3f
       0.7927827 0.53661627 0.7490489 0.8767265
000040 a6 7c 03 3f ac 7d 9a 3e f8 a9 8e 3f 30 0c 5a 3f
       0.51362073 0.30174005 1.114562 0.85174847
000050 3b 2b 58 3f b2 2e 82 3f d0 96 34 3f b6 f4 83 3c
       0.84440964 1.01705 0.7054262 0.016107898
000060 a1 0f 37 3d b6 79 71 3d e0 4f 0a 3b 01 49 1c 3f
       0.04469264 0.058953963 0.0021104738 0.61048895
000070 6b 81 92 3d 4a e0 38 3f 95 2d b1 3e a4 89 70 3d
       0.07153591 0.7221724 0.3460509 0.058725014
000080 c6 f7 8b 3d a9 18 04 3f b9 c7 ba 3d c0 42 5b 3f
       0.068343684 0.5160013 0.09120125 0.8564873
000090 4d db 17 3f 49 b0 1f 3f 8f 6e 7e 3f 59 67 7a 3e
       0.59319 0.62378365 0.9938745 0.24453487
0000a0 47 7c 41 3f 8a e3 b3 3e 04 16 b6 3e 18 4d 12 3e
       0.7558026 0.35134536 0.35563672 0.14287221
0000b0 51 b9 49 3f a4 04 54 3f 32 9c 52 3f f6 8a 50 3e
       0.78798395 0.8281958 0.82269585 0.2036551
0000c0 80 62 44 3f 15 e6 12 3f 3e aa 3e 3f 71 a6 04 3f
       0.767128 0.5738233 0.7447852 0.5181647
0000d0 cd 75 f6 3e a2 88 3d 3d 73 eb 5d 3f 54 cc b7 3e
       0.4813675 0.04627288 0.8668739 0.35898077
0000e0 d3 e3 34 3e 00 b8 6a 3f 09 99 7e 3f 8a 0d 05 3f
       0.17665033 0.9168701 0.99452263 0.51973784
0000f0 06 f1 c6 3e 35 b9 d9 3d 27 f1 a3 3f f7 d6 53 bc
       0.3885576 0.106310286 1.2807969 -0.01292967
000100 08 20 b9 3e 5c 0e 88 3d 7f d8 ee 3d a5 0a 50 3f
       0.3615725 0.06643364 0.11662387 0.8126624
000110 c2 76 f4 3e da e0 1f 3f de 5a 82 3f 88 16 2f 3f
       0.47746855 0.6245247 1.018398 0.68393755
000120 fe 68 3c 3f b2 fc d8 3e bf 2e f6 3e f4 37 30 3f
       0.73597705 0.4238029 0.4808254 0.6883538
000130 45 2d 2b 3f 8d 9a 10 3f 74 b6 81 3f 92 77 99 3c
       0.6686595 0.56485826 1.0133805 0.018733773
000140 64 f8 96 3d 6b 71 54 3f 53 e2 45 3f 3e 59 5f 3f
       0.073715955 0.8298556 0.7729847 0.8724555
000150 53 11 72 3f 7e 30 87 3f 10 23 a3 3b 2b 6d 91 3f
       0.94557685 1.0561674 0.004978545 1.136144
000160 b9 31 2f 3f bb 22 0f 3d c0 3a 0a 3f e7 07 50 3f
       0.68435246 0.03494523 0.53995895 0.8126206
000170 96 4e d0 3e c9 49 4b 3f e8 10 7f 3f d1 f2 14 ba
       0.40684956 0.7940946 0.9963517 -0.00056819344
000180 a4 e0 95 3f 8c 8d 53 3f 17 79 28 3f 1f 67 46 3f
       1.170918 0.8263786 0.6580977 0.775011
000190 08 b3 63 3f e9 50 22 3f 51 c3 78 3f 5f 42 2e 3f
       0.88945055 0.6340471 0.9717303 0.68070024
0001a0 78 ce 8f 3f 70 ee 39 3c 8b 67 3e 3f f2 39 31 3f
       1.1234884 0.011348352 0.74376744 0.6922904
0001b0 34 48 10 3f f1 e7 61 bd b4 00 44 3f d5 7a 20 3e
       0.56360173 -0.055152837 0.7656357 0.15671857
0001c0 77 7b 48 3e ef 2c 2d 3f ec 55 50 3f 00 5a 19 3e
       0.19578348 0.6764669 0.81381106 0.14975739
0001d0 7c 10 ea 3e c2 92 6a 3f df 29 21 3f 20 f2 2a 3f
       0.45715702 0.91630185 0.62954515 0.66775703
0001e0 03 ab 1a 3f 7b 20 4f 3f 79 ab 15 3d f9 63 34 3f
       0.60417193 0.80908936 0.036540482 0.70465046
0001f0 08 51 56 bb 09 14 5d 3c 96 56 39 bd d9 d9 1b 3f
       -0.0032702107 0.013493546 -0.04524859 0.60879284
000200 78 b5 a1 3e 6e c9 c5 3d 70 b2 1e 3f c4 d5 13 3f
       0.31583762 0.0965756 0.61991024 0.57748055
000210 cd 5e 80 3f 4e 3f 23 3e 86 61 e7 3e bf db 03 bd
       1.0028931 0.15942118 0.45191592 -0.032191988
000220 f0 e1 32 3f 26 47 37 3f b9 d6 3c 3f 47 38 88 3f
       0.69876003 0.7159294 0.7376514 1.0642174
000230 76 73 24 ba 71 10 de 3e a8 09 22 3f e2 07 1b 3f
       -0.00062733085 0.4337192 0.63295984 0.60558903
000240 ff e4 17 3e 95 57 3e 3f 22 58 62 3f 5c 92 eb 3e
       0.14833449 0.7435239 0.8841573 0.460101
000250 c6 12 64 3d 54 f9 58 3f 77 0c a0 3b ac 2c 47 3f
       0.055681966 0.84755445 0.0048842984 0.7780254
000260 4e b6 21 3e f3 ca 81 3e 1c 53 d1 3a a6 c6 3a 3d
       0.157922 0.2535015 0.0015970203 0.045599602
000270 f7 88 b3 3e 09 84 01 3f a3 23 94 3f 46 9a 67 3e
       0.35065433 0.50592095 1.1573375 0.22617444
000280 c4 af 43 3f 39 1c 09 3e f9 13 ed 3e 5c 24 2f 3f
       0.7644007 0.13389672 0.463043 0.68414855
000290 dc f2 4c 3f 50 29 02 ba f6 6b 52 3f 90 23 f6 3e
       0.80058074 -0.00049652625 0.82195985 0.48074007
0002a0 fd 45 67 3d cb a0 5d 3f e8 c2 77 3f 9f 03 29 3f
       0.05646323 0.86573476 0.9678178 0.6602115
0002b0 d1 f3 3b 3f 2e dd 75 3f c8 f8 37 3f 79 a5 24 3f
       0.7341891 0.9604062 0.71863985 0.6431499
0002c0 94 46 88 3f d7 ed 4a 3f 00 0c 24 3f b4 1f 19 3f
       1.0646539 0.79269165 0.6408081 0.59814
0002d0 ea b7 c5 bc 54 8a 46 3e 6c 79 82 3d e0 55 8e 3f
       -0.024135549 0.19388705 0.06370816 1.1119957
0002e0 d8 de 2f 3f ae 26 6c 3f 80 5f 2e 3f ff 50 88 3f
       0.6869941 0.9224652 0.6811447 1.0649718
0002f0 f3 16 b9 3d 6f ca 82 3e a2 6c 8e 3f 70 be 88 3f
       0.0903758 0.2554507 1.1126902 1.0683117
000300 8b 37 01 3e b0 f4 23 3d a2 a8 14 3f b1 a7 39 3f
       0.12618844 0.040028274 0.58069813 0.725215
000310 7f a8 42 3f 11 4c 4b 3f 02 3f 3b 3f 1d d6 41 3f
       0.76038355 0.79412943 0.7314302 0.75717336
000320 d4 0b 18 3f 95 5a 6d 3f 05 13 36 3f 41 0d 3d 3f
       0.5939305 0.9271634 0.7112277 0.7384835
000330 a4 3c 4d 3e 16 6a 49 3f 0c 59 4c 3f ed 08 22 3f
       0.20042664 0.786775 0.79823375 0.6329487
000340 60 4e 53 3f 24 b7 18 3f 00 de 2b 3f 2c e0 6a 3c
       0.82541466 0.5965445 0.6713562 0.014335673
000350 e5 16 97 3f c9 be 41 3f d6 0f b0 3d d7 f4 41 3b
       1.1803862 0.7568174 0.085967705 0.0029595399
000360 4f e8 1b 3d 49 a9 e1 3e be 19 26 3f c9 eb 53 3f
       0.038063344 0.44074467 0.6488303 0.82781655
000370 0e 58 1a 3d 32 84 38 3f 45 16 42 3f fc 2b 2d 3e
       0.03768163 0.72076714 0.7581523 0.1691131
000380 6c b6 4f 3f 9e b0 88 3f 2a 14 a5 3e 60 70 2c 3f
       0.8113773 1.0678899 0.32241946 0.6735897
000390 cf 07 54 3f 1f a5 46 3f 25 fb 27 3e d5 38 54 3f
       0.82824415 0.77595705 0.16404398 0.8289922
0003a0 a0 8f 8c 3f b1 15 d5 3e 40 fe 14 3f 4f a5 97 3e
       1.0981331 0.41618112 0.58200455 0.29618308
0003b0 8d 74 67 3c 99 bb 76 3f be f2 36 bc 25 51 33 3f
       0.014126909 0.9638 -0.011166273 0.7004569
0003c0 5e 6b 2b 3f fa 7b 31 3f c3 49 74 bd 41 2b 12 3f
       0.66960704 0.693298 -0.059640657 0.5709725
0003d0 83 2d 79 3f 94 9d 91 3c 09 3f 46 3e a8 81 32 3f
       0.9733507 0.017775334 0.19359984 0.6972909
0003e0 47 02 38 3f 33 af 19 3e d4 d3 0a 3b de 28 60 3f
       0.71878475 0.1500824 0.0021183388 0.8756236
0003f0 0e 11 81 3f ee f2 29 3f 33 a6 2c 3f f5 c8 15 3f
       1.008333 0.66386306 0.674411 0.5850976

bn1.bias f4 [256]
000000 75 7f 74 bf 38 c9 4e be 45 4f 83 bf 71 2f 3f bf
       -0.95506984 -0.20193946 -1.0258566 -0.74681765
000010 f6 cf f5 be 14 22 19 bf f4 d2 73 bf 43 6b 29 bf
       -0.48010224 -0.59817624 -0.95243764 -0.66179293
000020 98 f1 89 bf 56 8b 10 bf 73 a2 54 bf cc d7 17 bf
       -1.0776854 -0.5646261 -0.8306038 -0.59313655
000030 e5 15 44 be a7 03 82 bf ae af a3 bf 18 eb 76 bf
       -0.19148977 -1.0157365 -1.2787988 -0.96452475
000040 8f d2 4f bf 54 55 8f bf 3c 19 27 bf e7 d9 98 bf
       -0.8118066 -1.1197915 -0.6527288 -1.1941499
000050 6f c5 86 bf 1e fe 9b bf af d8 35 bf fc aa 24 bd
       -1.0529002 -1.2186925 -0.7103376 -0.040202126
000060 40 6c 17 be bd 85 3d be 90 43 64 bc 95 99 87 bf
       -0.14787388 -0.18508048 -0.013932124 -1.0593745
000070 24 c3 71 be dc 2d 90 bf d6 4f b4 bd 13 b4 8a be
       -0.23609596 -1.1263995 -0.0880429 -0.2709051
000080 33 80 11 bf d9 34 5b be 68 6e 99 be ea 93 97 bf
       -0.5683624 -0.21406879 -0.29967046 -1.1842015
000090 f8 f6 86 bf 09 9b 6f bf b2 03 15 bf 61 33 85 bf
       -1.0544119 -0.9359594 -0.58208764 -1.0406305
0000a0 d8 3f 40 bf ac 67 60 bf 27 c2 52 be 0f fd 3d bf
       -0.7509742 -0.8765819 -0.20581876 -0.7421426
0000b0 10 d3 53 bf 49 77 af bf 18 88 a9 be df a4 2a bf
       -0.8274393 -1.3708278 -0.33111644 -0.66657823
0000c0 ab e3 7f bf 5e 2e 3e bf e9 b8 07 bf 57 70 14 bf
       -0.9995677 -0.742895 -0.53016526 -0.57983917
0000d0 86 7f 6b bf 71 a2 23 be 20 2d 34 bf 46 ea ce be
       -0.9199146 -0.15979935 -0.70381355 -0.4041311
0000e0 8a 84 ef be fb f7 c2 bf cd 54 31 bf 3a 39 46 bd
       -0.46780807 -1.5231928 -0.6927002 -0.04839442
0000f0 5c 2e e7 be 5b cc c1 be f9 ae 1f bf 85 ee 4a bd
       -0.45152557 -0.37851223 -0.6237636 -0.049543876
000100 76 3e b0 bd 9e 78 0c bf 5f df eb be c1 0a c8 bf
       -0.086056635 -0.5487155 -0.46068856 -1.5628282
000110 51 55 d3 be 5d a4 b0 bf 05 4c 8e bf 7c 30 05 bf
       -0.4127603 -1.380016 -1.1116949 -0.52027106
000120 59 b4 0a bf cf 46 d8 be 47 2c 6b bf 20 c6 63 bf
       -0.5418144 -0.42241523 -0.91864437 -0.8897419
000130 e1 5b f3 be dc 33 ea be 13 ba 4d bf 56 a0 cb bd
       -0.47531036 -0.4574269 -0.8036205 -0.09942691
000140 46 dc 9c be 0e 8e b1 be 8b 5c 73 bf 08 cd 73 bf
       -0.30636805 -0.34678692 -0.95063084 -0.9523473
000150 ba c7 6d bf 14 38 d3 bf 72 b0 14 be 99 f0 15 bf
       -0.92882884 -1.6501489 -0.14520434 -0.5857025
000160 68 ff e2 bd 4d ad 3b be b6 cc 41 bf eb 4e a2 bf
       -0.11083871 -0.18327828 -0.7570299 -1.2680334
000170 cf 66 d4 bd 6d f3 b1 bf f0 1c 7a bf b0 df 9d bc
       -0.10371172 -1.3902413 -0.97700405 -0.019271702
000180 7b 3e 89 bf 73 48 92 bf 25 51 78 bf 8b 42 65 bf
       -1.0722193 -1.142836 -0.96998817 -0.8955466
000190 4a 76 b8 bf 0c 7d ef be ec 04 af bf 32 37 59 bf
       -1.4411099 -0.4677509 -1.3673377 -0.84849846
0001a0 3d fe 42 bf 9f d7 38 bd fe a6 62 bf ef ec 3c bf
       -0.76169187 -0.045127507 -0.8853606 -0.7379903
0001b0 e7 64 43 bf 13 b8 77 be 22 6c 95 bf 3f a3 76 bf
       -0.7632584 -0.24191312 -1.1673625 -0.96342844
0001c0 82 69 25 bf 93 83 31 bf e2 cb a8 bf 59 f5 d8 be
       -0.6461412 -0.6934139 -1.318722 -0.42374685
0001d0 93 df 52 be ef 11 91 bf 89 2e 99 bf f3 50 18 bf
       -0.205931 -1.1333598 -1.1967326 -0.5949852
0001e0 15 4e e5 bc f6 70 3c bf 8b f7 a1 be 5c 96 4f bf
       -0.027991334 -0.73609865 -0.31634173 -0.81088805
0001f0 df 21 ba bc a7 fe c7 bd 3c 9b 47 be ec aa 1e bf
       -0.02272123 -0.09765368 -0.19492811 -0.61979556
000200 6e 0c 94 bf 6e 56 08 bf be b2 94 bf a1 82 f7 be
       -1.1566293 -0.5325688 -1.1617048 -0.4834185
000210 f3 6a a0 bf c7 0a 29 bf b4 8e cc bd 5e 78 c2 be
       -1.2532638 -0.6603207 -0.09988156 -0.37982458
000220 5a 6e 03 bf ee 8e 47 bf 37 3d 7c bf 5d d4 79 bf
       -0.5134026 -0.7795247 -0.98530906 -0.97589666
000230 37 90 e3 be 6f e9 15 3d 55 91 c0 3d 5c db a6 be
       -0.44445965 0.036599573 0.0940272 -0.32589233
000240 4a e8 2e bf 0a d3 ae bf d2 49 6a bf 81 e7 4c be
       -0.68323195 -1.3658154 -0.9151889 -0.20010187
000250 03 d9 39 be 01 95 56 bf 98 78 72 bc 64 ee 92 bf
       -0.1814919 -0.8382111 -0.01479926 -1.1479001
000260 76 fa 0a bf d3 af 35 bf 77 aa f9 bc 20 10 ec bd
       -0.54288423 -0.7097141 -0.030476792 -0.11526513
000270 37 61 b2 3c d3 c9 2d bf 50 e3 ad bf 90 f8 34 bf
       0.021774871 -0.67886084 -1.3584995 -0.70691776
000280 a2 83 39 bf 61 9d 0b bf d8 95 e6 be 5c 34 85 bf
       -0.7246648 -0.54537016 -0.45036197 -1.0406604
000290 4f 68 68 bf e6 e5 7f bc a6 a4 f4 be 8d 0e 37 bf
       -0.9078416 -0.015618777 -0.47781867 -0.7150658
0002a0 7d e9 72 be 80 c7 60 bf c9 cb a1 bf 03 77 85 bf
       -0.23721881 -0.8780441 -1.2640315 -1.0426944
0002b0 26 bb 6e bf 53 7d 0f bf 29 71 8b bf 58 c0 e4 bf
       -0.93254316 -0.56050605 -1.0893909 -1.7871199
0002c0 d6 94 41 bf 1f be 2f bf 37 aa a8 be e1 27 81 bf
       -0.7561773 -0.68649477 -0.32942364 -1.0090295
0002d0 8f 0f 00 be 59 d7 12 bf 44 7d 2c be 8d bc ab bf
       -0.12505935 -0.57359844 -0.1684466 -1.3416916
0002e0 c7 a1 b6 bf 2f f6 52 bf 3d c6 84 bf 2f e9 0d bf
       -1.426812 -0.82406896 -1.0372998 -0.55433935
0002f0 60 b4 c7 be 69 ab 68 bf 6f f4 02 bf b4 03 22 bf
       -0.39004803 -0.9088655 -0.51154226 -0.632869
000300 7a ce b8 be 74 89 06 be d4 df 49 bf 09 ad 8b bf
       -0.3609503 -0.13138372 -0.7885716 -1.0912181
000310 9c e1 89 bf 97 96 7c bf e5 e8 aa bf 49 99 40 bf
       -1.0771976 -0.9866728 -1.3352324 -0.75233895
000320 b8 15 87 bf 46 9a 37 bf 79 b7 b8 bf 87 b1 4e be
       -1.0553503 -0.7171978 -1.4430991 -0.20184909
000330 1e ce 27 bf e5 d7 50 bf 40 9a 91 bf 01 33 86 bf
       -0.65548885 -0.8157943 -1.1375198 -1.0484315
000340 76 29 22 bf d8 72 2a bf 32 6f 8c bf 79 ce 4e bd
       -0.63344514 -0.6658149 -1.0971434 -0.050489876
000350 4c 36 85 bf 6c 9b a0 bf d6 8a cc be 6e 80 25 be
       -1.0407195 -1.2547431 -0.39949673 -0.16162273
000360 e2 d9 23 be f5 8b 85 bf e1 37 ac bb 9f 71 84 bf
       -0.16001084 -1.0433336 -0.0052556847 -1.0347174
000370 20 50 16 be 67 2e 8b bf 1d d1 a8 bf 1f 3f 66 be
       -0.14679003 -1.0873536 -1.3188816 -0.22485016
000380 3b 4c 83 bf 68 e1 4f bf 19 dc 23 3d 8d b2 bd bf
       -1.0257639 -0.8120332 0.040004823 -1.4820114
000390 f6 70 27 bf 2f 44 06 bf b0 fa 5d be a8 a0 8f bf
       -0.6540674 -0.5244779 -0.21677661 -1.1220903
0003a0 16 5e b6 bf f0 58 47 bc 82 d8 5a bf 60 73 37 bf
       -1.4247463 -0.0121672 -0.85486615 -0.71660423
0003b0 51 ae d9 be 3a 3b 80 bf c3 c3 71 bd 72 49 17 be
       -0.42515805 -1.0018075 -0.059024584 -0.14774111
0003c0 7d ab 32 bf 6d 5b a1 bf 84 28 5d be a3 c9 77 bf
       -0.6979292 -1.2606026 -0.21597487 -0.9679205
0003d0 6c 09 8a bf 4e 87 f9 bd a2 b7 30 bf d5 d6 7f bf
       -1.0784125 -0.121840104 -0.690302 -0.9993718
0003e0 98 ae 54 be 66 ef 2b bf 1e ba 01 bc ea 16 46 bf
       -0.20769727 -0.6716217 -0.007917909 -0.77378714
0003f0 21 1a 33 bf e9 8e a6 bf b3 00 33 bf 89 8d 3b bf
       -0.69961745 -1.3012363 -0.6992294 -0.7326284

bn1.running_mean f4 [256]
000000 1a 7b 76 41 84 93 3a 42 ce da ed c1 94 77 d5 41
       15.405054 46.64406 -29.731838 26.683388
000010 14 38 54 42 6a 4a e6 40 81 f7 f6 41 b2 df 30 41
       53.054764 7.1965837 30.870852 11.054613
000020 6e 5a 6a c1 62 20 06 c2 65 88 71 41 e4 3c 40 42
       -14.647078 -33.531624 15.095799 48.059464
000030 20 4a 39 42 28 d4 59 42 1f ec 3c 41 73 04 ad 41
       46.322388 54.457184 11.807647 21.627172
000040 ef 05 f8 40 9d 50 23 c2 35 82 e3 41 ef 4d 1e 42
       7.7507243 -40.828724 28.438578 39.576107
000050 32 fd c9 41 09 cd 74 42 c9 ee 20 41 29 17 0d 3f
       25.24863 61.20023 10.058297 0.55113465
000060 59 e7 6f 3d da e4 4f 40 61 57 18 bc db 3d 8e 41
       0.05857024 3.248343 -0.0092981765 17.780203
000070 43 ab 10 40 7c 6e 89 41 63 4a 5a c2 aa be 35 41
       2.260453 17.178947 -54.572643 11.359049
000080 3e 81 a1 40 5b 24 b0 41 3d 36 9c 3f ec 30 4d 42
       5.0470266 22.017752 1.2204052 51.297775
000090 c2 69 e8 41 9b 2f 8e c2 e1 41 49 41 01 13 50 41
       29.05164 -71.09298 12.578584 13.00464
0000a0 cf 9a c4 41 93 bb 04 40 54 97 e3 41 d1 50 ad 3f
       24.57559 2.0739486 28.44889 1.3540288
0000b0 84 d0 89 42 af d5 20 40 c7 da a9 41 c0 6d 6a 41
       68.90726 2.5130422 21.231825 14.651794
0000c0 d2 a4 a1 c1 b2 86 6c 40 49 35 2d 42 d6 fe c7 41
       -20.205479 3.6957211 43.302036 24.999432
0000d0 8d 23 bd c0 bf 22 2f 40 16 dd 14 42 74 de 92 c2
       -5.9105897 2.7364957 37.215904 -73.43448
0000e0 00 37 8c 41 85 4f 86 bf d9 fe a4 41 7e 5e 2e 42
       17.526855 -1.0493017 20.624437 43.592278
0000f0 fe 31 8a bf 0c fa 92 c0 74 ae 58 41 57 e6 81 3f
       -1.0796506 -4.5930233 13.542591 1.0148419
000100 f2 77 e9 c1 7d b8 e2 c1 36 38 b4 40 07 c2 88 41
       -29.183567 -28.340082 5.6318617 17.09474
000110 1b 3c a8 40 6f 65 38 42 e4 89 9f 40 4f d6 38 41
       5.257337 46.099056 4.9855824 11.552321
000120 34 52 f2 41 1b 09 57 41 31 b0 e0 40 21 11 a7 41
       30.290138 13.439723 7.0215077 20.883364
000130 f4 d5 3f 42 26 2b 3e c1 74 4a 70 40 8a 1e a9 3f
       47.95894 -11.885534 3.7545443 1.3212445
000140 ec d1 0f c1 f5 3a e4 40 4b 52 43 41 d1 7a 06 42
       -8.98875 7.132197 12.207591 33.619938
000150 1e 39 2a 42 47 83 a3 41 4c f5 7f 3f 56 a3 e6 41
       42.55578 20.4391 0.9998367 28.829754
000160 2f 55 b3 40 ff fd ad c0 0f 40 35 42 9b 84 9a 41
       5.6041484 -5.4372554 45.312557 19.314749
000170 54 e3 b4 c1 f7 6a e0 41 e5 31 d3 41 6b 12 b7 3e
       -22.611 28.052229 26.399363 0.3575624
000180 db 55 ed 41 09 e1 09 42 66 f3 08 42 a2 e5 06 c0
       29.666922 34.46976 34.237694 -2.1077657
000190 7f f3 e0 40 17 a4 04 c0 33 c2 cb 41 ac e7 9b 42
       7.0297236 -2.0725152 25.469824 77.952484
0001a0 e4 bf b6 41 b5 80 66 3e a2 df b3 41 c5 e1 91 41
       22.843697 0.22510035 22.484196 18.235239
0001b0 67 dd 70 c2 9d 88 37 41 88 25 d0 c0 ba 3e 80 c1
       -60.216213 11.470853 -6.5045815 -16.030628
0001c0 41 44 27 41 17 15 4c 42 03 4c 84 42 a9 5c cb 40
       10.454164 51.020596 66.14846 6.355061
0001d0 25 a1 90 40 5c 64 46 42 dc 6a 3a 41 ff 15 65 42
       4.519671 49.598007 11.651089 57.27148
0001e0 eb 5a 21 bf 38 df 90 42 6a c9 fc bf 6d 0e 09 42
       -0.63029355 72.435974 -1.9748967 34.264088
0001f0 18 53 b1 be 6f 5a 29 3f 45 67 98 bf 63 93 d3 41
       -0.34633708 0.66153616 -1.1906515 26.446966
000200 ab 2b af c0 84 1e fb 40 0b 85 03 41 b1 f8 e1 c1
       -5.4740806 7.847475 8.219981 -28.246431
000210 8d 9b 33 42 91 90 b3 c0 16 9c 09 40 c8 bd ad 40
       44.901905 -5.6113973 2.1501517 5.4294167
000220 cb e9 14 42 69 09 0d c2 78 15 95 41 56 b7 22 41
       37.228313 -35.25919 18.635483 10.16976
000230 92 0c 9c c0 1e 8e 5c c1 6f d2 4b 42 a8 0e 95 42
       -4.8765345 -13.784697 50.9555 74.528625
000240 38 7a 8b c0 6d 1e 81 c0 10 47 7f 41 87 c9 6d 42
       -4.3586693 -4.034964 15.954849 59.446804
000250 ac ad f6 bf 19 c0 12 42 a7 6e 22 3f a2 41 82 c0
       -1.927175 36.687595 0.6345009 -4.070512
000260 3e e0 55 40 57 90 48 41 dd 14 de bc d2 38 65 40
       3.3418117 12.535239 -0.027109558 3.581593
000270 7f 22 97 c0 46 4e a4 41 91 cd a1 41 21 71 4c c0
       -4.722961 20.53822 20.225374 -3.1944048
000280 8e 42 39 42 95 78 cd 40 d2 f6 59 42 73 93 57 41
       46.314995 6.4209695 54.491035 13.473498
000290 ce 64 f1 41 0e 84 00 bf 7a 7f d9 41 df e4 02 42
       30.174221 -0.502015 27.187244 32.723507
0002a0 ce 08 80 c0 f0 f8 44 42 34 a6 60 42 89 60 8a c2
       -4.001075 49.243103 56.162308 -69.188545
0002b0 7d 92 a4 c2 57 5e 22 42 6c 7b 43 c2 4d 92 d6 c1
       -82.28611 40.59213 -48.87053 -26.821436
0002c0 5a 63 d5 41 31 db 85 3f 9f 13 5a 42 61 56 56 42
       26.673512 1.0457517 54.51916 53.584354
0002d0 7a 3b 05 c0 27 06 06 41 ca 4e 41 40 7b f3 5d c1
       -2.0817552 8.376502 3.020434 -13.871943
0002e0 82 58 36 41 ec fb 1a 42 cf fc 89 41 36 80 80 41
       11.396608 38.746017 17.248442 16.062603
0002f0 b5 8c 35 40 5a 40 8c 41 78 a5 0a 42 64 e9 81 41
       2.836713 17.531422 34.66159 16.23896
000300 32 b2 ed 40 03 a9 e6 40 d6 bc d9 41 1a 00 65 41
       7.4280024 7.2081313 27.217205 14.312525
000310 35 e6 95 bf c4 63 70 41 fd 8a 0d 42 51 79 0b 42
       -1.1710879 15.024357 35.38573 34.868473
000320 6a e1 b9 41 96 49 15 42 e9 6f 8f 42 64 fc 64 41
       23.235065 37.32186 71.718575 14.311619
000330 29 2a 6b c0 ef 9e 40 41 d9 d3 8b c2 fc 50 2b 42
       -3.6744483 12.038802 -69.913765 42.829086
000340 0b 4f 16 42 35 21 81 c1 6a ec 27 c1 98 2d 59 3f
       37.57719 -16.141214 -10.495218 0.84835196
000350 ef 89 1c 42 31 b0 1f 42 81 75 02 c0 10 2e 17 40
       39.1347 39.922062 -2.0384219 2.3621864
000360 36 3f 29 c0 7f a0 82 c0 3b 75 bf bf 4a d8 90 41
       -2.644483 -4.082092 -1.4957651 18.10561
000370 df 19 c0 3e 1d 1b d7 c0 58 27 e1 41 5c a4 35 41
       0.37519738 -6.7220597 28.14421 11.352627
000380 a6 47 1f c1 aa a1 41 40 c4 42 16 42 d3 b2 32 42
       -9.954992 3.0254922 37.5652 44.674633
000390 24 20 7c 41 58 e4 21 41 d6 86 38 c2 e9 9c bf c0
       15.757847 10.118248 -46.131676 -5.987904
0003a0 a3 17 bc 41 52 a1 6d 42 5e 5e d4 41 aa 3a 0e 42
       23.511541 59.40754 26.546078 35.55729
0003b0 59 a3 79 c1 2f ef fd 41 22 9e 8f c0 84 40 7d c0
       -15.60238 31.741789 -4.4880533 -3.9570627
0003c0 20 a9 0c 42 55 a8 a4 41 f4 da e6 40 12 92 8c 42
       35.16516 20.582193 7.2142277 70.28529
0003d0 93 6b fa 41 59 ab 40 c0 38 d6 8c 41 d0 c5 98 c2
       31.302526 -3.0104582 17.604599 -76.38635
0003e0 fb 5b 3e 42 61 94 66 41 ab c2 fb 3f e6 f7 72 42
       47.589825 14.411225 1.9668783 60.74209
0003f0 e4 d4 6d 42 12 3b 49 40 eb 0e 70 42 6a 1d f4 41
       59.4579 3.1442304 60.01457 30.514362

bn1.running_var f4 [256]
000000 07 ba f6 43 55 20 c6 43 17 5f bc 44 7a 4e e9 43
       493.45334 396.2526 1506.9716 466.6131
000010 76 e7 0b 45 e8 74 5a 44 0a 6d 25 45 62 13 7e 43
       2238.4663 873.82666 2646.815 254.07571
000020 03 4b 7f 44 cd aa 02 44 c0 fb c6 43 15 92 74 44
       1021.17206 522.66876 397.9668 978.28253
000030 67 8a 58 44 5a 4a ff 44 ae 39 3b 45 e4 42 3e 44
       866.16254 2042.3235 2995.605 761.04517
000040 42 98 cb 44 ac 7e 2a 45 97 56 29 43 06 07 a6 44
       1628.758 2727.917 169.33824 1328.2195
000050 4e 94 85 44 d3 b7 b6 44 5f 73 01 45 39 f2 0c 41
       1068.6345 1461.7445 2071.2107 8.809136
000060 21 0e 20 42 b4 6d bd 43 95 3d 3a 40 d7 89 26 44
       40.013798 378.85706 2.9100087 666.15375
000070 01 c5 55 43 0a f8 7e 45 32 89 95 44 21 a6 b8 42
       213.76955 4079.5024 1196.2874 92.32447
000080 36 4b c8 43 90 3b 34 45 70 e2 37 42 11 00 46 44
       400.5876 2883.7227 45.97113 792.00104
000090 6b d0 d4 44 eb 2a ba 44 7b 49 61 43 c0 21 97 44
       1702.5131 1489.3412 225.28703 1209.0547
0000a0 80 54 0b 44 e0 94 26 43 ef 65 be 44 91 a5 8e 43
       557.3203 166.58154 1523.1854 285.2935
0000b0 ab 45 e1 44 02 e1 df 44 7d b4 6a 44 fa 04 e8 43
       1802.1771 1791.0315 938.8201 464.03888
0000c0 5b e2 5a 44 22 3a b9 44 93 70 e2 43 22 cd 11 45
       875.5368 1481.8167 452.8795 2332.8208
0000d0 c6 67 1c 45 e0 14 de 41 3e 7a 8d 44 cb 8e b0 44
       2502.4858 27.760193 1131.8201 1412.4623
0000e0 bf b4 2a 43 22 04 54 44 25 15 91 44 5d eb 3a 44
       170.70604 848.0646 1160.6608 747.67755
0000f0 10 c4 1d 45 c3 6b 0f 43 b0 5d 4b 44 0f b8 bc 41
       2524.254 143.42094 813.46387 23.589872
000100 d7 6d 0b 44 62 b3 3b 44 a1 0b 94 43 3e d2 94 43
       557.71625 750.80286 296.09085 297.64252
000110 f6 b9 d0 43 6d 8d 04 45 ac 5a 3c 44 45 d7 c1 44
       417.45282 2120.839 753.41675 1550.7272
000120 11 71 e5 43 b9 74 d6 44 34 a8 d1 43 aa 3b 98 45
       458.88333 1715.6476 419.3141 4871.458
000130 c2 73 92 44 ca e3 72 45 f5 5f 74 43 a4 ca e4 41
       1171.6174 3886.2368 244.37483 28.598946
000140 ad a6 0f 43 2e 85 49 43 68 ea d2 43 c1 86 a1 44
       143.65108 201.52023 421.8313 1292.211
000150 ab 51 03 44 59 4f 6c 45 b7 62 40 41 81 05 be 43
       525.27606 3780.9592 12.0241 380.043
000160 33 14 da 44 38 7d ab 42 46 f5 bf 44 27 c2 a9 44
       1744.6312 85.74457 1535.6648 1358.0673
000170 94 e3 c5 43 d8 d5 88 44 3f ef 6f 44 d5 5c 64 42
       395.77795 1094.6826 959.7382 57.090656
000180 48 c7 a6 43 06 47 8e 44 dc df 94 44 cc 78 8c 44
       333.5569 1138.2195 1190.9956 1123.7749
000190 31 56 26 45 9c 43 6d 43 40 94 bd 44 f9 8e 1b 45
       2661.387 237.2641 1516.6328 2488.9358
0001a0 6e aa 06 44 ad ee 5b 41 12 76 a5 44 2d 77 23 45
       538.66296 13.74577 1323.6897 2615.4485
0001b0 8b 60 aa 43 c9 3d e7 42 d0 77 80 45 98 f3 7b 44
       340.75424 115.620674 4110.9766 1007.80615
0001c0 4f 41 38 44 6c bc 21 45 fb ea 10 45 f2 fb ba 43
       737.02045 2587.7764 2318.6863 373.96832
0001d0 10 02 d1 44 b7 66 3b 45 93 d6 05 45 37 0d 78 44
       1672.0645 2998.4197 2141.411 992.2065
0001e0 ad 57 81 43 8b a2 c9 44 c1 50 14 43 b3 5e f0 44
       258.68497 1613.0795 148.31544 1922.9594
0001f0 f9 54 28 40 57 a1 72 42 ac bb 56 45 e9 b9 cd 44
       2.6301863 60.65756 3435.7295 1645.8097
000200 90 d5 2f 44 e4 73 80 42 21 75 b7 44 94 ac 91 45
       703.3369 64.22635 1467.6603 4661.5723
000210 b8 92 9b 44 1d ef a3 43 0c 73 91 44 63 d0 3a 42
       1244.585 327.86807 1163.5952 46.703503
000220 b0 48 93 44 af 5b 0f 44 7b 82 5b 45 fb 63 9d 44
       1178.2715 573.43256 3512.155 1259.1244
000230 83 f4 0d 44 5c 25 3f 44 e6 bc 7a 44 8a e1 9d 44
       567.8205 764.58374 1002.95154 1263.0481
000240 78 58 fc 42 8e 0d f5 44 05 bb 8b 44 fe 8a 12 45
       126.17279 1960.4236 1117.8444 2344.687
000250 b9 ec a2 42 93 14 47 44 18 c9 6d 41 18 62 28 44
       81.46235 796.3215 14.861595 673.5327
000260 7e 69 c2 43 2d 52 47 45 fd fa ca 41 4f 99 41 41
       388.82416 3189.136 25.372553 12.099929
000270 1b 27 5a 45 42 1e c0 44 09 a0 10 44 d2 59 41 44
       3490.444 1536.9456 578.50055 773.40344
000280 a3 02 8d 44 3c b7 6e 43 6d df 56 45 63 31 41 45
       1128.0824 238.71576 3437.964 3091.0867
000290 24 64 b4 43 9e b8 2a 41 4c 65 3f 44 06 28 4e 45
       360.78235 10.670073 765.58276 3298.5015
0002a0 8a cb 7c 42 4a 57 5b 44 0d 43 e6 44 d8 68 ec 43
       63.19877 877.3639 1842.0953 472.8191
0002b0 45 3d 7e 44 a3 e7 80 44 50 1a ea 44 2a cf ec 44
       1016.95734 1031.2386 1872.8223 1894.4739
0002c0 ad 88 14 44 b0 28 7a 43 38 62 9b 44 54 f9 93 44
       594.13556 250.15894 1243.0693 1183.7915
0002d0 99 0d 8b 43 b0 f3 c6 43 4c 10 17 42 36 1c cb 44
       278.10623 397.9038 37.765915 1624.8816
0002e0 bc e1 4e 44 a2 01 15 44 6d fc a4 45 a1 57 4f 44
       827.5271 596.0255 5279.553 829.3692
0002f0 89 f9 55 43 29 c3 8c 44 1f 87 64 44 80 c4 48 43
       213.97475 1126.0988 914.11127 200.76758
000300 27 55 b4 43 94 ed 86 43 a1 48 1b 45 92 8a 95 44
       360.66525 269.85608 2484.5393 1196.3303
000310 fa bf 9a 45 80 58 74 44 e3 66 0c 44 3d 3c 70 44
       4951.997 977.3828 561.6076 960.9412
000320 4e 23 0c 45 2e df 07 44 85 27 91 44 17 14 4b 43
       2242.2065 543.4872 1161.235 203.07848
000330 04 3e ff 42 14 93 8c 43 58 98 6b 44 98 35 4e 44
       127.621124 281.14905 942.3804 824.8374
000340 2e 83 b7 43 b8 10 11 45 4c 51 f1 44 e3 08 79 41
       367.02484 2321.045 1930.5405 15.56467
000350 7c 93 41 44 dc 62 0b 45 df 56 46 43 ee b3 aa 43
       774.30444 2230.1787 198.33934 341.4057
000360 c0 2c 43 42 71 c5 3c 44 6d 55 23 45 c0 6b 31 45
       48.7937 755.085 2613.339 2838.7344
000370 d2 e9 54 41 31 a6 bc 44 d3 02 98 43 25 1f c7 44
       13.307085 1509.1935 304.02206 1592.9733
000380 37 19 71 44 3f eb 10 44 a9 e1 ee 43 4f df 2f 44
       964.394 579.6757 477.76297 703.4892
000390 d0 5e 94 44 00 8f 85 43 f8 d6 c3 44 d6 67 12 45
       1186.9629 267.1172 1566.7178 2342.4897
0003a0 d4 c1 3d 44 8f 99 e4 44 57 5f 08 44 08 19 6f 44
       759.02856 1828.7987 545.4897 956.3911
0003b0 56 44 84 44 b5 95 c9 43 fc a4 5b 41 5e 83 89 42
       1058.1355 403.1696 13.727779 68.75658
0003c0 1f 88 21 45 41 47 5d 45 ba 50 fd 42 21 52 d4 44
       2584.5076 3540.4534 126.65767 1698.5665
0003d0 29 b5 6e 44 21 90 c1 42 13 97 80 43 7a a1 d6 44
       954.8306 96.7815 257.18027 1717.0461
0003e0 ec 7c b4 44 45 b7 29 44 03 0a b4 42 94 2b 79 44
       1443.9038 678.8636 90.019554 996.6809
0003f0 07 5e 4c 44 6a e2 74 44 04 a5 8b 44 7d ee 6b 44
       817.4692 979.5377 1117.1567 943.7264

fc2.weight f4 [256, 258]
000000 86 0e 6b bd 53 4c 85 bd 93 fc 68 3c 07 08 9a bd
       -0.057386898 -0.06508698 0.014220375 -0.07521062
000010 fb b6 a0 bd 89 32 75 bd 9d dc 95 bd b2 2c 08 3b
       -0.07847401 -0.059862647 -0.07317469 0.0020778594
000020 ce 33 e9 3c 9c 52 08 bd 0b 40 52 3c a4 8a 07 be
       0.028467085 -0.033281907 0.012832652 -0.13236481
000030 db d3 ca bd 93 a1 94 bd 1c 87 d7 3c 1d 67 70 3c
       -0.099036895 -0.0725738 0.026309542 0.014673022
000040 15 61 b8 3c af 48 19 bd 08 31 dc bd 08 91 62 bd
       0.02250723 -0.037422832 -0.107515395 -0.055314094
000050 32 2d ad 3d 95 92 a0 bc 8b c1 b0 3a bf cc c4 bc
       0.08455886 -0.019601146 0.0013485415 -0.024023412
000060 73 a5 19 bd 7f 94 82 bb 30 8d aa 3c 71 85 fc bc
       -0.0375113 -0.0039849873 0.020819277 -0.030825349
000070 2a 1b 9e bd 3c 12 37 3d 66 0f f5 bc 7f 15 d8 3c
       -0.07720025 0.044695124 -0.02991457 0.026377438
000080 b8 19 08 bd a7 26 f6 bd 16 1f 91 bc d1 dc 2f 3d
       -0.033227652 -0.12019091 -0.017715018 0.042935196
000090 29 92 df 3c 45 1a 7c bd b6 0f 21 be 69 bf 11 3d
       0.027291374 -0.06154849 -0.1572865 0.035582934
0000a0 0e 57 6e bd 50 1e 9d 3c a7 34 96 3d 2a 21 78 39
       -0.05818849 0.019179493 0.073342614 0.00023663478
0000b0 d3 5e d1 bc 67 bf 05 3d c6 c4 2d bd b1 b4 8b bd
       -0.025557911 0.03265324 -0.042423986 -0.068215735
0000c0 05 b5 67 bd c5 4b 50 be d4 52 f2 bc 1d f3 18 bd
       -0.056569118 -0.20341404 -0.029580511 -0.037341226
0000d0 cf 0d bd bb f3 db 9e bd 06 60 80 bd 38 0b e0 bd
       -0.0057694684 -0.07756796 -0.06268315 -0.1093964
0000e0 24 bb a0 bc 22 2f 39 3d ad 6b a9 bc 84 d7 42 be
       -0.019620486 0.045210965 -0.020681227 -0.19027525
0000f0 f1 9e 85 bd 25 2a 08 3d db 46 b1 bd 1e 2d ee b8
       -0.06524456 0.033243317 -0.08656093 -0.00011357128
000100 1a 36 9d be 10 92 fe 3c 58 29 3d 3d 2c 2c 8e 3c
       -0.3070534 0.031075507 0.046182007 0.017355047
000110 8c 1a 0d be 27 50 59 bd 35 d8 1b bd 6a 54 d1 bc
       -0.13779658 -0.053054955 -0.038047988 -0.025552947
000120 2a 28 46 bd 80 8c f8 bc c0 8e f2 bc c4 c4 09 3d
       -0.048378147 -0.030340433 -0.029609084 0.033634916
000130 e8 27 1b be c0 7c 66 bd 19 da 1f be 81 b8 14 3d
       -0.15151942 -0.056271315 -0.15610541 0.03630877
000140 ad 35 6d bd 64 ad 02 be 74 7f 6e bd f8 76 81 bd
       -0.057912517 -0.12761456 -0.058227018 -0.063215196
000150 b9 6e 28 3c 11 b4 98 bd 66 0b 6d 3c 84 78 e1 bd
       0.010280305 -0.0745622 0.01446805 -0.11009315
000160 02 a8 18 be a1 8f 08 3d 26 75 c6 3c 06 f4 9a bc
       -0.1490784 0.0333401 0.024225783 -0.018915188
000170 26 65 ef bd 81 5a 0f 3d ec 66 cc 3c df 2a 8b bd
       -0.116892144 0.03499842 0.02495142 -0.067952864
000180 0a fb 80 bd 33 5d d9 3c e6 36 66 bc e0 57 24 3d
       -0.06297882 0.026533699 -0.014051175 0.040122867
000190 73 50 10 3d 8e 5e 33 be f4 a7 4b bd 2f c2 a0 3c
       0.035232972 -0.17516539 -0.04972072 0.019623844
0001a0 09 49 40 bd 6d 5d 60 bd 96 47 04 3d 78 41 47 bd
       -0.04694465 -0.054776598 0.032294832 -0.04864642
0001b0 f0 34 51 bd d3 75 2e bc 4b 2f c3 bd 7c 39 9c bd
       -0.051075876 -0.010648209 -0.09530505 -0.07628152
0001c0 44 97 50 bc 67 94 a2 bd 9e d9 c6 bc 48 03 aa bd
       -0.012731377 -0.07938462 -0.02427369 -0.08301407
0001d0 bf ff 00 bd eb 09 01 bd 55 56 21 bc 93 8d 37 3d
       -0.0314939 -0.0315036 -0.009847243 0.04481275
0001e0 52 8c 54 be f0 ff 35 bd 40 f2 a8 bd e1 32 d8 ba
       -0.20756653 -0.044433534 -0.082493305 -0.0016494655
0001f0 49 8e 6d bc e9 80 49 bd 96 99 67 3c 67 ae 05 be
       -0.014499255 -0.049195204 0.014135739 -0.1305481
000200 1b 7e 70 bd 6e 8e 92 3a 25 d8 fd bd 2d 81 8d bd
       -0.058714014 0.0011181363 -0.12394742 -0.06909404
000210 8c b2 56 bc 1d bb 10 bd d9 cf 0a be e2 5c 43 bd
       -0.013104092 -0.035334695 -0.1355585 -0.047696
000220 8c 7d cf 3b ce ca 37 3c cd 6e d3 3c c8 4c 5a bd
       0.006332105 0.011217786 0.02580967 -0.05329588
000230 aa ac 4f bd 15 28 8b bd 1d 0a e5 bb 38 13 08 be
       -0.050701775 -0.067947544 -0.006989731 -0.13288581
000240 ac 19 9b bc a0 d0 1e 3d fe 11 2d 3c 48 37 07 be
       -0.01893314 0.03877318 0.010563372 -0.13204682
000250 0a fe b8 3a 50 4d 3c be a7 c4 fd bc 4b 94 92 bd
       0.0014113795 -0.18388867 -0.03097756 -0.07157191
000260 51 78 2c bd d7 94 94 bd 90 06 7f bd 8f 00 9e bd
       -0.04210693 -0.072549514 -0.062262118 -0.0771495
000270 52 cd 3a be 5f 28 2d bd 66 47 c9 3d 4d 67 66 bc
       -0.18242386 -0.04227483 0.09828071 -0.014062715
000280 9f cd 34 bd c8 37 9c bc 25 80 b2 3c 90 c4 b3 bc
       -0.044141408 -0.019069567 0.02178962 -0.021944314
000290 f1 0f 37 bc 50 c0 e0 3c 0e c0 8d be f9 79 56 bd
       -0.011173234 0.027435452 -0.2768559 -0.052362416
0002a0 c4 ea 04 bd f5 9e 28 bc e8 06 b0 3c c5 94 40 bc
       -0.032450452 -0.010291805 0.021487668 -0.011754219
0002b0 05 18 13 bd 6d 0a 6d bb a0 38 27 bb ff 6b 25 bb
       -0.03591158 -0.0036169544 -0.002551593 -0.0025241373
0002c0 d6 6f 1d bd 16 1b 70 bd 42 4f ba bd 02 67 bd bc
       -0.038436733 -0.05861958 -0.090971485 -0.023120407
0002d0 f9 e0 d3 bc a3 ce 78 bd c2 2e 1e 38 9f 2a c2 bc
       -0.025864111 -0.06074394 3.7713682e-05 -0.023701964
0002e0 6c af 9a bc 79 c6 86 bd a5 1d ae bd d3 13 76 be
       -0.018882476 -0.065808244 -0.08501748 -0.24031
0002f0 7e 6f 05 bd eb 35 96 3c d6 fd a2 bd 04 94 54 bd
       -0.03257703 0.018336257 -0.079585716 -0.05189897
000300 ce be ac 3c 7c 80 f2 bc a2 38 2e bc 3b ab ec 3b
       0.021087077 -0.029602282 -0.0106336195 0.0072225607
000310 49 0b 2f bd 8b 8d 21 be c6 24 43 3c ee 8a a5 bd
       -0.04273537 -0.1577665 0.011910623 -0.08083139
000320 7b c1 77 bc 3f 80 df bd 1a 17 99 3c b2 b3 d9 bc
       -0.015121813 -0.10913133 0.018687773 -0.026574943
000330 e4 28 42 bd dc a9 95 bd 1c d1 ab 3c 8c 26 9c bd
       -0.047402278 -0.07307789 0.020973735 -0.0762454
000340 d7 96 45 bd f5 69 02 be 53 66 7d bd a5 73 57 bd
       -0.048239555 -0.12735732 -0.061865162 -0.05260052
000350 56 71 80 bd ce e8 88 bd e0 c5 40 bd 74 02 4c 3c
       -0.06271617 -0.06685029 -0.04706371 0.012451757
000360 13 20 7b 3c 4b 6c 8c bd 6b 36 f2 bd 84 ea 11 be
       0.015327471 -0.06856593 -0.11826786 -0.14249617
000370 57 c4 4b bc 8b 58 7c bd 41 84 30 3c de 9d e2 bd
       -0.012436948 -0.06160788 0.010773719 -0.11065267
000380 0d 12 e4 3c 6d 97 8d b7 ea 55 be bd e3 40 a6 3b
       0.027840639 -1.6879023e-05 -0.092937306 0.005073653
000390 67 1e 56 bd 82 9c 08 be 86 86 f0 bd 51 d5 65 bd
       -0.052275088 -0.13340953 -0.11744408 -0.056111638
0003a0 58 6c 02 be 71 89 3c be 77 05 fa 3b 2c f4 16 bd
       -0.12736642 -0.18411805 0.007630046 -0.036853954
0003b0 ce 49 c7 bc 50 3d 52 3b 8e 24 e7 bc 59 40 24 be
       -0.024327185 0.0032080002 -0.028215673 -0.16040172
0003c0 de f3 87 bc 97 82 98 bd f9 5a 8e bd 28 58 2b bd
       -0.016595777 -0.07446783 -0.069509454 -0.04183212
0003d0 1c 69 d9 bd 6d 6f 13 3d 30 a0 13 3d d6 c2 05 bd
       -0.10615751 0.035994936 0.03604144 -0.032656513
0003e0 80 d5 92 bd 2d d1 9d bd 01 38 86 bc ad 29 14 bb
       -0.07169628 -0.07705913 -0.016384127 -0.0022607849
0003f0 9f 31 a2 bd f9 ad 18 bd ba 14 d0 bd 1b e1 33 bb
       -0.07919621 -0.03727529 -0.10160203 -0.0027447406
