p3_collab-compet/checkpoints/00checkpoint_actor-v1.pth (torch_old, 296366 bytes, 10 tensors)

fc1.weight f4 [256, 24]
0	0xbcd3f6dd	-0.02587455
1	0xbddfc444	-0.109261066
2	0xbb9ea947	-0.004841957
3	0xbd5bc4d3	-0.053654503
4	0x3cba7b27	0.022763802
5	0xbd4b7020	-0.049667478
6	0xbd138237	-0.036012854
7	0x3cbd0cc0	0.023077369
8	0x3da9c3aa	0.08289273
9	0xbe124936	-0.1428574
10	0xbc963a32	-0.018338297
11	0x3c349072	0.011020767
12	0x3dbcd508	0.0922032
13	0xbd5050ee	-0.05085843
14	0x3d6d79d0	0.057977498
15	0x3cd83f14	0.026397265
16	0x3da8c8cf	0.08241426
17	0xbde13a37	-0.10997432
18	0x3bb1552a	0.0054117637
19	0x3db18206	0.08667378
20	0xbce62873	-0.02809546
21	0x3d91e9f2	0.071247
22	0xbcc38170	-0.023865432
23	0x3d8c27bf	0.068435185
24	0xbc9e043c	-0.019289128
25	0x3d53680e	0.051612906
26	0xbd6450a1	-0.055740956
27	0x3d16a80d	0.03678136
28	0x3cc0e448	0.023546353
29	0xbd450bc0	-0.04810691
30	0x3d261ab7	0.04055282
31	0x3dbacddf	0.09121298
32	0xbdb425be	-0.08796261
33	0x3ca009c7	0.019535912
34	0x3c925f5d	0.017867738
35	0x3d04f61c	0.03246127
36	0x3c938b34	0.018010713
37	0xbca5ec3f	-0.020254252
38	0xbcf8b531	-0.030359836
39	0xbd1a94e3	-0.037739646
40	0xbbfb6728	-0.0076722093
41	0xbd3708fe	-0.04468631
42	0x3d2a0173	0.04150529
43	0xbd7f9c2c	-0.062404796
44	0x3d7c616f	0.061616357
45	0xbd042892	-0.032265253
46	0xbd09d91d	-0.03365432
47	0xbe048a60	-0.12943411
48	0xbcfa87cb	-0.03058233
49	0x3d52b4e2	0.051442035
50	0x3c99eb8b	0.018789073
51	0x3d8be21c	0.06830236
52	0xbbe4076b	-0.006958892
53	0x3e289d28	0.164662
54	0x3bcf3b93	0.0063242405
55	0x3b0e8ccd	0.0021751404
56	0x3da228fc	0.079179734
57	0xbd4b9a5a	-0.049707748
58	0xbc1bb75b	-0.009504165
59	0x3d40a258	0.047029823
60	0xbc993daf	-0.01870617
61	0x3dbe975e	0.09306215
62	0x3c755ccc	0.014975738
63	0xbbb3bad9	-0.0054849205
64	0x3da43747	0.08018356
65	0xbd111752	-0.03542263
66	0xbab59ea9	-0.0013856489
67	0xbd7e1714	-0.062033728
68	0x3c86d998	0.016461179
69	0x3e22c83b	0.15896694
70	0x3cad0d9b	0.021124652
71	0x3d330dc4	0.0437143
72	0xbd1432a4	-0.036181107
73	0xbcff06b3	-0.031131124
74	0x3cd9e8e9	0.026600318
75	0xbdc63c16	-0.09679429
76	0xbc42d40c	-0.011891376
77	0xbe3192b4	-0.17341119
78	0x3c3ed6ed	0.011647922
79	0xbd9f5bb1	-0.077811606
80	0x3cd4766e	0.025935378
81	0x3ace96d8	0.0015761508
82	0x3cbf563c	0.02335655
83	0x3cbf87a1	0.023380103
84	0xbc170257	-0.009216866
85	0xbdfefb64	-0.12450293
86	0x3c924ad4	0.017857946
87	0x3c922e62	0.017844383
88	0xbc123800	-0.008924484
89	0xbd8ce076	-0.0687875
90	0x3d4b2adc	0.04960142
91	0xbd628971	-0.055306856
92	0x3c9a9c8e	0.01887348
93	0xbd6637b0	-0.05620545
94	0xbc8065e0	-0.015673578
95	0xbd9d0133	-0.07666244
96	0x3d8c2321	0.06842638
97	0x3d857905	0.06517223
98	0xbc4778fb	-0.01217484
99	0xbcb9e851	-0.022693785
100	0x3cc9101d	0.024543816
101	0x3d39b594	0.045339182
102	0xbd6ca562	-0.05777491
103	0xbdce3ee1	-0.10070587
104	0x3d44d5c5	0.04805543
105	0xbb38af7c	-0.0028180769
106	0xbd16ad4a	-0.036786355
107	0xbd5b81c5	-0.053590555
108	0x3cc632e6	0.024194192
109	0x3d3b8dc5	0.0457895
110	0xbcec37f1	-0.028835269
111	0xbd0a4f07	-0.033766773
112	0x3d0a855b	0.033818584
113	0x3d2b5ec3	0.04183842
114	0xbd4608cf	-0.048348244
115	0xbd6373f1	-0.055530492
116	0xbd2b353f	-0.041798826
117	0xbc95c91b	-0.018284371
118	0xbd18b8f1	-0.03728575
119	0x3cfe7355	0.031060854
120	0xbd9f7426	-0.077858254
121	0xbd1bae0f	-0.038007792
122	0xba2b5b39	-0.00065367256
123	0x3d638fa3	0.055556905
124	0x3c9761bf	0.018479226
125	0x3da9aef1	0.082853206
126	0xbc7e7434	-0.015530635
127	0xbcf98736	-0.030459981
128	0x3d0b6802	0.034034736
129	0xbc239756	-0.009984812
130	0xbd861819	-0.06547565
131	0x3d27edf7	0.040998425
132	0xbd174c88	-0.03693822
133	0x3e1c64a6	0.1527277
134	0x3b7189e4	0.003685587
135	0x3db5b6d9	0.08872766
136	0x3b68874b	0.0035481032
137	0xbb827054	-0.0039806757
138	0x3af9f5cb	0.0019070444
139	0x3e12dba6	0.14341602
140	0xbd53099c	-0.051522836
141	0x3dead201	0.11465836
142	0x3c44a243	0.012001577
143	0x3dd93ff4	0.10607901
144	0xbd94187e	-0.07231234
145	0x3d845166	0.06460838
146	0x3d319c86	0.043362163
147	0x3beff975	0.007323439
148	0xbcde7c16	-0.027158778
149	0x3e157d58	0.14598596
150	0xbb072f44	-0.0020627538
151	0xbcbbe00c	-0.022933982
152	0xbcf7eb6d	-0.030263627
153	0x3d9c80c6	0.07641749
154	0xbcefdec6	-0.029281031
155	0xbc4e6ef8	-0.012599699
156	0x3d30cf11	0.043166224
157	0x3e2a7e72	0.16649798
158	0xbc5cd8fd	-0.013479468
159	0x3d691fe0	0.056915164
160	0xbcf7665a	-0.030200172
161	0xbd08e8b7	-0.03342506
162	0x3cd58dff	0.026068686
163	0x3d397651	0.04527885
164	0xbd8a723d	-0.067600705
165	0x3d9939bc	0.07481715
166	0xbd4057d9	-0.046958778
167	0x3d7611a4	0.060075417
168	0xbc945144	-0.018105157
169	0xbe17a669	-0.14809574
170	0xbc941591	-0.01807669
171	0x3ccb0b6d	0.024785722
172	0x3d8f1ed6	0.06988303
173	0x3e4601b7	0.19336592
174	0xbd0bc47e	-0.034122936
175	0x3d0bd03a	0.034134127
176	0xbc0d2df1	-0.00861691
177	0xbe1db10b	-0.15399568
178	0x3b41d8c7	0.0029578672
179	0x3d38e0ae	0.045136146
180	0x3d2d6af3	0.042338323
181	0x3d23cd19	0.03999052
182	0x3c22f9bd	0.009947238
183	0x3e07bb8b	0.13255136
184	0x3d969158	0.07351941
185	0xbd918db6	-0.07107107
186	0x3d0e3f7f	0.034728523
187	0x3db0df2b	0.08636316
188	0xbca1e0f5	-0.019760588
189	0x3bb08479	0.0053868857
190	0xbc8efe06	-0.017455112
191	0x3d43e77e	0.04782819
192	0xbd70ef35	-0.058821876
193	0xbe489ed8	-0.19591844
194	0x3d1c916b	0.03822462
195	0x3d64223d	0.055696715
196	0x39e709c9	0.00044067044
197	0xbd2ee436	-0.042698108
198	0x3d09a1ac	0.033601448
199	0x3d332f7e	0.043746464
200	0x3ca5993e	0.020214673
201	0xbe7bf567	-0.24605332
202	0xbc2ba4ae	-0.010476274
203	0xbb65e445	-0.0035078686
204	0xbc33cc6d	-0.010974032
205	0xbc96361e	-0.018336352
206	0xbb90d082	-0.0044193873
207	0x3cfc3184	0.03078533
208	0xbc134361	-0.008988232
209	0xbe03045b	-0.1279463
210	0xbc88805a	-0.016662765
211	0x3decf3a9	0.11569912
212	0x3b75cdb3	0.003750664
213	0xbd0ec02c	-0.034851238
214	0x3bcad037	0.006189372
215	0x3debe372	0.11517991
216	0x3d17004e	0.036865525
217	0xbe12be8f	-0.14330505
218	0x3cd2356b	0.025660237
219	0x3d0d46b1	0.034491245
220	0x3d42d812	0.047569342
221	0x3e3fb601	0.18721773
222	0xbcb6cb82	-0.022313837
223	0xbd7de70a	-0.061987914
224	0xbd5fd33f	-0.05464482
225	0xbe448a8f	-0.19193481
226	0xbc206b70	-0.00979124
227	0x3d8e61e5	0.06952266
228	0x3d718ee8	0.058974177
229	0x3d90fda9	0.07079632
230	0x3caf5e45	0.021407256
231	0x3cb96cea	0.022634942
232	0xbcb4353e	-0.021998044
233	0xbdf23225	-0.118259706
234	0x3cc3b37c	0.023889296
235	0xbb290c4d	-0.0025794685
236	0x3d6afccf	0.057370003
237	0x3db38d3a	0.08767171
238	0xbcc85044	-0.024452336
239	0x3d2024d0	0.039097607
240	0xbd490b8b	-0.049083274
241	0x3decd798	0.11564559
242	0x3d3e4415	0.046451647
243	0x3dd5f860	0.104477644
244	0x3c49541c	0.01228812
245	0x3dbec874	0.09315577
246	0xbd388f74	-0.045058683
247	0x3e11e1f7	0.14246355
248	0xbd514235	-0.05108853
249	0x3dea7dbb	0.114497624
250	0xbcf13da8	-0.029448345
251	0x3c8bc27f	0.017060516
252	0x3be8f303	0.0071090474
253	0xbcb62c9a	-0.022238065
254	0xbc428af2	-0.011873947
255	0x3d4e5994	0.050378397

fc1.bias f4 [256]
0	0x3dd66ab6	0.10469572
1	0xbe14bae4	-0.14524418
2	0x3e10dbca	0.14146343
3	0xbe0b8696	-0.13625559
4	0x3e3b1662	0.18270257
5	0x3e0e3230	0.13886333
6	0x3d95ff84	0.07324126
7	0xbe4c6d60	-0.19963598
8	0xbda79e57	-0.08184498
9	0x3dc39dbe	0.09551571
10	0xbe3e9cd3	-0.18614511
11	0x3dc7e564	0.0976055
12	0xbda84400	-0.08216095
13	0xbe18c4df	-0.1491885
14	0xbb116424	-0.0022184933
15	0x3d002619	0.031286333
16	0x3e1dfb84	0.15427977
17	0xbe050e1b	-0.12993662
18	0xbe29e500	-0.16591263
19	0xbd8d0bfe	-0.06887053
20	0x3d1eb610	0.038747847
21	0xbdba2bc7	-0.09090381
22	0xbd9f7256	-0.0778548
23	0xbd91f607	-0.07127004
24	0x3db34d92	0.0875503
25	0x3cdb8b3e	0.026799794
26	0x3e373757	0.17892204
27	0x3e048a67	0.12943421
28	0xbe351a7c	-0.17685884
29	0x3d5816ad	0.052756
30	0xbe370d96	-0.17876276
31	0xbe40c380	-0.18824577
32	0xbd916201	-0.07098771
33	0x3e502e8f	0.2033026
34	0x3c95baf1	0.018277617
35	0xbe165027	-0.14679013
36	0xbe3c7d72	-0.18407229
37	0x3e1d8e3e	0.15386292
38	0x3e21dc87	0.15806781
39	0xbde7fd5f	-0.113276236
40	0x3e117cdc	0.14207786
41	0x3d9a807d	0.075440384
42	0xbdd7144e	-0.1050192
43	0x3d7ffe7e	0.062498562
44	0x3bfb5f55	0.0076712766
45	0xbd574c62	-0.05256308
46	0xbd553b97	-0.052058782
47	0x3e1a8c10	0.15092492
48	0x3db4805f	0.08813547
49	0x3db65b56	0.0890414
50	0x3d73775c	0.05944
51	0x3e0ed6c4	0.13949114
52	0xbd55e9fe	-0.052225105
53	0xbb3586c4	-0.0027698735
54	0x3e2cd93a	0.1687974
55	0x3dfa9eb2	0.122373
56	0x3d4f7ec4	0.050658002
57	0xbdd4f81b	-0.10398885
58	0xbd56c590	-0.052434504
59	0x3d03addc	0.032148227
60	0xbe012c39	-0.12614526
61	0x3dbd6026	0.092468545
62	0xbe01cf71	-0.12676789
63	0xbe145bd8	-0.1448816
64	0x3d96320e	0.07333766
65	0xbdcec0f7	-0.10095399
66	0xbe50efdb	-0.20403998
67	0x3e0318cf	0.12802432
68	0xbdaa985f	-0.08329844
69	0xbd9e5613	-0.07731261
70	0xbdc2795a	-0.09495802
71	0xbdeef8bd	-0.11668537
72	0xbe0c72db	-0.13715689
73	0xbdb6c4bc	-0.08924243
74	0xbe18dcd2	-0.14927986
75	0xbc91504f	-0.01773849
76	0x3d853b0e	0.065054044
77	0xbe022fcc	-0.12713546
78	0xbe48b86f	-0.19601606
79	0x3d91d72f	0.07121121
80	0xbde6f403	-0.1127701
81	0x3d64aa05	0.055826206
82	0xbc80ca82	-0.015721563
83	0x3d37a359	0.044833515
84	0xbb15e3cf	-0.002287138
85	0xbd82d9f0	-0.063892245
86	0xbe222693	-0.15835027
87	0x3e0f9ca1	0.14024593
88	0x3dc5dec6	0.09661631
89	0x3cad47c9	0.021152394
90	0x3e324f6e	0.17413113
91	0x3e3fec73	0.18742542
92	0xbe27faf7	-0.16404329
93	0x3dd2083d	0.102554776
94	0x3e3feed9	0.18743457
95	0xbc3a2a2e	-0.0113625955
96	0xbe45e4bc	-0.19325536
97	0xbd980dc3	-0.074245
98	0x3c9a403e	0.018829461
99	0xbd326dbf	-0.043561693
100	0x3dc8cfc9	0.09805257
101	0x3da2cc4d	0.079491235
102	0xbe46d82a	-0.19418398
103	0x3ce1a251	0.027543219
104	0x3d05257c	0.03250645
105	0x3e05738f	0.13032363
106	0x3cd6ccc8	0.026220694
107	0x3de38feb	0.111114345
108	0x3d2be40a	0.041965522
109	0xbe0af1e2	-0.13568833
110	0xbe222252	-0.15833405
111	0xbd8e971a	-0.06962414
112	0x3a61e593	0.0008617278
113	0xbdf411f8	-0.1191749
114	0xbe3925c6	-0.18080816
115	0x3e331184	0.1748715
116	0x3cbc0ff1	0.02295682
117	0x3da16db2	0.07882251
118	0xbdd46217	-0.10370272
119	0x3d0a0bfa	0.033702828
120	0xbc83dc08	-0.01609613
121	0x3ddb5ed8	0.107114494
122	0xbd98593c	-0.07438895
123	0x3e3a24a6	0.18178043
124	0x3c2da80a	0.010599146
125	0x3c0bf07b	0.008541222
126	0x3e12ae7d	0.14324374
127	0xbbd8d4cf	-0.0066171656
128	0x3d73a14a	0.05947999
129	0xbc67b224	-0.014141593
130	0x3e215df7	0.15758501
131	0xbe4b36d9	-0.19845141
132	0x3e4990e6	0.1968418
133	0xbdf62b45	-0.12019972
134	0x3e4c4894	0.19949561
135	0x3d8d91ca	0.06912573
136	0xbe04ef4f	-0.12981914
137	0xbe329428	-0.1743933
138	0x3d657892	0.056023188
139	0x3da9c40e	0.082893476
140	0xbe0edc84	-0.13951308
141	0x3e052b8b	0.13004892
142	0xbdbee22b	-0.09320482
143	0x3e25529c	0.16144794
144	0x3d0895c5	0.033345956
145	0xbe335c45	-0.17515667
146	0x3d06040c	0.032718703
147	0xbd5d7a12	-0.054071493
148	0x3d5d331c	0.05400382
149	0xbd9d1f0a	-0.07671936
150	0x3e371fc4	0.17883211
151	0xbdee58d8	-0.11638039
152	0x3e2badf2	0.16765574
153	0xbe4f4522	-0.20241216
154	0x3e175cc6	0.14781484
155	0xbe0fea37	-0.1405419
156	0x3d1b1c47	0.037868764
157	0xbd54e793	-0.05197866
158	0xbe500f0c	-0.2031824
159	0x3e244afa	0.16044226
160	0x3d46247a	0.04837463
161	0x3de87a90	0.11351502
162	0xbdc82857	-0.09773319
163	0xbd813ea5	-0.063107766
164	0xbdc0a7f0	-0.094070315
165	0xbe40ee04	-0.18840796
166	0x3d36ab5c	0.044597015
167	0x3d982ef7	0.07430833
168	0xbccadc7f	-0.024763344
169	0xbe07fe32	-0.13280562
170	0x3cc7d8bf	0.024395345
171	0x3db316a2	0.08744551
172	0x3c9e91c8	0.019356623
173	0xbe4f52e9	-0.20246471
174	0x3dcce5ac	0.10004744
175	0x3e1814b2	0.14851645
176	0xbd88a3f2	-0.06671895
177	0xbd36b735	-0.044608314
178	0x3b9280c6	0.0044709174
179	0x3d2a2ba1	0.041545514
180	0x3e396ae7	0.18107186
181	0x3e15473a	0.14577952
182	0x3dba9726	0.091108605
183	0xbe09c745	-0.13454922
184	0x3dfaf519	0.1225378
185	0x3dcbd71b	0.099531375
186	0x3e43d45d	0.19123979
187	0xbda1c4a5	-0.07898835
188	0x3d93669a	0.07197304
189	0x3e09f341	0.134717
190	0x3dc3c5e6	0.095592305
191	0xbca82ce8	-0.020529225
192	0xbd705698	-0.058676332
193	0xbd194493	-0.037418913
194	0x3de8fa4d	0.11375866
195	0xbd840fdb	-0.06448337
196	0xbe4fba18	-0.20285833
197	0xbd06a9ac	-0.032876655
198	0xbe4002a2	-0.18751004
199	0xbe23e546	-0.1600543
200	0x3e343d7d	0.17601581
201	0xbe03919a	-0.12848511
202	0x3df2e3ed	0.1185988
203	0xbdfb7cdd	-0.12279675
204	0xbe4d5a17	-0.20053898
205	0x3b95d3ac	0.0045723524
206	0x3dd6e47c	0.10492799
207	0x3c19223b	0.00934654
208	0x3df0185a	0.11723395
209	0xbc080d5b	-0.008303965
210	0xbe14e31a	-0.14539757
211	0x3dffa38f	0.12482368
212	0x3d0f822d	0.035036255
213	0xbde74d04	-0.112939864
214	0xbcac1166	-0.02100439
215	0x3d939045	0.072052516
216	0xbd2ff51c	-0.042958364
217	0xbc161546	-0.009160345
218	0x3d5367fb	0.051612835
219	0x3d85c9f2	0.06532659
220	0x3df06480	0.11737919
221	0xbd542dc6	-0.051801465
222	0x3d78c6e0	0.060736537
223	0x3d452b8d	0.048137236
224	0xbda06b96	-0.078330204
225	0x3d00553a	0.03133128
226	0x3be5cfd5	0.007013301
227	0xbe19c8ec	-0.15018052
228	0xbe3bdee2	-0.18346742
229	0x3e363373	0.17793064
230	0xbdbf17b2	-0.093306914
231	0x3e18e68e	0.149317
232	0x3d28118f	0.04103237
233	0x3deccab9	0.11562104
234	0xbce31a55	-0.027722517
235	0xbd307488	-0.043079883
236	0xbd9ae6b5	-0.07563535
237	0xbe46919c	-0.19391483
238	0xba3ca160	-0.00071956776
239	0x3e30101a	0.17193642
240	0x3d281c43	0.041042577
241	0xbd8b83ad	-0.068122245
242	0xbe04592a	-0.12924638
243	0xbd449f72	-0.04800362
244	0xbdada415	-0.08478562
245	0x3dffd080	0.1249094
246	0x3dbcc819	0.09217853
247	0x3d580d65	0.05274715
248	0x3cf548c7	0.02994193
249	0x3becbe9c	0.007224871
250	0xbddc3740	-0.107527256
251	0xbccacab3	-0.024754858
252	0x3e057816	0.1303409
253	0xbcd51952	-0.02601305
254	0x3d901032	0.07034339
255	0xbce8332f	-0.028344719

bn1.weight f4 [256]
0	0x3f4e63fa	0.806213
1	0x3da8ec8a	0.08248241
2	0x3f51e1cf	0.8198518
3	0x3f263362	0.64922154
4	0x3f470fcf	0.77758497
5	0x3f6fd839	0.93689305
6	0x3f0ec540	0.5576973
7	0x3f59465f	0.84873
8	0x3f44beaa	0.7685343
9	0x3ea1bb1d	0.3158807
10	0x3e5111a5	0.20416887
11	0x3f7f9597	0.9983763
12	0x3f46efbb	0.7770955
13	0x3f2edd5e	0.6830653
14	0x3f22e14b	0.6362502
15	0x3ebab232	0.36464077
16	0x3f404d39	0.7511783
17	0x3ea475b0	0.32121038
18	0x3f109af7	0.5648646
19	0x3f34a4b7	0.70563835
20	0x3f1fbc9e	0.6239718
21	0x3f6490fa	0.89283717
22	0x3e7eade4	0.24871022
23	0x3e3d00f5	0.18457396
24	0x3e34ef97	0.17669521
25	0x3e5d262b	0.21596591
26	0x3d8ea1bc	0.06964442
27	0x3eba344d	0.36368027
28	0x3edfdbc1	0.43722346
29	0x3f63ad2a	0.889361
30	0x3e8c40ac	0.2739309
31	0x3ead26ed	0.3381876
32	0x3ed00f1d	0.4063653
33	0x3f63faff	0.89054865
34	0x3e2dd563	0.16975932
35	0x3f390c6e	0.7228459
36	0x3eb7d49b	0.35904393
37	0x3e59be47	0.21263991
38	0x3e99a6a7	0.30009958
39	0x3f7e7f19	0.99412686
40	0x3f0507f6	0.5196527
41	0x3f516ab1	0.81803423
42	0x3f73f927	0.9530205
43	0x3ee63d07	0.44968435
44	0x3f318cb7	0.6935534
45	0x3f56d8b6	0.83924425
46	0x3f75d1c9	0.9602323
47	0x3ec282d9	0.37990454
48	0x3f3e5679	0.74350697
49	0x3f31e83f	0.69495004
50	0x3f6cd506	0.9251255
51	0x3f818c4c	1.012094
52	0x3f0600c1	0.523449
53	0x3e7d01cc	0.24707717
54	0x3f1877b9	0.5955768
55	0x3f0ec60e	0.5577096
56	0x3eb8be05	0.36082473
57	0x3f0694fc	0.5257108
58	0x3f6a0377	0.91411537
59	0x3f671395	0.90264255
60	0x3ebcc3f7	0.3686826
61	0x3e9a8370	0.30178404
62	0x3f2c9eff	0.6743011
63	0x3db22d04	0.08699992
64	0x3edf96de	0.4366979
65	0x3ee29127	0.44251367
66	0x3ead4606	0.33842486
67	0x3f03139e	0.5120181
68	0x3f1fe631	0.6246062
69	0x3f76274f	0.9615373
70	0x3f3238bd	0.69617826
71	0x3f267936	0.65028703
72	0x3e61a0f2	0.22034052
73	0x3ea2298a	0.31672317
74	0x3e9a7441	0.3016682
75	0x3e4c17ac	0.19930905
76	0x3f19460e	0.5987252
77	0x3f06e35b	0.52690667
78	0x3f32fc9b	0.69916695
79	0x3dedba17	0.116077594
80	0x3bde7df6	0.006789918
81	0x3ee9b5ff	0.45646665
82	0x3ecee013	0.4040533
83	0x3e8c5ad0	0.27413034
84	0x3f4493bb	0.7678792
85	0x3f5ebfd5	0.8701146
86	0x3e793136	0.24335179
87	0x3f039804	0.5140383
88	0x3f28da94	0.65958524
89	0x3f2aa264	0.6665404
90	0x3e731490	0.23738313
91	0x3f48c2ac	0.78422046
92	0x3f5a8d3f	0.85371774
93	0x3f2e3a07	0.6805729
94	0x3f1a04f1	0.6016379
95	0x3eaf3253	0.34218082
96	0x3f66cc23	0.9015524
97	0x3ebb42ab	0.365743
98	0x3f4e109b	0.8049409
99	0x3f5c0eeb	0.85960263
100	0x3ed31038	0.4122331
101	0x3d352a4c	0.04422979
102	0x3f6d888d	0.92786485
103	0x3f184e82	0.59494793
104	0x3f855be1	1.0418664
105	0x3e287110	0.1644938
106	0x3ea20b41	0.3164921
107	0x3e3d8034	0.18505937
108	0x3f89ceee	1.0766275
109	0xb62fa450	-2.6172675e-06
110	0x3f3e36f9	0.7430263
111	0x3f474cc7	0.7785153
112	0x3ed69a77	0.41914722
113	0x3f470b16	0.7775129
114	0x3e6cc11b	0.23120539
115	0x3f4efc39	0.8085361
116	0x3f1f0d5c	0.6212976
117	0x3f2b550b	0.6692664
118	0x3f0a3dce	0.54000556
119	0x3f06034a	0.5234877
120	0x3f0e1f07	0.55516094
121	0x3f7e9404	0.99444604
122	0x3e8bded6	0.27318448
123	0x3f77653a	0.96638834
124	0x3de4bac9	0.11168439
125	0x3df6c81d	0.12049887
126	0x3e12319c	0.14276737
127	0x3eb24edb	0.34825787
128	0x3f788c61	0.970892
129	0x3f190cf8	0.59785414
130	0x3f25ea30	0.64810467
131	0x3f078095	0.52930576
132	0x3e9e46fb	0.3091353
133	0x3f0fc737	0.5616335
134	0x3eb5ddcf	0.3552079
135	0x3ea76c74	0.3269993
136	0x3e9a8a52	0.30183655
137	0x3f0f7617	0.56039566
138	0x3f5e9374	0.86943746
139	0x3ea769d6	0.32697934
140	0x3e8ccf02	0.27501684
141	0x3f195cff	0.59907526
142	0x3f2b278b	0.6685721
143	0x3f1b5df7	0.60690254
144	0x3f82883b	1.0197824
145	0x3f1d1cba	0.6137196
146	0x3f36fd72	0.71480477
147	0x3ea056ec	0.31316316
148	0x3ef0e3d3	0.47048816
149	0x3f11ff12	0.5702983
150	0x3d73be8c	0.05950789
151	0x3e9e8edc	0.30968368
152	0x3f050b0c	0.5196998
153	0x3ee5ce60	0.44884014
154	0x3e313dbd	0.17308708
155	0x3e0dac53	0.13835268
156	0x3ea5858d	0.32328454
157	0x3f14137c	0.5784223
158	0x3f1c4217	0.61038345
159	0x3f715c4d	0.94281465
160	0x3f387f26	0.72069013
161	0x3f401dd1	0.75045496
162	0x3f331425	0.69952613
163	0x3e8c5b89	0.27413586
164	0x3eb13378	0.3460958
165	0x3de36d1d	0.11104796
166	0x3f09d07e	0.5383376
167	0x3f81df81	1.0146333
168	0x3e3ce974	0.1844843
169	0x3e5d8b93	0.21635275
170	0x3f7e1332	0.9924804
171	0x3f473038	0.7780795
172	0x3f6746fa	0.90342677
173	0x3f2d072e	0.6758908
174	0x3f041d45	0.5160716
175	0x3f4866b0	0.7828169
176	0x3f7889fc	0.9708555
177	0x3f7b302e	0.9812039
178	0x3f0c11c5	0.54714614
179	0x3f84a287	1.03621
180	0x3e202447	0.15638839
181	0x3f7c27aa	0.9849802
182	0x3e5f2fe0	0.21795607
183	0x3f74fd36	0.9569887
184	0x3f80e746	1.0070579
185	0x3f087ad2	0.5331241
186	0x3f2859d7	0.65762085
187	0x3eb7f6dc	0.35930526
188	0x3edea4a5	0.4348499
189	0x3e7d8448	0.24757493
190	0x3f169369	0.5881868
191	0x3f438fd4	0.7639134
192	0x3f157012	0.5837413
193	0x3eb31142	0.34974104
194	0x3e843607	0.2582247
195	0x3f5129a8	0.8170419
196	0x3ecaf8a5	0.39642826
197	0x3f06ec4f	0.5270433
198	0x3f4d8caf	0.8029279
199	0x3ea228ae	0.3167166
200	0x3f308f7e	0.6896895
201	0x3e1c36b2	0.1525524
202	0x3f13e4e9	0.57771164
203	0x3f3e16e3	0.7425367
204	0x3eaab49d	0.33340922
205	0x3ee8b3e4	0.45449746
206	0x3f4b1742	0.79332364
207	0x3ecf4880	0.40485
208	0x3e387cfc	0.18016428
209	0x3e81ee38	0.2537706
210	0x3e598347	0.21241485
211	0x3de56195	0.11200253
212	0x3f289731	0.658557
213	0x3f37b86d	0.71765786
214	0x3e6b9fc8	0.2301017
215	0x3d6f1d44	0.05837752
216	0x3e6e74b4	0.23286706
217	0x3f4872a3	0.7829992
218	0x3f375456	0.7161306
219	0x3f3c0027	0.7343773
220	0x3e864f45	0.26232353
221	0x3f83229e	1.0244939
222	0x3e91e1df	0.28492638
223	0x3edf0d56	0.43564862
224	0x3ea2d8ba	0.31805974
225	0x3ee370c7	0.4442198
226	0x3efb0823	0.49029645
227	0x3f2cf9b3	0.6756851
228	0x3f68763e	0.90805423
229	0x3f572d4f	0.8405351
230	0x3f47432e	0.77836883
231	0x3f6e4622	0.93075764
232	0x3f30a3aa	0.6899973
233	0x3f82659b	1.0187258
234	0x3e7110ec	0.23541611
235	0x3f5d0f11	0.86351115
236	0x3f916221	1.1358072
237	0x3f31fcf4	0.695266
238	0x3d111c0c	0.03542714
239	0x3f8a36eb	1.079801
240	0x3eb9babe	0.36275285
241	0x3e77d03b	0.24200527
242	0x3d3135b8	0.04326412
243	0x3f822deb	1.0170263
244	0x3f7314ba	0.949535
245	0x3e2c481f	0.16824387
246	0x3f334829	0.7003198
247	0x3ebbfc27	0.36715814
248	0x3e2ba7cd	0.1676323
249	0x3eaa668d	0.33281365
250	0x3db638d2	0.08897556
251	0x3f2923d8	0.6607032
252	0x3f00a232	0.5024749
253	0x3f37063f	0.71493906
254	0x3e8fe15d	0.28101626
255	0x3f34ece2	0.70673954

bn1.bias f4 [256]
0	0x3c06f7a2	0.008237751
1	0xbd5b09f4	-0.05347629
2	0xbd3591e4	-0.044328585
3	0xbd780928	-0.060555607
4	0x3be48140	0.0069734156
5	0xbb7d304a	-0.003863352
6	0x3d80a6f5	0.062818445
7	0xbdada9c0	-0.08479643
8	0xbca8e8ca	-0.020618815
9	0xbda7aa8d	-0.08186827
10	0x3d2bbacf	0.0419262
11	0x3c521075	0.0128213065
12	0xbdf89c6e	-0.121392116
13	0x3c3506f4	0.011049021
14	0xbd01502d	-0.031570602
15	0xbd895d81	-0.067072876
16	0x3cc0e37d	0.023545975
17	0x3ca84100	0.020538807
18	0xbdbf3e47	-0.0933805
19	0x3d9642aa	0.07336934
20	0xbd906473	-0.07050409
21	0xbd9de7e4	-0.07710245
22	0xbdc50840	-0.09620714
23	0xbd74dc73	-0.05978055
24	0x3d6adef2	0.057341523
25	0xbd93c2cb	-0.07214888
26	0x3cd1122a	0.025521357
27	0x3bf82a3b	0.0075733936
28	0xbd42f19f	-0.04759371
29	0x3c5e1454	0.013554651
30	0x3d29cf51	0.041457478
31	0xbd99c21f	-0.07507729
32	0xbd6d8352	-0.057986565
33	0x3d04aa7c	0.03238915
34	0x3d8a03d2	0.0673901
35	0xbdf3e64d	-0.11909161
36	0xbcbc6012	-0.022995029
37	0x3cf1c2df	0.029511867
38	0xbd53fff0	-0.051757753
39	0xbcfcf6a3	-0.030879324
40	0xbd7d8b2a	-0.061900295
41	0xbc838d4b	-0.016058585
42	0xbd2f848e	-0.042851023
43	0x3cda170c	0.026622318
44	0x3d2bbee7	0.041930106
45	0x3bf3133d	0.007418065
46	0x3cd119f0	0.025525063
47	0xbd2ea9d7	-0.04264244
48	0xbd1e8dcc	-0.038709447
49	0xbcb835ba	-0.022486556
50	0xbdb48dbb	-0.088160954
51	0xbd36f9bf	-0.04467177
52	0xbd49b7c3	-0.049247514
53	0xbda669ce	-0.081256494
54	0x3d8b0862	0.06788708
55	0xbc913e7b	-0.017729988
56	0xbc48b637	-0.012250475
57	0x3caff466	0.021478843
58	0xbdde1f67	-0.10845833
59	0xbdd4b8bf	-0.103868
60	0x3d966286	0.073430106
61	0x3c8a4171	0.016876908
62	0x3a417703	0.00073801
63	0x3ce480d0	0.027893454
64	0xbdcb64e2	-0.09931351
65	0x3c9cdcb9	0.019148218
66	0x3c887982	0.016659502
67	0x3b9322e1	0.004490242
68	0x3c9b9a3c	0.018994443
69	0xbd9d8075	-0.07690517
70	0xbc0fa158	-0.008766495
71	0xbd16fcf1	-0.036862317
72	0xbc952d3f	-0.018210052
73	0x3d5bcebd	0.053663958
74	0xbbeedadb	-0.007289273
75	0xbceef631	-0.029170128
76	0x3dcce46a	0.10004504
77	0x3cb0fe88	0.021605745
78	0x3bb7b7b9	0.0056066182
79	0xbd17d9a6	-0.0370728
80	0xbb16ab7e	-0.00229904
81	0xbe5ca49c	-0.21547168
82	0xbd3c362f	-0.04595011
83	0x3d8bea92	0.0683185
84	0xbcad4e3d	-0.021155471
85	0xbd6d816a	-0.057984747
86	0x3bba09f0	0.005677454
87	0x3ca735a4	0.02041132
88	0x3d346868	0.044044882
89	0xbd03391d	-0.03203689
90	0x3c932241	0.01796067
91	0x3d505002	0.05085755
92	0x3dbd023b	0.09228941
93	0x3d5febbf	0.054668184
94	0xbdf3be1d	-0.119014956
95	0xbc517702	-0.012784721
96	0x3d5fc587	0.054631736
97	0x3cfc095b	0.03076618
98	0xbd507581	-0.05089331
99	0xbcc54ace	-0.024083521
100	0xbd437015	-0.04771431
101	0x3d11c370	0.035586774
102	0xbc464d3c	-0.012103375
103	0xbc697c1b	-0.01425078
104	0xbd60171f	-0.05470955
105	0xbd221b5a	-0.039576866
106	0x3d1bcf72	0.038039632
107	0xbc3478e2	-0.011015149
108	0x3ac0bacb	0.0014704106
109	0xba8771b5	-0.001033357
110	0xbdd90f89	-0.10598666
111	0xbcc769df	-0.024342475
112	0xbd887f29	-0.06664879
113	0x3d123df7	0.035703626
114	0xbdeb0232	-0.11475028
115	0x3cde91e6	0.02716918
116	0x3c50ad04	0.012736563
117	0x3d78768c	0.06065993
118	0x3c1f1f0d	0.009711993
119	0xbc127928	-0.008940019
120	0xbd76a5a4	-0.06021656
121	0x3d19d302	0.03755475
122	0xbc2dfda8	-0.010619558
123	0xbb7b2103	-0.0038319237
124	0x3d104971	0.03522629
125	0xbc3be90b	-0.011469136
126	0xbcf89e83	-0.030349022
127	0xbd0e3de5	-0.034726996
128	0x3c72589c	0.014791634
129	0x3c10d886	0.008840686
130	0x3d6d81ab	0.05798499
131	0xbcbb677f	-0.0228765
132	0xbd72195e	-0.059106223
133	0xbdf72923	-0.12068393
134	0x3d25f194	0.04051359
135	0xbe170e0d	-0.14751454
136	0x3c808719	0.01568942
137	0xbd3216da	-0.043478824
138	0x3cda504d	0.026649619
139	0x3c4db04c	0.0125542395
140	0x3ca0b83f	0.019619105
141	0x3ce2f4fe	0.027704712
142	0xbd31fc57	-0.04345354
143	0xbd22338f	-0.03959995
144	0x395d1ef9	0.0002108774
145	0xbd892810	-0.066970944
146	0x3c92415e	0.017853435
147	0x3d4dcd78	0.05024478
148	0xbdb6fb18	-0.08934611
149	0x3cca896d	0.024723733
150	0x3ca59682	0.02021337
151	0x3d0f54ef	0.03499311
152	0xbc8419d2	-0.016125593
153	0xbcd7ec32	-0.026357744
154	0x3d1689a8	0.036752373
155	0xbcc6bbf5	-0.024259547
156	0x3d4dcf76	0.05024668
157	0x3d9bb677	0.07603162
158	0x3d11d6dc	0.035605296
159	0xbc9d9520	-0.019236147
160	0xbc1d7a16	-0.009611627
161	0x3cd5ed1f	0.026114045
162	0x3d00ed67	0.031476405
163	0xbbaf1664	-0.0053432453
164	0xbc8dae90	-0.017295152
165	0x3cca468e	0.024691846
166	0x3d08a9d9	0.033365104
167	0xb93fc900	-0.00018290058
168	0xbd1dfad2	-0.03856928
169	0x3d0d8b57	0.034556713
170	0xbd1fea0c	-0.039041564
171	0xbd41f5f5	-0.047353704
172	0xbd4212c9	-0.047381196
173	0x3d88041d	0.066414095
174	0x3d8a19e2	0.06743218
175	0x3be8434c	0.0070881005
176	0xba76e4ef	-0.0009418269
177	0xbd3b53e5	-0.045734305
178	0xbd85f261	-0.06540371
179	0x3c537d55	0.012908299
180	0x3c54cb7e	0.012987969
181	0x3d2a20fe	0.04153537
182	0xba88dc16	-0.0010441567
183	0xbc9e8e1e	-0.019354876
184	0xbd36807b	-0.044556122
185	0x3cac867f	0.021060226
186	0x3d80c146	0.06286864
187	0x3ce5ea71	0.028065892
188	0xbd86389d	-0.06553767
189	0x3cf05d90	0.02934149
190	0x3d11b8ad	0.03557651
191	0x3d6fb68b	0.058523696
192	0xbd7c6e0f	-0.061628398
193	0xbd1926e5	-0.03739061
194	0x3daf20f5	0.08551208
195	0xbcfdf47b	-0.031000366
196	0x3d2e70ff	0.04258823
197	0x3d883d0c	0.06652269
198	0xbcc66491	-0.024217876
199	0x3cf64e6b	0.03006669
200	0x3dc6f647	0.097149424
201	0xb8a2ac36	-7.756839e-05
202	0xbd39b36e	-0.045337133
203	0xbc361275	-0.011112799
204	0x3d1a5308	0.03767684
205	0xbcd6d713	-0.026225602
206	0x3d1761bc	0.03695844
207	0xbd97277d	-0.07380579
208	0xbc93d500	-0.018045902
209	0x3d30478f	0.043036994
210	0x3d1d7c41	0.038448576
211	0x3cf39dc2	0.02973831
212	0xbdb6e180	-0.089297295
213	0x3bcdc1bc	0.0062791985
214	0x3cef3265	0.029198835
215	0x3c95d58f	0.01829031
216	0xbc0b9a43	-0.008520666
217	0xbd462fb0	-0.048385322
218	0x3cad7648	0.021174565
219	0x3bb4008b	0.005493229
220	0x3d15c23b	0.036562186
221	0xbe16f23f	-0.14740847
222	0xbd6dd339	-0.058062766
223	0x3d82016f	0.0634793
224	0xbd8244a4	-0.063607484
225	0x3d8c7cc1	0.068597324
226	0x3d7015a4	0.058614388
227	0x3d650ab2	0.055918403
228	0x3ce7a01a	0.028274585
229	0xbb8a7eda	-0.0042265477
230	0xbc299f5c	-0.010352936
231	0xbda4d689	-0.08048732
232	0xbdbc786e	-0.09202658
233	0x3d23189a	0.039818384
234	0xbd893b95	-0.067008175
235	0xbde8a28f	-0.113591306
236	0xbd687690	-0.056753695
237	0x3b510c2f	0.003189813
238	0x3b7a2a32	0.0038172123
239	0x3d9759b5	0.07390157
240	0x3cb1a04d	0.021682883
241	0x3d04f7b1	0.03246278
242	0xbce2c617	-0.027682347
243	0x3c9e5d55	0.019331614
244	0x3d097b12	0.033564635
245	0x3d8d39bf	0.0689578
246	0xbd064518	-0.032780737
247	0xbc8b7e3b	-0.017027965
248	0x3cab0f5b	0.020881345
249	0xbde61a1e	-0.1123545
250	0x3d57751e	0.052601926
251	0x3d497d08	0.049191505
252	0xbc854c53	-0.016271746
253	0x3b44cde9	0.0030029959
254	0xbda95d3c	-0.08269736
255	0x3c921085	0.017830143

bn1.running_mean f4 [256]
0	0xbf89b936	-1.0759647
1	0x3e75a57d	0.2398891
2	0x3f775775	0.96617824
3	0xbf851571	-1.0397168
4	0xbfa9eb12	-1.3274863
5	0x3fd1d726	1.6393783
6	0x401d15b2	2.4544492
7	0x3eb40319	0.35158613
8	0x3d6652cd	0.05623131
9	0x3fe0720f	1.7534808
10	0x3f0db16f	0.5534887
11	0xbed69f75	-0.4191853
12	0xbf43bb54	-0.76457715
13	0x3f20c29d	0.62796956
14	0xbee3d1ce	-0.44496006
15	0x3ee9b1b8	0.456434
16	0x3ffca4db	1.973781
17	0x3f806688	1.003129
18	0xbe991ee8	-0.29906392
19	0x40248230	2.570446
20	0x3f5782c2	0.84183896
21	0x3ffe6b0b	1.9876417
22	0xbfb0dcc2	-1.381737
23	0x3edaccd1	0.42734388
24	0x3fa8a182	1.3174288
25	0x3f32c9b4	0.69839025
26	0x3f811f15	1.008761
27	0x3ec2294f	0.3792214
28	0x3f04668e	0.51718986
29	0xbf60e2d2	-0.878461
30	0x3ee72c0e	0.451508
31	0xbfef62ee	-1.8702066
32	0x3f8a4dfa	1.0805047
33	0x3f8b2092	1.0869315
34	0x3fbb23fa	1.4620354
35	0xc011d3b7	-2.278547
36	0xbf71d6a7	-0.9446816
37	0x3f79dfb8	0.9760699
38	0xbc42c87b	-0.011888619
39	0xbf58a3a3	-0.8462469
40	0x4024c9a0	2.5748062
41	0x3fe15d4f	1.76066
42	0x3e440694	0.19143134
43	0x3eecdadb	0.46260723
44	0xbe8d6bd6	-0.27621335
45	0x3e599693	0.21248846
46	0x401a5fc1	2.4120944
47	0x403e155d	2.970054
48	0xbe92941c	-0.28628623
49	0x3f8c06e7	1.0939606
50	0xbfe6642a	-1.7999318
51	0x3f95540d	1.1666275
52	0xbec00096	-0.37500447
53	0x3fb4142d	1.4068657
54	0xbe4a2f2b	-0.19744556
55	0x3fa26fb2	1.2690337
56	0x3fd385d2	1.6525214
57	0x402e2ddb	2.7215488
58	0xbfaa5337	-1.3306645
59	0xbef6961f	-0.48161408
60	0x3fe9922c	1.8247733
61	0x3f60e78e	0.87853324
62	0x3ef48898	0.47760463
63	0x3f0c2f3b	0.5475957
64	0x3ea406ee	0.32036537
65	0x3df5c6fc	0.12000844
66	0xbf842ef5	-1.032683
67	0x3eff6607	0.49882528
68	0x3f3a3c15	0.7274793
69	0x3e4bdb04	0.19907767
70	0xbe2db9a2	-0.16965345
71	0xbf0a91f0	-0.5412893
72	0xbf0d1bab	-0.5512034
73	0x3f9d4881	1.2287751
74	0x3fdc69db	1.7219805
75	0xbd8c4d3d	-0.068506695
76	0x3fa1a8dd	1.2629658
77	0x3f43dad4	0.7650578
78	0xbefd33bb	-0.4945353
79	0x4039425f	2.894676
80	0xbf099671	-0.5374518
81	0x3e6cc3aa	0.23121515
82	0x3f156584	0.58358026
83	0x3f310607	0.6914982
84	0x3d80b177	0.06283849
85	0xbfa050a8	-1.2524614
86	0xbfb8d7a0	-1.4440804
87	0x3f6e59e1	0.93105894
88	0x3f13d31e	0.57744014
89	0xbf17d11b	-0.59303445
90	0x3ff330d8	1.8999281
91	0x3e6cab99	0.23112334
92	0xbfa91483	-1.3209385
93	0x3f284d91	0.65743357
94	0x3fa3e4ce	1.2804201
95	0x3f988fa5	1.1918837
96	0xbea75557	-0.32682297
97	0x3fb41de6	1.4071624
98	0xbdc6e41d	-0.09711478
99	0x3fb510dd	1.4145771
100	0xbf0e5860	-0.556036
101	0xbfaf760d	-1.3707901
102	0xbf3d3fb3	-0.7392532
103	0x3fa11d18	1.2587004
104	0xbf279d17	-0.65474075
105	0x3fb21fbb	1.3915933
106	0xbd30ee1e	-0.043195836
107	0xbfe1dfc2	-1.764641
108	0x3fdc4938	1.7209845
109	0xbfa48433	-1.2852844
110	0x3e7f7fb8	0.24951065
111	0x3e168a45	0.14701183
112	0xbe992fbe	-0.29919237
113	0x3e2934de	0.16524073
114	0x3f963bda	1.1737015
115	0x3ff18f29	1.8871814
116	0x3fda6583	1.7062229
117	0x3f9d514d	1.2290436
118	0xbf58a9f4	-0.8463433
119	0xbff28559	-1.8946944
120	0x3f8868da	1.0656998
121	0xbf57a69e	-0.8423861
122	0x3f939341	1.1529313
123	0x3f0aec64	0.54266953
124	0x3f8568c5	1.0422598
125	0xbfd330f5	-1.6499316
126	0x3fc090b4	1.504416
127	0xbef81d4d	-0.48459855
128	0xbef02736	-0.46904916
129	0x3f1bed36	0.6090883
130	0x3f410026	0.7539085
131	0x3f52f2bf	0.8240165
132	0x3e8f831c	0.28029716
133	0xbef1876e	-0.47173637
134	0x3f68c78a	0.9092947
135	0xbf09fa28	-0.53897333
136	0x3df70271	0.120610125
137	0xbf0f306d	-0.55933267
138	0x3f994b21	1.1976053
139	0xbc830d07	-0.015997423
140	0x3ebf8c94	0.3741194
141	0xbe9be29b	-0.30446324
142	0xbf80544a	-1.0025723
143	0xc015871f	-2.3363721
144	0x3f4f2819	0.8092056
145	0xbec5a0ae	-0.3859915
146	0x3fbd5ede	1.4794576
147	0x3f817bad	1.0115868
148	0x3f0e1908	0.55506945
149	0x3f743348	0.9539075
150	0xbf33cc18	-0.702333
151	0x3ebbccb2	0.36679608
152	0x40043c2c	2.0661726
153	0xbf28990d	-0.65858537
154	0x3fc3dc64	1.5301633
155	0xbf985142	-1.1899798
156	0xbf73719b	-0.95095223
157	0x3fee783e	1.8630445
158	0xbf664c59	-0.8996025
159	0x3f877765	1.0583311
160	0xbd98f4fb	-0.07468601
161	0x3fa497cc	1.2858825
162	0x3f0ea41d	0.55719167
163	0xbef65603	-0.48112497
164	0xbf537c1c	-0.8261125
165	0xbe4c30d3	-0.199405
166	0x3f4535f8	0.77035475
167	0xbeb51a4e	-0.3537163
168	0xbea76405	-0.32693496
169	0xbd8ca2a6	-0.0686696
170	0x3cdaf9a7	0.026730372
171	0xbfeb652f	-1.8390254
172	0xbfb01003	-1.3754886
173	0xbef12daf	-0.47105166
174	0x3c041f0d	0.008064044
175	0x3fe33363	1.7750057
176	0x3f9439ca	1.1580136
177	0xc005e825	-2.092294
178	0x3f0a0c9a	0.5392548
179	0xbfbb678d	-1.4640976
180	0xbff8c3ec	-1.9434791
181	0x3fcfd7d7	1.6237744
182	0xbf69ae21	-0.91281325
183	0x3f26e2cd	0.6518982
184	0xbf128ef6	-0.5724939
185	0xc00204d2	-2.0315442
186	0xbe8eea15	-0.27912965
187	0xbee3e024	-0.44506943
188	0xbebe606f	-0.37182948
189	0x3f7e3827	0.9930443
190	0x3d00cac9	0.03144339
191	0xbfa984b9	-1.3243629
192	0x3e6e63a1	0.23280193
193	0x3fd7d9c8	1.6863337
194	0x401f82ae	2.492351
195	0x3f3d0bab	0.7384593
196	0x3f20f716	0.62877023
197	0xbf35fd06	-0.7108921
198	0xbe8139a6	-0.25239295
199	0x3f747c4f	0.9550218
200	0x4063b46d	3.5578873
201	0x3f0955fe	0.5364684
202	0x3f9de10a	1.2334301
203	0xbf98aa4a	-1.1926968
204	0xbf61a452	-0.8814136
205	0xbf3a9d01	-0.7289582
206	0x3ebf3d52	0.3735147
207	0x3faa3a54	1.329905
208	0x3fcbab82	1.5911715
209	0x3f895a04	1.0730596
210	0x3f530a59	0.82437664
211	0x3f91e6a8	1.1398516
212	0xbebce83a	-0.36895925
213	0xbdaca211	-0.08429349
214	0x3e4556f5	0.19271453
215	0x3f4732a8	0.7781167
216	0x3dbce6f3	0.092237376
217	0xbedd8ae5	-0.4327003
218	0xbf91269a	-1.1339905
219	0x3fadd6dc	1.3581195
220	0x3fd2f419	1.6480743
221	0x3f7e27a7	0.99279255
222	0xbea3c88a	-0.31988937
223	0x3e9fdd19	0.31223372
224	0xc0178ff8	-2.3681622
225	0xbf7fdfc1	-0.99950796
226	0xbf39ad99	-0.72530514
227	0xbfa6cab7	-1.3030614
228	0xc00a1298	-2.1573849
229	0x40227623	2.5384605
230	0xbef0f9bf	-0.4706554
231	0xbfb3d6fe	-1.4049985
232	0x3f31d6a6	0.6946815
233	0x3fbd1e20	1.4774818
234	0x3eba771f	0.36419007
235	0x3e96dc9c	0.29465187
236	0x3eb23ca2	0.34811884
237	0x3f054036	0.52051103
238	0x3d890e97	0.06692236
239	0xbfc37966	-1.5271423
240	0x3e36824f	0.17823146
241	0xbfd17b4b	-1.6365751
242	0xc01742b4	-2.3634462
243	0x3cdb4b2b	0.026769241
244	0x3fb48f3f	1.4106215
245	0x3ff15e0d	1.8856827
246	0x3d54a3d3	0.051914047
247	0x3fed05c5	1.8517386
248	0xbf0c0786	-0.5469898
249	0xbf779aac	-0.96720386
250	0x3f0d5f83	0.55223864
251	0xbefd433c	-0.49465358
252	0x3f6a20ea	0.9145647
253	0xbf33cce3	-0.7023451
254	0x3fcf0a5e	1.6175039
255	0x3f52842e	0.8223294

bn1.running_var f4 [256]
0	0x4025fb05	2.593446
1	0x3faffcb1	1.374899
2	0x3f8beeec	1.0932288
3	0x4089b09a	4.302808
4	0x40c75f64	6.2303944
5	0x40b3e956	5.6222334
6	0x401d0ca5	2.4538968
7	0x4063d547	3.5598924
8	0x40461171	3.0948145
9	0x3fac8640	1.347847
10	0x40838ab1	4.11068
11	0x4038e375	2.8888829
12	0x3fffcb24	1.9983869
13	0x411a227d	9.63342
14	0x409d2476	4.910701
15	0x4077109e	3.8603892
16	0x40905af9	4.511105
17	0x3f9bb404	1.2164311
18	0x3fff0fcb	1.9926695
19	0x3f35465a	0.7081047
20	0x4006582c	2.0991316
21	0x3f68692b	0.90785474
22	0x3faee444	1.3663411
23	0x3f808d99	1.0043212
24	0x41185ae7	9.522193
25	0x3f289f2d	0.6586788
26	0x411d4b2b	9.830852
27	0x4068a358	3.6349697
28	0x3fefcf3e	1.873512
29	0x40a063cf	5.0121837
30	0x40d16a52	6.5442286
31	0x40d8ca6d	6.77471
32	0x3fd3734a	1.6519558
33	0x412ba05b	10.726649
34	0x40aef347	5.467197
35	0x406ceb94	3.7018785
36	0x4055c58b	3.340182
37	0x411f64e6	9.962133
38	0x4015ea65	2.3424313
39	0x405189bd	3.2740319
40	0x3f4d01ac	0.80080676
41	0x3f87afde	1.0600545
42	0x41371660	11.442963
43	0x41398bec	11.596661
44	0x4023ab84	2.5573435
45	0x409da6db	4.926618
46	0x3fa55ba0	1.2918587
47	0x3fb5c509	1.4200755
48	0x40f95d57	7.792644
49	0x407884e3	3.8831108
50	0x3f9b4b4b	1.2132353
51	0x3f1eda0e	0.62051475
52	0x40c9d9d7	6.307842
53	0x403a88d1	2.9146006
54	0x40997883	4.795961
55	0x410c1b59	8.756677
56	0x411ea38c	9.914928
57	0x40a8c730	5.274315
58	0x40878dcb	4.2360587
59	0x405bc462	3.4338613
60	0x40d0a088	6.519596
61	0x3f172037	0.5903353
62	0x40af6135	5.480616
63	0x40c3c0ee	6.117301
64	0x404d0a9c	3.2037725
65	0x40227331	2.5382807
66	0x402da9b6	2.7134833
67	0x3f9c4497	1.2208432
68	0x4108a020	8.539093
69	0x409c8a85	4.891909
70	0x400067a7	2.0063264
71	0x40961805	4.690432
72	0x40ac4e45	5.3845544
73	0x411972a9	9.590493
74	0x3fe48c05	1.785523
75	0x3fd7627e	1.6826932
76	0x40dc9128	6.8927193
77	0x3f9f8eb3	1.2465423
78	0x3fc2e155	1.5225016
79	0x40de9462	6.955613
80	0x404ee1a0	3.232521
81	0x408adcde	4.3394613
82	0x4092768f	4.5769725
83	0x40577b1c	3.366889
84	0x41608019	14.031274
85	0x3ffa53aa	1.9556782
86	0x403f363c	2.9876852
87	0x4087f60a	4.248784
88	0x40ae76cb	5.452001
89	0x404255a9	3.0364783
90	0x3fef76f1	1.8708173
91	0x41097fa7	8.593665
92	0x3fbf8089	1.4961101
93	0x4003bab8	2.0582714
94	0x3fdeba61	1.7400628
95	0x402d4765	2.7074826
96	0x4091e864	4.559618
97	0x40787ab5	3.8824894
98	0x40af608a	5.4805346
99	0x4082e6da	4.09068
100	0x408b3f58	4.3514824
101	0x4125d682	10.36487
102	0x40a0bac9	5.022801
103	0x3fa7df37	1.3114995
104	0x403a77ff	2.913574
105	0x3fb99e21	1.4501382
106	0x40677c98	3.6169796
107	0x4086e3ce	4.215308
108	0x3fb584b4	1.4181123
109	0x3f168e12	0.5881053
110	0x40b0e2c2	5.5276804
111	0x403e766d	2.9759781
112	0x40674e8a	3.6141686
113	0x40ebabf9	7.3647428
114	0x3f9034f3	1.1266159
115	0x407ac98e	3.918552
116	0x3f98b9e1	1.1931726
117	0x408d4cc2	4.41562
118	0x40959b0a	4.6751757
119	0x40085d67	2.1307008
120	0x3f963898	1.1736021
121	0x40f50adb	7.657575
122	0x41567934	13.404591
123	0x3ff6cc26	1.9281051
124	0x3f1fea65	0.6246703
125	0x40e45bb6	7.136195
126	0x3fc83fc9	1.5644466
127	0x40159deb	2.3377635
128	0x40664b54	3.5983477
129	0x40aeb036	5.45901
130	0x407402b1	3.8126643
131	0x41262a7d	10.385373
132	0x40bb4bdf	5.8530116
133	0x409754f4	4.7291203
134	0x408370d2	4.107522
135	0x4022e208	2.5450459
136	0x3fa0d7e7	1.2565888
137	0x40a2e039	5.089871
138	0x407db294	3.9640245
139	0x404f3359	3.237509
140	0x405c5b2f	3.4430654
141	0x40383163	2.8780143
142	0x4074a94b	3.8228328
143	0x3fb34a62	1.4007075
144	0x3f8bb8b7	1.0915745
145	0x4085edfd	4.1853013
146	0x4009aab1	2.1510432
147	0x3fb9f297	1.4527158
148	0x406d377b	3.7065113
149	0x408c798c	4.3898373
150	0x406a6724	3.6625452
151	0x405aa3aa	3.4162393
152	0x3f9f32e0	1.2437401
153	0x40a88225	5.265887
154	0x3fa4fc8f	1.2889575
155	0x40314404	2.7697763
156	0x40538e3f	3.305557
157	0x40dca950	6.895668
158	0x3f936bd7	1.1517285
159	0x3edeaddc	0.4349202
160	0x408f3886	4.47565
161	0x3ffb36ea	1.9626133
162	0x40b2b784	5.584902
163	0x41566a65	13.400975
164	0x40c759b9	6.2297025
165	0x40b71a04	5.7219257
166	0x40642ccd	3.5652344
167	0x412bb047	10.730536
168	0x40cb6bec	6.356924
169	0x412b9de5	10.726048
170	0x4000c579	2.0120528
171	0x400b186b	2.1733654
172	0x407e9eec	3.9784498
173	0x40435de8	3.0526066
174	0x40cc497d	6.3839707
175	0x40afd942	5.4952707
176	0x407f575c	3.989707
177	0x404817df	3.126457
178	0x4097ccb3	4.7437377
179	0x40218d0a	2.5242333
180	0x3fa2de0d	1.2724015
181	0x4015bdbc	2.3397055
182	0x409226da	4.5672426
183	0x40082140	2.1270294
184	0x3f0dba71	0.5536261
185	0x40131e5f	2.2987287
186	0x40ef0704	7.4696064
187	0x40bdd079	5.9316983
188	0x4053b58f	3.3079565
189	0x40666136	3.5996833
190	0x4000fd02	2.0154424
191	0x4030ebf6	2.764402
192	0x40568896	3.3520865
193	0x4000f5d1	2.0150034
194	0x3f726fde	0.94701946
195	0x3f97d150	1.1860752
196	0x40940dfa	4.626706
197	0x418ea0ec	17.828575
198	0x406f3a83	3.7379463
199	0x41074e31	8.45659
200	0x401ef75c	2.4838476
201	0x4096a1d8	4.7072563
202	0x3fa1191e	1.258579
203	0x3f5e0086	0.8671955
204	0x407375c9	3.804064
205	0x411b1778	9.69323
206	0x4069cb17	3.6530206
207	0x3f18ddb0	0.5971327
208	0x3fa951e0	1.3228111
209	0x40b0ccd5	5.525004
210	0x40004712	2.0043378
211	0x3f80da49	1.0066615
212	0x4039c9ba	2.9029374
213	0x40976b13	4.7318206
214	0x411b028c	9.688122
215	0x40e63e8e	7.195136
216	0x406eec1f	3.7331617
217	0x40f840d8	7.7579155
218	0x40b4a6d4	5.6453648
219	0x40e3480a	7.102544
220	0x3f48a937	0.783832
221	0x3f9f642d	1.2452446
222	0x4000d0ef	2.0127523
223	0x40da8e00	6.829834
224	0x3fb93d79	1.4471885
225	0x405cec9b	3.4519413
226	0x418cf721	17.620668
227	0x4086aac1	4.208344
228	0x3f8e462a	1.1115162
229	0x3fe2ab43	1.7708515
230	0x3fcf8bf6	1.6214588
231	0x40c8e65e	6.278121
232	0x40307342	2.7570348
233	0x40a163ee	5.0434484
234	0x404e5935	3.2241948
235	0x401c0bde	2.4382243
236	0x3ebedb44	0.3727666
237	0x40315e08	2.7713642
238	0x40a0230e	5.004279
239	0x3fb6a0bb	1.4267801
240	0x4038746a	2.8821054
241	0x3f31fdd8	0.6952796
242	0x408326f5	4.0985055
243	0x404ffd1c	3.2498236
244	0x40b7a689	5.739079
245	0x3f99c0e9	1.2011997
246	0x3fa7377e	1.306381
247	0x404cb9ea	3.1988473
248	0x413a8faf	11.660079
249	0x3f4ac236	0.7920259
250	0x4087c502	4.242799
251	0x414ebe4e	12.921461
252	0x40227b3c	2.5387716
253	0x401ed860	2.4819565
254	0x4009e868	2.15481
255	0x411fa27e	9.977171

fc2.weight f4 [256, 256]
0	0x3da4a78d	0.0803977
1	0x3d3f5c7e	0.046719067
2	0x3dd11bea	0.10210402
3	0xbd4f5e63	-0.050627124
4	0x3cfc6893	0.030811584
5	0xbd1870ef	-0.037217077
6	0xbd1ba894	-0.038002566
7	0x3d9d1895	0.07670704
8	0x3bb293ec	0.0054497626
9	0xbcb114aa	-0.021616299
10	0x3d06225a	0.032747604
11	0xbd1d00a9	-0.038330708
12	0xbd219493	-0.039448332
13	0xbc65a58f	-0.014016523
14	0x3d4e86ea	0.050421633
15	0x3d3dbe84	0.046324268
16	0xbd90a3f2	-0.0706252
17	0x3d5fa5c9	0.054601464
18	0xbd1e8a8e	-0.038706355
19	0x3de34f26	0.11099081
20	0x3dbf2e42	0.09334995
21	0x3dc94de7	0.09829312
22	0xbd60dd2c	-0.054898426
23	0xbe99f051	-0.3006616
24	0x3cf1cd2a	0.029516775
25	0xbe3d9f67	-0.18517838
26	0xbcb213c3	-0.021737939
27	0x3d97f3e7	0.074195676
28	0x3d7986a9	0.060919438
29	0xbb74af65	-0.0037335989
30	0xbcda6a0c	-0.026661895
31	0xbda1dfdc	-0.07904026
32	0x3d863d87	0.06554704
33	0x3d08ae06	0.033369087
34	0x3d559caf	0.05215138
35	0x3c363dd0	0.011123136
36	0x3bd6b858	0.006552737
37	0x3d73cf49	0.059523854
38	0x3c7d01dd	0.015442339
39	0x3c227121	0.009914667
40	0x3df1b779	0.11802573
41	0xbd2a62f3	-0.04159827
42	0xbd0eb434	-0.034839824
43	0x3d58e8d5	0.05295642
44	0x3c0e0d84	0.008670215
45	0xbd1a93ae	-0.037738495
46	0x3d16b9bb	0.03679822
47	0x3dfa6835	0.12226907
48	0x3d4260fb	0.04745577
49	0xbd7d37c3	-0.061820757
50	0xbd5304dc	-0.051518306
51	0xbc0078f8	-0.007841341
52	0xbc3fd86f	-0.011709317
53	0xbde4d911	-0.11174215
54	0x3d211613	0.039327692
55	0x3d74082d	0.05957811
56	0xbd2cf620	-0.04222691
57	0x3d019264	0.03163375
58	0xbd314828	-0.043281704
59	0x3d0a4265	0.033754725
60	0x3d2f328b	0.04277281
61	0xbd7b573f	-0.0613625
62	0x3d430606	0.047613166
63	0x3cc94e95	0.024573604
64	0x3d683fdd	0.05670153
65	0xbcbb3399	-0.022851752
66	0x3d4f4c06	0.05060961
67	0xbcd24770	-0.02566883
68	0x3c28ff2c	0.010314744
69	0xbd2dbdde	-0.0424174
70	0x3c800500	0.015627384
71	0x3d39e09a	0.045380212
72	0x3bb6f578	0.0055834614
73	0xbbf7a091	-0.007556983
74	0x3cedfb6f	0.029050557
75	0x3d2dcd41	0.042432074
76	0xbc952991	-0.018208297
77	0x3c9fbc54	0.019498982
78	0x3d9b4104	0.0758076
79	0x3cd2a14f	0.025711684
80	0xbd088045	-0.033325452
81	0xbdb390b0	-0.08767831
82	0xbbf95caa	-0.0076099234
83	0x3d038856	0.032112442
84	0x3cf106b4	0.029422142
85	0x3ddd96c3	0.10819771
86	0x3bb61a5e	0.0055573424
87	0xbd4a8e92	-0.049452372
88	0xbc1d7efa	-0.009612793
89	0x3dad8205	0.08472065
90	0x3d32c6fd	0.0436468
91	0x3bf33838	0.0074224733
92	0x3db1d8c2	0.086839214
93	0xbd05e43b	-0.03268836
94	0xbbd95b37	-0.006633188
95	0xbd0a2133	-0.033723067
96	0xbbe71d70	-0.00705307
97	0x3b9f75df	0.0048663463
98	0xbd693ad8	-0.056940883
99	0xbd21abef	-0.03947061
100	0x3cb7fc45	0.022459159
101	0x3d2a8bc3	0.041637193
102	0x3da6a266	0.08136444
103	0x3b2e12d8	0.0026561525
104	0x3d9801f2	0.07422246
105	0x3dd9475f	0.10609316
106	0x3d6e99a7	0.058252003
107	0xbcafa566	-0.021441173
108	0x3d249c1a	0.040187933
109	0xbd75891f	-0.059945222
110	0x3d51a1e4	0.05117978
111	0xbc76763c	-0.015042838
112	0xbd49c708	-0.049262077
113	0xbc96e6d8	-0.018420622
114	0x3e55c5a3	0.20876174
115	0xbce37da8	-0.027769879
116	0xbcd6391e	-0.026150282
117	0x3bdd05bd	0.006745069
118	0xbd59b815	-0.05315407
119	0xbd31a9b4	-0.043374732
120	0x3da5979b	0.08085557
121	0x3d4b189e	0.049584024
122	0xbcc88e98	-0.024482056
123	0xbb91793c	-0.004439501
124	0x3c82af6b	0.015952786
125	0x3c6ca238	0.014442973
126	0x3d49cf94	0.049270228
127	0xbd40ac4e	-0.047039323
128	0x3cebf6ef	0.02880427
129	0x3d1e2635	0.038610656
130	0xbcaa6d4f	-0.020804076
131	0xbc956caf	-0.018240301
132	0x3d82fdde	0.063960776
133	0xbd6f59fe	-0.058435433
134	0xbd0be3f0	-0.034152925
135	0xbdb5313d	-0.08847282
136	0xbccdab17	-0.025105996
137	0x3dabb397	0.083838634
138	0xbdafaae1	-0.085775144
139	0xbcd63591	-0.02614859
140	0x3ccd168a	0.025035162
141	0xbd00afe8	-0.031417757
142	0x3c87aebb	0.01656281
143	0xbdac4654	-0.084118515
144	0xbbb4e8af	-0.005520902
145	0xbc504231	-0.012711094
146	0x3d312ba9	0.04325453
147	0x3ce14a29	0.027501183
148	0xbd8f18f5	-0.06987182
149	0x3d2d48f7	0.042305913
150	0x3d55a737	0.05216142
151	0xbb2c2b2c	-0.002627085
152	0xbd2722b0	-0.040804565
153	0xbcb2bf54	-0.021819748
154	0xbc870bc1	-0.016485097
155	0xba443e9a	-0.0007486135
156	0xbc96f040	-0.018425107
157	0x3d34c8b6	0.044136725
158	0x3d8f6444	0.07001546
159	0x3d35cd95	0.04438551
160	0x3d98f865	0.074692525
161	0x3d242baa	0.040080704
162	0x3c272fb2	0.010204243
163	0x3c29360b	0.010327826
164	0x3d7b11a1	0.06129611
165	0x3d316969	0.043313418
166	0xbd6eafe0	-0.058273196
167	0xbc1def93	-0.0096396385
168	0xbcfd1eda	-0.0308985
169	0xbcfca81d	-0.030841881
170	0xbdf05131	-0.11734236
171	0x3dd966ed	0.10615335
172	0x3cd66dc8	0.026175395
173	0xbd050937	-0.03247949
174	0x3d10182c	0.035179302
175	0x3d535028	0.051590115
176	0x3d4cd19a	0.05000458
177	0xbc1bf03e	-0.009517727
178	0xbd3c397b	-0.045953255
179	0x3d3db9df	0.04631984
180	0xbddc230f	-0.107488744
181	0x3d2692e2	0.040667422
182	0xbd0186cf	-0.031622704
183	0xbbd58a63	-0.006516741
184	0x3bd26ce3	0.0064216717
185	0x3d003e17	0.031309213
186	0x3c5b1db9	0.013373786
187	0x3cc0ac52	0.023519669
188	0x3cb640e6	0.022247743
189	0xbb1c58f6	-0.0023856736
190	0x3d2669e5	0.040628333
191	0x3ca38fc7	0.01996602
192	0x3d822777	0.063551836
193	0xbd6ec39e	-0.058292024
194	0xbd4c4833	-0.049873542
195	0xbddb1f69	-0.106993504
196	0x3d8793cd	0.06619988
197	0xbcef3766	-0.02920122
198	0x3d1bc7c5	0.038032312
199	0xbc564648	-0.01307828
200	0xbc5ed0b9	-0.013599568
201	0xbcd77970	-0.026303023
202	0xbd3633c0	-0.044482946
203	0x3cad8c9a	0.021185208
204	0xbcc3599e	-0.023846444
205	0x3d13e6f9	0.036108945
206	0x3cb0d828	0.021587446
207	0x3df8becc	0.121457666
208	0xbc0a7dab	-0.008452813
209	0xbd04e0d6	-0.032440983
210	0xbd5b3bf8	-0.053523988
211	0xbd80287a	-0.0625772
212	0x3dacd712	0.08439459
213	0x3cd1b765	0.025600145
214	0x3d517a48	0.051142007
215	0x3cc52585	0.024065742
216	0xbcfe0f25	-0.03101308
217	0xbbe5c59d	-0.0070120827
218	0x3b1c914e	0.002389032
219	0xbd930ede	-0.0718057
220	0xbded63e7	-0.115913205
221	0x3e077fd7	0.13232361
222	0x3caf0d35	0.021368602
223	0xbc85b175	-0.01631997
224	0xbd6ae7f3	-0.05735011
225	0xbcb2b99e	-0.021817025
226	0x3d8f3b75	0.069937624
227	0x3dbe429c	0.092900485
228	0xbd2f4a56	-0.0427955
229	0xbcd25571	-0.025675507
230	0x3cd02175	0.025406579
231	0xbd6bc98f	-0.057565268
232	0x3cf92013	0.030410802
233	0x3d21653b	0.03940318
234	0x3d871ba5	0.0659707
235	0xbd9f722e	-0.0778545
236	0xbe2a9eb0	-0.16662097
237	0xbd14fcfe	-0.036374085
238	0xbbf14464	-0.007362889
239	0xbdbda9cd	-0.092609026
240	0x3da8f7c1	0.0825038
241	0xbc77049b	-0.015076782
242	0xbd33601d	-0.043792833
243	0x3cad95fb	0.02118968
244	0xbd71b47c	-0.059010014
245	0xbd8b8718	-0.068128765
246	0xbe0df862	-0.13864282
247	0x3db6a1dd	0.08917592
248	0xbd1c94f2	-0.038227983
249	0xbd7be0ee	-0.061493807
250	0x3d4c1b2a	0.049830593
251	0xbd164db9	-0.036695216
252	0x3c9a072d	0.01880225
253	0xbc8a79c6	-0.01690377
254	0xbd0c99eb	-0.034326475
255	0xbc9682a3	-0.01837284
