p3_collab-compet/checkpoints/00checkpoint_actor-v2.pth (torch_old, 296362 bytes, 10 tensors)

fc1.weight f4 [256, 24]
0	0xbd624f80	-0.0552516
1	0x3d8ac534	0.06775895
2	0x3d281267	0.041033175
3	0xbdc30c1f	-0.09523796
4	0x3d27cea3	0.04096855
5	0xbcbfd314	-0.02341608
6	0x3c21959d	0.009862331
7	0xbc979bfd	-0.018506998
8	0x3d8a9950	0.06767523
9	0x3d32f093	0.04368646
10	0xbcc2825f	-0.023743806
11	0xbc232bee	-0.009959204
12	0x3df2e148	0.11859375
13	0xbd569441	-0.05238748
14	0x3d57559c	0.052571878
15	0x3bb1852b	0.005417486
16	0x3d223118	0.0395976
17	0xbb1a1ff1	-0.0023517574
18	0x3cf23224	0.029564925
19	0x3c1b3ce8	0.00947497
20	0x3c7efc61	0.0155631015
21	0x3e0108a0	0.12600946
22	0x3996ffc1	0.0002880078
23	0xbc0f9551	-0.008763627
24	0x3d82d8b5	0.0638899
25	0x3e248b77	0.16068827
26	0xbcec4dec	-0.02884575
27	0xbcb94889	-0.022617595
28	0x3cdfd4b6	0.027323108
29	0x3da641c9	0.08118016
30	0x3d8a228b	0.0674487
31	0x3d024ef4	0.031813577
32	0x3d05f59a	0.032704927
33	0x3df56e4e	0.119839296
34	0x3d5058f8	0.050866097
35	0x3c20ee95	0.009822507
36	0x3a33c4b4	0.0006857619
37	0x3ca0008a	0.019531507
38	0x3b2ce84a	0.0026383572
39	0xbd774f21	-0.060378198
40	0x3ddfded4	0.10931173
41	0x3d5fe59a	0.054662324
42	0x3d38939e	0.045062654
43	0xbc16158c	-0.009160411
44	0x3c7c14d5	0.015385826
45	0xbddde949	-0.10835511
46	0xbcf68e2b	-0.030097088
47	0xbd9c09c5	-0.07619051
48	0xbd7583b7	-0.059940066
49	0xbd1b9842	-0.037987
50	0x3a9a788b	0.0011785192
51	0x3d306f13	0.04307468
52	0x3c1af950	0.009458855
53	0xbbc61997	-0.006045531
54	0xbc38e96d	-0.011286122
55	0xbcbcd8f0	-0.023052663
56	0x3d63ab2b	0.05558316
57	0xbdd492a2	-0.103795305
58	0xbc3fa4c4	-0.011696998
59	0x3da45e58	0.08025807
60	0x3cd84a66	0.026402663
61	0xbd94c4ac	-0.07264075
62	0x3c516e9a	0.012782717
63	0x3ce3473e	0.027743932
64	0xbc0803dd	-0.008301702
65	0xbd824499	-0.0636074
66	0xbc2cfe5e	-0.010558693
67	0x3d587793	0.05284841
68	0x3da07473	0.07834711
69	0x3c5496dc	0.012975421
70	0x3c43d122	0.011951717
71	0x3e22671a	0.15859643
72	0xbcf6605e	-0.030075248
73	0xbbf079de	-0.0073387465
74	0x3d474b6c	0.048655912
75	0xbd0f7dc4	-0.03503205
76	0x3cd6566c	0.026164256
77	0x3d3e2704	0.046423927
78	0x3d0a0c8f	0.033703383
79	0xbc837a88	-0.016049638
80	0x3c80e23b	0.015732875
81	0x3c31627c	0.010826703
82	0x3ceaa6d6	0.028644007
83	0x3d1e844f	0.038700398
84	0x3cceaea1	0.025229754
85	0x3e0b517c	0.13605303
86	0x3cbd9afd	0.023145193
87	0x3d07d799	0.033164594
88	0xbcf70f44	-0.030158646
89	0xbd4f03e7	-0.05054083
90	0x3d5aaf2b	0.05338971
91	0x3ca61020	0.02027136
92	0x3ce657ae	0.02811798
93	0x3e57cc9f	0.2107415
94	0xbc42bd48	-0.0118859485
95	0xba8e28ac	-0.0010845861
96	0x3ca6ce3f	0.020362018
97	0x3d58fbd2	0.05297453
98	0x3d856e29	0.06515152
99	0xbcadb5ce	-0.021204855
100	0x3d505d1c	0.050870046
101	0x3d6f7a37	0.058466163
102	0x3ca02afc	0.019551747
103	0xbdcb322e	-0.099216804
104	0xbb95b5de	-0.0045687994
105	0x3c1d018d	0.009582889
106	0x3c5fca7a	0.013659114
107	0x3cd25215	0.025673905
108	0x3d4bcdf8	0.049756974
109	0x3d8638e9	0.065538235
110	0x3cb107df	0.021610199
111	0x3d3a5b42	0.045497186
112	0xbd4015db	-0.046895843
113	0x3d3c4605	0.045965213
114	0xbd14067d	-0.036139
115	0x3cefe7e1	0.029285373
116	0xbcb7e58d	-0.022448326
117	0xbc0791a5	-0.00827447
118	0xbccd6c68	-0.025076106
119	0x3ded5145	0.115877666
120	0xbd3fbfa1	-0.04681361
121	0x3ccebc15	0.025236169
122	0xbca4522f	-0.02005872
123	0x3c372b88	0.011179812
124	0x3d274696	0.0408388
125	0xbd84081e	-0.06446861
126	0xbd0f186d	-0.034935404
127	0xbd9943e4	-0.07483652
128	0x3d328006	0.043579124
129	0x3c6633c0	0.014050424
130	0xbd816946	-0.063189074
131	0xbd1ad338	-0.03779909
132	0x3cd6bea7	0.026213957
133	0x3de8dfc2	0.113708034
134	0x3bc3b292	0.005972215
135	0x3c22b488	0.009930737
136	0xba3f1e0b	-0.00072905485
137	0xbb27c27c	-0.00255981
138	0x3ba5a0c7	0.0050545665
139	0x3d0408f0	0.032235086
140	0x3d2f5bdd	0.042812217
141	0x3e3e8226	0.18604335
142	0x3c78339a	0.0151490215
143	0xbba72af5	-0.0051015564
144	0xbd6dc280	-0.058046818
145	0x3e2b3c4a	0.16722217
146	0x3d1460d8	0.03622517
147	0xbd256ad1	-0.04038507
148	0xbd8a2458	-0.06745213
149	0x3e0baa05	0.13639076
150	0xbc16b986	-0.009199506
151	0xbd90acea	-0.07064231
152	0xbad28bb3	-0.0016063362
153	0x3e11e43b	0.1424722
154	0x3c2480fa	0.010040516
155	0xbd29e4d8	-0.041478008
156	0x3d6f20eb	0.058381002
157	0x3dfe95dd	0.12430928
158	0x3cd3b23f	0.02584183
159	0x3ce5ac4c	0.02803626
160	0xbc083799	-0.008314037
161	0x3b86528f	0.004099197
162	0x3cc6ef6e	0.02428409
163	0xbd15c157	-0.036561336
164	0xbb988037	-0.0046539563
165	0xbcf4c5a5	-0.0298794
166	0xbd47a767	-0.04874363
167	0xbcb24c08	-0.02176477
168	0xbbaf9bc1	-0.0053591435
169	0xbd6bb610	-0.057546675
170	0x3bb42a8f	0.0054982374
171	0xbd670f41	-0.05641103
172	0x3d9e8138	0.0773949
173	0x3e15093e	0.14554307
174	0xbc2cd2ca	-0.010548303
175	0xbd40c549	-0.047063146
176	0x3ced8138	0.02899228
177	0xbd810a2f	-0.063007705
178	0xbca0b05e	-0.019615348
179	0xbdaeeac1	-0.085408695
180	0x3da818a4	0.08207825
181	0x398e6679	0.000271607
182	0xbc4edbff	-0.012625693
183	0x3b03731e	0.002005763
184	0x3d444fc9	0.04792765
185	0xbd807462	-0.06272198
186	0x3c7026de	0.014657704
187	0xbd818a79	-0.0632524
188	0x3d154f57	0.036452617
189	0xbc220e58	-0.009891115
190	0xbd19b57f	-0.037526604
191	0xbdd075f4	-0.10178748
192	0x3d7af0e5	0.06126489
193	0x3cf6baf3	0.030118441
194	0x3c12e6c2	0.00896615
195	0x3dbe287c	0.092850655
196	0x3d6fe86d	0.058571268
197	0xbd975da6	-0.07390909
198	0x3b8e4e89	0.004342858
199	0x3da5af2c	0.08090052
200	0x3e1bc1b0	0.15210605
201	0xbd0e7bd9	-0.03478608
202	0xbc6b7d46	-0.014373129
203	0xbb8da3f9	-0.0043225256
204	0x3ce7513a	0.028236974
205	0xbd4f0106	-0.050538085
206	0xbc08414d	-0.00831635
207	0x3cf585f2	0.029971097
208	0x3d4532e8	0.04814425
209	0xbd0e8195	-0.034791548
210	0x3b37cbf1	0.0028045143
211	0x3ddc9bac	0.107718796
212	0x3be736d1	0.007056095
213	0xbc4b0038	-0.012390189
214	0x3cd22dee	0.025656667
215	0x3ddb8b83	0.10719969
216	0x3d141385	0.036151428
217	0x3dc439e8	0.09581357
218	0x3d144400	0.036197662
219	0x3d745e24	0.059660092
220	0x3c461f1e	0.01209238
221	0xbd91caea	-0.07118781
222	0xbc40f127	-0.011776245
223	0xbd16cf25	-0.036818642
224	0xbd6bd3f3	-0.057575177
225	0x3d1df3f2	0.038562723
226	0xba67ccc8	-0.00088424655
227	0xbb8d6ddd	-0.0043160752
228	0x3d864fb2	0.065581694
229	0xbd5443ad	-0.051822353
230	0x3cf854cc	0.030313872
231	0xbd51bb2d	-0.051203895
232	0xbd31ad41	-0.04337812
233	0x3dc24f26	0.094877526
234	0x3ca32b5f	0.019918142
235	0xbd78ded8	-0.060759395
236	0x3dd7d4da	0.10538645
237	0x3e0ed6fe	0.139492
238	0xbce8d7cb	-0.02842321
239	0xbc9c526c	-0.01908227
240	0x3b715112	0.0036822003
241	0xbd8e4715	-0.069471516
242	0x3d46411d	0.04840194
243	0xbc11db9f	-0.008902459
244	0x3ceaf424	0.028680868
245	0x3da5a0f7	0.08087342
246	0xbd309265	-0.043108363
247	0x3cee426a	0.029084403
248	0x3c640253	0.01391657
249	0xbdc54545	-0.09632353
250	0xbbe799aa	-0.0070678787
251	0xbce7c684	-0.028292902
252	0xbd28f7f7	-0.041252103
253	0x3d555202	0.052080162
254	0x3c2c2406	0.0105066355
255	0x3ba4ae12	0.0050256336

fc1.bias f4 [256]
0	0x3dd67621	0.1047175
1	0xbe14bb62	-0.14524606
2	0x3e10d641	0.14144231
3	0xbe0b85ec	-0.13625306
4	0x3e3b15be	0.18270013
5	0x3e0e2fb2	0.13885382
6	0x3d95ba2e	0.073109016
7	0xbe4c6b58	-0.19962823
8	0xbda799b6	-0.08183615
9	0x3dc39cf5	0.095514216
10	0xbe3e9b4e	-0.18613932
11	0x3dc7dcfd	0.09758947
12	0xbda8468c	-0.08216581
13	0xbe18c41f	-0.14918564
14	0xbb12213e	-0.0022297646
15	0x3d001e16	0.031278692
16	0x3e1df1ea	0.15424314
17	0xbe0506d1	-0.12990882
18	0xbe29e03c	-0.16589445
19	0xbd8cc98d	-0.0687438
20	0x3d1edc8f	0.03878456
21	0xbdba61b0	-0.09100664
22	0xbd9f2e6f	-0.077725284
23	0xbd91f6f4	-0.07127181
24	0x3db3300b	0.08749398
25	0x3cdb78d4	0.026791014
26	0x3e373746	0.17892179
27	0x3e04888e	0.12942716
28	0xbe3506eb	-0.1767842
29	0x3d57f28e	0.052721553
30	0xbe37115a	-0.17877713
31	0xbe40bdf6	-0.18822464
32	0xbd916375	-0.07099048
33	0x3e502f09	0.20330442
34	0x3c95879e	0.018253144
35	0xbe1648ce	-0.1467621
36	0xbe3c7d3b	-0.18407147
37	0x3e1d8e6d	0.15386362
38	0x3e21daf4	0.1580618
39	0xbde7f9cd	-0.113269426
40	0x3e1176fc	0.14205545
41	0x3d9a6278	0.07538313
42	0xbdd71c80	-0.10503483
43	0x3d800221	0.06250406
44	0x3bfb7767	0.007674146
45	0xbd576a6b	-0.052591722
46	0xbd55ab27	-0.052165177
47	0x3e1a9245	0.1509486
48	0x3db4801b	0.08813497
49	0x3db66301	0.08905602
50	0x3d73478a	0.059394397
51	0x3e0ed0a3	0.13946776
52	0xbd55e957	-0.052224483
53	0xbb378178	-0.0028000753
54	0x3e2cd770	0.16879058
55	0x3dfa9ee2	0.12237336
56	0x3d4f8029	0.050659332
57	0xbdd4eb33	-0.10396423
58	0xbd56b085	-0.052414436
59	0x3d038e43	0.032118093
60	0xbe012c90	-0.12614655
61	0x3dbd5bca	0.09246023
62	0xbe01d145	-0.12677486
63	0xbe145bd5	-0.14488156
64	0x3d962f68	0.07333261
65	0xbdcec3fc	-0.10095975
66	0xbe50f279	-0.20404996
67	0x3e0314e7	0.12800942
68	0xbdaa99cc	-0.08330116
69	0xbd9e25ef	-0.07722079
70	0xbdc2849e	-0.09497951
71	0xbdeef98b	-0.1166869
72	0xbe0c71bf	-0.13715266
73	0xbdb6cb4d	-0.08925495
74	0xbe18dfe5	-0.14929159
75	0xbc915fb4	-0.01774583
76	0x3d853b15	0.0650541
77	0xbe0231bf	-0.12714289
78	0xbe48be82	-0.19603923
79	0x3d91d679	0.071209855
80	0xbde6f429	-0.112770386
81	0x3d64b9ad	0.055841137
82	0xbc80c2cb	-0.015717885
83	0x3d37ac43	0.044842016
84	0xbb16eb8b	-0.0023028578
85	0xbd82c318	-0.063848674
86	0xbe2225aa	-0.1583468
87	0x3e0f7713	0.14010267
88	0x3dc5d82e	0.09660374
89	0x3cad7c07	0.021177305
90	0x3e324a94	0.17411262
91	0x3e3fe3a3	0.1873918
92	0xbe2823e0	-0.16419935
93	0x3dd2032b	0.102545105
94	0x3e3ff3ed	0.18745394
95	0xbc39f092	-0.01134886
96	0xbe45e394	-0.19325095
97	0xbd9811ed	-0.07425294
98	0x3c9a713f	0.018852828
99	0xbd327ee1	-0.043578032
100	0x3dc8d310	0.09805882
101	0x3da2cbfd	0.07949064
102	0xbe46d843	-0.19418435
103	0x3ce167f6	0.027515393
104	0x3d04fb0a	0.032465972
105	0x3e057588	0.13033116
106	0x3cd6ab3a	0.026204694
107	0x3de3901f	0.11111473
108	0x3d2b3869	0.041801844
109	0xbe0af1e2	-0.13568833
110	0xbe2220e7	-0.15832864
111	0xbd8e99fd	-0.06962965
112	0x3a614b7d	0.00085943175
113	0xbdf40228	-0.11914474
114	0xbe3926ce	-0.18081209
115	0x3e330c2a	0.17485109
116	0x3cbbe314	0.022935428
117	0x3da16964	0.0788143
118	0xbdd4605f	-0.10369944
119	0x3d0a1541	0.033711676
120	0xbc83d443	-0.016092425
121	0x3ddb5d4d	0.10711155
122	0xbd985a9e	-0.07439159
123	0x3e3a1ca0	0.18174982
124	0x3c2da71e	0.010598926
125	0x3c0beef1	0.008540855
126	0x3e12adf7	0.14324175
127	0xbbd8b8f5	-0.0066138455
128	0x3d73952c	0.059468433
129	0xbc67b2a6	-0.014141714
130	0x3e215fe8	0.15759242
131	0xbe4b3559	-0.1984457
132	0x3e498e94	0.19683295
133	0xbdf62dd7	-0.12020462
134	0x3e4c625c	0.19959396
135	0x3d8d8cbc	0.069116086
136	0xbe04e600	-0.12978363
137	0xbe32926b	-0.17438667
138	0x3d658865	0.05603828
139	0x3da9bec7	0.08288341
140	0xbe0edc84	-0.13951308
141	0x3e0532f7	0.13007723
142	0xbdbee8ad	-0.09321723
143	0x3e25382f	0.16134714
144	0x3d088493	0.033329558
145	0xbe335f15	-0.1751674
146	0x3d0608f3	0.03272338
147	0xbd5d6bba	-0.054057814
148	0x3d5d22c5	0.053988237
149	0xbd9d0f6a	-0.076689556
150	0x3e371fa9	0.17883171
151	0xbdee592e	-0.116381034
152	0x3e2bb545	0.16768368
153	0xbe4f40fb	-0.20239632
154	0x3e175a48	0.14780533
155	0xbe0fe813	-0.14053373
156	0x3d1b1e49	0.03787068
157	0xbd54f329	-0.051989708
158	0xbe500f72	-0.20318392
159	0x3e244946	0.16043577
160	0x3d461ab1	0.0483653
161	0x3de87dc9	0.113521166
162	0xbdc81772	-0.09770097
163	0xbd813a8f	-0.06309997
164	0xbdc0a533	-0.09406509
165	0xbe40f026	-0.1884161
166	0x3d36ac9b	0.044598203
167	0x3d983aca	0.07433088
168	0xbccadd6b	-0.024763783
169	0xbe07fe44	-0.13280588
170	0x3cc80cb1	0.024420114
171	0x3db33136	0.087496206
172	0x3c9e8e3c	0.019354932
173	0xbe4f59fa	-0.20249167
174	0x3dccdf58	0.10003537
175	0x3e1817fb	0.14852898
176	0xbd88b566	-0.06675224
177	0xbd35bd30	-0.044369876
178	0x3b929f83	0.0044745817
179	0x3d2a375e	0.04155671
180	0x3e396adf	0.18107174
181	0x3e15413f	0.1457567
182	0x3dba93cc	0.09110221
183	0xbe09c2d3	-0.13453226
184	0x3dfab3cb	0.12241324
185	0x3dcbd2f1	0.09952343
186	0x3e43d638	0.19124687
187	0xbda1c065	-0.078980245
188	0x3d936664	0.07197264
189	0x3e09f465	0.13472135
190	0x3dc3c88b	0.09559735
191	0xbca6e03c	-0.020370595
192	0xbd7039fc	-0.05864905
193	0xbd195644	-0.037435785
194	0x3de8e1ea	0.11371215
195	0xbd8407d9	-0.06446809
196	0xbe4fb7a4	-0.20284897
197	0xbd0696a7	-0.032858517
198	0xbe400099	-0.18750228
199	0xbe23e714	-0.16006118
200	0x3e3469f9	0.1761855
201	0xbe03946c	-0.12849587
202	0x3df2b7f5	0.11851493
203	0xbdfb6f3b	-0.12277075
204	0xbe4d56d4	-0.20052654
205	0x3b95fd24	0.004577296
206	0x3dd6e5d6	0.104930565
207	0x3c1bc8a3	0.009508285
208	0x3df01396	0.11722486
209	0xbc0823ab	-0.008309285
210	0xbe14e29e	-0.14539573
211	0x3dff822a	0.12475999
212	0x3d0f705e	0.03501927
213	0xbde75ab8	-0.112966
214	0xbcac0b58	-0.021001503
215	0x3d93975e	0.072066054
216	0xbd2ff46f	-0.04295772
217	0xbc17339f	-0.009228616
218	0x3d536d18	0.05161771
219	0x3d85e0ab	0.06536993
220	0x3df06da5	0.11739663
221	0xbd53ef0b	-0.05174164
222	0x3d78c1ad	0.06073158
223	0x3d4534ad	0.04814594
224	0xbda07148	-0.07834107
225	0x3d0062a2	0.031344064
226	0x3be62197	0.007023047
227	0xbe19c58f	-0.15016769
228	0xbe3bd4df	-0.18342923
229	0x3e36342c	0.1779334
230	0xbdbf12db	-0.09329768
231	0x3e18e7ec	0.14932221
232	0x3d28309e	0.04106199
233	0x3decfa8d	0.11571226
234	0xbce33fac	-0.027740322
235	0xbd306b64	-0.043071166
236	0xbd9ae541	-0.07563258
237	0xbe4692dd	-0.19391961
238	0xba3c463d	-0.0007182097
239	0x3e301ed3	0.17199259
240	0x3d281a96	0.04104098
241	0xbd8b7b08	-0.06810576
242	0xbe04592a	-0.12924638
243	0xbd44aad1	-0.048014466
244	0xbdadad01	-0.084802635
245	0x3dffc781	0.12489224
246	0x3dbcddde	0.09222005
247	0x3d57fc69	0.05273095
248	0x3cf541d0	0.029938608
249	0x3bede042	0.0072593996
250	0xbddc36ad	-0.10752616
251	0xbcca8467	-0.024721337
252	0x3e0579ce	0.13034746
253	0xbcd58393	-0.026063716
254	0x3d901047	0.07034355
255	0xbce83bb2	-0.028348777

bn1.weight f4 [256]
0	0x3f3f17c0	0.74645615
1	0x3ded0713	0.11573615
2	0x3f510238	0.8164401
3	0x3f16c5ae	0.58895385
4	0x3f37c6de	0.7178782
5	0x3f8575b7	1.0426549
6	0x3f0074b2	0.5017806
7	0x3f5a5226	0.852816
8	0x3f3f8863	0.74817485
9	0x3f0deeb2	0.55442345
10	0x3e4b8d16	0.19878039
11	0x3f7a4d40	0.97774124
12	0x3f3cd2d6	0.7375921
13	0x3f4ee632	0.8082
14	0x3ef42251	0.4768243
15	0x3ef3e740	0.47637367
16	0x3f380cc2	0.71894467
17	0x3efac64f	0.48979422
18	0x3f27a04e	0.6547898
19	0x3f26ad6f	0.6510839
20	0x3f1e04ac	0.6172588
21	0x3f5d0da0	0.86348915
22	0x3e61fa59	0.22068156
23	0x3dae2c89	0.08504588
24	0x3e861801	0.2619019
25	0x3e2acd64	0.16679913
26	0x3d9a383f	0.07530259
27	0x3ed7b47b	0.42129883
28	0x3f29f18c	0.66384196
29	0x3f54409f	0.82911104
30	0x3ebb8903	0.3662797
31	0x3ef43118	0.47693706
32	0x3eb7c291	0.3589063
33	0x3f5fbf42	0.8740121
34	0x3ed04f8e	0.40685695
35	0x3f349db6	0.7055315
36	0x3ea39d70	0.31956053
37	0x3e5082ec	0.20362443
38	0x3ef92107	0.4865801
39	0x3f7d9ab4	0.99064183
40	0x3eff5ef2	0.49877125
41	0x3f47def9	0.78074604
42	0x3f844adb	1.0335344
43	0x3eff2f44	0.49840748
44	0x3f519c91	0.81879526
45	0x3f51d124	0.8195975
46	0x3f6f3859	0.93445355
47	0x3ecfd2e4	0.40590584
48	0x3f3e87f5	0.74426204
49	0x3f3838f0	0.7196188
50	0x3f70826f	0.93949026
51	0x3f73da97	0.95255417
52	0x3f2288c5	0.63489944
53	0x3e409825	0.18808039
54	0x3f174dc9	0.59103066
55	0x3f18e5d9	0.5972572
56	0x3eaa5d2a	0.33274204
57	0x3ef75628	0.4830792
58	0x3f8c3ad8	1.0955458
59	0x3f73241a	0.9497696
60	0x3eca2f98	0.39489436
61	0x3e06b6b7	0.13155638
62	0x3f2a7e1d	0.66598684
63	0x3d370dfb	0.044691067
64	0x3ece6283	0.40309533
65	0x3ed40845	0.4141256
66	0x3eb2146a	0.347812
67	0x3f1a4edf	0.602766
68	0x3f25c9db	0.6476113
69	0x3f9184de	1.1368673
70	0x3f2f1a63	0.6839964
71	0x3f260a08	0.64859056
72	0x3e327373	0.17426853
73	0x3e8d1fbb	0.2756327
74	0x3f03a48e	0.51422966
75	0x3e5fe4b9	0.21864595
76	0x3f34c6d5	0.70615894
77	0x3ed5192b	0.41620764
78	0x3f4066cf	0.75156873
79	0x3d3a8007	0.045532253
80	0x3d93af77	0.07211202
81	0x3f3a5a3d	0.7279394
82	0x3ece6163	0.40308675
83	0x3e7a6aeb	0.24454848
84	0x3f4b5ce3	0.7943861
85	0x3f5f7ed4	0.873029
86	0x3e82bfaa	0.25536853
87	0x3f403653	0.7508289
88	0x3f432991	0.762353
89	0x3f3d4a09	0.73941094
90	0x3e7ab601	0.24483491
91	0x3f393318	0.7234359
92	0x3f5653cb	0.8372161
93	0x3f309a5c	0.68985534
94	0x3f02707b	0.5095288
95	0x3eb19be7	0.34689257
96	0x3f6bbe26	0.9208702
97	0x3ec137dc	0.3773793
98	0x3f4e6203	0.80618304
99	0x3f40ac8e	0.752633
100	0x3ee0cac3	0.43904695
101	0x3d645377	0.05574366
102	0x3f761502	0.96125805
103	0x3f1f8839	0.62317234
104	0x3f85735a	1.0425828
105	0x3d88cae2	0.06679322
106	0x3eb34eff	0.35021207
107	0x3e0b91f5	0.13629897
108	0x3fa310a4	1.2739453
109	0x38caed66	9.6763295e-05
110	0x3f680742	0.90636075
111	0x3f2dff5c	0.6796777
112	0x3ece8e1a	0.4034279
113	0x3f7149b3	0.9425308
114	0x3d4d81b7	0.050172534
115	0x3f4f850b	0.8106238
116	0x3f18761d	0.59555227
117	0x3f1d8dca	0.6154448
118	0x3f042b36	0.51628435
119	0x3f131a11	0.5746165
120	0x3f05a20b	0.5220038
121	0x3f7604c1	0.96101004
122	0x3e46526e	0.19367382
123	0x3f54a110	0.8305826
124	0x3da7c21d	0.08191321
125	0x3dfe5ace	0.12419663
126	0x3cbdde93	0.02317742
127	0x3eef8dce	0.46787876
128	0x3f77ae1b	0.9675004
129	0x3f260bd7	0.64861816
130	0x3f0d2600	0.5513611
131	0x3f0d3d43	0.551716
132	0x3ef7886f	0.48346278
133	0x3f162b73	0.5866005
134	0x3ef24e24	0.47325242
135	0x3eca6cdf	0.39536187
136	0x3eb662b2	0.35622174
137	0x3f20b84a	0.627812
138	0x3f4e6bb0	0.8063307
139	0x3eb201d2	0.34767014
140	0x3e39864f	0.18117641
141	0x3f280979	0.65639454
142	0x3f30e1ce	0.6909455
143	0x3f12c5a5	0.5733283
144	0x3f78ad3b	0.9713933
145	0x3f17a446	0.59235036
146	0x3f3367c1	0.7008019
147	0x3eba62e9	0.36403587
148	0x3ef8b521	0.4857569
149	0x3f38ff77	0.7226481
150	0x3d0bce37	0.03413221
151	0x3e795ab9	0.24351014
152	0x3ef163c5	0.4714643
153	0x3efeaacc	0.49739683
154	0x3d446676	0.047949277
155	0x3e9d3851	0.30707029
156	0x3eb63914	0.35590422
157	0x3f0ae65f	0.5425777
158	0x3f393763	0.7235014
159	0x3f61cae3	0.88200206
160	0x3f481c59	0.78168255
161	0x3f5ac1ce	0.8545197
162	0x3f6af4fa	0.91780055
163	0x3e8b1682	0.2716561
164	0x3ec0e8e3	0.37677678
165	0x3e26d3b8	0.16291702
166	0x3f04010c	0.515641
167	0x3f7f496c	0.9972141
168	0x3e53bfe6	0.20678672
169	0x3e13bde7	0.14427911
170	0x3f6416e8	0.8909745
171	0x3f4a72ba	0.7908131
172	0x3f4f11c9	0.80886513
173	0x3f1445a0	0.5791874
174	0x3f19db28	0.6010003
175	0x3f4c7dd0	0.79879475
176	0x3f8001d5	1.0000559
177	0x3f91ea85	1.1399695
178	0x3f11118f	0.5666742
179	0x3f7a0275	0.9766
180	0x3e2cadcb	0.16863172
181	0x3f83f1b3	1.0308136
182	0x3e75a7f9	0.23989858
183	0x3f61f935	0.88270885
184	0x3f6b49d4	0.9190953
185	0x3eea0f3d	0.4571475
186	0x3f1ee485	0.62067443
187	0x3ee1c3aa	0.44094592
188	0x3eb80e49	0.359484
189	0x3e344617	0.17604862
190	0x3f36d7e7	0.7142319
191	0x3f3a3664	0.72739244
192	0x3f0b2010	0.543458
193	0x3e61830d	0.22022648
194	0x3df699b6	0.12041037
195	0x3f4c8ce8	0.79902506
196	0x3ed741ef	0.4204249
197	0x3f0dcf1f	0.55394167
198	0x3f3ede06	0.7455753
199	0x3e98a46d	0.29812947
200	0x3f29a3d4	0.66265607
201	0x3e202d38	0.1564225
202	0x3f1745cd	0.5909088
203	0x3f414a6f	0.755042
204	0x3ece5004	0.40295422
205	0x3ee8bd56	0.45456952
206	0x3f576b09	0.841477
207	0x3e9a2b6e	0.3011126
208	0x3e538e5c	0.20659775
209	0x3e87146b	0.26382765
210	0x3e6b1386	0.22956666
211	0x3e207cdd	0.15672632
212	0x3f1de1ad	0.6167248
213	0x3f3dcd64	0.74141526
214	0x3e5e6dcb	0.2172157
215	0x3e03e9a9	0.12882103
216	0x3e21ebbd	0.15812583
217	0x3f76e0c4	0.96436715
218	0x3f3be208	0.7339177
219	0x3f3a2b4e	0.7272233
220	0x3e554d0a	0.2083017
221	0x3f801a06	1.0007942
222	0x3e8e763a	0.27824575
223	0x3edf7f56	0.43651837
224	0x3e9e36d5	0.3090121
225	0x3f0289ed	0.5099171
226	0x3ef6d0f0	0.48206282
227	0x3f319588	0.6936879
228	0x3f59f57b	0.851402
229	0x3f416290	0.7554102
230	0x3f474b6e	0.7784947
231	0x3f5b3462	0.85626805
232	0x3f3332fd	0.69999677
233	0x3f83f011	1.0307637
234	0x3ec781c8	0.38966203
235	0x3f310416	0.6914686
236	0x3f993f6a	1.1972477
237	0x3f27df60	0.6557522
238	0x3cdb6030	0.026779264
239	0x3f80ba06	1.005677
240	0x3e89db5c	0.2692517
241	0x3e8a4407	0.27005026
242	0x38d3ccfa	0.00010099444
243	0x3f8cee16	1.1010158
244	0x3f7958ef	0.97401327
245	0x3e4b4083	0.19848828
246	0x3efd1d36	0.4943635
247	0x3eaca05e	0.337161
248	0x3e29f599	0.16597594
249	0x3e9b5637	0.30339214
250	0x3e06c74a	0.1316196
251	0x3f47a38f	0.77983946
252	0x3eece343	0.46267137
253	0x3f3bb1aa	0.7331797
254	0x3e3bd276	0.18342003
255	0x3f2943f8	0.6611934

bn1.bias f4 [256]
0	0xbdb381f5	-0.08765022
1	0x3d20f963	0.039300334
2	0x3d9869fe	0.074420914
3	0xbda06eba	-0.078336194
4	0x3dad27c0	0.08454847
5	0x3c33255f	0.010934203
6	0x3da5990a	0.080858305
7	0x3d59ff39	0.053221915
8	0x3cb98e3c	0.02265083
9	0x3c846953	0.016163504
10	0xbd79a0a3	-0.06094421
11	0x3d4c7c73	0.04992337
12	0x3d853bee	0.06505571
13	0xbb4a0f1b	-0.0030831757
14	0xbdd29a92	-0.10283388
15	0xbd59d4d9	-0.053181503
16	0xbdd550fa	-0.10415836
17	0xbb9e7131	-0.004835271
18	0x3cfe1b35	0.031018833
19	0x3da3e169	0.08001978
20	0xbd6ade5c	-0.057340965
21	0xbc8870f5	-0.016655425
22	0xbd913a25	-0.07091168
23	0xbd273ab6	-0.040827475
24	0x3e2d5cd7	0.16929947
25	0xbda43cce	-0.0801941
26	0xbc80c890	-0.015720636
27	0xbd4f5a1b	-0.05062304
28	0x3d023d6c	0.031796858
29	0x3be48ca9	0.006974776
30	0xbd931aa9	-0.071828194
31	0xbd89d7d7	-0.06730621
32	0x3de66a15	0.11250702
33	0xbda51462	-0.08060528
34	0x3c670fdf	0.014102905
35	0xbdbe1e4f	-0.09283125
36	0x3dc0f59a	0.09421845
37	0xbdad1a47	-0.08452278
38	0x3d769670	0.060202062
39	0x3d16f3ad	0.03685348
40	0xbd2903e7	-0.041263487
41	0xbd96ffe5	-0.07373027
42	0xbcb7c3e0	-0.022432268
43	0x3dcbc54e	0.09949742
44	0x3da694d4	0.081338555
45	0x3ddbd649	0.10734231
46	0xbce56e94	-0.02800683
47	0xbd8ef42b	-0.06980165
48	0x3c8631fe	0.01638126
49	0x3ccb4318	0.024812266
50	0xbcff3ddf	-0.031157432
51	0x3d34bbca	0.044124402
52	0xbd917853	-0.07103028
53	0x3dab29b6	0.08357565
54	0xbd9b450c	-0.07581529
55	0xbd223984	-0.039605632
56	0x3ddd68c9	0.10811002
57	0x3dc028dd	0.09382794
58	0x3d954980	0.0728941
59	0x3bcd7080	0.0062695146
60	0xbdc8a607	-0.09797292
61	0xbdb57f74	-0.088622004
62	0x3d780ec8	0.06056097
63	0x3e189b0b	0.14902894
64	0x3dd0c39e	0.10193561
65	0x3d4469dc	0.047952518
66	0x3db447d0	0.0880276
67	0x3c9fba6f	0.019498078
68	0x3e0a277d	0.13491626
69	0x3d6d3398	0.05791053
70	0xbdedd4b5	-0.11612836
71	0x3c1634a8	0.009167828
72	0x3d78e30e	0.06076341
73	0x3e03b0d8	0.1286043
74	0xbe002063	-0.12512355
75	0x3dc7cc56	0.09755771
76	0x3d84a231	0.06476248
77	0x3dcd3dae	0.1002153
78	0xbd90e29f	-0.070744745
79	0x3dff8e23	0.12478282
80	0xbd7549d7	-0.059884872
81	0x3c15c417	0.00914099
82	0x3d9e2a3d	0.077229
83	0x3dccb3bd	0.0999522
84	0xbd312db7	-0.043256488
85	0xbda1479a	-0.07874985
86	0x3ddc55b7	0.10758536
87	0x3d342402	0.043979652
88	0xbca88c90	-0.020574838
89	0x3dec19c2	0.115283504
90	0xbd9bbe33	-0.07604637
91	0x3d5633cc	0.05229549
92	0xbe08118a	-0.1328794
93	0xbdb6c7ec	-0.08924851
94	0x3dba8ec4	0.09109262
95	0x3d9fc11d	0.07800505
96	0xbdf194f2	-0.11795987
97	0xbd7d4b1f	-0.06183922
98	0xbccac1cf	-0.024750618
99	0xbc763452	-0.015027123
100	0x3de8985f	0.113571875
101	0x3e198f3a	0.14996043
102	0x3dbb2430	0.091377616
103	0xbda1ea27	-0.07905989
104	0x3c3bb5bf	0.011456906
105	0x3d142412	0.03616721
106	0x3e32bb5c	0.17454284
107	0xbd67a6b0	-0.05655545
108	0xbc3e609b	-0.011619712
109	0xba99c0af	-0.0011730398
110	0xbd6dd586	-0.05806496
111	0xbdc376ef	-0.09544169
112	0x3d314e48	0.043287545
113	0xbcf90c18	-0.030401275
114	0x3dd798a6	0.10527162
115	0xbdd647d1	-0.10462917
116	0xbd83b237	-0.06430476
117	0xbdab9092	-0.08377184
118	0xbd8bf3e9	-0.068336315
119	0xbd8e51b0	-0.069491744
120	0x3d688cb3	0.056774806
121	0xbdc1714e	-0.09445439
122	0xbd99121f	-0.074741594
123	0x3c669a70	0.014074907
124	0x3e2159f5	0.15756972
125	0xbd93022c	-0.071781486
126	0x3e12d424	0.14338738
127	0x3bf3e2ab	0.0074427924
128	0x3d42c7af	0.047553714
129	0x3e157af8	0.1459769
130	0x3d867db5	0.065669455
131	0x3dacd5e6	0.084392354
132	0xbdac8d70	-0.084254146
133	0x3d1fc942	0.039010294
134	0x3e1d7898	0.15378034
135	0xbd0e04ce	-0.03467255
136	0x3e08b499	0.13350143
137	0xbd609ac1	-0.054835085
138	0xbd8858f3	-0.06657591
139	0x3d51a4d6	0.05118259
140	0x3d8eaf83	0.0696707
141	0xbd9a3adc	-0.07530758
142	0xbdf69f14	-0.120420605
143	0xbd2c947c	-0.042133793
144	0xbcf5da66	-0.030011367
145	0xbc9a0450	-0.018800884
146	0x3d910f11	0.07082952
147	0xbdb0caa9	-0.08632404
148	0xbde20f16	-0.11038034
149	0x3c13ef9c	0.009029295
150	0x3e055564	0.13020855
151	0x3d85b6d6	0.06529014
152	0x3d397c28	0.04528442
153	0xbd9721e3	-0.0737951
154	0x3e07dc49	0.13267626
155	0xbc8397d1	-0.016063603
156	0xbd28620a	-0.041109122
157	0xbd45378e	-0.048148684
158	0xbc08a396	-0.008339783
159	0x3d91bae2	0.07115723
160	0xbd996e16	-0.074917
161	0x3d66cafc	0.056345925
162	0xbc876bc9	-0.016530888
163	0xbe0f0488	-0.13966572
164	0xbdae9a99	-0.08525581
165	0xbd7bf086	-0.061508678
166	0x3dc327d8	0.09529084
167	0x3dc0a107	0.094057135
168	0xbd5bb347	-0.05363777
169	0xbc5a34e6	-0.013318276
170	0x3c9d40d0	0.019195944
171	0xbdeb3374	-0.11484423
172	0x3c814672	0.015780661
173	0xbda2bd17	-0.07946222
174	0xbd9e4834	-0.077286154
175	0x3cfa388c	0.030544542
176	0xbd0fa592	-0.03507001
177	0x3d20e558	0.03928122
178	0xbdb96bd6	-0.09053771
179	0xbde5b0ff	-0.112154
180	0xbd78bf43	-0.060729276
181	0x3dda19cb	0.10649451
182	0x3d222719	0.039588068
183	0x3da5fde2	0.08105065
184	0xbda878be	-0.08226155
185	0xbdcd7fdd	-0.100341536
186	0x3dd83ffc	0.10559079
187	0x3e0be791	0.13662554
188	0xbdeafe7b	-0.114743195
189	0xbd1b6c90	-0.03794533
190	0xbd094404	-0.03351213
191	0xbd6a9f44	-0.057280794
192	0x3d775ec2	0.060393102
193	0xbe08a6a6	-0.13344821
194	0x3dc45e3a	0.09588285
195	0xbcb52bc9	-0.022115605
196	0x3db11273	0.08646097
197	0xbdf5787c	-0.11985871
198	0x3d41d308	0.047320396
199	0xbdadb073	-0.08480921
200	0xbc9b9b57	-0.01899497
201	0xbdb45e35	-0.08807031
202	0xbdcf6f7d	-0.101286866
203	0x3d809c7c	0.06279847
204	0xbceb8879	-0.028751599
205	0x3d95b9d0	0.073108315
206	0xbd5f7b33	-0.05456085
207	0x3daa84d4	0.08326116
208	0xbcc484f2	-0.023989175
209	0x3de02aed	0.109456874
210	0xbd84d052	-0.064850464
211	0x3e246a40	0.16056156
212	0x3dce3f6b	0.1007069
213	0x3e129329	0.1431395
214	0x3dd392b7	0.10330718
215	0x3e181691	0.14852358
216	0xbbffd496	-0.0078073246
217	0xbc5e2415	-0.013558407
218	0x3d5297bc	0.051414236
219	0xbdda0748	-0.1064592
220	0xbd10ee78	-0.03538367
221	0x3d39f3bc	0.04539846
222	0x3dff57c1	0.124679096
223	0xbd2db522	-0.04240907
224	0xbe02d577	-0.12776743
225	0xbd8e9c5d	-0.06963418
226	0xbdd96947	-0.10615783
227	0xbd074d44	-0.03303267
228	0x3d2896e9	0.041159544
229	0xbda4b32a	-0.08041985
230	0xbdbef4e6	-0.093240544
231	0x3d1364cb	0.035984796
232	0x3ddb876d	0.1071919
233	0xbcea0d1a	-0.0285707
234	0x3d116c5f	0.03550374
235	0x3c8ee28a	0.017442007
236	0x3d2fbec0	0.042906523
237	0x3d92b5ba	0.07163568
238	0x3dd4bf5a	0.1038806
239	0x3c419dbf	0.011817395
240	0xbdcac22d	-0.09900317
241	0xbd2b4a4a	-0.041818894
242	0x3df870f5	0.1213092
243	0x3d2bff04	0.04199125
244	0x3da09c99	0.07842369
245	0xbc9ef568	-0.019404128
246	0xbdc46469	-0.09589464
247	0xbcb12a1b	-0.021626523
248	0x3e054b27	0.1301695
249	0x3ba7e81b	0.0051241047
250	0xbda700b7	-0.08154433
251	0xbd6400f2	-0.055664964
252	0x3ddf4b54	0.109030396
253	0xbc7b962a	-0.015355626
254	0xbd9db8f9	-0.07701296
255	0xba9ea2e5	-0.001210299

bn1.running_mean f4 [256]
0	0xbe678840	-0.22610569
1	0xc00dfff3	-2.218747
2	0x3de36a39	0.11104245
3	0x3ff6afc0	1.9272385
4	0x3f801cf9	1.0008842
5	0x3f830f6b	1.023908
6	0x3fcee58d	1.6163803
7	0xbf114f1e	-0.5676135
8	0xc044caa7	-3.074869
9	0x3f4226d2	0.75840485
10	0x3cb9be90	0.022673875
11	0x3f221e0f	0.63327116
12	0x3f002232	0.5005218
13	0xbe32ff6a	-0.17480245
14	0x3f2f98ea	0.68592703
15	0xbe15aab0	-0.14615893
16	0xc014ae72	-2.3231473
17	0x3f51ddfa	0.81979334
18	0x3f0af19f	0.54274935
19	0x3ec13b8d	0.37740746
20	0xc006f252	-2.10854
21	0x3fda692e	1.7063348
22	0xbf5fee31	-0.87472826
23	0x3f4d572d	0.80211145
24	0x4003c046	2.0586104
25	0xbe873636	-0.26408547
26	0x3eaf671e	0.3425836
27	0xbd1b8ab8	-0.03797409
28	0x3f40e37c	0.75347114
29	0x3f1cc896	0.6124357
30	0xbf69088e	-0.9102868
31	0xbfb193b0	-1.3873196
32	0x3f1bcfd5	0.60864
33	0x3f722afb	0.94596833
34	0x3fd0befc	1.6308284
35	0xbfbdb849	-1.4821864
36	0xbb3f7e0d	-0.002921942
37	0xbf00d68a	-0.5032736
38	0x3e9d3a64	0.3070861
39	0xbd257e2a	-0.040403523
40	0x3fcd287d	1.6027981
41	0x3f6ae262	0.9175168
42	0x3ee519cf	0.44746253
43	0xbf0a8a80	-0.54117584
44	0x3f65ddab	0.89791363
45	0x3e0bce95	0.13653024
46	0x4021043b	2.5158832
47	0xbf24a847	-0.6431927
48	0x3f77f577	0.96858925
49	0x4017aebb	2.3700397
50	0x3fa897e8	1.3171358
51	0xbd18c9b9	-0.037301753
52	0x3d30d00c	0.04316716
53	0xbfaf27a8	-1.3683977
54	0xbf968365	-1.1758848
55	0xc0396702	-2.896912
56	0x403bd583	2.9349067
57	0x3fb3921d	1.4028965
58	0x3ff7a39f	1.9346808
59	0x3f46a00e	0.77587974
60	0xbf7139bc	-0.9422872
61	0xc0392b91	-2.893284
62	0x4004304d	2.065448
63	0xbf832c58	-1.0247908
64	0xbf3b0956	-0.7306112
65	0xc02eef58	-2.7333584
66	0xbeb59002	-0.35461432
67	0x3fecb460	1.8492546
68	0xbf8b3f40	-1.0878677
69	0x40346332	2.8185544
70	0x3ee7b59e	0.4525575
71	0xbfa0a3bb	-1.2549967
72	0xc02585b4	-2.5862856
73	0x3fc162a6	1.510823
74	0xc00c82e7	-2.1954896
75	0x3e86a653	0.2629877
76	0x4010353b	2.253249
77	0x3f58cf68	0.84691477
78	0xbfcb8fee	-1.5903299
79	0xbd621152	-0.0551923
80	0xbfa4c34a	-1.2872097
81	0x3efc4d78	0.49277854
82	0x400d47ed	2.207515
83	0xbb00aac5	-0.0019633037
84	0xbf9cf433	-1.2262024
85	0xbfd62943	-1.6731342
86	0x3ea09dc6	0.31370372
87	0x40280e23	2.6258628
88	0x3f9e93f0	1.2388897
89	0xbf0ed9e4	-0.55801225
90	0xc06cd0a4	-3.7002344
91	0xbfc84b39	-1.5647956
92	0xbf13c418	-0.5772109
93	0x3eef9d1a	0.46799546
94	0x3f850be0	1.0394249
95	0xc055c599	-3.3401854
96	0xc0024a01	-2.0357668
97	0x3f2d5c71	0.6771918
98	0xbe561604	-0.20906836
99	0xbfc52b14	-1.5403771
100	0x3e1fd995	0.15610345
101	0x3f47b165	0.7800506
102	0xbee441a0	-0.44581318
103	0xbf51ade8	-0.81905985
104	0x3dd2eaf3	0.10298719
105	0xbe8a3e42	-0.27000624
106	0x3fd9aa7a	1.700515
107	0x3f1a48dc	0.60267425
108	0x3e0b9522	0.13631108
109	0xbfc65ba4	-1.5496716
110	0xbfb98407	-1.4493417
111	0xc02731ce	-2.6124148
112	0xbf513d21	-0.817339
113	0x3fc4744a	1.5347989
114	0xbfc989ca	-1.5745175
115	0xbfacfa5f	-1.3513907
116	0xbf80f4b4	-1.0074677
117	0x3f6caf7a	0.92455256
118	0x3f514fb4	0.8176224
119	0xbfd137ae	-1.6345117
120	0xbfdf6de3	-1.745541
121	0x3e99c2c6	0.30031413
122	0xbfafd561	-1.3736993
123	0xbd696cf0	-0.056988657
124	0x3e61669f	0.22011803
125	0xbf63b00b	-0.88940495
126	0xbfc7b344	-1.5601583
127	0x3f4cec0f	0.80047697
128	0x3e88b642	0.26701552
129	0x3fd72c98	1.6810484
130	0xbf67ca72	-0.9054328
131	0xbec4c511	-0.384316
132	0xbecf8102	-0.40528113
133	0x3f3381da	0.7012001
134	0x3f6cc32f	0.92485327
135	0xbf777e52	-0.96677125
136	0x3fc8a7b6	1.5676181
137	0x3f590736	0.8477663
138	0x3f0ef3cc	0.55840755
139	0xbe8d4649	-0.27592686
140	0x3f200d02	0.6251985
141	0xbf85ae07	-1.0443734
142	0xbeec42fb	-0.46144852
143	0x3ed15fd6	0.4089343
144	0xbb9a591a	-0.0047103288
145	0x3dbd10a5	0.0923169
146	0xbfbe6f45	-1.4877707
147	0xbfee4809	-1.8615733
148	0xbf272b70	-0.65300655
149	0x3f53ed8d	0.8278435
150	0xbfd79867	-1.6843385
151	0xbefbc02f	-0.49170062
152	0xbf2e139c	-0.6799867
153	0xbf06fc66	-0.5272888
154	0x3d5eb7d9	0.05437455
155	0xbf3080f9	-0.68946797
156	0x3f36b907	0.7137608
157	0xc02077a6	-2.5073028
158	0x3b31a535	0.0027106528
159	0x402b1cdf	2.6736372
160	0xbf829838	-1.0202703
161	0x3e848077	0.2587926
162	0x3fda0774	1.7033525
163	0xc004cc38	-2.0749645
164	0xbd91c56f	-0.071177356
165	0xc03b1e70	-2.9237328
166	0xbd18a9a6	-0.037271164
167	0x3eb51a21	0.35371497
168	0xbfcc60d3	-1.5967048
169	0xbc8637fd	-0.01638412
170	0x3f310ce1	0.69160277
171	0xbf94eb10	-1.1634235
172	0xbf70a06a	-0.9399477
173	0x3fd2766c	1.644239
174	0xbfd86307	-1.6905221
175	0xbffacb36	-1.9593265
176	0xbe945494	-0.28970778
177	0xbd06a791	-0.032874648
178	0xbf020794	-0.50792813
179	0x3edfcf24	0.43712723
180	0xc03861cb	-2.8809688
181	0xbebccab4	-0.368734
182	0xbef95d94	-0.48704207
183	0x3f700980	0.93764496
184	0x3dac0e1c	0.08401129
185	0xbe9a97cc	-0.30193937
186	0x3fe9ac52	1.8255713
187	0x3eba37a7	0.36370584
188	0x3f627d06	0.8847202
189	0xbf1a57c7	-0.6029019
190	0x3f15d861	0.58533293
191	0xbeb4acbe	-0.35288042
192	0xbfc3c3d8	-1.5294142
193	0xbff91e4f	-1.9462374
194	0x3f339068	0.7014222
195	0x3f937382	1.1519625
196	0xbf12b36f	-0.57305044
197	0xc002c96f	-2.0435445
198	0x3f022399	0.5083557
199	0xbeabfdaa	-0.33591968
200	0x4058c485	3.3869946
201	0xc05d35fe	-3.4564204
202	0x3defc6ea	0.11707862
203	0x3fbb7932	1.4646361
204	0xbfa162a7	-1.2608231
205	0xbfba90ae	-1.4575403
206	0xbeb5cb29	-0.3550656
207	0x3e2d435e	0.1692023
208	0x3f8ee359	1.1163131
209	0x3f1273fa	0.57208216
210	0x3e4c5a45	0.1995631
211	0x3fcca309	1.5987254
212	0x3fc958e6	1.5730255
213	0x3fbe1e3e	1.4852979
214	0xbe7567a4	-0.23965317
215	0x3e2d3e35	0.16918261
216	0xbf65d30f	-0.89775175
217	0x3fa5ea3e	1.296211
218	0x3f2b53fa	0.66925013
219	0xbeffec99	-0.49985197
220	0x3ffb7540	1.9645157
221	0x3fc545a9	1.5411884
222	0x3f77c75e	0.96788585
223	0x3e994729	0.29937103
224	0xc0355831	-2.8335078
225	0xbf023b45	-0.5087169
226	0xbff876b0	-1.941122
227	0x3fa1c7c2	1.2639086
228	0x3e857c35	0.26071325
229	0x4007cd86	2.1219192
230	0xc01a0a2d	-2.406871
231	0xc037bd72	-2.8709378
232	0x3f90cc05	1.1312262
233	0x3ff17f85	1.8867041
234	0x4032a923	2.7915733
235	0xc047ac8f	-3.1199071
236	0x3fbffc51	1.4998876
237	0xbf227c82	-0.63471234
238	0x3e7bf8e9	0.2460667
239	0xbfc23da3	-1.517506
240	0x3f197227	0.5993981
241	0x3eae3f60	0.34032726
242	0xbf9e5c15	-1.2371851
243	0xbea06fe4	-0.31335366
244	0xc006f223	-2.1085289
245	0x3fff1538	1.992835
246	0xbec870f9	-0.3914869
247	0x4001cc82	2.0281072
248	0xbf387742	-0.72056973
249	0x3f4af7f4	0.79284596
250	0xbf23119d	-0.6369875
251	0x3f18191e	0.59413326
252	0x3f5c7cb6	0.86127794
253	0x3f993b42	1.1971209
254	0xc0563be0	-3.3474045
255	0xc04c9614	-3.19666

bn1.running_var f4 [256]
0	0x3fdca28c	1.7237105
1	0x3fc1f2e2	1.5152247
2	0x4009ed68	2.1551151
3	0x3fd59093	1.6684746
4	0x3fdb65ef	1.7140483
5	0x3fb39463	1.4029659
6	0x3f6082ef	0.8769979
7	0x4023940d	2.5559113
8	0x40221e83	2.5331123
9	0x3fcb03e2	1.586056
10	0x3f8d4b45	1.1038595
11	0x3fe53c1e	1.7908971
12	0x402095ab	2.509135
13	0x3ff29394	1.8951287
14	0x4049a47f	3.150665
15	0x402bca01	2.6842043
16	0x3f82821f	1.019596
17	0x3fad495b	1.3538011
18	0x4059e2e2	3.4044728
19	0x4041196a	3.0171762
20	0x3ff245c3	1.892754
21	0x3fb1578a	1.385484
22	0x3fa8bb3e	1.3182142
23	0x3f97d08f	1.1860522
24	0x3fb8e02a	1.444341
25	0x402499c1	2.5718844
26	0x40c4f310	6.1546707
27	0x4005e704	2.092225
28	0x3f128c00	0.57244873
29	0x402c346b	2.6906993
30	0x3f9eaa02	1.2395632
31	0x3ff75be2	1.9324915
32	0x3fae9b9e	1.3641241
33	0x3fe8335f	1.8140677
34	0x3f879c3e	1.0594556
35	0x3ffd887f	1.980728
36	0x3fa39007	1.2778329
37	0x4028b556	2.6360679
38	0x3f0bab82	0.54558575
39	0x400208a0	2.0317764
40	0x4008790a	2.1323876
41	0x3f6ec423	0.9326803
42	0x3fad4165	1.3535582
43	0x404b3e08	3.175661
44	0x3f846f06	1.0346382
45	0x3ffa3764	1.9548154
46	0x3f72cf63	0.94847697
47	0x3fb6f830	1.4294491
48	0x3fdefc2f	1.742071
49	0x3facc669	1.349805
50	0x3f2c7166	0.6736053
51	0x3ff956c9	1.947961
52	0x40046aff	2.0690305
53	0x401c179f	2.4389417
54	0x3fa0d59f	1.2565192
55	0x3ff90298	1.9453917
56	0x40402676	3.0023475
57	0x40465f6f	3.0995748
58	0x3f91d846	1.1394126
59	0x3fff7a87	1.9959267
60	0x400a7532	2.163403
61	0x3f817353	1.0113319
62	0x3fd10725	1.6330305
63	0x40b892c5	5.767916
64	0x401949e4	2.395135
65	0x3fc2d921	1.5222512
66	0x3f260816	0.6485609
67	0x3f3a3356	0.7273458
68	0x3fe8b9fb	1.8181757
69	0x3f6e0ed8	0.929914
70	0x3fae190d	1.3601395
71	0x403b745b	2.9289768
72	0x400b4b03	2.1764534
73	0x408d59e4	4.417223
74	0x3fba4c5b	1.4554552
75	0x3feccdd2	1.8500311
76	0x3fe4578d	1.7839218
77	0x400d344b	2.2063167
78	0x3fc20758	1.5158491
79	0x40fab1a2	7.8341837
80	0x401f3022	2.4873128
81	0x3eb2e520	0.34940434
82	0x4036f0e6	2.8584533
83	0x4022fa54	2.5465288
84	0x3fb84e85	1.4398962
85	0x3f9c7e2f	1.2226008
86	0x40029dd1	2.0408823
87	0x3f8619d0	1.0476627
88	0x3fb519e9	1.4148532
89	0x3ef97298	0.4872024
90	0x3fafe0da	1.3740494
91	0x3feeb14f	1.864786
92	0x40142102	2.3145146
93	0x4002ead9	2.045584
94	0x3fd268ff	1.6438292
95	0x3ffc47e5	1.970944
96	0x3fe494d9	1.7857925
97	0x400e8238	2.226698
98	0x40278aed	2.6178544
99	0x3fcd90b2	1.6059783
100	0x4016e66e	2.3578143
101	0x40962a3d	4.692656
102	0x3ffdf35b	1.9839891
103	0x3faa65b0	1.3312283
104	0x3fbe793b	1.4880747
105	0x401b453f	2.4261014
106	0x3f9005f3	1.1251816
107	0x40001fcc	2.0019407
108	0x3f0aa6a7	0.5416054
109	0x3ebeb70b	0.37249026
110	0x3fd60a39	1.672187
111	0x400f0522	2.2346883
112	0x4006d826	2.1069427
113	0x3f9a8bc7	1.2073907
114	0x406195d2	3.5247693
115	0x3fcd228e	1.602617
116	0x3f9334ff	1.1500548
117	0x3f4d4b97	0.80193466
118	0x3fd3d3ca	1.6549008
119	0x3fb00948	1.3752832
120	0x40165034	2.3486452
121	0x4009f13d	2.155349
122	0x400bc08e	2.1836276
123	0x4020195f	2.5015485
124	0x4057256d	3.3616593
125	0x40078340	2.1173859
126	0x409eaf4e	4.9588995
127	0x3f2db009	0.67846733
128	0x401cd851	2.450703
129	0x4041f9ef	3.0308797
130	0x400ba05b	2.1816623
131	0x40281acc	2.6266356
132	0x3faac949	1.3342677
133	0x401b8826	2.4301848
134	0x3f58eaec	0.8473346
135	0x40293466	2.6438231
136	0x3ff81b9b	1.9383425
137	0x3f874373	1.0567459
138	0x3fa0225d	1.2510487
139	0x401ab10f	2.4170568
140	0x4065e840	3.5923004
141	0x3f793309	0.973435
142	0x3fe1f9d0	1.7654362
143	0x4004a26c	2.0724134
144	0x3fbda4f5	1.4815966
145	0x3fa867a4	1.3156629
146	0x3ff3e3e2	1.9053919
147	0x4039edff	2.9051511
148	0x40136b0a	2.3034081
149	0x3fb21291	1.3911916
150	0x409b61e5	4.8557
151	0x3fefe8aa	1.8742878
152	0x4004e641	2.0765536
153	0x40298cc5	2.649217
154	0x40ca52c7	6.3226047
155	0x3f2f054c	0.6836746
156	0x3f93714d	1.1518952
157	0x40115661	2.2708972
158	0x3f964e56	1.1742656
159	0x3f8e8683	1.11348
160	0x3f798baa	0.97478735
161	0x401f4422	2.4885335
162	0x3f81424f	1.0098361
163	0x400cd75b	2.2006443
164	0x3f94089a	1.1565125
165	0x4006f096	2.1084342
166	0x3f8d4ab7	1.1038426
167	0x3fe571e4	1.7925382
168	0x3fa910e1	1.3208276
169	0x402364bc	2.5530233
170	0x3fd05f1c	1.6279025
171	0x3ffc76c7	1.9723748
172	0x4003d461	2.0598376
173	0x3fdad1ed	1.7095314
174	0x3f824b8b	1.0179304
175	0x4015df2f	2.341747
176	0x3fb684bc	1.4259257
177	0x3eed07e5	0.46295086
178	0x400aaaa0	2.1666641
179	0x402d0832	2.7036252
180	0x3fc5777a	1.5427086
181	0x3f6faa9e	0.93619716
182	0x40013e30	2.0194206
183	0x406fe5cc	3.7484007
184	0x3facdba4	1.3504529
185	0x3fd1ee8a	1.6400921
186	0x3fd92623	1.6964763
187	0x3fe46699	1.784381
188	0x3f848c12	1.0355246
189	0x40080650	2.1253853
190	0x3f4e9891	0.8070155
191	0x3f2e4d54	0.68086743
192	0x3f8c424a	1.095773
193	0x3fff3b90	1.9940052
194	0x4030e8bc	2.764205
195	0x3f6905d0	0.91024494
196	0x3fc6548e	1.5494554
197	0x40007186	2.006929
198	0x4022b5ff	2.5423582
199	0x40199254	2.3995562
200	0x3fd53169	1.6655704
201	0x3fb15bbd	1.3856121
202	0x3fb9fd60	1.4530449
203	0x3fc77287	1.5581826
204	0x3f653a43	0.89542025
205	0x3fef4951	1.8694249
206	0x3f77836b	0.966849
207	0x4045bac2	3.0895238
208	0x3fc421bb	1.5322794
209	0x4009aacf	2.1510503
210	0x3fd5b84e	1.669687
211	0x3f96b6cb	1.1774534
212	0x3fb6748b	1.4254316
213	0x401c84ce	2.4456058
214	0x409fd93e	4.995269
215	0x3f89d59e	1.0768316
216	0x400416c5	2.0638897
217	0x3f99db80	1.2020111
218	0x4015a0c8	2.3379383
219	0x3fcd82b7	1.6055516
220	0x3f26463a	0.6495091
221	0x3f7324b4	0.9497788
222	0x4044a796	3.0727286
223	0x3f5041a2	0.8135015
224	0x4025d053	2.59084
225	0x3f856404	1.0421147
226	0x3fb6203d	1.4228588
227	0x400bb9a5	2.1832058
228	0x40098ec9	2.14934
229	0x3fb529c3	1.415337
230	0x401ab978	2.41757
231	0x3ff1790b	1.8865064
232	0x3fee0ebc	1.8598247
233	0x3f8b7aa1	1.0896798
234	0x3fcbd0e2	1.5923121
235	0x3fb94259	1.4473373
236	0x3f93ff23	1.1562237
237	0x3fea7f59	1.8320113
238	0x407ca212	3.947392
239	0x402b2b41	2.674515
240	0x3fc791bd	1.5591351
241	0x3f6e4250	0.93069935
242	0x407d05f8	3.9534893
243	0x40149b2b	2.3219707
244	0x3fa3e6fa	1.2804863
245	0x3f9a1ac1	1.2039415
246	0x3fc15dff	1.510681
247	0x3f8c0bac	1.0941062
248	0x407c0bd9	3.9382231
249	0x3fd0b2c8	1.630456
250	0x3f5ba90f	0.8580484
251	0x3fb01350	1.3755894
252	0x406063ea	3.5060983
253	0x3e6c9ce2	0.23106721
254	0x3fe2e3b4	1.772574
255	0x4014ddb6	2.3260322

fc2.weight f4 [256, 256]
0	0xbc58afca	-0.013225505
1	0x3d713f41	0.058898214
2	0x3d83773c	0.064192265
3	0xbd43ac72	-0.04777188
4	0xbaf23f45	-0.001848199
5	0xbdb13bf0	-0.0865401
6	0x3d08a0df	0.033356544
7	0x3d81e554	0.06342569
8	0x3c9db69f	0.01925212
9	0xbe320b32	-0.17387083
10	0xbcda82a1	-0.026673617
11	0xba8a777c	-0.0010564174
12	0xbc0f44a7	-0.008744395
13	0xbdf744b3	-0.1207365
14	0xbb07d275	-0.0020724807
15	0xbd5ee95b	-0.054421764
16	0xbd129620	-0.0357877
17	0xbe17073f	-0.14748858
18	0xbd73c598	-0.059514612
19	0x3d6bb557	0.057545986
20	0xbc634157	-0.013870559
21	0xbd17aca4	-0.037029877
22	0x3d177211	0.036974017
23	0xbdb8302b	-0.08993562
24	0x3d4e0686	0.05029919
25	0xbdab6327	-0.08368521
26	0xbd8173f8	-0.063209474
27	0x3bd3ca19	0.006463301
28	0xbe629e19	-0.22130622
29	0xbc04f3a6	-0.008114731
30	0xbe026a77	-0.12735926
31	0xbe3d0c3e	-0.18461701
32	0x3d1e76a0	0.03868735
33	0xbc4ab34b	-0.012371848
34	0xbe10926f	-0.1411836
35	0x3d1260ed	0.035736967
36	0x3d5cd31f	0.05391228
37	0x3c16b640	0.009198725
38	0xbe02aa32	-0.12760237
39	0x3e05cdd9	0.13066806
40	0x3d280d59	0.041028354
41	0xbd7fd399	-0.062457655
42	0xbe0d712c	-0.13812703
43	0x3d988774	0.07447711
44	0xbe2eb9fb	-0.17063133
45	0x3b2d4ec6	0.0026444658
46	0x3c8da4f3	0.017290568
47	0xbb8a9f37	-0.0042304057
48	0x3d0692f3	0.032854985
49	0xbdd56c6c	-0.104210705
50	0xbd38016f	-0.044923242
51	0x3ca96a11	0.02068046
52	0xbcfc72aa	-0.030816395
53	0x3b8f0268	0.0043643005
54	0xbd41e62e	-0.047338657
55	0x3d349ad3	0.044092964
56	0x3c250593	0.01007213
57	0x3cc450d6	0.023964327
58	0xbe2e324b	-0.17011373
59	0xbc25c9ce	-0.010118915
60	0xbcb41c97	-0.021986289
61	0xbd625b69	-0.055262957
62	0x3d32a341	0.043612722
63	0x3ddcbcf8	0.107782304
64	0x3c7d64aa	0.015465895
65	0xbcf53aa6	-0.029935192
66	0x3d6001d4	0.054689243
67	0xbd9e95ac	-0.077433914
68	0x3b67743d	0.0035317086
69	0xbe045289	-0.1292211
70	0xbd8a6c9e	-0.06758998
71	0x3d09bb1b	0.033625703
72	0x3d152aab	0.036417644
73	0xbb174399	-0.0023081063
74	0xbe761672	-0.24032
75	0x3d52fd8d	0.051511336
76	0xbc8c9e36	-0.017165285
77	0x3d511e12	0.051054068
78	0xbd34dbc5	-0.0441549
79	0x3d8c5ec4	0.068540126
80	0xbe105f8f	-0.14098953
81	0xbe3e2b28	-0.1857115
82	0xbd1d12d8	-0.03834805
83	0x3c54a895	0.012979646
84	0x3d0b5a86	0.034021877
85	0x3c95c4fc	0.018282406
86	0x3cfbfbc0	0.030759692
87	0xbe550848	-0.2080394
88	0xbe214206	-0.15747842
89	0x3dc7ad57	0.09749859
90	0x3d75a633	0.059972953
91	0x3d38b25a	0.045091964
92	0xbb204152	-0.0024452996
93	0xbdbf4f30	-0.09341276
94	0x3d8bbf6d	0.06823621
95	0x3cb937ea	0.02260967
96	0xbce7a8b3	-0.028278684
97	0xbcd368ba	-0.025806773
98	0xbd7ea13d	-0.062165488
99	0xbd54b367	-0.051928904
100	0x3d2e2930	0.04251975
101	0x3ddde7e6	0.10835247
102	0x3d980c7a	0.07424255
103	0xbc9a73c2	-0.018854026
104	0x3d68ef66	0.056868933
105	0x3d74bfeb	0.05975334
106	0x3dd38949	0.103289194
107	0xbce014f2	-0.027353738
108	0xbde296cf	-0.11063921
109	0xbd75679e	-0.05991327
110	0xbde2324c	-0.110447496
111	0x3c4f7b7c	0.012663718
112	0x3d399a97	0.045313444
113	0xbe46b0a6	-0.19403324
114	0x3d7f311d	0.062302697
115	0xbd39bc79	-0.045345757
116	0xbbd0379e	-0.0063542863
117	0xbb3dd4c2	-0.0028965925
118	0xbd344b89	-0.04401735
119	0xbd96e083	-0.07367041
120	0x3d120fad	0.03565948
121	0x3c8d4bf6	0.017248135
122	0xbd461665	-0.0483612
123	0xbd715856	-0.058922134
124	0x3dc3cbdc	0.095603675
125	0xbc7df500	-0.015500307
126	0x3dd88026	0.105713174
127	0xbe109730	-0.14120173
128	0x3d182584	0.037145153
129	0x3d8fb277	0.07016461
130	0x3c2c850f	0.0105297705
131	0x3c0bbda6	0.008529102
132	0xbd677307	-0.056506183
133	0xbd535391	-0.051593367
134	0x3b5bc4b5	0.0033533995
135	0xbd94a14c	-0.072573274
136	0x3c872362	0.016496364
137	0x3c9969db	0.018727234
138	0xbd6bb1f6	-0.057542764
139	0xbd0f3c33	-0.03496952
140	0x3d444dfe	0.04792594
141	0xbd88f3dc	-0.066871375
142	0xbd832547	-0.064035945
143	0xbd2fd3f3	-0.04292674
144	0xbdd619ca	-0.104541376
145	0xba38b9cb	-0.0007046728
146	0x3d5ad79e	0.053428285
147	0xbdf105e3	-0.11768701
148	0xbd317cd6	-0.043331943
149	0xbda84539	-0.08216328
150	0x3dff2421	0.12458063
151	0x3d17285a	0.036903717
152	0xbceb94cb	-0.028757473
153	0xbd4d20f6	-0.050080262
154	0x3d9891d8	0.074496925
155	0xbe272628	-0.16323149
156	0xbd9ed8bb	-0.07756182
157	0x3c7ed326	0.015553271
158	0x3e33c796	0.17556605
159	0x3d48e24a	0.04904393
160	0x3d5f8671	0.054571573
161	0x3dbe3781	0.0928793
162	0xbe6e765e	-0.23287341
163	0xbd4b1926	-0.04958453
164	0xbd056e50	-0.032575905
165	0xbe05cdc6	-0.13066778
166	0x3d8e91e9	0.06961424
167	0xbc919641	-0.017771842
168	0xbc095473	-0.008381951
169	0xbd6a1fec	-0.05715935
170	0xbd5ebb58	-0.054377884
171	0x3cabcdb5	0.020972112
172	0x3d4ab405	0.049488086
173	0xbd1c096c	-0.038094923
174	0xbd867d6f	-0.06566893
175	0x3d85c029	0.06530792
176	0x3cc0711c	0.023491435
177	0xbe0e7e39	-0.13915338
178	0xbdc1af6a	-0.09457286
179	0x3d174ca2	0.036938317
180	0xbdabc7bf	-0.08387708
181	0x3db016d4	0.08598104
182	0xbd41e739	-0.04733965
183	0x3d473782	0.04863692
184	0xbd96b117	-0.07357996
185	0x3bdf7469	0.006819297
186	0xbc1e1594	-0.009648699
187	0x3d9c3bb2	0.076285735
188	0x3c2c4543	0.01051456
189	0x3cdab58e	0.0266979
190	0xbd64d0a9	-0.055863056
191	0xbd20478e	-0.03913074
192	0x3d397160	0.04527414
193	0xbcc7d173	-0.024391865
194	0x3ceff6c5	0.029292474
195	0xbdd89ed9	-0.10577173
196	0x3d6a3e61	0.057188395
197	0xbd90166a	-0.07035525
198	0x3c4fc81e	0.012681989
199	0xbc68fb51	-0.014220075
200	0xbab535df	-0.0013825259
201	0xbd8ab0d0	-0.067720056
202	0xbd967e80	-0.07348347
203	0x3d9aef45	0.07565168
204	0xbdb78432	-0.08960761
205	0x3cd75c85	0.026289234
206	0xbc45c088	-0.012069829
207	0x3b5fb9a6	0.0034137755
208	0xbdb5338d	-0.08847723
209	0xbccaffae	-0.02478012
210	0xbda33517	-0.079691105
211	0x3d189868	0.03725472
212	0x3d35b88c	0.04436545
213	0x3bae2f39	0.005315688
214	0x3d912704	0.0708752
215	0x3da7d82c	0.081955284
216	0xbd5dcc01	-0.05414963
217	0xbe1fee76	-0.1561831
218	0xbcd77c55	-0.026304403
219	0xbd83c97c	-0.064349145
220	0xbe00ac98	-0.1256584
221	0xbd9649b4	-0.073382765
222	0xbb800e1d	-0.0039079324
223	0xbd85005d	-0.0649421
224	0xbd9bdd49	-0.07610566
225	0xbdafa9da	-0.085773185
226	0x3c5279d1	0.012846426
227	0x3d3666ed	0.04453175
228	0xbccedb8f	-0.025251178
229	0xbd2a96d9	-0.041647766
230	0xbc9c8629	-0.019106941
231	0xbc642127	-0.01392392
232	0x3c303faf	0.010757371
233	0xbc268ccb	-0.010165404
234	0xbd723c59	-0.059139583
235	0x3c11f5ca	0.008908698
236	0xbe4008fb	-0.18753426
237	0x3b24a081	0.0025120082
238	0x3d3a4092	0.045471735
239	0x3c20ff6e	0.009826524
240	0x3cf3f049	0.029777663
241	0xbddf818d	-0.10913382
242	0x3d649e72	0.055815168
243	0x3da1a67a	0.07893081
244	0xbcd918f6	-0.02650116
245	0xbdcc7345	-0.099829234
246	0x3b979884	0.0046263356
247	0x3ccd73b5	0.025079587
248	0x3d03551e	0.032063596
249	0x3a9e3469	0.0012070063
250	0xbceef338	-0.02916871
251	0xbe0ecad1	-0.13944556
252	0xbc629426	-0.013829267
253	0xbd2fc73b	-0.04291461
254	0x3c86d3ab	0.016458353
255	0xbd03eb81	-0.032207016
