p3_collab-compet/checkpoint_actor.pth (torch_old, 296400 bytes, 10 tensors)

fc1.weight f4 [256, 24]
0	0xbd02859b	-0.031865697
1	0xbd781fa6	-0.060577057
2	0x3c513b87	0.01277054
3	0xbd9ce2c2	-0.07660438
4	0x3c6cba60	0.014448732
5	0xbd99b921	-0.07506014
6	0xbc96bc91	-0.018400462
7	0x3905f324	0.00012774445
8	0x3dc53bca	0.096305445
9	0xbdb9f02e	-0.09079014
10	0xbd33fcf5	-0.04394241
11	0xbd1e2723	-0.038611542
12	0x3d87e421	0.06635309
13	0xbd6ebae9	-0.05828372
14	0x3d0499b0	0.03237313
15	0xbcbe5706	-0.023234855
16	0x3d9dd5d7	0.07706802
17	0xbdbec544	-0.09314969
18	0x3c6ae3d5	0.014336546
19	0x3d16a8cd	0.036782075
20	0xbda28950	-0.079363465
21	0x3e254d79	0.16142835
22	0xbc74c862	-0.014940353
23	0x3c97e7e6	0.018543195
24	0x3d895ecb	0.067075334
25	0x3d54ce76	0.05195471
26	0xbd16422a	-0.036684193
27	0x3c23ed56	0.010005316
28	0x3d9ef28d	0.07761107
29	0xbd87fd68	-0.0664013
30	0x3d742952	0.05960972
31	0x3d83f737	0.06443637
32	0xbccce412	-0.025011096
33	0x3c5a3596	0.01331844
34	0x3c0b79d9	0.008512937
35	0x3d9c4aa7	0.07631426
36	0xbca68201	-0.020325663
37	0xbd67c20f	-0.056581553
38	0xbd22abba	-0.039714552
39	0x3bc84f1d	0.0061129467
40	0xbce54e03	-0.0279913
41	0xbd64f82e	-0.055900745
42	0x3d0bbc65	0.034115214
43	0x3d9af328	0.075659096
44	0xbd384104	-0.04498388
45	0xbe1797dc	-0.14804024
46	0xbd281e37	-0.04104444
47	0x3c0d62d7	0.008629522
48	0xbd7366b6	-0.059424125
49	0x3d90363b	0.07041594
50	0x3b45b023	0.00301648
51	0x3cb2b338	0.021813974
52	0xbdae0490	-0.08496964
53	0x3c07b4aa	0.00828282
54	0xbc1accc8	-0.009448238
55	0xbd35818a	-0.04431299
56	0x3c1e7ffa	0.009674067
57	0xbd02260b	-0.03177456
58	0xbc8c189d	-0.01710158
59	0xbc2dcd48	-0.010608025
60	0xbd59f223	-0.053209435
61	0x3c904e1f	0.017615376
62	0x3bf1c518	0.0073782317
63	0xbd814687	-0.0631228
64	0xbcf13c93	-0.02944783
65	0xbc0f8fcd	-0.008762312
66	0x398adc16	0.00026485388
67	0xbd55c6f3	-0.052191686
68	0x3cf684ef	0.030092685
69	0x3e340099	0.17578353
70	0x3cba9343	0.022775298
71	0x3d5b5dad	0.053556133
72	0xbd955847	-0.07292228
73	0xbd4c8fc3	-0.04994179
74	0x3d34d6da	0.04415021
75	0xbdb61337	-0.08890384
76	0x3c483cf5	0.012221565
77	0xbe0331c8	-0.12811959
78	0x3cef2f24	0.029197283
79	0xbd8f32d9	-0.0699212
80	0xbd2ff514	-0.042958334
81	0xbc1f38f5	-0.009718169
82	0x3ca92279	0.02064632
83	0x3cf771d1	0.03020564
84	0x3d34a978	0.04410693
85	0xbcaa754b	-0.020807883
86	0x3c782e79	0.015147799
87	0x3cca1818	0.024669692
88	0xbdb826f2	-0.08991803
89	0xbda82362	-0.08209874
90	0x3d279129	0.04090992
91	0x3c935fc2	0.017989997
92	0x3d93cadb	0.07216426
93	0x3dac062a	0.08399613
94	0xbcc798e4	-0.024364896
95	0xbb5c969a	-0.0033659101
96	0xbd605197	-0.05476531
97	0x3dae31d1	0.085055955
98	0x3c318d90	0.010836974
99	0x3ce2f19b	0.027703097
100	0x3ca989c7	0.02069558
101	0x3e223848	0.15841782
102	0xbd0e63eb	-0.034763258
103	0xbd4e1034	-0.05030842
104	0xbd6da1c0	-0.058015585
105	0x3c2c9478	0.010533445
106	0x3c1008e3	0.008791181
107	0xbd05d8e7	-0.032677557
108	0x3db752ca	0.08951338
109	0x3dcd727c	0.10031602
110	0x3c892686	0.016742002
111	0xbc529908	-0.012853868
112	0xbdb97f99	-0.090575404
113	0x3d472056	0.048614822
114	0xbcd61054	-0.026130833
115	0xbd806560	-0.06269336
116	0x3d835441	0.064125545
117	0xbdc78234	-0.09741631
118	0xbc76e13c	-0.0150683485
119	0x3cc3c7eb	0.02389904
120	0xbda8900a	-0.08230598
121	0x3d96d807	0.07365423
122	0x3cbaa6a1	0.022784533
123	0x3dd72840	0.10505724
124	0x3d1148cc	0.035469815
125	0x3df1e97f	0.11812114
126	0x3c018fa7	0.007907785
127	0x3c9bfc27	0.019041134
128	0x3daadfa8	0.0834344
129	0x3ddfb8d1	0.10923923
130	0xbcf37c9a	-0.0297225
131	0x3c19c6ff	0.009385823
132	0xbcedee71	-0.029044362
133	0x3ddc4e4d	0.10757122
134	0x3d218ac4	0.039438978
135	0x3d69f24b	0.057115834
136	0x3d09fdd4	0.033689335
137	0x3de1627f	0.11005115
138	0xba14a106	-0.00056697463
139	0x3df6ab54	0.12044397
140	0xbd975101	-0.07388497
141	0x3d7cf72a	0.06175915
142	0x3c1c19c5	0.009527628
143	0x3daa3402	0.08310701
144	0xbcff089d	-0.031132037
145	0x3e16dc5d	0.147325
146	0x3d4b958d	0.04970317
147	0x3d56f794	0.052482203
148	0xbd7690bc	-0.060196623
149	0xbde746cf	-0.112928025
150	0x3b8c31e4	0.0042784084
151	0x3cb6109d	0.022224719
152	0xbc25cf67	-0.010120249
153	0x3e1a7467	0.15083466
154	0xbb501d40	-0.0031755716
155	0xbd392a6d	-0.045206476
156	0x3d3095c9	0.043111596
157	0xbd937ab8	-0.07201141
158	0x3c4edd59	0.012626016
159	0x3cc721b8	0.02430807
160	0x3c96ff9d	0.018432433
161	0x3d2f321d	0.0427724
162	0x3d0670e7	0.032822516
163	0xbcc1ba7e	-0.023648497
164	0xbcf9e940	-0.03050673
165	0xbe22afb1	-0.15887333
166	0xbd24ae26	-0.040205143
167	0xbc110751	-0.008851842
168	0xbc116e03	-0.0088763265
169	0xbddb93c6	-0.10721545
170	0x3c68b331	0.014202879
171	0xbcc649b5	-0.024205068
172	0x3dabe7b2	0.08393802
173	0xbc94b5d8	-0.018153116
174	0xbaf1a902	-0.0018437209
175	0xbc736b3d	-0.014857111
176	0x3b033d9c	0.0020025736
177	0xbdd39520	-0.10331178
178	0xbcb80e11	-0.022467645
179	0xbdb3d147	-0.08780151
180	0x3d7b8c72	0.061413236
181	0xbe02a30c	-0.1275751
182	0xbc7d9826	-0.01547817
183	0xb9cac998	-0.0003867864
184	0x3dd043ea	0.101692036
185	0xbd4453e1	-0.047931556
186	0x3d264d1d	0.040600885
187	0xbd5daf5d	-0.054122318
188	0x3c91833a	0.017762769
189	0xbd7248c2	-0.05915142
190	0xbc3dc4e9	-0.011582592
191	0xbdbdc2ee	-0.092656955
192	0xbd42d92b	-0.04757039
193	0x3d97d45f	0.074135534
194	0x3b2f2c20	0.0026729181
195	0xbc4a8df5	-0.012362947
196	0xbcfb939d	-0.030710036
197	0xbe088ca9	-0.13334908
198	0xbaffa48a	-0.0019503993
199	0xbcc72caf	-0.024313299
200	0xbbcefbc4	-0.006316634
201	0x3c9860d4	0.018600859
202	0xbd52455e	-0.051335685
203	0xbd882632	-0.0664791
204	0xbd100acb	-0.035166543
205	0xbddcff3b	-0.10790869
206	0xbd397660	-0.045278907
207	0xbd03d510	-0.032185614
208	0xbda2b63e	-0.07944916
209	0x3d746cf1	0.059674207
210	0xbc77d1d4	-0.0151257105
211	0x3d89319f	0.066989176
212	0xbd01e9f5	-0.03171726
213	0xbd8b9e48	-0.06817299
214	0x3bfd2d85	0.0077263736
215	0x3d88215b	0.06646987
216	0x3d6114a8	0.05495134
217	0x3dcc187f	0.0996561
218	0x3d6c6141	0.057709936
219	0xbc22db91	-0.009940044
220	0xbc9459ed	-0.018109286
221	0x3d0d26f0	0.03446096
222	0x3c1f81fc	0.0097355805
223	0xbdd9f270	-0.106419444
224	0xbd043a59	-0.032282207
225	0x3d0b00d2	0.03393633
226	0x3bdc191c	0.0067168605
227	0xbcca75de	-0.024714407
228	0x3b8beef4	0.004270429
229	0xbc11c53b	-0.008897121
230	0x3d1b4cd2	0.03791506
231	0xbd92a45b	-0.071602546
232	0xbcaeb6ad	-0.021327341
233	0x3d173382	0.036914356
234	0x3c0322ed	0.008003932
235	0xbe1ec66f	-0.15505384
236	0x3c3d4af9	0.011553519
237	0x3cd74d4c	0.026281975
238	0xbd253914	-0.040337637
239	0xbde831b0	-0.11337602
240	0xbd964de9	-0.07339079
241	0x3d090bc4	0.033458486
242	0x3d3e2b75	0.046428163
243	0x3c3722c0	0.011177719
244	0x3cd57a1e	0.026059207
245	0xbd544fd3	-0.05183394
246	0xbd38a857	-0.045082416
247	0x3d4960d7	0.04916462
248	0xbdf1a0aa	-0.11798222
249	0x3cc596c1	0.024119737
250	0xbc375d10	-0.011191621
251	0x3d94f985	0.072741546
252	0x3bac9238	0.005266454
253	0xbdcaa07e	-0.09893893
254	0x3bd127c5	0.0063829147
255	0x3dd93637	0.10606044

fc1.bias f4 [256]
0	0x3dd6b9d6	0.10484664
1	0xbe14ab52	-0.14518479
2	0x3e10d768	0.14144671
3	0xbe0b894e	-0.13626596
4	0x3e3b125e	0.18268725
5	0x3e0e25a5	0.13881548
6	0x3d95c3ae	0.073127136
7	0xbe4c6ee4	-0.19964176
8	0xbda79451	-0.08182586
9	0x3dc3aa6a	0.09553988
10	0xbe3e9201	-0.18610384
11	0x3dc7ee7a	0.09762283
12	0xbda84b1b	-0.0821745
13	0xbe18ca0d	-0.14920826
14	0xbb122610	-0.002230052
15	0x3d0030fa	0.031296708
16	0x3e1df783	0.1542645
17	0xbe050ee6	-0.12993965
18	0xbe29dc0f	-0.16587852
19	0xbd8cc1d7	-0.068729095
20	0x3d1ed358	0.03877577
21	0xbdba4863	-0.09095838
22	0xbd9f3d5c	-0.07775375
23	0xbd91e7c8	-0.07124287
24	0x3db34697	0.08753698
25	0x3cdb6a95	0.02678422
26	0x3e37357a	0.17891493
27	0x3e048f45	0.12945278
28	0xbe350bfa	-0.1768035
29	0x3d579b7b	0.052638512
30	0xbe370bdc	-0.17875618
31	0xbe40c88b	-0.18826501
32	0xbd91a125	-0.07110814
33	0x3e502f4a	0.2033054
34	0x3c95beae	0.0182794
35	0xbe16b8da	-0.14718953
36	0xbe3c76c9	-0.18404688
37	0x3e1d8c7e	0.15385625
38	0x3e21ccb0	0.15800738
39	0xbde7f28c	-0.11325559
40	0x3e117a77	0.14206873
41	0x3d9a6b36	0.0753998
42	0xbdd72298	-0.10504645
43	0x3d8008de	0.06251691
44	0x3bf60f70	0.0075091645
45	0xbd573107	-0.05253699
46	0xbd5555c7	-0.052083757
47	0x3e1a857b	0.15089981
48	0x3db494a6	0.08817415
49	0x3db65da6	0.08904581
50	0x3d7341b6	0.05938884
51	0x3e0ec647	0.13942824
52	0xbd55d94d	-0.052209187
53	0xbb36e958	-0.002791008
54	0x3e2cd10b	0.16876619
55	0x3dfa99f7	0.12236398
56	0x3d4f88f9	0.050667737
57	0xbdd51639	-0.10404629
58	0xbd573f1d	-0.052550424
59	0x3d035364	0.03206195
60	0xbe012c63	-0.12614588
61	0x3dbd5740	0.09245157
62	0xbe01fad4	-0.1269334
63	0xbe145bc6	-0.14488134
64	0x3d963cb5	0.07335798
65	0xbdcedbf4	-0.101005465
66	0xbe50f56f	-0.20406125
67	0x3e030f6c	0.12798852
68	0xbdaa929b	-0.08328744
69	0xbd9e5429	-0.07730896
70	0xbdc27b6a	-0.094961956
71	0xbdef0836	-0.11671488
72	0xbe0c7427	-0.13716184
73	0xbdb6c797	-0.089247875
74	0xbe18e58c	-0.14931315
75	0xbc917518	-0.01775603
76	0x3d8531e4	0.065036565
77	0xbe0232a1	-0.12714626
78	0xbe48afc5	-0.19598301
79	0x3d91d648	0.07120949
80	0xbde6f275	-0.11276714
81	0x3d64ab6a	0.055827536
82	0xbc80e044	-0.015731938
83	0x3d379dc9	0.04482821
84	0xbb1b1900	-0.0023666024
85	0xbd82e3c8	-0.06391102
86	0xbe2225ab	-0.15834682
87	0x3e0f9a2b	0.14023654
88	0x3dc5e270	0.0966233
89	0x3cade884	0.021229036
90	0x3e3260c6	0.17419729
91	0x3e3fe617	0.18740116
92	0xbe282536	-0.16420445
93	0x3dd1f038	0.10250896
94	0x3e3ff4aa	0.18745676
95	0xbc394149	-0.011307069
96	0xbe45ea61	-0.1932769
97	0xbd9803b3	-0.074225806
98	0x3c9a7a1f	0.01885706
99	0xbd3296c9	-0.04360083
100	0x3dc8eff7	0.09811395
101	0x3da2ccdc	0.0794923
102	0xbe46e20c	-0.19422168
103	0x3ce0fe37	0.02746497
104	0x3d0504fd	0.03247546
105	0x3e05753f	0.13033007
106	0x3cd67fcc	0.026183985
107	0x3de38c71	0.111107714
108	0x3d2b544e	0.041828446
109	0xbe0af53d	-0.13570113
110	0xbe221faa	-0.15832391
111	0xbd8e9bfe	-0.06963347
112	0x3a636286	0.0008674044
113	0xbdf42a28	-0.11922103
114	0xbe390da6	-0.18071613
115	0x3e32f768	0.1747719
116	0x3cbcdc73	0.023054337
117	0x3da1625f	0.07880091
118	0xbdd46164	-0.10370138
119	0x3d0a0509	0.03369621
120	0xbc839320	-0.016061366
121	0x3ddb400b	0.107055746
122	0xbd98579d	-0.07438586
123	0x3e3a1dc4	0.18175417
124	0x3c2e4213	0.0106358705
125	0x3c0becf2	0.008540379
126	0x3e12adf6	0.14324173
127	0xbbd8e8e9	-0.006619562
128	0x3d73b706	0.059500717
129	0xbc68632e	-0.0141838025
130	0x3e215e26	0.15758571
131	0xbe4b37de	-0.1984553
132	0x3e4995a7	0.19685994
133	0xbdf653d0	-0.12027705
134	0x3e4c313d	0.19940658
135	0x3d8da3c5	0.06916002
136	0xbe04f1c1	-0.12982847
137	0xbe3290ae	-0.17438003
138	0x3d6545ec	0.055974886
139	0x3da9b4ef	0.082864635
140	0xbe0ede65	-0.13952024
141	0x3e051f1e	0.13000152
142	0xbdbed673	-0.09318247
143	0x3e253190	0.16132188
144	0x3d087ab3	0.03332014
145	0xbe335fdb	-0.17517035
146	0x3d060005	0.032714862
147	0xbd5d7af9	-0.054072354
148	0x3d5d24cf	0.05399018
149	0xbd9d2df0	-0.076747775
150	0x3e371d27	0.17882214
151	0xbdee6566	-0.11640434
152	0x3e2bcaba	0.16776553
153	0xbe4f4255	-0.20240147
154	0x3e1758b5	0.14779933
155	0xbe0fea29	-0.14054169
156	0x3d1b57e7	0.037925627
157	0xbd54eb64	-0.0519823
158	0xbe5012d1	-0.20319678
159	0x3e246417	0.16053806
160	0x3d4615dc	0.04836069
161	0x3de887ca	0.11354025
162	0xbdc780d7	-0.09741371
163	0xbd811d2f	-0.063043945
164	0xbdc0a61b	-0.09406682
165	0xbe40ee88	-0.18840992
166	0x3d366427	0.044529106
167	0x3d98183f	0.074264996
168	0xbccaf247	-0.02477373
169	0xbe07fdad	-0.13280363
170	0x3cc7f8e8	0.02441068
171	0x3db31d37	0.08745807
172	0x3c9eed00	0.01940012
173	0xbe4f5833	-0.20248489
174	0x3dccd4a4	0.100014955
175	0x3e180727	0.14846478
176	0xbd88b18d	-0.0667449
177	0xbd358205	-0.04431345
178	0x3b928071	0.004470878
179	0x3d2a0bed	0.04151528
180	0x3e396d21	0.18108036
181	0x3e1553c3	0.14582734
182	0x3dba89ae	0.091082916
183	0xbe09c0a6	-0.13452396
184	0x3dfaa401	0.122383125
185	0x3dcbd72a	0.09953149
186	0x3e43d4f2	0.19124201
187	0xbda1aaa4	-0.07893875
188	0x3d936a40	0.07198
189	0x3e09f423	0.13472037
190	0x3dc3ef99	0.09567184
191	0xbca6e2c2	-0.020371798
192	0xbd7058c3	-0.0586784
193	0xbd19687d	-0.037453163
194	0x3de8939f	0.113562815
195	0xbd83d5b1	-0.06437243
196	0xbe4fbc18	-0.20286596
197	0xbd06a126	-0.032868527
198	0xbe3ff3e5	-0.18745382
199	0xbe23df2e	-0.16003105
200	0x3e3456bf	0.17611216
201	0xbe039eb6	-0.12853512
202	0x3df2b05c	0.11850044
203	0xbdfb7a03	-0.12279131
204	0xbe4d59f3	-0.20053844
205	0x3b937b9f	0.0045008208
206	0x3dd6f292	0.10495485
207	0x3c1b98e8	0.009496905
208	0x3df01b07	0.11723905
209	0xbc085a97	-0.00832238
210	0xbe14e6ac	-0.1454112
211	0x3dff89b1	0.124774344
212	0x3d0f60e6	0.03500452
213	0xbde78b36	-0.11305849
214	0xbcac0439	-0.020998107
215	0x3d9383b1	0.072028525
216	0xbd2fec55	-0.042949993
217	0xbc1612c7	-0.00915975
218	0x3d536722	0.051612027
219	0x3d85ebe1	0.06539131
220	0x3df079af	0.11741959
221	0xbd53e46a	-0.051731504
222	0x3d78ac7b	0.060711365
223	0x3d45488d	0.048164893
224	0xbda06f8a	-0.078337744
225	0x3d00641e	0.03134548
226	0x3be70e9c	0.007051302
227	0xbe19cb70	-0.15019011
228	0xbe3bcf40	-0.18340778
229	0x3e362cab	0.17790477
230	0xbdbf22b4	-0.09332791
231	0x3e18f8f5	0.1493872
232	0x3d283a5b	0.041071277
233	0x3decb9fe	0.11558913
234	0xbce313d5	-0.027719418
235	0xbd3065ff	-0.04306602
236	0xbd9aedf7	-0.075649194
237	0xbe468d17	-0.19389759
238	0xba3c9ffa	-0.0007195469
239	0x3e301fb0	0.17199588
240	0x3d28147d	0.041035164
241	0xbd8b7df0	-0.0681113
242	0xbe04592a	-0.12924638
243	0xbd44ecdd	-0.048077453
244	0xbdadb065	-0.0848091
245	0x3dffc095	0.12487904
246	0x3dbcfe89	0.09228236
247	0x3d57e9fe	0.052713387
248	0x3cf55f71	0.029952737
249	0x3bedc065	0.007255601
250	0xbddc3542	-0.107523456
251	0xbccaff93	-0.02478007
252	0x3e057d84	0.13036162
253	0xbcd4cb43	-0.025975829
254	0x3d9011e6	0.07034664
255	0xbce861a0	-0.028366864

bn1.weight f4 [256]
0	0x3f57d447	0.84308285
1	0x3e69dd89	0.22838415
2	0x3f63724a	0.88846266
3	0x3f263274	0.64920735
4	0x3f515798	0.8177428
5	0x3f792136	0.973163
6	0x3f104ebc	0.5637014
7	0x3f63a320	0.88920784
8	0x3f3f85a5	0.748133
9	0x3ec6c7d3	0.3882433
10	0x3e7eb12a	0.2487227
11	0x3f7a224d	0.9770859
12	0x3f5acc03	0.8546755
13	0x3f38c2e7	0.721724
14	0x3f13371c	0.57505965
15	0x3ec91f7c	0.39281833
16	0x3f43cb12	0.76481736
17	0x3ea475d6	0.32121152
18	0x3f13ac39	0.57684666
19	0x3f1b6a9c	0.6070955
20	0x3f1ab565	0.60433036
21	0x3f704b31	0.93864733
22	0x3e37a0d9	0.17932452
23	0x3e505657	0.20345436
24	0x3e4dbbdd	0.20091195
25	0x3e19a6c0	0.15005016
26	0x3e1f6eb7	0.15569578
27	0x3ec46fab	0.38366446
28	0x3ebf76fe	0.3739547
29	0x3f5673a7	0.8377022
30	0x3ec6fc6d	0.3886446
31	0x3eb46e52	0.35240418
32	0x3ee6bd0f	0.45066115
33	0x3f691e08	0.9106145
34	0x3e5d1dc4	0.21593386
35	0x3f473f7c	0.77831244
36	0x3f021997	0.50820297
37	0x3e8498e8	0.25897908
38	0x3edbfe95	0.42967668
39	0x3f6fc2ad	0.93656427
40	0x3f06488f	0.52454466
41	0x3f4fd95d	0.81191045
42	0x3f812fb2	1.009268
43	0x3f00e562	0.5035001
44	0x3f3ee39c	0.74566054
45	0x3f6c6a08	0.9234929
46	0x3f7afef1	0.9804526
47	0x3ecbcb27	0.3980343
48	0x3f549258	0.830358
49	0x3f1cc7fd	0.6124266
50	0x3f7533c5	0.9578212
51	0x3f9a583d	1.2058178
52	0x3f17df12	0.59324753
53	0x3e5dac36	0.21647725
54	0x3f195488	0.5989461
55	0x3f104778	0.5635905
56	0x3eb9a193	0.36256084
57	0x3f12b22e	0.5730313
58	0x3f794815	0.97375613
59	0x3f5a522e	0.85281646
60	0x3eac7b7a	0.33687955
61	0x3e3bec64	0.18351895
62	0x3f4c4510	0.7979288
63	0x3db7a49a	0.08966942
64	0x3efc4504	0.49271405
65	0x3efff5ca	0.4999221
66	0x3ec4fb51	0.3847299
67	0x3ef49a16	0.47773808
68	0x3f2e9465	0.6819518
69	0x3f771670	0.9651861
70	0x3f3d99d7	0.74062866
71	0x3f355f8b	0.7084891
72	0x3e91a919	0.28449324
73	0x3e91872c	0.2842344
74	0x3e9a0cd3	0.3008791
75	0x3e644116	0.22290453
76	0x3f1bdf0a	0.60887206
77	0x3ee8f8fd	0.45502463
78	0x3f46befd	0.77635175
79	0x3e05db4c	0.13071936
80	0x3e2e21b5	0.17005046
81	0x3f060be4	0.52361894
82	0x3edceff2	0.43151814
83	0x3e9a875d	0.301814
84	0x3f4d8e40	0.8029518
85	0x3f527241	0.8220559
86	0x3e91e6ca	0.2849639
87	0x3f01dc08	0.50726366
88	0x3f280a52	0.6564075
89	0x3f3ae4d0	0.7300539
90	0x3eb3e88a	0.3513835
91	0x3f4b0b86	0.7931446
92	0x3f548e92	0.83030045
93	0x3f3c90bc	0.7365835
94	0x3f12e96a	0.5738741
95	0x3ecbac09	0.3977969
96	0x3f684297	0.9072661
97	0x3ee3a4e5	0.44461742
98	0x3f3964ea	0.7241961
99	0x3f59728f	0.8494043
100	0x3ef488ff	0.4776077
101	0x3dd504f4	0.10401335
102	0x3f783b64	0.9696562
103	0x3f28e0f7	0.6596827
104	0x3f8cc7f1	1.0998517
105	0x3e163586	0.14668855
106	0x3eb00e27	0.34385797
107	0x3e5c0981	0.21488
108	0x3f8b333e	1.0875013
109	0x3e27038c	0.16309947
110	0x3f3caf80	0.7370529
111	0x3f369442	0.71319973
112	0x3ed6afa4	0.41930878
113	0x3f5fba73	0.87393874
114	0x3e75c54f	0.24001049
115	0x3f592f66	0.8483795
116	0x3f25928c	0.6467674
117	0x3f25a2a0	0.6470127
118	0x3f0553ff	0.5208129
119	0x3f1ab6c1	0.6043511
120	0x3f12c5c4	0.57333016
121	0x3f84cd22	1.0375102
122	0x3e8af5b1	0.27140573
123	0x3f5c5c19	0.8607803
124	0x3e543fb3	0.20727424
125	0x3e248f78	0.16070354
126	0x3dfab4dd	0.12241528
127	0x3ec43dc1	0.38328364
128	0x3f7b4c86	0.9816364
129	0x3f2f4944	0.6847117
130	0x3f20b59c	0.62777114
131	0x3f0b6758	0.54454565
132	0x3ee574c7	0.44815657
133	0x3f221f8b	0.6332938
134	0x3ef9bc1e	0.48776335
135	0x3ebe3518	0.37149882
136	0x3ec94034	0.39306796
137	0x3f221c18	0.6332412
138	0x3f581a6a	0.84415305
139	0x3ec287b4	0.37994158
140	0x3e928115	0.28614107
141	0x3f2b1362	0.6682645
142	0x3f2ecf83	0.6828539
143	0x3f0a067f	0.5391616
144	0x3f6c6de5	0.92355186
145	0x3f25f834	0.6483185
146	0x3f2891d2	0.65847504
147	0x3e9cfa14	0.30659544
148	0x3eeeaa5d	0.46614352
149	0x3f2a8244	0.6660502
150	0x3e46c708	0.19411862
151	0x3eb1902c	0.34680307
152	0x3f0b0f0f	0.5431985
153	0x3efcdee9	0.49388817
154	0x3e3d0abc	0.18461126
155	0x3e038d87	0.12846957
156	0x3ecaecb2	0.3963371
157	0x3f0cf567	0.55061954
158	0x3f21515f	0.6301479
159	0x3f71e2e8	0.94486856
160	0x3f4997d8	0.7874732
161	0x3f5e0abc	0.8673513
162	0x3f4a6703	0.79063433
163	0x3ec07ae0	0.37593746
164	0x3eb49393	0.3526884
165	0x3e10f3a5	0.14155443
166	0x3f0437f1	0.5164786
167	0x3f87b7d7	1.0602978
168	0x3e41eb69	0.18937458
169	0x3e82f952	0.2558084
170	0x3f793c1a	0.9735733
171	0x3f43c3bc	0.7647054
172	0x3f6a2250	0.91458607
173	0x3f2b8c6e	0.67011154
174	0x3eff97d9	0.49920538
175	0x3f5e685c	0.8687799
176	0x3f7c84f7	0.9864039
177	0x3f78767a	0.9705578
178	0x3f10f03f	0.56616586
179	0x3f897deb	1.0741552
180	0x3e248831	0.16067578
181	0x3f724bc6	0.9464687
182	0x3e8ee228	0.2790692
183	0x3f66bc0e	0.901307
184	0x3f6fbe93	0.9365017
185	0x3f0746b4	0.5284226
186	0x3f3253d9	0.6965919
187	0x3ef6cc3c	0.48202693
188	0x3ef2fcf6	0.4745862
189	0x3e4c16ab	0.19930522
190	0x3f27b64e	0.6551255
191	0x3f58a284	0.8462298
192	0x3f0c684f	0.5484666
193	0x3e9b4556	0.30326337
194	0x3eba384e	0.36371082
195	0x3f4b9f44	0.79539895
196	0x3ed189a3	0.4092532
197	0x3f208e58	0.627172
198	0x3f4a4ea8	0.7902627
199	0x3e9fcb61	0.31209853
200	0x3f257fac	0.64647937
201	0x3e88ec76	0.26742905
202	0x3f1664a2	0.58747303
203	0x3f497187	0.78688854
204	0x3ec01578	0.3751638
205	0x3f07a3b7	0.52984184
206	0x3f525629	0.8216272
207	0x3e9cb0cd	0.30603638
208	0x3e434724	0.19070107
209	0x3ea79793	0.3273283
210	0x3e980b16	0.29695958
211	0x3dde00c7	0.10839992
212	0x3f290ca1	0.66034895
213	0x3f487887	0.7830891
214	0x3e86c05b	0.2631863
215	0x3e622756	0.22085318
216	0x3e863394	0.26211226
217	0x3f4cf01c	0.8005388
218	0x3f4c2330	0.7974119
219	0x3f433008	0.76245165
220	0x3e5674aa	0.20942941
221	0x3f667659	0.90024334
222	0x3ebd1367	0.36928865
223	0x3ee88041	0.4541035
224	0x3eb9e6fe	0.36309046
225	0x3ee4568d	0.44597283
226	0x3f0a86e9	0.54112107
227	0x3f3bec97	0.7340788
228	0x3f65b089	0.89722496
229	0x3f5c2dba	0.86007273
230	0x3f4db37b	0.8035199
231	0x3f6dcba1	0.9288884
232	0x3f63c6a8	0.88975
233	0x3f8aa1bc	1.0830607
234	0x3e8f29f9	0.2796171
235	0x3f4c7179	0.79860646
236	0x3f868dbf	1.0512007
237	0x3f2fc4f4	0.686599
238	0x3a9168f1	0.0011093897
239	0x3f7c4529	0.9854303
240	0x3ec6488c	0.38727224
241	0x3e85d086	0.26135653
242	0xbd88cabf	-0.06679296
243	0x3f8a81c4	1.0820851
244	0x3f775b23	0.9662344
245	0x3e410563	0.18849711
246	0x3f149eca	0.5805479
247	0x3ec6022b	0.3867353
248	0x3e7d90ab	0.24762218
249	0x3e990a6d	0.29890767
250	0x3e12a0f1	0.14319207
251	0x3f32febb	0.6991994
252	0x3f052852	0.5201465
253	0x3f30b6e4	0.6902907
254	0x3e1cab96	0.1529983
255	0x3f391a97	0.723062

bn1.bias f4 [256]
0	0xbd50e9dd	-0.05100428
1	0x3c968aa3	0.018376654
2	0xbd742528	-0.059605747
3	0x3d32591d	0.043542016
4	0x3d69b99f	0.057061788
5	0xbc97540d	-0.018472696
6	0xbd909003	-0.07058718
7	0xbd472eff	-0.048628803
8	0xbcfeda5d	-0.031109983
9	0xbd8f19cf	-0.069873445
10	0x3dab371f	0.08360123
11	0x3c5bd5df	0.01341769
12	0xbd237b8e	-0.039912753
13	0xbdd77d5e	-0.10521959
14	0xbcb0cf8d	-0.021583343
15	0xbdaa5dee	-0.08318697
16	0xbdaabc3e	-0.083366856
17	0x3d0bbd6b	0.03411619
18	0xbbc2925c	-0.0059378576
19	0xbb7e5b48	-0.0038811732
20	0x3d447d37	0.047970977
21	0xbc568aa9	-0.013094583
22	0x3d8e49bb	0.06947657
23	0xbcd27d5e	-0.025694545
24	0x3d8c499f	0.068499796
25	0x3c433770	0.011915073
26	0xbc8391e0	-0.01606077
27	0x3a867fdb	0.0010261493
28	0xbe00edd1	-0.1259072
29	0x3c56785e	0.013090221
30	0x3d7137f5	0.058891255
31	0xbe03ddfb	-0.12877648
32	0xbda4a08c	-0.080384344
33	0x3c507af5	0.012724628
34	0xbd99c7d0	-0.07508814
35	0x3d3565da	0.044286586
36	0x3cb1f2a4	0.021722145
37	0xbc364043	-0.01112372
38	0x3d99d853	0.07511964
39	0xbcc4121a	-0.023934413
40	0x3d36d303	0.04463483
41	0x3d0f9a12	0.035059042
42	0xbcac2317	-0.021012826
43	0xbd69f395	-0.057117064
44	0xbd01ad0d	-0.031659175
45	0x3db5fca5	0.08886079
46	0x3e1bec65	0.15226896
47	0x3daba8a0	0.08381772
48	0xbcb8c9d0	-0.02255717
49	0xbc31cc16	-0.010851881
50	0x3d6bdeaa	0.057585396
51	0x3cc34a27	0.02383907
52	0xbcc5846a	-0.024110992
53	0xbc59e270	-0.013298616
54	0x3d9de5ba	0.077098325
55	0xbd256f48	-0.04038933
56	0xb9ef9136	-0.00045693823
57	0x3c55d775	0.013051857
58	0xbd3c0030	-0.045898616
59	0xbd541bf5	-0.051784474
60	0xbd9e187a	-0.07719512
61	0xbd96973c	-0.073530644
62	0xbe08f42d	-0.13374396
63	0xbc445ff3	-0.011985767
64	0xbcfacdfb	-0.030615797
65	0x3d2b922a	0.04188744
66	0x3c358abf	0.011080443
67	0x3db32365	0.08746985
68	0xbccebe47	-0.025237216
69	0xbcd350b5	-0.02579532
70	0x3cf1f910	0.029537708
71	0xbcc99b31	-0.024610134
72	0x3ccaf218	0.024773642
73	0xbaa379c5	-0.0012472203
74	0xbd7e3a93	-0.06206758
75	0xbd594dd8	-0.053052753
76	0xbc8beac4	-0.017079718
77	0xbc9e9ce0	-0.019361913
78	0x3c9a7b17	0.018857522
79	0x3d9d0ae1	0.076680906
80	0xbce406a0	-0.02783519
81	0x3d1219b3	0.03566904
82	0xbd47fb40	-0.048823595
83	0x3dd66efa	0.10470386
84	0xbda5c56a	-0.08094294
85	0xbc5ef64d	-0.013608527
86	0x3cf6f475	0.030145863
87	0x3d57abb8	0.052653998
88	0x3d36f85d	0.04467045
89	0xbd1022da	-0.035189487
90	0xbcaea502	-0.021318916
91	0x3caa3727	0.020778252
92	0xbd222f10	-0.039595664
93	0x3db5894e	0.088640794
94	0xbb94b8dc	-0.0045386385
95	0x3d7a3070	0.06108135
96	0x3c92f2ca	0.017938036
97	0x3d10847b	0.035282593
98	0xbcc647f4	-0.024204232
99	0xbd68d76f	-0.05684608
100	0xbe5b626c	-0.21424264
101	0xbc847a0c	-0.016171478
102	0x3d90ee12	0.07076658
103	0xbc67eaf7	-0.014155141
104	0x3cb20d28	0.021734789
105	0x3d04179c	0.03224908
106	0x3d05bfde	0.032653682
107	0x3bbf5e3e	0.005840092
108	0x3bb14355	0.005409638
109	0x3b1bbec2	0.0023764824
110	0xbd0c7654	-0.034292534
111	0xbdaafa10	-0.08348477
112	0x3cc0539e	0.023477372
113	0xbd3caa19	-0.046060655
114	0xbe547887	-0.20749103
115	0xbcbd4cfd	-0.023108
116	0x3d6bbe47	0.05755451
117	0xbdf00881	-0.11720372
118	0xbd151283	-0.036394607
119	0xbd8f875d	-0.0700824
120	0xbd626c17	-0.055278864
121	0x3d38c69e	0.04511129
122	0x3d1af45b	0.03783069
123	0x3c3f1f92	0.011665242
124	0xbb9f28d4	-0.004857162
125	0xbd3dd605	-0.046346683
126	0xbbabf504	-0.005247714
127	0x3dae4b54	0.085104614
128	0x3cbbfd30	0.022947878
129	0x3bf29a1c	0.007403625
130	0xbd50a2f5	-0.050936658
131	0xbc63b7c8	-0.013898797
132	0x3d68d945	0.05684783
133	0x3d33161c	0.043722257
134	0x3da65a38	0.081226766
135	0x3dac2754	0.08405939
136	0x3da397ba	0.07987924
137	0xbbd3a44c	-0.0064587947
138	0x3c18e60d	0.009332192
139	0xbd0ad596	-0.033895098
140	0xbcbf922b	-0.023385128
141	0xbd121260	-0.035662055
142	0xbd2d5e85	-0.04232647
143	0xbab5181b	-0.0013816388
144	0xbdb3a9c6	-0.08772616
145	0xbcad2fc0	-0.021140933
146	0xbd53834a	-0.05163888
147	0x3d3fee1a	0.04685793
148	0x3cbd6101	0.023117544
149	0xbd87ae3d	-0.0662503
150	0xbda6eb48	-0.08150345
151	0xbd1f7a2c	-0.03893487
152	0xbde6d4ca	-0.11271055
153	0xbce608c5	-0.028080354
154	0xbda2aec1	-0.07943488
155	0xbd4ecf0e	-0.05049043
156	0xbd7dccb7	-0.06196281
157	0xbcf513c9	-0.02991666
158	0xbd02fea8	-0.03198114
159	0x3bcfb7b4	0.006339038
160	0xbdb38644	-0.087658435
161	0xbdccadcf	-0.09994089
162	0xbd274259	-0.04083476
163	0x3d5256e3	0.051352393
164	0xbe07973e	-0.13241288
165	0x3d2b662a	0.041845478
166	0x3dc42112	0.0957662
167	0xbce57055	-0.028007666
168	0x3d80d671	0.062909015
169	0x3ce23437	0.027612789
170	0x3ceb1de3	0.028700775
171	0x3c2eaa61	0.010660739
172	0x3c700108	0.014648683
173	0x3d11e8b2	0.035622306
174	0xbd2aa5b1	-0.041661922
175	0x3ce74ac0	0.028233886
176	0x3d840563	0.0644634
177	0x3de7ab18	0.113119304
178	0x3d12adde	0.035810344
179	0x3bf979e0	0.0076134056
180	0xb9dc63ef	-0.00042036126
181	0xbcee323e	-0.029076692
182	0xbb21d5bd	-0.0024694048
183	0xbdc2e36a	-0.09516032
184	0xbbcdcc7f	-0.0062804813
185	0xbcce4142	-0.025177602
186	0x3c2e3c9f	0.01063457
187	0xbdad2776	-0.08454792
188	0x3e122df7	0.14275347
189	0x3d65bc1a	0.05608759
190	0xbc51a4e7	-0.012795663
191	0x3de799ac	0.113086075
192	0x3cee4f65	0.029090593
193	0x3dd942f2	0.10608472
194	0xbceb00c0	-0.028686881
195	0xbbd6ddbe	-0.0065571954
196	0x3cc0cf2c	0.023536287
197	0xbd8b7cc9	-0.0681091
198	0xbc03927e	-0.008030532
199	0x3d35396a	0.044244207
200	0x3e2258e4	0.15854222
201	0x3cb9dcd7	0.022688312
202	0x3c05397f	0.008131384
203	0x3bfb147e	0.007662355
204	0xbcec0ba9	-0.028814154
205	0xbcd7e83e	-0.026355859
206	0xbd4414f2	-0.047871538
207	0x3d8b3890	0.06797898
208	0xbda3f4b6	-0.08005659
209	0xbcfe43a9	-0.031038122
210	0x3ddefc95	0.1088802
211	0x3d45e4cb	0.048313897
212	0xbd6c0e8e	-0.057631068
213	0x3d658fbb	0.056045275
214	0xbd7c2a4d	-0.06156378
215	0x3dace82e	0.08442722
216	0xba8694b9	-0.0010267711
217	0xbd4c753b	-0.049916487
218	0x3e222c18	0.15837133
219	0xbcc00c29	-0.023443298
220	0x3b38373e	0.0028109099
221	0xbca971f6	-0.020684224
222	0x3d9b9928	0.075975716
223	0x3be1a553	0.0068861633
224	0xbdeba406	-0.11505894
225	0xbd5facf7	-0.05460831
226	0x3c5c3454	0.01344021
227	0x3d69286a	0.056923307
228	0x3c8e8c96	0.017401021
229	0x3cf0f739	0.02941476
230	0x3de083e2	0.10962655
231	0xbcb64ad4	-0.022252478
232	0x3c6af1a6	0.01433984
233	0x3d946c30	0.07247198
234	0x3bdc4214	0.0067217443
235	0x3c936f4a	0.017997403
236	0xbd62e850	-0.05539733
237	0x3d4409cb	0.0478609
238	0x3d4d59d9	0.050134514
239	0xbc99a12b	-0.018753609
240	0x3c04cb95	0.008105178
241	0x3d8695af	0.06571519
242	0x3a4bc9d8	0.00077739125
243	0x3d19266b	0.037390154
244	0xbdb6d6df	-0.08927702
245	0xbe20e99e	-0.15714118
246	0xbd29b8f9	-0.04143617
247	0xbd85b018	-0.06527728
248	0xbc2686ca	-0.010163972
249	0x3c9e84fc	0.019350521
250	0x3d649ed2	0.055815525
251	0xbd163a5d	-0.036676753
252	0xbd9e20f7	-0.07721131
253	0xbcf1eddf	-0.029532371
254	0xbd093e13	-0.033506464
255	0xbd560c1e	-0.05225765

bn1.running_mean f4 [256]
0	0xbf858f7a	-1.043441
1	0xbfb75dfb	-1.4325556
2	0x3fe2c412	1.7716086
3	0x3fe8f3d9	1.8199416
4	0x4028e4b1	2.6389582
5	0x3f4f51ea	0.80984366
6	0xbfa22f20	-1.2670631
7	0xbfe81f26	-1.8134506
8	0xbe50dc7b	-0.20396607
9	0x3e91d8ea	0.28485805
10	0x3fda148c	1.703752
11	0xbecb5475	-0.39712873
12	0x3f8744a6	1.0567825
13	0x3ec27755	0.37981668
14	0x3f635886	0.8880695
15	0x40259547	2.5872362
16	0xc0304c8d	-2.7546723
17	0xbf8b4050	-1.0879002
18	0x4033bdeb	2.8084667
19	0x3fbade0c	1.4599013
20	0x400d36f4	2.206479
21	0xbe9c5521	-0.30533698
22	0x402302cc	2.5470457
23	0xbe9f3f46	-0.3110296
24	0x40160ed2	2.3446546
25	0x3fa89251	1.3169652
26	0x4009763f	2.1478422
27	0xbeab3189	-0.3343623
28	0x3c938442	0.018007401
29	0x3f6e7f1e	0.93162715
30	0xbf976b38	-1.1829596
31	0xc0190246	-2.3907638
32	0xbf5aae77	-0.8542246
33	0x403564dd	2.8342812
34	0xbe283242	-0.16425422
35	0xbe2adf1e	-0.16686675
36	0x3fcf6be0	1.6204796
37	0x40309e6f	2.75967
38	0x3fdd418e	1.7285631
39	0x3fdab632	1.7086852
40	0x3fc0d156	1.5063884
41	0x4039e334	2.9044924
42	0x3c8e5dde	0.017378744
43	0xbf341668	-0.7034669
44	0x3bfa9543	0.007647188
45	0x3fa2bfae	1.2714746
46	0x4099d4c5	4.807223
47	0x4011a77c	2.2758474
48	0xbf4bbf54	-0.7958882
49	0x3fa3da0c	1.2800918
50	0xc03a4103	-2.910218
51	0x3f092655	0.53574115
52	0x3fa94d50	1.3226719
53	0x3fac36c7	1.3454217
54	0xc01a1da9	-2.4080603
55	0xbf8185ef	-1.0118998
56	0x3e8f8ce8	0.2803719
57	0x3ffe5aee	1.98715
58	0x3d1c09d6	0.038095318
59	0xbfab8a03	-1.3401493
60	0x3e21c0a7	0.15796147
61	0xbf49190e	-0.78553855
62	0xc046e7a6	-3.1078887
63	0xbf7d739a	-0.9900452
64	0x3fb8730f	1.4410113
65	0x3ffa27ec	1.9543433
66	0xbf1d88fd	-0.6153715
67	0x3ec2e3f0	0.38064528
68	0xbfc5f612	-1.546572
69	0x3f14678f	0.5797052
70	0x3f976dc0	1.1830368
71	0x40150c3f	2.3288724
72	0xc0221316	-2.532415
73	0x3f871b1c	1.0555148
74	0xbff767e9	-1.9328586
75	0x3fb48905	1.4104315
76	0xbf264a25	-0.64956886
77	0xbf896a4c	-1.0735564
78	0x3fc40bce	1.5316103
79	0xbee9a42d	-0.4563307
80	0xbf9c56a6	-1.2213943
81	0xbf1e506f	-0.6184148
82	0xbf5a661a	-0.85312045
83	0x404df717	3.2182062
84	0xc0252420	-2.58033
85	0x3f885659	1.0651351
86	0xbf774a7b	-0.96598023
87	0x3fa7c83b	1.310798
88	0x3ff141f9	1.8848258
89	0xc00e975b	-2.227988
90	0x3f2031ce	0.62575996
91	0xbfa26cde	-1.2689474
92	0xbe9562c5	-0.29176918
93	0xc03878fd	-2.8823845
94	0xbe90c98e	-0.28278774
95	0xbe8b2cad	-0.27182522
96	0x3e99463d	0.299364
97	0x3f07ba78	0.53018904
98	0xbfcdc0e2	-1.6074488
99	0x3dc0fada	0.09422846
100	0xbfcc9eae	-1.5985925
101	0xbd8795a8	-0.066203415
102	0xbeea7227	-0.45790216
103	0x3fe24294	1.7676568
104	0x3fee8eb0	1.8637295
105	0x40251e88	2.5799885
106	0x40478120	3.1172562
107	0xbfb4e1e6	-1.4131439
108	0xbac3de1a	-0.0014943511
109	0x3eb8791c	0.360299
110	0xbfd6f382	-1.6793063
111	0xc03edadc	-2.982108
112	0xbe5fa786	-0.21841249
113	0xc01d6905	-2.459535
114	0xc032d50c	-2.7942533
115	0x3f88d63f	1.0690383
116	0x3fb4ccbb	1.4124979
117	0xbf8dcf2f	-1.1078852
118	0xbf940c9d	-1.1566349
119	0x3f9b92bd	1.2154156
120	0x3f33295d	0.6998499
121	0x3fdedb67	1.7410706
122	0xbe3edf12	-0.18639782
123	0x400fa137	2.2442148
124	0xbfbfee6b	-1.4994634
125	0xbeaf515b	-0.34241757
126	0xbf16101e	-0.5861834
127	0xbf240bdc	-0.64080596
128	0x3fd1b445	1.6383139
129	0x3fa83922	1.3142436
130	0xc0180e77	-2.3758829
131	0xbf20db28	-0.62834406
132	0x3f6a555f	0.91536516
133	0xbf12ba7f	-0.5731582
134	0x3e0dd3d7	0.13850342
135	0x400321cd	2.048938
136	0xbfa15dfc	-1.2606807
137	0xbd5078d9	-0.0508965
138	0xbfb01ac8	-1.3758173
139	0x4026e3b6	2.6076484
140	0x3e9d4b17	0.30721352
141	0x3f62d872	0.8861152
142	0x3f7f83b3	0.9981033
143	0xbfd05daf	-1.627859
144	0xbf06e61a	-0.5269486
145	0x3fbbe200	1.4678345
146	0xbef55c2c	-0.47921884
147	0x3f8f5fef	1.1201152
148	0x405bdc82	3.4353337
149	0x3fa85eba	1.3153908
150	0xc052a842	-3.2915196
151	0x3fd95378	1.6978598
152	0xbe1fcab4	-0.15604669
153	0x3fbd3fe6	1.4785125
154	0xbfab33a5	-1.3375136
155	0x4020bf27	2.511667
156	0xbfc4987d	-1.5359036
157	0x3f389fe8	0.72119
158	0xbf44ba73	-0.76847
159	0x403f8192	2.9922833
160	0xbf6db55b	-0.9285485
161	0xbf6947c2	-0.9112512
162	0x3fac9d9b	1.3485597
163	0x3f8a0156	1.0781658
164	0xc0101f57	-2.2519128
165	0xbd16e8bc	-0.036843047
166	0x3f506441	0.81402975
167	0xbdb52ff2	-0.088470355
168	0xbfa517bb	-1.2897867
169	0xbf5184e5	-0.81843406
170	0x3ee211b1	0.44154122
171	0x3fc7b0db	1.5600847
172	0xbf2853e4	-0.65753007
173	0x3eab396f	0.33442256
174	0x3f0b5b16	0.5443586
175	0x3fecde35	1.8505312
176	0xbf19bd62	-0.600546
177	0x3fc69091	1.5512868
178	0x3ff406f1	1.9064618
179	0x3faa1cac	1.329
180	0x3ec4808b	0.3837932
181	0xbe8ee0f8	-0.27906013
182	0x3fc303a4	1.5235486
183	0xc048e9f7	-3.13928
184	0xc065544e	-3.5832705
185	0x401e03a5	2.4689724
186	0xbf6d408f	-0.92676634
187	0x3f7233ea	0.94610465
188	0x3e8bce0c	0.2730564
189	0xbfdd62cf	-1.7295779
190	0xbfd7dd80	-1.6864471
191	0xbfad8b30	-1.3558102
192	0xc00e3a51	-2.2223094
193	0x3fbcb12a	1.4741566
194	0x3eb90057	0.36133072
195	0x3fd37f1c	1.6523166
196	0xbe08952c	-0.13338155
197	0xbf93e275	-1.1553484
198	0x4010c388	2.2619343
199	0xc0004328	-2.004099
200	0x40a90478	5.2817955
201	0x3e8a5434	0.27017367
202	0xbfc57c1d	-1.5428501
203	0x3fb44a14	1.4085107
204	0xbfbd24ef	-1.4776896
205	0xbf44286a	-0.76624167
206	0xbf852436	-1.0401676
207	0x3f3edf1d	0.74559194
208	0xc054dd3b	-3.3260028
209	0xbc01aca1	-0.007914693
210	0xbf776cf5	-0.9665063
211	0x40247056	2.5693564
212	0xbf8386e4	-1.027554
213	0xbf7f5c9f	-0.99750704
214	0xc003bd83	-2.0584419
215	0x4031343c	2.7688131
216	0x3eab9a68	0.3351624
217	0xbe902598	-0.28153682
218	0xbf3b7f75	-0.7324136
219	0x3e0b569c	0.13607258
220	0xbef0bdb1	-0.47019723
221	0x3fd202a1	1.6407052
222	0x3fd289aa	1.6448262
223	0x3f81deb3	1.0146087
224	0xbfb6cee4	-1.4281888
225	0x3f877d55	1.0585123
226	0xbee2ab26	-0.442712
227	0x3fcc7fc3	1.597649
228	0xbf28ff9a	-0.6601502
229	0x3fb37f6e	1.4023263
230	0xbf9eddc4	-1.2411427
231	0xbf36be7d	-0.7138441
232	0x3fbe11f2	1.4849226
233	0xc003f86c	-2.0620375
234	0xbe4632d1	-0.19355322
235	0x3fba86f9	1.457244
236	0x3ebd8748	0.37017274
237	0xbfd988db	-1.699489
238	0x3f372fcc	0.7155731
239	0xbfeaea7a	-1.8352807
240	0x3fa3c31f	1.2793921
241	0x3fe10c06	1.7581794
242	0xc0164daf	-2.3484914
243	0x3ee35145	0.4439794
244	0x3fcec476	1.6153705
245	0xc0239553	-2.555989
246	0x3f461cc5	0.7738765
247	0x3f8d3925	1.1033064
248	0xbfad7b20	-1.35532
249	0x3fc5294f	1.5403231
250	0x4053f8b3	3.3120544
251	0x3c804ff4	0.015663125
252	0x3f52c264	0.82327867
253	0x3f044310	0.5166483
254	0x3e34c3eb	0.17652862
255	0x3f28740c	0.65802073

bn1.running_var f4 [256]
0	0x3f04e19e	0.51906765
1	0x3f7f6722	0.99766743
2	0x3f1c6b16	0.611009
3	0x3fbed625	1.4909102
4	0x3fe1d5fe	1.764343
5	0x4009739f	2.147682
6	0x3fcb0b63	1.586285
7	0x4000bb7f	2.0114439
8	0x400b326c	2.1749525
9	0x409bccc2	4.868745
10	0x3fd641f3	1.6738876
11	0x3fa67703	1.300507
12	0x3f67f794	0.9061215
13	0x4035cb18	2.8405209
14	0x40c5820f	6.1721263
15	0x4044ece2	3.0769582
16	0x3f3b4c36	0.73163164
17	0x3f412126	0.75441206
18	0x3f5e4358	0.8682151
19	0x3fe039df	1.7517661
20	0x3f591e47	0.84811825
21	0x40df600e	6.9804754
22	0x3f8d3aab	1.1033529
23	0x3f3db96d	0.7411106
24	0x40364b57	2.8483484
25	0x3f74b2b0	0.95585155
26	0x3fc95cc8	1.573144
27	0x406b9617	3.6810358
28	0x40365c2b	2.8493755
29	0x40456579	3.0843184
30	0x3f7ace9c	0.9797151
31	0x3fbcb70a	1.4743359
32	0x3e4a9fdd	0.19787546
33	0x405e391b	3.4722354
34	0x3fcfa081	1.6220857
35	0x3e21e40f	0.15809654
36	0x3f011626	0.5042442
37	0x3f8e89f9	1.1135856
38	0x3ea77c64	0.3271209
39	0x405ebffa	3.4804673
40	0x3f3f07af	0.746211
41	0x3fcdc6ed	1.6076332
42	0x40079406	2.1184096
43	0x3fb72cce	1.4310548
44	0x3ebfdc2e	0.3747267
45	0x3f5184eb	0.8184344
46	0x3fe88e34	1.8168397
47	0x3fd4c91c	1.6623874
48	0x3efb116e	0.49036735
49	0x404764d2	3.1155286
50	0x3f418204	0.75589013
51	0x3da7b06b	0.08187946
52	0x4064fc23	3.5778892
53	0x402dbfd1	2.7148325
54	0x3faa9f5d	1.3329884
55	0x404967c3	3.146958
56	0x4073e5e8	3.8109074
57	0x3f58172a	0.84410346
58	0x3f107b5c	0.5643823
59	0x3f82e2b0	1.022543
60	0x408b4d96	4.353221
61	0x3f0890fd	0.53346235
62	0x3fc846bd	1.5646588
63	0x3f7b9c28	0.9828515
64	0x3e8b8a35	0.2725388
65	0x3f677329	0.90410095
66	0x405d3c06	3.4567885
67	0x4003b197	2.0577142
68	0x400bc4da	2.1838899
69	0x401fa03e	2.4941554
70	0x3eb20902	0.34772497
71	0x4062150a	3.5325341
72	0x3fc95353	1.5728554
73	0x4043ed53	3.0613601
74	0x4018d1f9	2.3878157
75	0x402fec7d	2.748809
76	0x40100a68	2.2506351
77	0x40223ff7	2.535154
78	0x3e9050d6	0.28186673
79	0x40279dca	2.6190057
80	0x3fba1d95	1.4540278
81	0x3f912fd2	1.1342719
82	0x40594c18	3.3952694
83	0x3f80528a	1.0025189
84	0x3f4e9df2	0.80709755
85	0x405142ed	3.2697098
86	0x402c736e	2.6945453
87	0x3f7215c1	0.94564444
88	0x4049e831	3.1547968
89	0x3fa5bcba	1.294822
90	0x3f89c715	1.076388
91	0x3fe4f87b	1.788833
92	0x4049122d	3.1417344
93	0x3f9e2f0e	1.235811
94	0x3febac3e	1.8411939
95	0x4015518b	2.333102
96	0x406b5a4e	3.6773868
97	0x3ffa48f9	1.955352
98	0x40590514	3.390935
99	0x40428802	3.0395513
100	0x3f0c5f17	0.54832596
101	0x40a2701c	5.076185
102	0x3f5ba0a5	0.85792
103	0x4019a14b	2.4004695
104	0x3f0662a4	0.52494264
105	0x40283444	2.62819
106	0x404f15c7	3.2357042
107	0x3fca9895	1.5827814
108	0x3eddc5c3	0.43314943
109	0x3f7a4a7e	0.97769916
110	0x4070e155	3.7637532
111	0x3fcfa993	1.6223625
112	0x40304937	2.7544687
113	0x3f4038e2	0.75086796
114	0x3f2b3ab9	0.6688648
115	0x4006c491	2.1057475
116	0x3f42cf9b	0.7609803
117	0x40669abd	3.6031945
118	0x40a8a6b7	5.270351
119	0x3fd9571a	1.6979706
120	0x40890eb6	4.283046
121	0x404f00f7	3.234434
122	0x40bc40c8	5.882908
123	0x3fa757cd	1.307367
124	0x3eb822c1	0.35964015
125	0x3f611450	0.8792162
126	0x4036cf0d	2.8563874
127	0x3fb3e18c	1.4053206
128	0x403053b1	2.755108
129	0x40298e1e	2.6492991
130	0x3f898362	1.074322
131	0x3fd50c90	1.6644459
132	0x3fdc0dc4	1.7191701
133	0x401edb47	2.4821336
134	0x3f2350b7	0.63795036
135	0x3f4355d6	0.7630285
136	0x3fa18ecc	1.2621703
137	0x4022ef8b	2.5458705
138	0x3f29120d	0.6604317
139	0x3f43fa20	0.76553535
140	0x403527d7	2.8305566
141	0x3f9489b0	1.1604519
142	0x3ff58dd8	1.9183912
143	0x3fcb2da5	1.5873305
144	0x3feda33f	1.8565444
145	0x400199ca	2.0250115
146	0x3fe1bff3	1.7636703
147	0x3fa78cd5	1.3089854
148	0x4033620c	2.8028593
149	0x3f5a9259	0.8537956
150	0x3fc03426	1.5015914
151	0x3e73c25b	0.2380461
152	0x3f22d407	0.6360478
153	0x3ff28f4e	1.8949983
154	0x3f84089e	1.031513
155	0x3fae82a1	1.3633615
156	0x3ef08f3c	0.4698428
157	0x40bf60ef	5.9805827
158	0x3fb4f046	1.4135826
159	0x3f2d96d0	0.67808247
160	0x3f33dc31	0.7025786
161	0x3ee4c53e	0.44681734
162	0x3e5d0124	0.21582466
163	0x3fa16b10	1.2610798
164	0x3f6a1df3	0.9145195
165	0x40437546	3.0540328
166	0x3fa33d5c	1.27531
167	0x40037208	2.053835
168	0x404691b8	3.102644
169	0x404252d2	3.036305
170	0x3ff130b7	1.8842992
171	0x4006bb1c	2.1051702
172	0x3fdad9ae	1.709768
173	0x3fa7b4b5	1.3102022
174	0x40ab9949	5.3624616
175	0x3fb0f799	1.3825561
176	0x3f99a52c	1.2003531
177	0x4005d742	2.0912633
178	0x3fa50841	1.2893144
179	0x40833cfd	4.101195
180	0x3fdbf814	1.7185082
181	0x3fd4969e	1.6608465
182	0x3f8ea131	1.1142942
183	0x3fb0bbce	1.3807313
184	0x3f8c69b1	1.0969754
185	0x4080fa0c	4.0305233
186	0x40093832	2.144055
187	0x3f6aa14a	0.9165236
188	0x3f9edabe	1.2410505
189	0x3f10e4b8	0.56599
190	0x3fc934a5	1.5719191
191	0x3f402ca7	0.75068134
192	0x3f9e42bc	1.2364116
193	0x3f59d996	0.85097635
194	0x3e1b6652	0.15175751
195	0x3fe04b64	1.7523007
196	0x402de1f8	2.716917
197	0x3fba92a9	1.4576007
198	0x3fdac4c3	1.7091297
199	0x40162509	2.3460104
200	0x40259cd8	2.587698
201	0x3dd3a836	0.10334818
202	0x3fb534a8	1.4156694
203	0x40026bf6	2.0378394
204	0x407a9993	3.9156234
205	0x40183e50	2.3788033
206	0x4050d556	3.263021
207	0x4044808e	3.0703464
208	0x3f631346	0.88701284
209	0x409857aa	4.760701
210	0x3f0008c5	0.5001338
211	0x3f1cbecf	0.6122865
212	0x3fc28cd5	1.5199229
213	0x3f64a9da	0.8932167
214	0x4016950e	2.3528476
215	0x3f5ec613	0.8702099
216	0x403260eb	2.7871654
217	0x4091c40f	4.555183
218	0x3f28e327	0.65971607
219	0x404487d8	3.0707912
220	0x402ab465	2.6672604
221	0x3fdc5c87	1.7215737
222	0x3f45d572	0.77278817
223	0x3faf9227	1.3716477
224	0x3f43d440	0.7649574
225	0x3fbf4a8b	1.4944624
226	0x3f6a28ae	0.9146832
227	0x3f626685	0.8843768
228	0x3f908667	1.1291016
229	0x4057d41c	3.3723211
230	0x3fd000e8	1.6250277
231	0x4033956c	2.805995
232	0x3ecbb064	0.39783013
233	0x3f57be10	0.8427439
234	0x404bab8b	3.1823452
235	0x3f78639f	0.9702701
236	0x3fc0a2d4	1.5049691
237	0x3fa015d9	1.2506667
238	0x40a93393	5.2875457
239	0x406d3ae0	3.7067184
240	0x3f5c0dd3	0.85958594
241	0x40066695	2.100011
242	0x401d436a	2.4572396
243	0x3fa5d933	1.2956909
244	0x3fe88edb	1.8168596
245	0x3f631df4	0.8871758
246	0x3f5ce2b1	0.86283404
247	0x3f37342b	0.71563977
248	0x3f800bd0	1.0003605
249	0x4006b5cf	2.1048467
250	0x3fbf178b	1.492906
251	0x40615257	3.5206506
252	0x403aad1a	2.9168153
253	0x3f9e74d5	1.2379404
254	0x3f9cb724	1.224339
255	0x4004ce67	2.0750978

fc2.weight f4 [256, 256]
0	0x3d31bb7d	0.043391693
1	0x3d70a3d5	0.058749992
2	0x3d6f856b	0.058476847
3	0xbd303143	-0.04301573
4	0x3d692c47	0.05692699
5	0xbd83535e	-0.064123854
6	0xbc2a89ed	-0.010408861
7	0x3c90211e	0.017593917
8	0xbd1140d9	-0.035462234
9	0xbe0294fe	-0.12752149
10	0x3d8e76b0	0.069562316
11	0xbd7f6b77	-0.062358346
12	0xbd96255b	-0.07331344
13	0xbdc015c0	-0.093791485
14	0xbc796ff3	-0.015224445
15	0x3db8d951	0.09025825
16	0xbdffcc67	-0.124901585
17	0x3d8112bb	0.06302401
18	0x3d0abe09	0.033872638
19	0x3d448e7b	0.047987442
20	0x3dcd134b	0.100134455
21	0xbdf814bb	-0.12113329
22	0x3dc4e9cb	0.09614905
23	0xbdfee455	-0.12445895
24	0x3d6652c8	0.05623129
25	0x3d923dd9	0.07140703
26	0x3cc60187	0.02417065
27	0x3d5f1220	0.054460645
28	0x3c8c6336	0.017137151
29	0xbda3c6b1	-0.07996882
30	0x3d439cf4	0.047757104
31	0xbe10cbc5	-0.14140232
32	0xbdc5e8fe	-0.0966358
33	0x3d16e902	0.036843307
34	0x3d8ab9cf	0.067737214
35	0x3caeb566	0.021326732
36	0x3d3a79ef	0.04552644
37	0x3dd7a5cb	0.105296694
38	0xbc50eb36	-0.012751391
39	0x3d9ec29b	0.07751962
40	0x3db63541	0.08896876
41	0xbd1ff41e	-0.039051168
42	0xbca15555	-0.01969401
43	0x3c8831af	0.016625253
44	0xbe0c10ff	-0.13678358
45	0x3df1b23e	0.11801575
46	0x3b0fa456	0.002191802
47	0x3e011882	0.12607005
48	0x3cdfb6a3	0.027308768
49	0xbd071d4f	-0.032986935
50	0x3cd60c30	0.026128858
51	0xbe566395	-0.20936425
52	0x3d38bafe	0.045100205
53	0xbd7ec9c6	-0.062204145
54	0x3d08f3ad	0.033435512
55	0x3ca07017	0.019584699
56	0xbd6ec20b	-0.058290523
57	0x3c80b0db	0.015709331
58	0xbce8fbf8	-0.02844046
59	0x3d66f49e	0.05638563
60	0xbc8a700e	-0.016899135
61	0xbe1c0be9	-0.15238918
62	0xbcc37093	-0.02385739
63	0x3d8ff9a6	0.070300385
64	0x3d8ea45d	0.069649436
65	0x3d3829e5	0.04496183
66	0x3dba8ffb	0.09109493
67	0x3d31b64a	0.043386735
68	0x3d1e9062	0.038711913
69	0x3bcbafbb	0.006216017
70	0xbcbb3037	-0.022850139
71	0x3da21d63	0.07915761
72	0x3ddfb408	0.1092301
73	0xbd408de2	-0.04701031
74	0xbd8f4a02	-0.06996538
75	0x3dbc9585	0.09208206
76	0xbdda141e	-0.10648368
77	0x3c2dd9c0	0.010610998
78	0x3dd8b7ba	0.10581918
79	0x3d8fe7aa	0.07026608
80	0xbd09312b	-0.033494156
81	0x3ace4259	0.0015736326
82	0xbdf4bb7f	-0.119498245
83	0x3d303b76	0.043025456
84	0xbc117e25	-0.008880173
85	0x3b391b76	0.0028245128
86	0xbcaf8214	-0.02142433
87	0xbace755e	-0.0015751531
88	0xbd9133d4	-0.070899636
89	0x3da09b9e	0.078421816
90	0x3ca4e0ac	0.020126663
91	0xbc3597b5	-0.011083533
92	0x3c980ce4	0.018560834
93	0x3beea04d	0.007282293
94	0x3dc5300c	0.09628305
95	0x3d5a3619	0.053274248
96	0x3bb3c17f	0.005485713
97	0x3d923c12	0.07140364
98	0xbc8bf622	-0.017085139
99	0xbde41d13	-0.11138358
100	0xbdd76e8f	-0.10519134
101	0xbcef00d9	-0.029175209
102	0x3dfc35c0	0.123149395
103	0xbd24b737	-0.04021379
104	0x3d55e5cb	0.0522211
105	0x3dc1d5c2	0.09464599
106	0x3dcfaa72	0.10139932
107	0xbc611a9a	-0.013739252
108	0x3d2dbf1f	0.042418595
109	0xbd06374a	-0.03276757
110	0x3d1d97d1	0.03847486
111	0xbb1bda04	-0.002378107
112	0x3d195093	0.037430357
113	0xbb61f977	-0.0034480968
114	0xbe21523e	-0.15754029
115	0xbcc21daf	-0.023695795
116	0x3d540aa4	0.05176796
117	0xbd25fad8	-0.040522426
118	0xbd2c68bd	-0.042092074
119	0xbe0579fe	-0.13034818
120	0xbd25e94c	-0.040505692
121	0x3d176e50	0.036970437
122	0xbd991d2a	-0.07476266
123	0xbd519b4d	-0.051173497
124	0x3db91e9a	0.0903904
125	0x3dc222bc	0.09479281
126	0xbc2c5a7c	-0.01051962
127	0x3c9d5a5e	0.01920813
128	0xbcddc1c6	-0.027069937
129	0x3cf844fc	0.030306332
130	0xbd68afd2	-0.0568083
131	0xbd9dce4d	-0.077053644
132	0x3e28a56e	0.16469356
133	0x3c68789d	0.014188913
134	0xbe26aff7	-0.16278063
135	0xbd99ccfa	-0.07509799
136	0xbc6b1fb7	-0.014350823
137	0x3cd3b541	0.025843265
138	0xbdc085de	-0.09400533
139	0x3ac5dbda	0.0015095428
140	0x3d7d80e8	0.061890513
141	0xbdb3a617	-0.087719135
142	0x3cea92d1	0.02863446
143	0x3ca28691	0.019839557
144	0xbd81e1e2	-0.06341912
145	0xbd066f73	-0.03282113
146	0x3d6376b1	0.055533115
147	0x3da0dc44	0.07854512
148	0x3cabfdc8	0.020995036
149	0xbdbcefdc	-0.09225437
150	0xbd1d3803	-0.038383495
151	0x3e16acb1	0.14714314
152	0xbd8d343c	-0.068947285
153	0x3c2274bc	0.009915527
154	0x3d0f65a0	0.035009027
155	0xbbed2143	-0.007236631
156	0xbd85cc61	-0.06533123
157	0xbb5cfb4f	-0.0033719128
158	0x3c847fb7	0.01617418
159	0x3ccc3251	0.024926336
160	0x3c2e6544	0.010644261
161	0x3d0427d8	0.03226456
162	0xbdf9a34a	-0.12189348
163	0x3d5f875a	0.05457244
164	0x3c9d21d8	0.019181177
165	0x3c436147	0.011925048
166	0x3e02b490	0.12764192
167	0xbc2cf19c	-0.010555651
168	0x3d400944	0.046883836
169	0xbd44c96f	-0.048043665
170	0xbbbb58a7	-0.0057173553
171	0x3dcee8bc	0.10102984
172	0x3daf529f	0.085606806
173	0xbd0b7803	-0.03405
174	0xbd050b4a	-0.03248147
175	0x3df19bad	0.11797271
176	0x3d31de70	0.043425024
177	0xbd84b405	-0.064796485
178	0xbd700043	-0.058594
179	0xbb8ac396	-0.0042347414
180	0x3b034c42	0.0020034467
181	0x3d3db10a	0.046311416
182	0x3d580412	0.052738257
183	0xbc6e3d38	-0.014540963
184	0xbd502c71	-0.050823633
185	0x3ce3a637	0.027789218
186	0xbc830f1c	-0.015998416
187	0xbd1e27e8	-0.038612276
188	0x3d71d959	0.05904517
189	0x3d58d170	0.05293411
190	0xbd1f2c19	-0.038860414
191	0xbd86ef76	-0.06588642
192	0x3c89be52	0.016814385
193	0x3df3e81f	0.11909508
194	0xbe0fe2ff	-0.14051436
195	0xbdcee7d8	-0.101028144
196	0x3dd19476	0.10233395
197	0x3c953330	0.018212885
198	0x3c03ab71	0.00803648
199	0x3d81f7c7	0.06346088
200	0x3d29eb27	0.041484024
201	0xbe220b0a	-0.15824524
202	0xba7841dd	-0.00094702636
203	0x3df2b959	0.118517585
204	0xbde83014	-0.11337295
205	0x3dc39f7d	0.09551904
206	0xbc6f9489	-0.014622816
207	0x3cfa61d8	0.030564234
208	0xbca98a68	-0.02069588
209	0xbe0df95e	-0.13864657
210	0xbd1571e2	-0.03648556
211	0xbcbfbfee	-0.023406949
212	0x3d36aa8c	0.04459624
213	0x3d965531	0.07340468
214	0xbbf62c3f	-0.0075125988
215	0xbd58e587	-0.05295327
216	0xbd511ed5	-0.051054794
217	0xbd0aca42	-0.033884294
218	0x3cab16ef	0.020884959
219	0xbda69862	-0.081345335
220	0xbde43c3b	-0.111443006
221	0x3d41fc3c	0.04735969
222	0x3d2d0d0d	0.042248774
223	0xbcba9f1f	-0.022780953
224	0xbd456c67	-0.048199084
225	0xbcebd03b	-0.028785815
226	0x3d53e241	0.051729444
227	0x3dd0e464	0.10199812
228	0x3c748828	0.01492504
229	0xbd540b6a	-0.051768698
230	0x3d8ef859	0.06980962
231	0xbc67e212	-0.01415302
232	0xbe2516b4	-0.16121942
233	0x3d9ae362	0.07562901
234	0x3dbb7b2b	0.09154352
235	0xbc3be113	-0.011467236
236	0xbde12db6	-0.10995047
237	0x3d959c08	0.07305151
238	0x3cb24447	0.021761073
239	0x3c253421	0.010083229
240	0x3db935f6	0.09043495
241	0x3bb1f214	0.0054304693
242	0xbcb47923	-0.022030419
243	0xbcfbb645	-0.030726561
244	0xbddf358f	-0.10898887
245	0xbdf5a2ef	-0.11993968
246	0xbd3fb95c	-0.04680763
247	0x3d0c8959	0.034310672
248	0xbdcdcfda	-0.1004941
249	0x3cf11d67	0.029432965
250	0x3dd50763	0.104017995
251	0xbd89a73d	-0.06721351
252	0xbde6bcf8	-0.11266512
253	0x3dac9444	0.08426717
254	0x3d80aea6	0.062833115
255	0x3b1e49c8	0.0024152864
