p3_collab-compet/checkpoint_actor.pth (torch_old, 296400 bytes, 10 tensors)

fc1.weight f4 [256, 24]
0	0xbd969264	-0.073521405
1	0xbd98f7fe	-0.07469176
2	0x3c7f5dfd	0.015586373
3	0xbd495221	-0.04915059
4	0x3d40b5af	0.047048267
5	0x3d22535d	0.039630283
6	0xbc7f57d0	-0.015584901
7	0x3ce1f0db	0.02758067
8	0x3d9a98b7	0.07548659
9	0xbd9c6653	-0.07636704
10	0xbd1419ba	-0.036157347
11	0xba0c7aa1	-0.00053588493
12	0x3c0fbb10	0.0087726265
13	0xbd08a41e	-0.03335964
14	0x3d247cd8	0.040158123
15	0x3c7326ac	0.014840763
16	0x3da30169	0.07959253
17	0xbda693c7	-0.08133655
18	0x3c46b116	0.0121271815
19	0x3d926163	0.07147481
20	0xbe35cc7c	-0.17753786
21	0x3e262ba8	0.16227591
22	0xbc8c7daa	-0.017149765
23	0x3d5a0e5b	0.053236347
24	0x3cb8e868	0.022571757
25	0x3d3fe7e8	0.046852022
26	0xbd5b5f9b	-0.053557973
27	0xbd169564	-0.036763564
28	0xbc011e30	-0.007880732
29	0x3c75e215	0.015007515
30	0x3d2f0b99	0.04273567
31	0x3c90ba50	0.017666966
32	0xbd401d71	-0.046903078
33	0x3c2af00d	0.010433209
34	0x3d8283e0	0.063728094
35	0x3d1c02f0	0.03808874
36	0x3d2ef05d	0.042709697
37	0x3d870ddc	0.0659444
38	0x3c7df7e6	0.015500998
39	0xbd038799	-0.032111738
40	0xbb2ff0ec	-0.0026846481
41	0xbd5ddde8	-0.054166704
42	0x3d9d5bba	0.07683511
43	0x3d7cdb7f	0.061732765
44	0x3df2af30	0.118498206
45	0x3d625456	0.05525621
46	0x3adb9e4b	0.0016755549
47	0xbbad9634	-0.0052974466
48	0xbd1aeb7d	-0.037822235
49	0x3d8d68f4	0.06904784
50	0x3b28795b	0.00257071
51	0x3d123631	0.035696212
52	0x3c5c9203	0.013462546
53	0x3d08b7bf	0.03337836
54	0xbc221a34	-0.009893943
55	0xbcf94a29	-0.03043087
56	0x3d8c616d	0.0685452
57	0xbc31a4cd	-0.010842514
58	0xbca5c1f2	-0.020234082
59	0x3bda1175	0.006654913
60	0xbc36639f	-0.01113215
61	0x3c2d6987	0.010584242
62	0x3b8b1c78	0.004245337
63	0xbd3bd7a1	-0.045859937
64	0x3bda4516	0.0066610677
65	0xbc603e38	-0.013686709
66	0xbdcdff0b	-0.10058411
67	0xbdb0a372	-0.08624925
68	0xbc83858d	-0.016054893
69	0x3e32051c	0.17384762
70	0xbd9fe4fb	-0.078073464
71	0x3c9fbb2b	0.019498428
72	0xbb26d04a	-0.002545374
73	0xbd455396	-0.048175417
74	0x3bf8a8e5	0.007588493
75	0xbcceaf90	-0.0252302
76	0xbe2eef6f	-0.17083524
77	0xbc96625c	-0.018357448
78	0xbbf14d42	-0.007363946
79	0xbbccb727	-0.0062474194
80	0x3ceaf700	0.028682232
81	0x3c1de09b	0.00963607
82	0xba15ca14	-0.0005714011
83	0x3d1c7683	0.03819896
84	0x3d8b8a7a	0.06813522
85	0xbd4d6ee9	-0.0501546
86	0xbbc6e877	-0.0060701924
87	0x3d05c99d	0.032662977
88	0x3b15eebb	0.002287789
89	0xbd002d7d	-0.03129338
90	0x3d006181	0.031342987
91	0xbc11c949	-0.008898088
92	0x3e7231f6	0.23651871
93	0xbdc36b66	-0.09541969
94	0xbd0afc1c	-0.033931836
95	0xbcf7d6e5	-0.030253837
96	0x3d7b47b3	0.061347675
97	0x3e0fd6a1	0.14046718
98	0x3c91d4b5	0.017801622
99	0x3ca58331	0.020204158
100	0x3cfa98dc	0.030590467
101	0x3dcc2df9	0.09969706
102	0xbce3b905	-0.027798185
103	0xbd6cc6fb	-0.05780695
104	0x3d58756e	0.052846365
105	0x3deb2d29	0.11483223
106	0xbb303f4c	-0.0026893197
107	0x3c29dd1d	0.010367659
108	0xbccce1da	-0.025010038
109	0x3d4b6b93	0.049663138
110	0x3bac696b	0.0052615902
111	0x3cf75398	0.030191228
112	0x3d36a773	0.044593286
113	0x3e1ed725	0.15511759
114	0xbbe6fff5	-0.0070495554
115	0x3cd5b4bb	0.026087156
116	0xbe1c3391	-0.15254046
117	0x3d54c426	0.051944874
118	0x3b83828f	0.0040133665
119	0x3de6c450	0.112679124
120	0xbe01c523	-0.12672858
121	0xbcd53c04	-0.026029594
122	0xbbba8ddb	-0.00569318
123	0xbc06c590	-0.0082258135
124	0x3d7593e2	0.059955485
125	0xbd912a3c	-0.07088134
126	0xbca8826d	-0.020570004
127	0xbdc10204	-0.094242126
128	0x3d45356f	0.04814666
129	0xbca06f65	-0.019584367
130	0xbc1dea9a	-0.009638453
131	0xbda957a4	-0.08268669
132	0xbcea28b7	-0.028583867
133	0x3d5cedef	0.05393785
134	0x3d73ceb6	0.059523307
135	0xbd0f2f68	-0.03495732
136	0x3d86fc59	0.065911
137	0xbcd3d188	-0.025856748
138	0x3d3b60ab	0.045746487
139	0x3d85bd12	0.06530203
140	0xbd74cb64	-0.05976428
141	0x3e0b471d	0.13601346
142	0x3d64b96d	0.0558409
143	0x3ce5183e	0.027965661
144	0xbdeedb93	-0.11662974
145	0x3e004099	0.12524642
146	0x3cc0c051	0.023529204
147	0xbb946351	-0.004528441
148	0x3cb85a98	0.022504136
149	0x3ca71d42	0.020399693
150	0xbcb35e21	-0.02189547
151	0xbd0e7bcd	-0.034786034
152	0xbd2addc6	-0.041715406
153	0x3e0f1737	0.139737
154	0x3d809de2	0.06280114
155	0x3c0a66e8	0.008447386
156	0x3d6e3fb1	0.05816621
157	0x3d67a08b	0.05654959
158	0x3da0fa89	0.07860286
159	0x3d9faa53	0.07796159
160	0xbd112500	-0.035435677
161	0x3d0012a5	0.03126778
162	0x3d242692	0.040075846
163	0x3d1dc361	0.038516406
164	0xbdb2dc0d	-0.087333776
165	0x3d1aa11f	0.037751313
166	0xbd06f85c	-0.032951698
167	0x3d5a5ec7	0.053313043
168	0xbe12dae4	-0.14341313
169	0x3d84d800	0.06486511
170	0x3c5b7fe4	0.013397191
171	0xbd93d37b	-0.07218071
172	0x3d72a9d6	0.059244
173	0x3dd99ff8	0.10626215
174	0xbb2d9f96	-0.0026492826
175	0xbd80ae57	-0.06283253
176	0xbe255d7e	-0.16148946
177	0x3cf3dba9	0.029767828
178	0x3c08e31a	0.0083549265
179	0xbd41e54c	-0.047337815
180	0x3d80eff7	0.0629577
181	0xbd9ee853	-0.07759156
182	0x3c7b6706	0.015344387
183	0x3d242716	0.040076338
184	0xbe2e932c	-0.17048329
185	0x3d5c37e9	0.053764258
186	0x3c89c480	0.016817331
187	0x3cf5bbdc	0.029996805
188	0x3d096d93	0.033551764
189	0xbddf1f15	-0.108946
190	0xbd10dc8d	-0.035366584
191	0xbc0be496	-0.008538386
192	0xbccb0622	-0.024783198
193	0x3d0b7ce6	0.03405466
194	0x3d4c6232	0.049898334
195	0x3da1c2c9	0.078984804
196	0x3db7a1fa	0.089664415
197	0x3ca216e5	0.019786308
198	0x3d39724a	0.04527501
199	0x3d894937	0.06703418
200	0x3d29f658	0.041494697
201	0xbb8d07eb	-0.0043039224
202	0x3b4cff13	0.0031279966
203	0x3b94c966	0.00454061
204	0x3cec243f	0.028825877
205	0xbd284702	-0.041083343
206	0x3c167c62	0.009184929
207	0x3d1f102e	0.03883379
208	0xbc16f756	-0.009214243
209	0x3d456684	0.04819347
210	0xba6941db	-0.0008898058
211	0x3e1816f4	0.14852506
212	0x3bec2c52	0.007207432
213	0xbdf1b794	-0.11802593
214	0x3cb3ea4a	0.021962304
215	0x3e178ed4	0.14800578
216	0x3dc3fe90	0.09570038
217	0x3e357197	0.17719112
218	0x3c863208	0.016381279
219	0x3de2e4b5	0.11078779
220	0xbb15f24b	-0.0022880014
221	0xbc1dcf67	-0.009631968
222	0xbd0167f7	-0.03159329
223	0x3c6a705f	0.014309018
224	0xbb0caa0c	-0.002146366
225	0x3e07b967	0.13254319
226	0xbba8bf6d	-0.005149773
227	0x3d393ada	0.04522214
228	0x3d899c22	0.06719233
229	0xbc55323c	-0.013012465
230	0x3cd563bc	0.026048534
231	0xbada5f88	-0.0016660551
232	0x3d61d8dd	0.055138458
233	0x3e41d846	0.18930158
234	0x3d16dd2e	0.036832027
235	0xbd279b92	-0.040919848
236	0x3db8a4b2	0.09015788
237	0x3de90f49	0.113798685
238	0xbc3c9341	-0.011509717
239	0x3a467f2e	0.0007572052
240	0xbd06a0f3	-0.032868337
241	0xbdbed591	-0.09318078
242	0x3d396054	0.04525788
243	0xbb839135	-0.0040151128
244	0x3e0200e4	0.12695652
245	0x3d5ed9e9	0.054407034
246	0xbd3d7342	-0.046252497
247	0x3d0b260d	0.033971835
248	0x3b964e87	0.004586998
249	0xbd8ee081	-0.069764145
250	0xbc3f42c5	-0.011673634
251	0x3b39cb0d	0.0028349787
252	0x3b6dc67a	0.0036281631
253	0xbd47a385	-0.04873993
254	0x3bc15d79	0.0059010354
255	0x3d1414f7	0.036152806

fc1.bias f4 [256]
0	0x3dd659d4	0.10466352
1	0xbe14ba6d	-0.14524241
2	0x3e10d793	0.14144735
3	0xbe0b7d1a	-0.13621941
4	0x3e3b13a5	0.18269213
5	0x3e0e2f9d	0.1388535
6	0x3d95bf9a	0.07311936
7	0xbe4c75e3	-0.19966845
8	0xbda798b4	-0.08183423
9	0x3dc39abe	0.09550999
10	0xbe3ee283	-0.18641095
11	0x3dc7e216	0.09759919
12	0xbda83aa1	-0.082143076
13	0xbe18cba8	-0.14921439
14	0xbb11dc6e	-0.002225663
15	0x3d002686	0.03128674
16	0x3e1df9e8	0.15427363
17	0xbe0510a2	-0.12994626
18	0xbe29e37c	-0.16590685
19	0xbd8cc5f8	-0.06873697
20	0x3d1ec593	0.03876264
21	0xbdba4a2a	-0.09096177
22	0xbd9f3608	-0.077739775
23	0xbd91ea1e	-0.071247324
24	0x3db34ea3	0.08755233
25	0x3cdb6de0	0.02678579
26	0x3e373873	0.17892627
27	0x3e0489dc	0.12943214
28	0xbe350940	-0.1767931
29	0x3d57edd6	0.052717052
30	0xbe370219	-0.17871894
31	0xbe40c17d	-0.1882381
32	0xbd91641f	-0.07099175
33	0x3e5030d1	0.20331122
34	0x3c95ba78	0.018277392
35	0xbe1649c5	-0.14676578
36	0xbe3c7dd7	-0.18407379
37	0x3e1d8b57	0.15385185
38	0x3e21d643	0.1580439
39	0xbde812f0	-0.11331737
40	0x3e11742d	0.14204474
41	0x3d9a6b94	0.0754005
42	0xbdd715e5	-0.10502223
43	0x3d7fe334	0.062472537
44	0x3bfc957c	0.0077082496
45	0xbd5675b1	-0.052358333
46	0xbd55a102	-0.052155502
47	0x3e1a9244	0.15094858
48	0x3db48053	0.088135384
49	0x3db64d24	0.08901432
50	0x3d73945c	0.05946766
51	0x3e0ee977	0.13956247
52	0xbd55ea4c	-0.052225396
53	0xbb37523b	-0.0027972597
54	0x3e2cd195	0.16876824
55	0x3dfa9efb	0.12237354
56	0x3d4f9259	0.050676677
57	0xbdd4a43f	-0.1038289
58	0xbd56d58c	-0.052449748
59	0x3d03a98f	0.032144126
60	0xbe012f53	-0.12615709
61	0x3dbd622c	0.092472404
62	0xbe01d010	-0.12677026
63	0xbe145bee	-0.14488193
64	0x3d963325	0.07333974
65	0xbdceca73	-0.10097208
66	0xbe50ee0f	-0.20403312
67	0x3e031b8f	0.12803482
68	0xbdaa975e	-0.08329652
69	0xbd9dd797	-0.07707136
70	0xbdc282ba	-0.0949759
71	0xbdef0020	-0.11669946
72	0xbe0c71ca	-0.13715282
73	0xbdb6c8ce	-0.08925019
74	0xbe18eb8e	-0.14933607
75	0xbc916030	-0.017746061
76	0x3d853909	0.06505019
77	0xbe0239a9	-0.12717308
78	0xbe48b6cf	-0.19600986
79	0x3d91d58b	0.07120808
80	0xbde6f46a	-0.11277087
81	0x3d64b2f2	0.055834718
82	0xbc80ad06	-0.015707504
83	0x3d37aa2b	0.04484002
84	0xbb1445b2	-0.002262455
85	0xbd82c60a	-0.06385429
86	0xbe22293a	-0.15836039
87	0x3e0f9bc0	0.14024258
88	0x3dc5d932	0.09660567
89	0x3cad3922	0.021145407
90	0x3e324f21	0.17412998
91	0x3e3fd39d	0.18733068
92	0xbe28207f	-0.16418646
93	0x3dd20ffd	0.10256956
94	0x3e3ff481	0.18745615
95	0xbc39f906	-0.011350876
96	0xbe45ebb3	-0.19328193
97	0xbd981065	-0.07425002
98	0x3c9a674c	0.018848084
99	0xbd327de7	-0.0435771
100	0x3dc8d29a	0.09805794
101	0x3da2c398	0.07947463
102	0xbe46d1fa	-0.19416037
103	0x3ce1d235	0.027566055
104	0x3d0531de	0.03251826
105	0x3e05752d	0.1303298
106	0x3cd6ca28	0.026219442
107	0x3de3908d	0.11111555
108	0x3d2b92b1	0.041887943
109	0xbe0af1e2	-0.13568833
110	0xbe22232d	-0.15833731
111	0xbd8e9b03	-0.0696316
112	0x3a624edf	0.00086329685
113	0xbdf3e1ae	-0.11908279
114	0xbe3925f2	-0.18080881
115	0x3e330abc	0.17484564
116	0x3cbc0cd2	0.022955332
117	0x3da1641c	0.078804225
118	0xbdd45d25	-0.103693284
119	0x3d0a0332	0.033694454
120	0xbc81e040	-0.015854001
121	0x3ddb651f	0.10712647
122	0xbd9847f3	-0.07435598
123	0x3e3a1cc1	0.18175031
124	0x3c2db395	0.010601898
125	0x3c0bed54	0.00854047
126	0x3e12ae3c	0.14324278
127	0xbbd816e8	-0.0065945275
128	0x3d738624	0.0594541
129	0xbc67b784	-0.014142875
130	0x3e21610a	0.15759674
131	0xbe4b3547	-0.19844542
132	0x3e4989a4	0.19681412
133	0xbdf62ab0	-0.12019861
134	0x3e4c48f4	0.19949704
135	0x3d8d9186	0.06912522
136	0xbe04ee17	-0.12981449
137	0xbe3294be	-0.17439553
138	0x3d65afb1	0.056075756
139	0x3da9be79	0.08288283
140	0xbe0edc89	-0.13951315
141	0x3e052d67	0.13005601
142	0xbdbed75e	-0.09318422
143	0x3e253619	0.16133918
144	0x3d08401f	0.033264276
145	0xbe335a9c	-0.17515033
146	0x3d05e849	0.032692228
147	0xbd5d7b2a	-0.054072537
148	0x3d5d1947	0.053979184
149	0xbd9d20b1	-0.07672251
150	0x3e3720d0	0.1788361
151	0xbdee5679	-0.11637587
152	0x3e2bb5a8	0.16768515
153	0xbe4f3553	-0.20235185
154	0x3e175a4a	0.14780536
155	0xbe0fe6d7	-0.14052902
156	0x3d1b2c9f	0.03788435
157	0xbd54f7a2	-0.051993974
158	0xbe501034	-0.20318681
159	0x3e2444a5	0.16041811
160	0x3d463c51	0.048397366
161	0x3de8c0a6	0.1136487
162	0xbdc80c7a	-0.09768005
163	0xbd8135bd	-0.06309078
164	0xbdc0aac2	-0.094075695
165	0xbe40ef62	-0.18841317
166	0x3d369be2	0.044582255
167	0x3d9838db	0.07432719
168	0xbccada2c	-0.024762236
169	0xbe07fe44	-0.13280588
170	0x3cc82031	0.024429413
171	0x3db29365	0.087195195
172	0x3c9e93e2	0.019357625
173	0xbe4f4af4	-0.20243436
174	0x3dccd92e	0.10002361
175	0x3e180891	0.14847018
176	0xbd88a7ad	-0.066726066
177	0xbd36a199	-0.044587705
178	0x3b9238ce	0.004462338
179	0x3d2a48ae	0.04157322
180	0x3e3970c9	0.1810943
181	0x3e1559d9	0.14585055
182	0x3dba9549	0.09110505
183	0xbe09cf3b	-0.13457958
184	0x3dfad195	0.12247006
185	0x3dcbd2e2	0.09952332
186	0x3e43d7aa	0.19125238
187	0xbda1c309	-0.07898528
188	0x3d936722	0.071974054
189	0x3e09f5b7	0.13472639
190	0x3dc3d2e6	0.0956171
191	0xbca57c60	-0.020200908
192	0xbd706d07	-0.058697727
193	0xbd1945d8	-0.037420124
194	0x3de8ea4a	0.11372812
195	0xbd83eb4a	-0.06441362
196	0xbe4fb85e	-0.20285174
197	0xbd06a8e8	-0.032875925
198	0xbe3fff22	-0.18749669
199	0xbe23e4c9	-0.16005243
200	0x3e345bd9	0.17613162
201	0xbe0391c9	-0.12848581
202	0x3df2c1f4	0.118534
203	0xbdfb6218	-0.12274569
204	0xbe4d58fe	-0.20053479
205	0x3b957a35	0.0045616874
206	0x3dd6e508	0.10492903
207	0x3c1b6a45	0.009485786
208	0x3df0160e	0.117229566
209	0xbc083d7a	-0.008315438
210	0xbe14df57	-0.14538322
211	0x3dff8a22	0.124775186
212	0x3d0f82dc	0.035036907
213	0xbde75537	-0.1129555
214	0xbcac052d	-0.020998562
215	0x3d9396ec	0.072065204
216	0xbd2ff4a3	-0.042957913
217	0xbc15f4e1	-0.009152622
218	0x3d535592	0.051595278
219	0x3d85d7c0	0.06535292
220	0x3df078ed	0.11741815
221	0xbd539e6a	-0.051664747
222	0x3d78c513	0.06073482
223	0x3d454a19	0.04816637
224	0xbda0687f	-0.07832431
225	0x3d006583	0.03134681
226	0x3be5e1a4	0.007015424
227	0xbe19ba8f	-0.15012573
228	0xbe3be61e	-0.18349501
229	0x3e36286b	0.17788856
230	0xbdbf1187	-0.09329515
231	0x3e18e4a6	0.14930972
232	0x3d285479	0.041096184
233	0x3ded22d4	0.115789086
234	0xbce31a40	-0.027722478
235	0xbd305f35	-0.043059547
236	0xbd9acc39	-0.07558484
237	0xbe468cf6	-0.1938971
238	0xba3cc172	-0.00072004565
239	0x3e30182d	0.17196722
240	0x3d281a0d	0.04104047
241	0xbd8b775d	-0.06809876
242	0xbe04592d	-0.12924643
243	0xbd45a49c	-0.048252687
244	0xbdada390	-0.08478463
245	0x3dffc033	0.12487831
246	0x3dbce632	0.09223594
247	0x3d580211	0.052736346
248	0x3cf548a4	0.029941864
249	0x3bedf5c1	0.007261962
250	0xbddc3a2e	-0.107532844
251	0xbccacbdc	-0.02475541
252	0x3e057e32	0.13036421
253	0xbcd519ee	-0.02601334
254	0x3d900e89	0.07034022
255	0xbce86877	-0.028370125

bn1.weight f4 [256]
0	0x3f5235c9	0.8211332
1	0x3e3dee8e	0.18548033
2	0x3f56f8cf	0.839734
3	0x3f5b7eb7	0.85740227
4	0x3f424415	0.75885135
5	0x3f4fca5f	0.8116817
6	0x3f00a944	0.5025828
7	0x3f665b8a	0.8998343
8	0x3f3192c3	0.69364566
9	0x3eaad1e4	0.3336326
10	0x3eacf783	0.33782586
11	0x3f7ceb42	0.98796475
12	0x3f49b04f	0.7878465
13	0x3f5800f3	0.8437645
14	0x3f082838	0.5318637
15	0x3e9338a5	0.28754154
16	0x3f3a6218	0.7280593
17	0x3ea3c8fd	0.3198928
18	0x3ee2401d	0.4418954
19	0x3f2a4ee2	0.66526616
20	0x3f1cf865	0.6131652
21	0x3f328a35	0.6974214
22	0x3e3404bf	0.17579935
23	0x3e41f865	0.18942411
24	0x3e348b01	0.17631151
25	0x3d3ab293	0.045580458
26	0x3daeed1e	0.0854132
27	0x3ea7c7b3	0.32769546
28	0x3eb1d605	0.34733596
29	0x3f56828a	0.83792937
30	0x3eabdfe3	0.3356925
31	0x3ed66f31	0.41881707
32	0x3eaebe37	0.34129497
33	0x3f523916	0.82118356
34	0x3e83b9b7	0.25727627
35	0x3f2a610a	0.6655432
36	0x3ea2f585	0.31827942
37	0x3e8692a2	0.26283747
38	0x3efceefe	0.49401087
39	0x3f77ec1b	0.96844643
40	0x3f0cfce9	0.5507341
41	0x3f41daf3	0.75724715
42	0x3f98a4b3	1.1925262
43	0x3f27f7cf	0.656125
44	0x3f566d8b	0.837609
45	0x3f6c56d1	0.9231997
46	0x3f6ba772	0.92052376
47	0x3e8e2c07	0.27767965
48	0x3f2770e0	0.6540661
49	0x3f2a26b7	0.66465324
50	0x3f5b8065	0.8574279
51	0x3f81c0fe	1.0137022
52	0x3f0c797b	0.54872864
53	0x3e341292	0.17585209
54	0x3f44a4cc	0.7681396
55	0x3f311ed5	0.6918767
56	0x3eaa5de6	0.33274764
57	0x3f35fd35	0.7108949
58	0x3f86cf01	1.0531923
59	0x3f5388ad	0.82630426
60	0x3ec7dbeb	0.39034972
61	0x3e953430	0.29141378
62	0x3f3ab56b	0.7293307
63	0x3e11d571	0.14241578
64	0x3eade907	0.33966848
65	0x3f0031b9	0.5007587
66	0x3ead8144	0.33887684
67	0x3efd58cd	0.49481812
68	0x3f187dd0	0.59566975
69	0x3f835915	1.0261561
70	0x3f2e48bb	0.6807973
71	0x3f325b38	0.6967044
72	0x3e5515bc	0.20809072
73	0x3ebec7bd	0.37261763
74	0x3ee56609	0.4480441
75	0x3e5157a3	0.20443587
76	0x3f548c6e	0.8302678
77	0x3f135a32	0.575595
78	0x3f2f2869	0.68421036
79	0x3d9ae3fe	0.07563017
80	0x3d054754	0.032538727
81	0x3edb96fe	0.42888635
82	0x3ebc2c15	0.36752382
83	0x3e53db31	0.20689084
84	0x3f5ed70a	0.87046874
85	0x3f6ed991	0.9330073
86	0x3e72346f	0.23652814
87	0x3edb9533	0.42887267
88	0x3f3ba84a	0.73303664
89	0x3f2bc4e5	0.6709731
90	0x3e6d1f42	0.23156455
91	0x3f61dd86	0.8822864
92	0x3f6a5526	0.91536176
93	0x3f41f984	0.75771356
94	0x3f295107	0.6613926
95	0x3ec43b64	0.3832656
96	0x3f84b2d6	1.0367076
97	0x3eb1aae7	0.347007
98	0x3f323130	0.69606304
99	0x3f448e5e	0.76779735
100	0x3ee90bea	0.45516902
101	0x3e0de5ea	0.13857237
102	0x3f64f357	0.8943381
103	0x3f1c6e29	0.6110559
104	0x3f893120	1.0718117
105	0x3de15fc2	0.110045925
106	0x3ebea390	0.37234163
107	0x3e13b2ad	0.14423628
108	0x3f84fc6e	1.0389535
109	0x37188fd7	9.093396e-06
110	0x3f59466b	0.84873074
111	0x3f39c956	0.7257284
112	0x3e77651b	0.24159662
113	0x3f63f0c0	0.8903923
114	0x3e4c556c	0.19954461
115	0x3f2befe9	0.6716295
116	0x3f245591	0.64193064
117	0x3f109dce	0.5649079
118	0x3f6f5311	0.93486124
119	0x3f120309	0.5703588
120	0x3f3a11a2	0.72683156
121	0x3f77e170	0.96828365
122	0x3edfa373	0.4367939
123	0x3f3b03e9	0.7305284
124	0x3e0409a8	0.12894309
125	0x3db81a63	0.08989408
126	0x3db13295	0.08652226
127	0x3e97ec8c	0.29672658
128	0x3f841ff9	1.0322257
129	0x3f1444ac	0.57917285
130	0x3f12b2d9	0.5730415
131	0x3f222675	0.6333993
132	0x3ea7e82c	0.3279432
133	0x3f3d46ea	0.7393633
134	0x3edea385	0.4348413
135	0x3e501b2b	0.20322864
136	0x3eb8829e	0.36037153
137	0x3f221925	0.6331962
138	0x3f65a7c6	0.89709127
139	0x3e9abab7	0.30220577
140	0x3e522f3a	0.20525828
141	0x3f0febbe	0.5621909
142	0x3f1a2335	0.6020997
143	0x3f2383b3	0.6387283
144	0x3f8840d2	1.0644782
145	0x3f20ee76	0.6286386
146	0x3f360135	0.7109559
147	0x3eb8f64e	0.36125416
148	0x3ed9a67a	0.42509824
149	0x3ef5fe6b	0.48045668
150	0x3e12646d	0.14296122
151	0x3e7ced04	0.2469979
152	0x3f1cc6dd	0.6124094
153	0x3ef637fa	0.48089582
154	0x3df86b57	0.121298485
155	0x3e9fab2f	0.3118529
156	0x3ea58372	0.32326847
157	0x3f0b2b08	0.54362535
158	0x3f36a0ed	0.71339303
159	0x3f786b62	0.97038853
160	0x3f40da8f	0.75333494
161	0x3f6b0996	0.918115
162	0x3f29a01d	0.6625994
163	0x3eb0a1d4	0.34498465
164	0x3ea2979f	0.31756303
165	0x3de037f5	0.10948173
166	0x3ed172a1	0.40907767
167	0x3f8212f7	1.0162038
168	0x3e52508b	0.20538537
169	0x3dea75f3	0.11448278
170	0x3f93d2ea	1.1548741
171	0x3f5d67b8	0.8648639
172	0x3f6b61da	0.91946185
173	0x3f4474c9	0.767407
174	0x3ee2ac8a	0.44272262
175	0x3f4b05bf	0.7930564
176	0x3f70b0e1	0.94019896
177	0x3f86f0bb	1.0542215
178	0x3f0c0ce1	0.5470715
179	0x3f979f2e	1.1845453
180	0x3e440890	0.19143891
181	0x3f7b2bb8	0.98113585
182	0x3ecc456a	0.3989671
183	0x3f6c8aea	0.92399466
184	0x3f821eb7	1.0165623
185	0x3ec73acb	0.38912043
186	0x3f42734b	0.75957173
187	0x3edd8c67	0.4327118
188	0x3ef6382c	0.4808973
189	0x3eadb69a	0.33928376
190	0x3f3209c5	0.6954616
191	0x3f59f7fd	0.85144025
192	0x3f02954a	0.5100905
193	0x3ef5c183	0.479992
194	0x3e7f0058	0.24902475
195	0x3f4880ea	0.7832171
196	0x3f029dc0	0.5102196
197	0x3ef71965	0.48261562
198	0x3f33447a	0.7002636
199	0x3e82b7e5	0.25530925
200	0x3f11c53f	0.569416
201	0x3e2da337	0.16956793
202	0x3f2f4f3e	0.6848029
203	0x3f61e348	0.8823743
204	0x3e9f938b	0.31167254
205	0x3f01880d	0.5059822
206	0x3f510d7e	0.8166121
207	0x3ed42db3	0.41441116
208	0x3e182fb8	0.14861953
209	0x3edbe01c	0.4294442
210	0x3e768754	0.24075061
211	0x3e0794bd	0.13240333
212	0x3f1ed21c	0.6203935
213	0x3f77d0a9	0.96802765
214	0x3e0731fc	0.13202661
215	0x3e8f054e	0.27933735
216	0x3e521866	0.2051712
217	0x3f384bce	0.7199067
218	0x3f45449c	0.77057815
219	0x3f3a6fb1	0.7282668
220	0x3e4332e8	0.19062388
221	0x3f8e60df	1.1123313
222	0x3e818857	0.25299332
223	0x3f008042	0.50195706
224	0x3ec10643	0.3770009
225	0x3eef820f	0.46778914
226	0x3ecc842d	0.39944592
227	0x3f3ab1da	0.7292763
228	0x3f809172	1.0044386
229	0x3f67148c	0.9026573
230	0x3f53e67f	0.82773584
231	0x3f6ea1cc	0.9321563
232	0x3f3b4768	0.7315583
233	0x3f8cfe2c	1.1015067
234	0x3ea856bc	0.32878673
235	0x3f6a034a	0.9141127
236	0x3f6a1a90	0.9144678
237	0x3f46509a	0.7746674
238	0x3dbe201a	0.09283467
239	0x3f83116a	1.0239689
240	0x3e97a1c7	0.29615614
241	0x3e96e4b8	0.29471374
242	0x3d05fe26	0.032713078
243	0x3f9c77db	1.2224077
244	0x3f758631	0.95907885
245	0x3e8f4741	0.2798405
246	0x3ec59630	0.38591146
247	0x3e95a182	0.29224783
248	0x3e2e5b88	0.17027104
249	0x3e8b2c2e	0.27182144
250	0x3de79268	0.11307222
251	0x3f1a2f5d	0.6022852
252	0x3f08287a	0.5318676
253	0x3f33f47c	0.7029493
254	0x3e3e943f	0.18611239
255	0x3f365c4d	0.7123459

bn1.bias f4 [256]
0	0x3cc3b66a	0.023890693
1	0xbe0ff714	-0.14059097
2	0xbc9cf6fe	-0.019160744
3	0xbd1b7e2b	-0.03796212
4	0xbdb5d150	-0.08877814
5	0x3d0b1fda	0.033965923
6	0xbd67317d	-0.05644368
7	0x3d061a67	0.032740023
8	0xbd8d1b45	-0.06889967
9	0xbe49e171	-0.19714905
10	0xbce4446e	-0.027864661
11	0xbe0c2b94	-0.13688499
12	0x3d89b974	0.067248255
13	0x3d139d12	0.036038466
14	0x3d83f511	0.06443227
15	0xbb09c717	-0.0021023208
16	0xbe5b0291	-0.21387698
17	0xbdeeb81f	-0.11656212
18	0x3d9bd9fc	0.076099366
19	0xbdff2429	-0.12458069
20	0x3dd49ba9	0.10381252
21	0xbdebfaf8	-0.11522478
22	0x3de5e614	0.112255245
23	0xbdf1571c	-0.11784193
24	0x3e47e55b	0.19521086
25	0x3e1e8dca	0.15483776
26	0x3de259d9	0.11052293
27	0x3d3d3912	0.046197005
28	0xbe2ba6ba	-0.1676282
29	0xbe3a3598	-0.18184507
30	0x3cb5c7c6	0.022189986
31	0x3dfb1793	0.12260356
32	0xbd6fffd8	-0.0585936
33	0xbe5c5856	-0.21518072
34	0xba67cebd	-0.0008842757
35	0xbccbf6a9	-0.02489789
36	0xbdbdeb47	-0.09273391
37	0x3daef940	0.085436344
38	0xbe31f732	-0.17379454
39	0x3c7d45de	0.015458552
40	0x3d4cfd20	0.050046086
41	0xbe328973	-0.17435245
42	0xbe108c59	-0.14116038
43	0x3c3e479e	0.011613755
44	0xbd2ff6f6	-0.04296013
45	0xbd03749e	-0.032093637
46	0x3d4f83b7	0.050662722
47	0xbd64452e	-0.055730037
48	0xbe163b37	-0.14671026
49	0x3c3458ff	0.011007546
50	0xbdb875ac	-0.09006819
51	0xbd52311e	-0.051316373
52	0x3cd6c72c	0.02621802
53	0xbdab9cfc	-0.08379552
54	0x3e2c50bd	0.16827674
55	0xbe635888	-0.2220174
56	0x3cbd32b0	0.023095459
57	0x3d534b05	0.051585216
58	0xbd741ab0	-0.059595764
59	0xbdcc3fe0	-0.09973121
60	0x3e01dbba	0.12681475
61	0xbce881fc	-0.028382294
62	0xbac80b4a	-0.0015262153
63	0xbdb24da9	-0.08706219
64	0xbdb7fca9	-0.08983738
65	0xbd1ef568	-0.038808256
66	0xbe08ddd6	-0.13365874
67	0x3d7e1366	0.06203022
68	0xbdf15f13	-0.11785712
69	0xbbf834d2	-0.007574656
70	0x3d4ec3f2	0.050479837
71	0xbd036b61	-0.032084826
72	0x3e7f8143	0.24951653
73	0x3de48008	0.111572325
74	0xbe1d6b96	-0.15373072
75	0xbd3c5fa0	-0.045989633
76	0x3d3b4af5	0.04572578
77	0xbccc1b05	-0.024915228
78	0xbcbbe866	-0.022937965
79	0x3e412281	0.18860818
80	0x3e26c18a	0.16284767
81	0xbdd0ad49	-0.101893015
82	0xbe036ec4	-0.12835222
83	0xbcd196ee	-0.025584664
84	0xbe4cc12f	-0.19995569
85	0xbaaed792	-0.0013339391
86	0xbe21a8c4	-0.15787035
87	0xbe1f82dc	-0.15577263
88	0xbdab4e2e	-0.08364521
89	0x3b75729d	0.0037452348
90	0x3e0ecde1	0.13945724
91	0xbd96afc2	-0.07357742
92	0xbb9f5d96	-0.0048634512
93	0x3e2eff36	0.17089543
94	0xbe2a8109	-0.16650786
95	0x3dd2cce5	0.10292987
96	0xbe17ebe8	-0.14836085
97	0x3d26aef6	0.0406942
98	0xbdf8ce4d	-0.12148724
99	0xbc962997	-0.018330378
100	0xbe37af03	-0.17937855
101	0x3da4f258	0.08054036
102	0xbd6ce8c4	-0.05783917
103	0xbd3f7f38	-0.046752185
104	0xbe21e956	-0.15811667
105	0xbd936f33	-0.07198944
106	0xbd4302a4	-0.04760994
107	0x3e4424cb	0.1915466
108	0x3b6d6090	0.0036220886
109	0xba0a70b8	-0.00052810786
110	0x3a7eccd6	0.0009719854
111	0xbe221b1b	-0.15830652
112	0x3d5551c5	0.052079935
113	0xbe3ff7e4	-0.18746907
114	0xbd1e2605	-0.038610477
115	0xbe24f689	-0.1610967
116	0x3c851177	0.01624368
117	0xbd04098b	-0.032235663
118	0xbd87745c	-0.06613991
119	0xbc5d67b7	-0.013513497
120	0xbe610662	-0.21975091
121	0xbcc8adb5	-0.024496892
122	0xbdc9f177	-0.09860509
123	0xbe2e8044	-0.17041117
124	0x3dff3741	0.12461711
125	0x3d0c3a0e	0.034235053
126	0x3d65e9a7	0.05613103
127	0x3caea934	0.021320917
128	0xbda7b74f	-0.0818926
129	0xbbf6c51a	-0.0075308206
130	0xbcd14d77	-0.025549633
131	0xbd777a1e	-0.060419194
132	0x3d8621b7	0.06549399
133	0xbde9208e	-0.113831624
134	0x3ce58d75	0.028021554
135	0xbd2dd233	-0.04243679
136	0x3cba6598	0.022753522
137	0xbe6c3cf4	-0.23070127
138	0xbe0c44d0	-0.13698125
139	0xbbc3873d	-0.0059670494
140	0xbdb7dcea	-0.08977683
141	0xbe664f4a	-0.22491184
142	0xbd85489a	-0.06507988
143	0xbd3d6700	-0.046240807
144	0xbd487f91	-0.04894978
145	0x3e0c4a83	0.13700299
146	0x3e0f0bca	0.13969341
147	0xbd849140	-0.06473017
148	0x3d5cb5a9	0.053884182
149	0x3beda3bf	0.007252186
150	0x3b9ae926	0.0047275005
151	0x3d24e267	0.040254977
152	0xbd232235	-0.039827544
153	0x3cc981a2	0.024597947
154	0x3d93b916	0.07213037
155	0xbe3879c2	-0.18015197
156	0x3dfc6dfb	0.123256646
157	0x3d33ab74	0.043864682
158	0xbd990d30	-0.074732184
159	0xbdcdec5b	-0.10054847
160	0xbd8522aa	-0.06500752
161	0xbde69bb8	-0.1126017
162	0xbdb0f8e6	-0.086412236
163	0x3dd91ffe	0.10601805
164	0xbd82bc29	-0.06383545
165	0x3dea8207	0.11450582
166	0xbe5297c8	-0.20565712
167	0x3b711456	0.0036785803
168	0x3e504a3b	0.20340817
169	0xbc89a018	-0.016799971
170	0xbd8fdb92	-0.070243016
171	0xbd522644	-0.051306024
172	0xbd099785	-0.033591766
173	0xbd8f06cf	-0.069837205
174	0xbcedc37c	-0.029023878
175	0xbc59b2b2	-0.013287233
176	0xbd144e99	-0.03620777
177	0xbe00b741	-0.12569906
178	0x3d168325	0.036746163
179	0xbe6df41d	-0.23237653
180	0x3c201392	0.009770291
181	0x3c05ce8a	0.0081669185
182	0x3ce6e243	0.028184062
183	0xbbdc70e2	-0.006727324
184	0xbd0c557b	-0.034261208
185	0xbe17e20e	-0.14832327
186	0xbdd533b9	-0.10410256
187	0xbd8e4a71	-0.06947792
188	0xbdadc7b6	-0.084853575
189	0xbdd1d85a	-0.10246344
190	0x3d1a3c3b	0.037655097
191	0xbb8822b7	-0.004154529
192	0xbd810199	-0.06299133
193	0x3e3b80e1	0.18310882
194	0x3c38a354	0.011269409
195	0xbd16631d	-0.036715616
196	0x3d02680d	0.03183751
197	0xbde1067d	-0.10987566
198	0xbe05de6c	-0.13073128
199	0x3ddd418a	0.10803516
200	0xbd8345b3	-0.064097784
201	0xbb055e90	-0.0020350553
202	0x3e130e70	0.14360976
203	0xbe0e739c	-0.13911289
204	0x3d7f01dc	0.062257633
205	0x3e1402d0	0.14454198
206	0x3c10b38a	0.008831868
207	0xbdf0db80	-0.11760616
208	0xbd1d97db	-0.0384749
209	0xbe0086be	-0.125514
210	0x3d9dfac6	0.07713847
211	0x3bf169a3	0.007367329
212	0xbce56bfc	-0.028005593
213	0x3d72091c	0.05909072
214	0x3e57c087	0.21069537
215	0x3e126311	0.14295603
216	0x3d6cedcf	0.05784398
217	0xbda68b95	-0.08132092
218	0xbd1f89ae	-0.03894966
219	0xbab58291	-0.0013848116
220	0xbdcb6ae1	-0.09932495
221	0xbd69e8b6	-0.057106696
222	0xbe2e861f	-0.1704335
223	0xbcb8b767	-0.02254839
224	0x3c75338d	0.014965904
225	0xbd962afc	-0.07332417
226	0xbd906fe1	-0.07052589
227	0x3cff2f91	0.031150611
228	0x3c9ff778	0.019527182
229	0x3dc966e4	0.09834078
230	0xbccd6c3f	-0.02507603
231	0xbd5cb988	-0.053887874
232	0xbd99c616	-0.07508485
233	0x3d90282b	0.070389114
234	0x3e105e9f	0.14098595
235	0x3d92143b	0.07132765
236	0xbc43902c	-0.011936229
237	0xbd81c7d8	-0.06336945
238	0x3dc1aeef	0.09457194
239	0x3cc8dbd1	0.02451888
240	0x3d443319	0.047900293
241	0x3e3cd1dc	0.1843943
242	0x3dc7cf2a	0.0975631
243	0x3d94aedd	0.07259915
244	0xbd7c7385	-0.061633606
245	0x3e51250d	0.2042429
246	0x3cacd517	0.021097703
247	0xbd9f6215	-0.077823795
248	0xbdb41c77	-0.08794492
249	0xbab5f983	-0.0013883564
250	0x3de7ee4d	0.11324749
251	0xbddee2eb	-0.10883125
252	0xbdb0300d	-0.08602915
253	0xbdc19626	-0.09452467
254	0x3dd76749	0.10517747
255	0x3a68ff78	0.00088881655

bn1.running_mean f4 [256]
0	0x3e345322	0.17609838
1	0x3f2761a7	0.6538338
2	0xbeba81b0	-0.3642707
3	0xbf03c4d5	-0.51472217
4	0xbfacba8a	-1.3494427
5	0x3f599d1b	0.8500535
6	0x3fc9b7e0	1.5759239
7	0x40392b58	2.8932705
8	0xbe12488f	-0.14285491
9	0xbfcca76a	-1.5988591
10	0xbcd39b8a	-0.025831003
11	0xc00b9ae8	-2.1813297
12	0xbd98f8f0	-0.07469356
13	0xbeeb8f8f	-0.46007964
14	0xbebd0ee4	-0.36925423
15	0x4028a1ab	2.6348674
16	0xbfc72d47	-1.5560693
17	0xbf9b7531	-1.2145139
18	0xbf0327cb	-0.51232594
19	0x3e807bc8	0.25094438
20	0x3f479a59	0.7796989
21	0x3f2de283	0.67923754
22	0xbea210dc	-0.31653488
23	0x3fc94c94	1.5726495
24	0x3f2c8582	0.67391217
25	0x3cde9002	0.027168278
26	0x40047c35	2.070081
27	0xbf7bcfe2	-0.9836408
28	0xbf0473f3	-0.51739424
29	0xbfda4963	-1.7053646
30	0xbf76e543	-0.96443576
31	0x3f829b5b	1.0203661
32	0x400db271	2.2140162
33	0xbee98b3a	-0.45614034
34	0xbfa16d4d	-1.2611481
35	0xbff6d9f2	-1.9285262
36	0x3f448ac9	0.7677427
37	0x3fc7a734	1.5597901
38	0x3f054ba0	0.5206852
39	0x40225d3c	2.5369406
40	0x403d4c63	2.9577873
41	0xbf606d9a	-0.8766724
42	0xbed4110a	-0.4141925
43	0xbfa8926a	-1.3169682
44	0xbed148c5	-0.4087583
45	0x3e0c878a	0.13723579
46	0x404869ba	3.131453
47	0x3fbc0bc7	1.4691094
48	0xbf14081f	-0.5782489
49	0xc00888ee	-2.1333575
50	0x3eed812c	0.46387613
51	0x3d980908	0.074235976
52	0x3ae1fdbd	0.0017241758
53	0x3f166acc	0.5875671
54	0x3feb3219	1.8374664
55	0xbed83fe7	-0.42236254
56	0x3eb52f4d	0.3538765
57	0xbd2123e4	-0.03934087
58	0x3e564184	0.2092343
59	0xbfd5bad1	-1.6697637
60	0xbf09ae37	-0.53781456
61	0x405510c0	3.3291473
62	0xbf15be53	-0.58493537
63	0x3dfb56e2	0.12272431
64	0xbf3be10a	-0.7339026
65	0xbe8f7d6f	-0.28025386
66	0xbf19da0e	-0.6009835
67	0x402d2283	2.7052314
68	0xc017991d	-2.3687203
69	0xbf8bd593	-1.0924553
70	0x3f029321	0.5100575
71	0x3fd688f2	1.6760542
72	0xbf0eab72	-0.55730355
73	0xbea564b0	-0.3230338
74	0xbffd5465	-1.979138
75	0x40038d65	2.055505
76	0x3f7b5cdd	0.98188573
77	0x402b84fd	2.679992
78	0x3fb2fc4f	1.3983248
79	0x3f9efa9e	1.2420232
80	0x3e655e51	0.2239926
81	0xbec83770	-0.39104795
82	0x3fd9c30a	1.7012646
83	0x40148434	2.320569
84	0xbf5d0735	-0.8633912
85	0xbdd5aacc	-0.104329675
86	0xbfed5386	-1.8541114
87	0xbdcc872b	-0.09986719
88	0x3e6f8040	0.23388767
89	0x3e4141c8	0.1887275
90	0x4041696f	3.0220602
91	0xbeab34ba	-0.33438665
92	0xbf951e4d	-1.1649872
93	0x3f1c9e94	0.6117947
94	0xbff752cb	-1.9322141
95	0x3f8436db	1.032924
96	0xbee44d6a	-0.44590312
97	0x3e9e4a11	0.30915883
98	0xbf8dfc81	-1.1092683
99	0x3fb1c58f	1.3888415
100	0xbf8b6711	-1.0890828
101	0x3fbc88b1	1.4729215
102	0xbf8de186	-1.1084449
103	0xbf2fab90	-0.6862116
104	0xbde39e41	-0.11114169
105	0x3f5afd78	0.8554301
106	0x3ed60ec7	0.4180815
107	0x3f851ac8	1.0398798
108	0x3f427142	0.7595407
109	0xbf8a4b6c	-1.0804267
110	0xbf02724c	-0.50955653
111	0xbf78b402	-0.9714967
112	0xbf1337b8	-0.57506895
113	0xbe400d13	-0.18754987
114	0xbf5bb6be	-0.8582572
115	0xbd5542ef	-0.052065786
116	0x3ecf0ee4	0.40441048
117	0x3f77e5cf	0.96835035
118	0x3c535fba	0.012901241
119	0xbee84b8d	-0.4537014
120	0x3f0c29d3	0.5475132
121	0xbff1a268	-1.8877687
122	0xbd1f15fc	-0.038839325
123	0xbea248c3	-0.31696138
124	0x3fdc6a45	1.7219931
125	0xbfa4a165	-1.2861754
126	0x3f42c8dd	0.76087743
127	0x3fb9fabd	1.4529644
128	0x3f32f70b	0.6990821
129	0x3ea255ef	0.31706187
130	0xbf095896	-0.53650796
131	0x3f818d24	1.0121198
132	0x3fb7ead9	1.4368545
133	0xbfe16c46	-1.7611167
134	0x3ecf9924	0.40546525
135	0xbf759627	-0.9593224
136	0x3f727af2	0.9471885
137	0xbff924c7	-1.9464349
138	0x3fa6771c	1.3005099
139	0x3f1fdb1a	0.624437
140	0x3e8f104a	0.27942115
141	0xbfc7a041	-1.5595781
142	0xbf5b8aaa	-0.8575846
143	0x3dd7326b	0.10507663
144	0xc02d3f5a	-2.7069917
145	0x3f9c0cd6	1.2191417
146	0x3f3ca07e	0.7368239
147	0x3f9c3081	1.2202302
148	0x3edc21a4	0.42994416
149	0xbee5666c	-0.44804704
150	0xbf9f2290	-1.2432423
151	0x3fc6b645	1.5524374
152	0xbd1018c1	-0.035179857
153	0x3f02f3ae	0.51153076
154	0xbf3ca452	-0.7368823
155	0x3f0b2276	0.5434946
156	0x3f6c2359	0.92241436
157	0x3f48b3c1	0.7839928
158	0x3e030995	0.12796624
159	0xbff746a0	-1.9318428
160	0xbf8773be	-1.0582197
161	0x3edaecb4	0.42758715
162	0x3d918859	0.071060844
163	0xbfd1714f	-1.6362704
164	0xc0270a4d	-2.6100037
165	0x3fd2b91d	1.6462742
166	0xbf964309	-1.1739208
167	0x40632cde	3.5496135
168	0x4008bad6	2.1364036
169	0xbfe1611c	-1.760776
170	0xbedb47b8	-0.42828155
171	0xbec2e139	-0.38062456
172	0x3d32c14e	0.04364138
173	0xbe02fd50	-0.12791944
174	0xbca29c30	-0.019849867
175	0x3f5734aa	0.84064734
176	0xbef78847	-0.4834616
177	0xbf223960	-0.633688
178	0x3f96c1b5	1.1777865
179	0x3ed7352a	0.42032748
180	0x3d399bdd	0.04531466
181	0xbfc9d92a	-1.5769398
182	0x3fb14e5d	1.385204
183	0xbf8391c2	-1.0278857
184	0x3ed61eef	0.41820475
185	0x3f6fbf02	0.9365083
186	0xbf079d61	-0.52974516
187	0x3f7c51bf	0.98562235
188	0x4010239a	2.252173
189	0x3f47dff6	0.7807611
190	0xbeaa4d38	-0.33262038
191	0xc01dbf40	-2.464798
192	0xbfb03524	-1.3766217
193	0xbf1ab894	-0.60437894
194	0x3e00b596	0.1256927
195	0xbf97b432	-1.1851866
196	0xbfadb944	-1.3572164
197	0xbf8e0158	-1.109416
198	0x3ffecd0f	1.9906329
199	0x400c4318	2.191595
200	0x40206299	2.506018
201	0xbec4289c	-0.38312232
202	0xbddb909c	-0.107209414
203	0xbf267119	-0.65016323
204	0x3d9efc6b	0.07762989
205	0x3f3a6615	0.72812015
206	0xbeeaeb5b	-0.45882687
207	0x3f1ca311	0.6118632
208	0xbfe65b51	-1.7996618
209	0x3fd1767e	1.6364286
210	0x3ffb1017	1.9614285
211	0xbec166b5	-0.37773672
212	0x400cf936	2.2027106
213	0x3f9ad613	1.209658
214	0x3f02522d	0.5090664
215	0x3ee40946	0.44538325
216	0x3f1d1930	0.6136656
217	0xbe85a249	-0.26100376
218	0xbf4d9442	-0.8030435
219	0xbf8686fa	-1.0509942
220	0x3ef59f4d	0.479731
221	0xbe10097d	-0.1406612
222	0xbf858446	-1.0430992
223	0x3f049ec2	0.51804745
224	0xbe991d1c	-0.2990502
225	0xbf73727e	-0.95096576
226	0xbeecafdc	-0.4622792
227	0xbe8ed73c	-0.27898586
228	0x3e3f59d3	0.18686609
229	0x3fe28f48	1.7699976
230	0xbf72eece	-0.9489564
231	0xbfc66939	-1.5500861
232	0xbc7f82db	-0.015595163
233	0x3deb60aa	0.114930466
234	0x3d3a4787	0.04547837
235	0x407346e3	3.8012016
236	0x3ed6e2cd	0.4196991
237	0xbe7eb867	-0.24875031
238	0x403fda43	2.9976966
239	0x3f8c462a	1.0958912
240	0xbec04926	-0.37555808
241	0xc000abe0	-2.0104904
242	0x401445f2	2.3167691
243	0x3f51a628	0.8189416
244	0x4015b09f	2.338905
245	0xbf1bd030	-0.60864544
246	0x3fc81d31	1.5633909
247	0x3f653242	0.8952981
248	0x3fbd8ee6	1.4809234
249	0x3e9af67e	0.30266184
250	0x3f8a42f6	1.0801685
251	0xbf9bd73c	-1.2175059
252	0xbd94f8b4	-0.07273999
253	0x3dfc31e5	0.12314204
254	0xbeec1b91	-0.46114781
255	0xbe8c4482	-0.27396017

bn1.running_var f4 [256]
0	0x3f69a5b3	0.9126846
1	0x40b859a2	5.7609415
2	0x415d228e	13.820936
3	0x3f4e6b47	0.8063244
4	0x3fa77a59	1.3084213
5	0x40e03015	7.0058694
6	0x41000911	8.0022135
7	0x406b1b23	3.6735313
8	0x408aa229	4.332295
9	0x3fc8afb0	1.5678616
10	0x3e881ee9	0.26586083
11	0x3ffe1540	1.9850235
12	0x3fa28bc6	1.2698905
13	0x40a28768	5.079029
14	0x3fd46e81	1.6596223
15	0x40a42f9e	5.1308126
16	0x3fbc93a1	1.4732553
17	0x40b979db	5.796125
18	0x41043a2f	8.264205
19	0x3f920968	1.140912
20	0x3ff8c777	1.9435872
21	0x415059fc	13.021969
22	0x401e2894	2.4712267
23	0x3f78cff8	0.97192335
24	0x3f95d592	1.1705801
25	0x40cc407e	6.3828726
26	0x413a151d	11.630155
27	0x40cc5110	6.3848953
28	0x40371367	2.8605592
29	0x409f0b73	4.9701476
30	0x3ecc29a1	0.3987551
31	0x3f787c77	0.9706492
32	0x414313a4	12.192295
33	0x4067c6c2	3.6215062
34	0x3f373bfc	0.71575904
35	0x401a859a	2.4144044
36	0x413475df	11.278777
37	0x3f283909	0.6571203
38	0x400ba0c8	2.1816883
39	0x407eb84e	3.979999
40	0x3fee37ca	1.8610775
41	0x403263fa	2.787352
42	0x3f2de556	0.67928064
43	0x3f6995f7	0.91244453
44	0x3fb33302	1.3999941
45	0x3f68f03b	0.9099156
46	0x4064a230	3.5723991
47	0x4018ac2a	2.385508
48	0x412ff60b	10.997569
49	0x403e48f0	2.9732018
50	0x404807af	3.125469
51	0x3f33a9fa	0.7018124
52	0x4171f979	15.123406
53	0x4104569f	8.271148
54	0x3e6b6085	0.22986038
55	0x409af2f5	4.842158
56	0x40f6da97	7.7141833
57	0x3f2340cb	0.6377074
58	0x4059cf10	3.403263
59	0x40867ed9	4.2029843
60	0x4068b201	3.6358645
61	0x3f436246	0.7632183
62	0x41166804	9.400394
63	0x3f8eea1e	1.1165197
64	0x40bc037b	5.875425
65	0x401498d8	2.3218288
66	0x3f0d67dd	0.5523661
67	0x408d5caf	4.417564
68	0x400b8dd0	2.1805305
69	0x3f539ca3	0.82660884
70	0x4115e8a3	9.369296
71	0x40f99434	7.799341
72	0x3ffaf4ad	1.9605919
73	0x3f91c1d1	1.1387273
74	0x4019e719	2.40473
75	0x4023b441	2.5578768
76	0x3e3b6a90	0.18302369
77	0x401b88b7	2.4302194
78	0x4015aee8	2.3388004
79	0x40c096a2	6.018388
80	0x407fbe3c	3.995986
81	0x411a593e	9.646788
82	0x401d138e	2.4543185
83	0x3f9b5148	1.213418
84	0x3fc4e0a3	1.5381054
85	0x3fa51a8b	1.2898725
86	0x3f9148b8	1.1350317
87	0x40d71f25	6.722552
88	0x3e6f028d	0.23340817
89	0x40dcb0e6	6.896594
90	0x3f763ac6	0.9618343
91	0x3ffa3a8b	1.9549116
92	0x401019f1	2.2515833
93	0x401a9172	2.4151273
94	0x3fb74b1f	1.43198
95	0x40567999	3.3511717
96	0x400aba17	2.167608
97	0x3f007aeb	0.5018756
98	0x402e8451	2.726826
99	0x41a4c4ce	20.596096
100	0x3fba723a	1.4566109
101	0x40e6daba	7.2142
102	0x4074da37	3.8258188
103	0x4067419d	3.6133797
104	0x3f39966d	0.72495157
105	0x40d5ba75	6.679011
106	0x3fe85d12	1.8153403
107	0x3fbd8338	1.480567
108	0x4034adfd	2.8231194
109	0x3f03ae50	0.51437855
110	0x3fc30ac3	1.5237659
111	0x4039ba48	2.9019947
112	0x410c770d	8.779065
113	0x3e718c63	0.2358871
114	0x3e804e35	0.25059667
115	0x41137348	9.215645
116	0x3f9608b6	1.1721408
117	0x40a57acd	5.1712403
118	0x408e1030	4.439476
119	0x3fdd0367	1.7266663
120	0x3e717f33	0.23583679
121	0x3faa394e	1.3298738
122	0x4063c2e5	3.5587704
123	0x40b607b6	5.6884413
124	0x3fcadec5	1.5849234
125	0x4025d0c6	2.5908675
126	0x40a46afd	5.13806
127	0x41192878	9.57238
128	0x3f5f16e8	0.8714433
129	0x40a39797	5.1122546
130	0x406280dd	3.5391152
131	0x4086d89b	4.213941
132	0x418ada9a	17.356739
133	0x3fec3fcb	1.8456968
134	0x3ff0c94f	1.8811435
135	0x40c479e2	6.1398783
136	0x40cfa50e	6.4888983
137	0x4026928b	2.6026943
138	0x40038bd9	2.0554106
139	0x40a8e141	5.277497
140	0x40c6e5b7	6.2155414
141	0x3f87aa8c	1.0598922
142	0x40996cbe	4.794524
143	0x3f3d26b8	0.73887205
144	0x400ca4d4	2.1975603
145	0x3fc4a98d	1.5364243
146	0x3fb0846f	1.3790416
147	0x40504b22	3.2545857
148	0x40d4cfd3	6.650369
149	0x3f9c81a8	1.2227068
150	0x3f928e87	1.1449746
151	0x40c3e2dd	6.1214433
152	0x3f6d5d60	0.92720604
153	0x400e4fb3	2.2236145
154	0x40027878	2.0386028
155	0x3f9c9eb1	1.2235929
156	0x3fbe0774	1.4846025
157	0x41882cdf	17.02191
158	0x4094c43c	4.6489544
159	0x3fbf7b87	1.4959573
160	0x40b39d63	5.6129622
161	0x3e9bb0ab	0.30408224
162	0x4057ea6b	3.3736827
163	0x3fea4ff5	1.8305651
164	0x40249f99	2.572241
165	0x41468828	12.408241
166	0x405c6938	3.443922
167	0x40440b3e	3.0631862
168	0x3f08857a	0.5332867
169	0x4031a6af	2.7757986
170	0x3e5f00e1	0.21777679
171	0x3e97794d	0.29584733
172	0x3fef244b	1.8682951
173	0x3f859ab7	1.043784
174	0x408367e4	4.106432
175	0x3f892b83	1.0716404
176	0x40b633d1	5.6938252
177	0x3e0cd52a	0.1375319
178	0x41351d05	11.319585
179	0x405a84b9	3.4143507
180	0x3ecb85ce	0.39750522
181	0x3fb5d083	1.4204258
182	0x3f12dca8	0.57367945
183	0x3fb2912e	1.3950555
184	0x3f412ffd	0.7546385
185	0x40b3fee8	5.6248665
186	0x4027dd63	2.6228874
187	0x41497c2d	12.592816
188	0x3fcb0330	1.5860348
189	0x3f9743fa	1.181762
190	0x3f12ae1f	0.5729694
191	0x3f058d85	0.52169067
192	0x40728ae8	3.7897282
193	0x3fa4f0d4	1.2885995
194	0x3fab9696	1.340533
195	0x400330cf	2.049854
196	0x3fbf24a2	1.4933054
197	0x4115486c	9.330181
198	0x400956c7	2.1459215
199	0x40dbd059	6.869183
200	0x4151a88e	13.103651
201	0x3f2592f3	0.6467735
202	0x3fcbabbd	1.5911785
203	0x3f73cac3	0.95231265
204	0x412c2426	10.758825
205	0x3faacae5	1.3343168
206	0x40253c0a	2.5817895
207	0x3fd3988a	1.6530926
208	0x3f79a3d8	0.9751563
209	0x409d4cab	4.915609
210	0x40aa1292	5.314767
211	0x3ef1c661	0.47221664
212	0x3fa29522	1.2701762
213	0x3f9ad6c6	1.2096794
214	0x40059253	2.087056
215	0x3efb8054	0.49121344
216	0x4149e2d7	12.617881
217	0x3f947be9	1.1600314
218	0x3f437e23	0.76364344
219	0x402250e1	2.5361865
220	0x400dc57a	2.215178
221	0x3f00da04	0.50332665
222	0x401fddd2	2.4979138
223	0x3e6722f5	0.22571929
224	0x3f7dc393	0.9912655
225	0x3f9b5004	1.2133794
226	0x40ab8073	5.35943
227	0x403a11f7	2.9073465
228	0x3e0866df	0.13320492
229	0x3eeb0864	0.4590484
230	0x3f3fa2be	0.748577
231	0x3f076d3c	0.52901053
232	0x3f5592dc	0.83427215
233	0x3f503aa1	0.8133946
234	0x3fbbc30a	1.4668896
235	0x3f849b14	1.0359826
236	0x3fb60689	1.4220744
237	0x3f383d8d	0.7196892
238	0x414ca755	12.790853
239	0x3f4140e6	0.7548965
240	0x4065a20c	3.5880156
241	0x4010fd29	2.2654517
242	0x413ae43a	11.680719
243	0x3e5945c0	0.21218014
244	0x3fae5734	1.3620362
245	0x40044c6f	2.0671651
246	0x413d56fc	11.833736
247	0x41236979	10.21325
248	0x410c3c7a	8.764765
249	0x4190a5de	18.08099
250	0x410feb71	8.994981
251	0x402f164f	2.7357366
252	0x3e7a322a	0.24433199
253	0x40b99a63	5.800096
254	0x4134eccd	11.307813
255	0x40b8bf5f	5.7733607

fc2.weight f4 [256, 256]
0	0x3d3554fa	0.044270493
1	0x3e117012	0.14202908
2	0x3d8dd8ac	0.069260925
3	0x3e0e255d	0.1388144
4	0xbc4ca590	-0.012490645
5	0xbce9e71e	-0.028552588
6	0x3bb883c4	0.005630942
7	0x3d6f9386	0.0584903
8	0xbc9f5e25	-0.019454071
9	0xbd52127b	-0.051287156
10	0x3e3f5cb6	0.1868771
11	0x3ce74e3b	0.028235545
12	0xbbde07a1	-0.006775812
13	0x3da015c2	0.0781665
14	0x3abe75bd	0.0014530938
15	0x3d4d9801	0.05019379
16	0xbde1d2f8	-0.11026567
17	0x3d125125	0.035721917
18	0x3cca2ede	0.024680551
19	0x3d88b921	0.066759355
20	0xbc8a5fe1	-0.016891422
21	0xbc09a80f	-0.008401885
22	0x3c4fc84b	0.012682031
23	0x3d8e71df	0.06955313
24	0xbc4ddd79	-0.01256501
25	0xbc9e822d	-0.019349182
26	0xbd87eb61	-0.06636692
27	0x3c0a1596	0.008427998
28	0xbafd599f	-0.0019329077
29	0xbe051343	-0.12995629
30	0xbd16a641	-0.036779646
31	0xbe05de37	-0.1307305
32	0xbc8021a2	-0.015641037
33	0x3db35db8	0.0875811
34	0x3a3301d8	0.0006828583
35	0xbbe99288	-0.0071280636
36	0x3bd22e28	0.0064141937
37	0x3c766457	0.015038571
38	0xbdd5c074	-0.10437098
39	0xbb55229e	-0.0032521854
40	0x3d1b2ba2	0.03788341
41	0xbda69cb8	-0.081353605
42	0xbe11498c	-0.14188212
43	0xbdcf9e48	-0.10137612
44	0xbb356a94	-0.0027681934
45	0xb78802fd	-1.6213855e-05
46	0x3da19bc2	0.078910366
47	0x3d533694	0.05156572
48	0x3d1a5078	0.037674397
49	0xbcdeb7bc	-0.02718722
50	0xbd052cd3	-0.03251345
51	0x3d3e1f62	0.046416648
52	0xbd22ace1	-0.03971565
53	0xbd0b4670	-0.03400272
54	0xbd731ec7	-0.059355523
55	0x3d8861da	0.06659289
56	0xbc876749	-0.016528742
57	0xbd16565a	-0.036703445
58	0xbd4f4978	-0.050607175
59	0x3d81e17d	0.063418366
60	0xbd5a2085	-0.05325367
61	0x3da4c9f1	0.0804633
62	0x3d1ff83e	0.0390551
63	0x3e193a8c	0.1496374
64	0xbc0adde6	-0.008475756
65	0xbd3b7722	-0.04576791
66	0x3d37d332	0.044879146
67	0xbd2513af	-0.040301975
68	0x389d4861	7.499825e-05
69	0xbdc3b7dd	-0.095565535
70	0xbcb6bcde	-0.022306856
71	0x3cb57f8a	0.022155542
72	0xbc9cd1fc	-0.019143097
73	0xbd203f21	-0.039122704
74	0x3d0d0bf2	0.03443522
75	0x3d4dfc8b	0.050289672
76	0xbdd7d793	-0.105391644
77	0x3d2883e1	0.041141395
78	0x3d65557a	0.05598972
79	0x3b4d5a06	0.0031334176
80	0xbd5a4338	-0.05328676
81	0xbd0737e1	-0.033012275
82	0xbd34eeec	-0.044173166
83	0xbacb25a8	-0.0015498893
84	0x3dba6b3e	0.09102486
85	0x3d4afb52	0.049556084
86	0x3d96bea4	0.073605806
87	0xbb508fb9	-0.0031823947
88	0xbccbc59a	-0.024874497
89	0x3d73887b	0.05945633
90	0x3da14d3c	0.078760594
91	0x3d935da7	0.07195597
92	0x3c970112	0.018433128
93	0xbd7b58bd	-0.061363924
94	0x3d290b1b	0.041270357
95	0xbd44c02a	-0.048034824
96	0x3c5a0daf	0.0133089265
97	0x3c3b61d6	0.0114369
98	0xbcee7c75	-0.02911208
99	0xbd3468d5	-0.044045288
100	0xbc4a1625	-0.012334381
101	0xbc0a635c	-0.008446541
102	0x3ccbd964	0.024883933
103	0x3cf10e4a	0.029425759
104	0x3dddb478	0.10825437
105	0x3dae7a75	0.085194506
106	0x3c8e2e8a	0.017356176
107	0xbd17c526	-0.03705325
108	0x3d3c9c94	0.046047762
109	0xbd794a0b	-0.06086163
110	0x3d48e067	0.04904213
111	0x3d964545	0.07337431
112	0x3c2ec0cd	0.0106660845
113	0x3d83e936	0.06440966
114	0xbc5636fc	-0.013074633
115	0xbceae0b7	-0.028671606
116	0x3ccdfaa6	0.025143933
117	0x3cd80373	0.026368832
118	0xbd8e769c	-0.06956217
119	0xbd0cc950	-0.034371674
120	0x3e79ec83	0.24406628
121	0x3cb92a21	0.022603096
122	0x3da84523	0.08216312
123	0xbd1c1653	-0.038107228
124	0x3ce3ec3d	0.027822608
125	0x3d29cfeb	0.04145805
126	0xbb22483e	-0.0024762298
127	0xbd28249f	-0.04105055
128	0x3c5f6132	0.013634013
129	0x3cd8a911	0.026447805
130	0x3d34234b	0.04397897
131	0xbdecc265	-0.11560515
132	0x3d10eb94	0.035380915
133	0xbe1658e4	-0.14682347
134	0xbd5047e4	-0.05084981
135	0xbc45a1b0	-0.012062475
136	0xbd11fcbd	-0.03564142
137	0x3dbeb50f	0.09311878
138	0x3d69b5b2	0.057058044
139	0xbd73ebfa	-0.059551217
140	0x3d39dad0	0.04537469
141	0x3d027395	0.03184851
142	0xbd19bf50	-0.037535965
143	0x3d54c6cc	0.0519474
144	0xbcde372b	-0.027125916
145	0x3b851f6a	0.0040625827
146	0x3cf8f036	0.030387979
147	0xbd752f44	-0.05985953
148	0xbd3dc661	-0.046331767
149	0x3c8f756c	0.017512046
150	0x3cdf2e1f	0.027243672
151	0xbb0bfd49	-0.0021360687
152	0xbc7f9c5d	-0.015601245
153	0xbda4d043	-0.08047535
154	0x3b00b152	0.001963694
155	0xbe4fcbd5	-0.202926
156	0xbcb7f39b	-0.022455027
157	0xbc558488	-0.013032086
158	0xbdb8960e	-0.09012996
159	0x3d16c4be	0.03680872
160	0x3cde37fc	0.027126305
161	0x3d7127cf	0.058875855
162	0xbd1e562a	-0.03865639
163	0x3ad1f630	0.0016018804
164	0x3c9a3428	0.018823698
165	0xbd420069	-0.047363672
166	0x3d035648	0.032064706
167	0xbd33b68d	-0.043875266
168	0xbc376cb4	-0.01119535
169	0xbd06ed80	-0.03294134
170	0xbd8683a3	-0.065680765
171	0x3ce94291	0.028474124
172	0x3cc52503	0.0240655
173	0x3c19cb55	0.009386857
174	0xbd54bcbd	-0.051937807
175	0x3d0bcb96	0.0341297
176	0x3cc6f79f	0.024287997
177	0xbdc4bbb1	-0.09606112
178	0xbd8be4e9	-0.068307705
179	0xbd5084de	-0.050907962
180	0x3bd1603d	0.0063896463
181	0x3d3fa753	0.046790432
182	0x3ceca34b	0.028886458
183	0x3c74b85b	0.014936532
184	0xbd6ef99a	-0.058343507
185	0x3cc6e5b9	0.024279462
186	0xbceacce4	-0.028662153
187	0x3cc0f58d	0.023554588
188	0xbd369620	-0.044576764
189	0xbdb332ba	-0.0874991
190	0x3c1755a6	0.009236729
191	0xbd9a0e7a	-0.075222924
192	0xbc5f2b7a	-0.013621205
193	0x3cff64fe	0.031176087
194	0x3cfde922	0.030994955
195	0xbccac1e8	-0.024750665
196	0x3d023eb4	0.03179808
197	0xbc931db2	-0.017958496
198	0xbc638fe9	-0.013889291
199	0xbb689c47	-0.003549354
200	0x3cfb3e68	0.030669406
201	0xbdb7ce6d	-0.089749195
202	0xbcced7f6	-0.025249463
203	0x3bbe29bc	0.005803315
204	0xbdca72f4	-0.09885207
205	0x3bdbfeeb	0.006713738
206	0x3cbb3b66	0.022855472
207	0xbdbcedfc	-0.092250794
208	0x3c8133a6	0.015771698
209	0xbe652198	-0.22376096
210	0xbd8c7ee1	-0.06860138
211	0xbc2e3591	-0.010632888
212	0x3d5bb834	0.053642467
213	0x3d5878e9	0.052849684
214	0x3ba48490	0.0050206855
215	0x3d500b1e	0.050791852
216	0xbd7b5005	-0.06135561
217	0x390af34a	0.00013251338
218	0xbd1d40cd	-0.038391877
219	0xbd1a9b00	-0.037745476
220	0xbe2c9377	-0.16853128
221	0xbdad5955	-0.08464304
222	0xbcc416c3	-0.023936635
223	0xbd30992c	-0.043114826
224	0xbcb73b3f	-0.022367118
225	0xbd152964	-0.036416426
226	0x3c8a93e1	0.016916217
227	0x3d8ae31a	0.067815974
228	0x3d1563cd	0.03647213
229	0xbd40a232	-0.04702968
230	0xbbf4080b	-0.007447248
231	0xbd7e5c5c	-0.0620998
232	0x3cb6b5bb	0.022303453
233	0x3d5978b0	0.053093612
234	0x3d05752b	0.032582443
235	0x3c3cc3ba	0.011521274
236	0xbd18d45e	-0.037311904
237	0x3dbec1af	0.09314286
238	0xbd00cf72	-0.031447835
239	0x3ca66d16	0.020315688
240	0x3d83f7c4	0.06443742
241	0xbd671bb8	-0.05642292
242	0xbd6d642c	-0.05795686
243	0x3d7b8eaf	0.06141537
244	0xbd81cb6c	-0.06337628
245	0xbda7fb47	-0.08202224
246	0x3d0bb3fb	0.03410719
247	0x3d4a7d68	0.049436003
248	0xbc1fc0e4	-0.009750579
249	0x3c8589ec	0.016301118
250	0xbce4b631	-0.027918907
251	0xbd55a381	-0.052157883
252	0xbdd7a0c5	-0.10528711
253	0xbc4a34cd	-0.01234169
254	0x3bb6d7dd	0.005579932
255	0xbdb9a9dd	-0.09065602
