p3_collab-compet/checkpoint_critic.pth (torch_old, 297420 bytes, 9 tensors)

fc1.weight f4 [256, 24]
0	0x3fdd050a	1.7267163
1	0xc01ee0ec	-2.4824781
2	0xbea925b7	-0.33036587
3	0xbfdc1e4e	-1.7196748
4	0xbfb334bd	-1.400047
5	0xc0975543	-4.729158
6	0xbec87fc7	-0.39159986
7	0xbfdd174c	-1.7272735
8	0x400a105e	2.157249
9	0xc014a2bd	-2.3224328
10	0xbe148864	-0.14505154
11	0x3c967662	0.018366996
12	0xbf5feea6	-0.87473524
13	0xc0160d1a	-2.3445497
14	0xbd6b5084	-0.057449833
15	0x3ced0cd4	0.028936781
16	0x4013e224	2.3106775
17	0xc036cdcf	-2.8563116
18	0xbe0dc7d2	-0.13845757
19	0xbef08dbf	-0.46983144
20	0xbf373ff6	-0.7158197
21	0x3f4f4765	0.80968314
22	0xbdee1a0a	-0.1162606
23	0xbedce7c1	-0.43145564
24	0xbda5952b	-0.08085092
25	0x3ec54b98	0.38534236
26	0x3bdc7e1e	0.0067289015
27	0x3e47dadd	0.19517083
28	0xbd39fa4b	-0.045404714
29	0xbdfd3832	-0.12364234
30	0xbc51c41a	-0.012803102
31	0x3e0efc6a	0.13963476
32	0xbd0a97f0	-0.033836305
33	0x3f037c4b	0.5136153
34	0xbd06e665	-0.032934565
35	0x3e2fc916	0.17166552
36	0x3ca68a26	0.020329546
37	0x3da7637b	0.08173271
38	0xbc0ce78a	-0.008600125
39	0x3e284807	0.16433726
40	0x3dc0dc0a	0.09416969
41	0x3f017252	0.50565064
42	0x3d300477	0.042973008
43	0x3cda728e	0.026665952
44	0xba5113a7	-0.0007975646
45	0xbe33e373	-0.17567234
46	0x3dd4fcd8	0.103997886
47	0x3d408ef9	0.04701135
48	0x3f488d2a	0.783404
49	0x3f6b0eb6	0.9181932
50	0xbd002a2b	-0.031290215
51	0xbfa84908	-1.3147287
52	0x3f6bf04c	0.9216354
53	0x3f6b1369	0.9182649
54	0xbc6d69c2	-0.014490547
55	0xbfac856e	-1.347822
56	0xbe5ae485	-0.21376236
57	0x3f93beeb	1.1542639
58	0x3e04ce73	0.12969379
59	0xbf8d98b2	-1.1062224
60	0xbea5a0ab	-0.32349142
61	0x40376f0c	2.8661528
62	0x3e08a126	0.13342723
63	0xbf8933d6	-1.0718944
64	0x3dabe1ed	0.08392701
65	0x3f4267bc	0.75939536
66	0x3dc4bc95	0.09606282
67	0xbf9842a9	-1.1895343
68	0x40946b9b	4.6381354
69	0x3f2c9423	0.6741354
70	0x3dfa5e59	0.12225027
71	0xbf9496d7	-1.1608533
72	0x3eda2dab	0.42612967
73	0x400513d0	2.0793343
74	0x3e29b55b	0.16573088
75	0xbf4f526d	-0.80985147
76	0x3ebfbaf0	0.3744731
77	0x40ca0a25	6.3137383
78	0x3e095feb	0.13415496
79	0xbf638063	-0.8886778
80	0x3f2d671f	0.67735475
81	0x3fe2c53b	1.771644
82	0x3df7400e	0.12072764
83	0xbf66f34c	-0.9021499
84	0x3d999c84	0.07500556
85	0x40a2f6b4	5.092615
86	0x3ceb2b84	0.028707273
87	0xbf67ca93	-0.9054348
88	0x3fbd5531	1.4791623
89	0x3fd0e2df	1.6319236
90	0x3e48ec44	0.19621378
91	0xc0058b00	-2.086609
92	0x3e4b2a4f	0.19840358
93	0x3f47b73d	0.78013974
94	0x3e2719d6	0.1631845
95	0xc00a022d	-2.1563828
96	0x3f8ec2cf	1.1153201
97	0x3f5d9d65	0.8656829
98	0x3eef3daa	0.46726733
99	0x3f82f7b5	1.0231844
100	0xbf9ad466	-1.2096069
101	0xbe13f981	-0.14450647
102	0x3eeb905e	0.4600858
103	0x3f834bb7	1.0257481
104	0xc03128cc	-2.768115
105	0x3fa0be0c	1.2557998
106	0x3e75f0fc	0.2401771
107	0x3f9b38f2	1.2126753
108	0x3ed2eee2	0.41197878
109	0xbf90f279	-1.1323997
110	0x3e963a0d	0.29341164
111	0x3f96018f	1.1719226
112	0xc09e79dc	-4.9523754
113	0x4007f9b3	2.1246154
114	0x3e073303	0.13203053
115	0xbe5f7fdd	-0.2182612
116	0x3ffa8195	1.9570795
117	0x3f402031	0.7504912
118	0x3e140f2f	0.14458917
119	0xbe501a76	-0.20322594
120	0x3e562435	0.2091225
121	0xc0671737	-3.610792
122	0x3edc3361	0.4300795
123	0x400a017b	2.1563404
124	0xbe69e3c1	-0.22840787
125	0xbe88922c	-0.2667402
126	0x3f031fbd	0.51220304
127	0x400a6cd8	2.1628933
128	0x3f64b465	0.8933776
129	0xbfc93c1e	-1.5721471
130	0xbee78907	-0.4522173
131	0x401c3008	2.4404316
132	0x3d061959	0.032739017
133	0xbec89f70	-0.3918414
134	0xbebbe049	-0.36694553
135	0x40189398	2.3840084
136	0x3ee678ff	0.45014188
137	0xbfa557d4	-1.2917428
138	0xbf4cdb38	-0.80022
139	0x3f54eb51	0.83171564
140	0xbd639217	-0.055559244
141	0xbecf5b09	-0.40499142
142	0xbf4a8bc4	-0.79119515
143	0x3f3a680d	0.7281502
144	0xbebef5d4	-0.37296927
145	0x3edeb717	0.4349906
146	0xbcd148f7	-0.025547488
147	0x3c058342	0.00814897
148	0xbf7fc754	-0.99913526
149	0x408b32ea	4.349965
150	0xbcbe39c6	-0.023220908
151	0x3d8d8fef	0.06912219
152	0x3da4fde6	0.0805624
153	0x3eebdd33	0.460672
154	0xbd67c746	-0.056586526
155	0x3ec33517	0.38126442
156	0x3ea3768c	0.31926382
157	0x406b0851	3.6723826
158	0xbd8bbaf3	-0.06822767
159	0x3eb7f669	0.35930184
160	0xbea401c1	-0.32032588
161	0x3eccb952	0.39985138
162	0xbd2f80e2	-0.04284752
163	0xbd9cb38e	-0.07651435
164	0x4084081b	4.1259894
165	0x3f83760d	1.0270401
166	0xbdd6df06	-0.10491757
167	0xbdb764c6	-0.08954768
168	0xbfd37c94	-1.6522393
169	0xbfd2fe3f	-1.648384
170	0x3d29ce90	0.04145676
171	0x3f129bd5	0.5726903
172	0x3fefa3fc	1.8721919
173	0x3fbaf64b	1.4606413
174	0x3d272105	0.040802974
175	0x3f039ddd	0.51412755
176	0xbeaba946	-0.33527583
177	0xbfd15ec3	-1.6357044
178	0xbe488530	-0.19582057
179	0xbe666c48	-0.22502244
180	0x3fac9a9d	1.3484684
181	0x4049982c	3.1499128
182	0xbdad779a	-0.08470078
183	0xbe76db74	-0.24107152
184	0xbfa02faf	-1.2514552
185	0xbfc5ebb3	-1.5462555
186	0xbe9a19ae	-0.30097717
187	0x3f0aa3f1	0.54156405
188	0x40462c7f	3.0964658
189	0x4057b3ef	3.3703573
190	0xbe8d8898	-0.27643275
191	0x3efa6796	0.48907155
192	0xbf7f8344	-0.9980967
193	0xc0711c99	-3.7673705
194	0xbdfbf222	-0.123020425
195	0x3e8186e8	0.25298238
196	0xbf7737fe	-0.9656981
197	0xc008d624	-2.13807
198	0xbe0b1166	-0.13580856
199	0x3e3e7f3f	0.18603228
200	0xbd20433c	-0.03912662
201	0xc04f33c7	-3.2375352
202	0x3e09a506	0.13441858
203	0xbdcdd467	-0.10050278
204	0xbfb5f04d	-1.4213959
205	0xbf6e85b4	-0.93172765
206	0x3db8d02d	0.090240814
207	0xbe21cc2d	-0.15800543
208	0xbec50db6	-0.38487023
209	0xc063caa4	-3.5592432
210	0x3cae88ca	0.02130546
211	0x3fb7ee03	1.436951
212	0xc0644d03	-3.5672004
213	0x3eda8347	0.42678282
214	0x3dc82d84	0.097743064
215	0x3fb43bd1	1.4080755
216	0x3b35847d	0.0027697377
217	0x3c66ab9d	0.014079002
218	0x3ce3c9cb	0.027806183
219	0x3e6993d3	0.22810297
220	0x3eb1e10a	0.34742004
221	0x3e6873ff	0.22700499
222	0x3b6d3d72	0.0036199954
223	0x3e87ffb7	0.26562282
224	0xbc930a29	-0.01794918
225	0x3d65928e	0.05604797
226	0xbe4b7012	-0.1986697
227	0x3f38ba56	0.72159326
228	0x3f0846f5	0.5323327
229	0x3d0f40c4	0.034973875
230	0xbe37e508	-0.17958462
231	0x3f36871a	0.712999
232	0xbdcaa6c2	-0.09895088
233	0x3dcf3407	0.10117345
234	0x3dad8576	0.08472721
235	0x3ee31870	0.44354582
236	0x3ebab605	0.36466995
237	0xbe60c982	-0.21951869
238	0x3daaebe4	0.08345774
239	0x3ece6032	0.40307766
240	0x3d16f637	0.036855903
241	0xbe330d88	-0.1748563
242	0x3c0be8af	0.008539363
243	0x3c31d190	0.010853186
244	0xbe6b9b96	-0.2300857
245	0x3cc1754d	0.023615504
246	0xbda91857	-0.082565956
247	0x3d9b200c	0.07574472
248	0x3d695763	0.056968104
249	0xbd14d933	-0.03633995
250	0xbdbc4e4e	-0.09194623
251	0x3ea5263f	0.32255742
252	0xbe177632	-0.14791182
253	0x3df65b13	0.1202909
254	0xbcc6c87d	-0.024265522
255	0x3e8cad1e	0.27475828

fc1.bias f4 [256]
0	0x3dd6767f	0.1047182
1	0xbe14bac6	-0.14524373
2	0x3e10e266	0.14148864
3	0xbe0ba8a1	-0.13638546
4	0x3e3b1355	0.18269093
5	0x3e0e2e47	0.13884841
6	0x3d95d1fc	0.07315442
7	0xbe4c75f6	-0.19966874
8	0xbda78b0c	-0.08180818
9	0x3dc39ec9	0.0955177
10	0xbe3e9cc5	-0.1861449
11	0x3dc7ab7d	0.09749506
12	0xbda83dc2	-0.08214904
13	0xbe189a3c	-0.14902586
14	0xbb11fc5b	-0.002227566
15	0x3d0024e0	0.031285167
16	0x3e1dfbae	0.1542804
17	0xbe0509f0	-0.12992072
18	0xbe29edc2	-0.16594604
19	0xbd8cc6f3	-0.06873884
20	0x3d1d9044	0.03846766
21	0xbdba4b94	-0.09096447
22	0xbd9f3159	-0.07773084
23	0xbd91f66b	-0.071270786
24	0x3db29af7	0.087209634
25	0x3cdb3ab7	0.026761396
26	0x3e373746	0.17892179
27	0x3e048c3e	0.12944123
28	0xbe3508b7	-0.17679106
29	0x3d5876d7	0.05284771
30	0xbe370b96	-0.17875513
31	0xbe40bf66	-0.18823013
32	0xbd916108	-0.07098585
33	0x3e504fea	0.20342985
34	0x3c95ae37	0.018271549
35	0xbe164919	-0.14676322
36	0xbe3c7cbb	-0.18406956
37	0x3e1d8e45	0.15386303
38	0x3e21dc70	0.15806746
39	0xbde88a67	-0.11354523
40	0x3e117838	0.14206016
41	0x3d9a6de8	0.07540494
42	0xbdd707dc	-0.10499546
43	0x3d7fe738	0.062476367
44	0x3bfe147b	0.0077539063
45	0xbd576456	-0.052585922
46	0xbd55b184	-0.052171245
47	0x3e1a9bee	0.15098545
48	0x3db46ecc	0.08810195
49	0x3db65bd7	0.08904236
50	0x3d7371b5	0.05943461
51	0x3e0ef895	0.13962014
52	0xbd55733c	-0.05211185
53	0xbb379083	-0.002800972
54	0x3e2cd597	0.16878353
55	0x3dfa9c09	0.122367926
56	0x3d4f9936	0.050683223
57	0xbdd4e284	-0.10394767
58	0xbd56dc60	-0.05245626
59	0x3d0342f8	0.03204629
60	0xbe012ba3	-0.12614302
61	0x3dbd5cec	0.09246239
62	0xbe01d21e	-0.1267781
63	0xbe145bd8	-0.1448816
64	0x3d9631fb	0.07333752
65	0xbdceb729	-0.10093529
66	0xbe50ec72	-0.20402697
67	0x3e031338	0.128003
68	0xbdaaaef6	-0.083341524
69	0xbd9e4b8a	-0.07729252
70	0xbdc27d26	-0.094965264
71	0xbdeef817	-0.11668413
72	0xbe0c6531	-0.13710476
73	0xbdb6c94b	-0.08925112
74	0xbe18e3e8	-0.1493069
75	0xbc91592c	-0.017742716
76	0x3d853aeb	0.06505378
77	0xbe01f861	-0.12692405
78	0xbe48b680	-0.19600868
79	0x3d91d668	0.07120973
80	0xbde6f403	-0.1127701
81	0x3d64addb	0.055829864
82	0xbc80b40e	-0.015710857
83	0x3d37aede	0.0448445
84	0xbb1725ca	-0.0023063296
85	0xbd82cab5	-0.063863195
86	0xbe221ec0	-0.15832043
87	0x3e0f9aff	0.1402397
88	0x3dc5d5e3	0.09659936
89	0x3cad3000	0.021141052
90	0x3e324f40	0.17413044
91	0x3e3fd57e	0.18733785
92	0xbe28383e	-0.16427705
93	0x3dd1f1a5	0.10251168
94	0x3e3ff7f5	0.18746932
95	0xbc3a9c93	-0.011389869
96	0xbe45d04e	-0.19317743
97	0xbd981a1b	-0.07426854
98	0x3c9b0d3f	0.018927215
99	0xbd3279cb	-0.043573182
100	0x3dc8d5b7	0.09806388
101	0x3da2cc43	0.07949116
102	0xbe46cca2	-0.19413999
103	0x3ce1aac8	0.027547255
104	0x3d04a6b9	0.03238556
105	0x3e05759c	0.13033146
106	0x3cd6bf3d	0.026214236
107	0x3de37da4	0.111079484
108	0x3d2b7ff9	0.04187009
109	0xbe0af1e4	-0.13568836
110	0xbe2211c6	-0.15827093
111	0xbd8e999f	-0.06962895
112	0x3a628b50	0.0008641975
113	0xbdf4101d	-0.11917136
114	0xbe392660	-0.18081045
115	0x3e330354	0.17481738
116	0x3cbbe4c5	0.022936234
117	0x3da16545	0.07880644
118	0xbdd4900a	-0.10379036
119	0x3d0a3c28	0.033748776
120	0xbc83fa0d	-0.016110444
121	0x3ddb4e70	0.1070832
122	0xbd985a77	-0.0743913
123	0x3e3a20ad	0.18176527
124	0x3c2daf10	0.01060082
125	0x3c0bf156	0.008541426
126	0x3e12adc5	0.143241
127	0xbbd8f447	-0.006620917
128	0x3d73850a	0.059453048
129	0xbc6868a9	-0.014185109
130	0x3e215f73	0.15759067
131	0xbe4b37ab	-0.19845454
132	0x3e49905b	0.19683973
133	0xbdf62e38	-0.12020534
134	0x3e4c53bd	0.19953819
135	0x3d8d919a	0.06912537
136	0xbe04ef8b	-0.12982003
137	0xbe32b0d6	-0.1745027
138	0x3d658412	0.056034155
139	0x3da9ac08	0.082847655
140	0xbe0eeb0c	-0.13956851
141	0x3e05303a	0.13006678
142	0xbdbee52c	-0.09321055
143	0x3e25384d	0.16134758
144	0x3d099348	0.033587724
145	0xbe32dc9a	-0.17466965
146	0x3d062e23	0.032758843
147	0xbd5d7584	-0.05406715
148	0x3d5d298a	0.053994693
149	0xbd9d24a8	-0.07673007
150	0x3e373126	0.17889842
151	0xbdee8c6c	-0.11647877
152	0x3e2bb569	0.16768421
153	0xbe4f44c0	-0.2024107
154	0x3e175a2d	0.14780493
155	0xbe0fee16	-0.14055666
156	0x3d1b472d	0.037909675
157	0xbd54cf8d	-0.05195575
158	0xbe500d40	-0.20317554
159	0x3e245da7	0.1605135
160	0x3d4650c7	0.04841688
161	0x3de87598	0.11350554
162	0xbdc80f44	-0.09768537
163	0xbd813ea2	-0.063107744
164	0xbdc0d354	-0.09415308
165	0xbe40ee71	-0.18840958
166	0x3d366b30	0.044535816
167	0x3d983236	0.07431452
168	0xbccacff9	-0.024757372
169	0xbe07fe4a	-0.13280597
170	0x3cc86f7f	0.024467228
171	0x3db32ad3	0.087484024
172	0x3c9eb56e	0.019373622
173	0xbe4f6b67	-0.20255814
174	0x3dccdecf	0.10003435
175	0x3e1827ee	0.14858982
176	0xbd88afa6	-0.06674127
177	0xbd36112b	-0.044449966
178	0x3b92536a	0.00446551
179	0x3d2a4187	0.041566398
180	0x3e396bb6	0.18107495
181	0x3e154f0d	0.14580937
182	0x3dba9204	0.091098815
183	0xbe09c7e6	-0.13455161
184	0x3dfabca0	0.122430086
185	0x3dcbd96c	0.09953579
186	0x3e43dbee	0.19126865
187	0xbda1c435	-0.07898752
188	0x3d9364a1	0.07196928
189	0x3e09f452	0.13472107
190	0x3dc3c4b6	0.09559004
191	0xbca6ec4b	-0.020376345
192	0xbd704d1a	-0.05866728
193	0xbd194980	-0.03742361
194	0x3de8e1d3	0.113711976
195	0xbd83f908	-0.06443983
196	0xbe4fe51f	-0.20302247
197	0xbd06ceda	-0.032912113
198	0xbe3f8ab7	-0.1870526
199	0xbe23e5db	-0.16005652
200	0x3e345a31	0.1761253
201	0xbe03919b	-0.12848513
202	0x3df2c323	0.118536256
203	0xbdfbc813	-0.122940205
204	0xbe4d5981	-0.20053674
205	0x3b92d00e	0.0044803685
206	0x3dd6e084	0.10492042
207	0x3c1bc40b	0.0095071895
208	0x3df015f0	0.11722934
209	0xbc080225	-0.008301293
210	0xbe14e1f0	-0.14539313
211	0x3dff8936	0.12477343
212	0x3d0f661e	0.035009496
213	0xbde7462d	-0.11292682
214	0xbcac0a0d	-0.021000886
215	0x3d939046	0.07205252
216	0xbd2fe827	-0.042946007
217	0xbc161f5a	-0.009162748
218	0x3d538700	0.051642418
219	0x3d85e434	0.06537667
220	0x3df07a1a	0.11742039
221	0xbd53e6ac	-0.051733658
222	0x3d78c3df	0.060733672
223	0x3d452737	0.0481331
224	0xbda06a65	-0.07832793
225	0x3d005894	0.031334475
226	0x3be6a10f	0.0070382426
227	0xbe19c7fc	-0.15017694
228	0xbe3bd7f8	-0.18344104
229	0x3e362ea7	0.17791234
230	0xbdbf15ad	-0.09330306
231	0x3e18e9a3	0.14932875
232	0x3d2812fe	0.041033737
233	0x3ded7396	0.11594312
234	0xbce2d522	-0.02768952
235	0xbd317082	-0.043320186
236	0xbd9acfa8	-0.075591385
237	0xbe46a916	-0.19400439
238	0xba3ca4d5	-0.0007196193
239	0x3e301608	0.17195904
240	0x3d281b23	0.041041505
241	0xbd8b8088	-0.06811625
242	0xbe043265	-0.12909849
243	0xbd44ab65	-0.048015017
244	0xbdad84fe	-0.08472632
245	0x3dffc358	0.12488431
246	0x3dbd0f21	0.09231401
247	0x3d5818d9	0.05275807
248	0x3cf97163	0.030449575
249	0x3bede5aa	0.007260044
250	0xbddc370d	-0.107526876
251	0xbccab0fd	-0.024742598
252	0x3e05825f	0.13038014
253	0xbcd52c18	-0.026022002
254	0x3d90118c	0.07034597
255	0xbce8664e	-0.028369095

bn1.weight f4 [256]
0	0x3ea5cc91	0.32382634
1	0xbbf76d83	-0.0075508966
2	0x3f44d25e	0.76883495
3	0x3f637b8f	0.8886041
4	0x3f4fa2bf	0.81107706
5	0x3f13fe9a	0.57810366
6	0x3f6f0daa	0.93380225
7	0x3f690177	0.9101786
8	0x3f24835d	0.64262944
9	0x3d814526	0.06312017
10	0x3d8293e0	0.06375861
11	0x3f70d50f	0.940751
12	0x3f538bf0	0.826354
13	0x3f43968a	0.7640158
14	0x3d88002d	0.066406585
15	0x3e134771	0.14382721
16	0x3f2083db	0.62701195
17	0x3eca9dbd	0.3957347
18	0x3f46230a	0.77397215
19	0x3f3c2ecb	0.735089
20	0x3f85423f	1.0410842
21	0x3e2d3461	0.16914512
22	0x3d24ec55	0.040264446
23	0xbd8492a6	-0.064732835
24	0x3f3c823e	0.73636234
25	0x3f348a41	0.7052346
26	0xb9e493f9	-0.00043597797
27	0x3edf9630	0.4366927
28	0xb9ae1988	-0.00033206888
29	0x3f1d3683	0.61411303
30	0x3f081277	0.53153175
31	0x3f0af970	0.5428686
32	0x3e1915fc	0.14949793
33	0x3f5cf4ae	0.8631085
34	0x3cb12800	0.021625519
35	0x3f1afaf6	0.60539186
36	0x3f605d63	0.87642497
37	0x3d4878cf	0.048943337
38	0x3d38ae1d	0.045087922
39	0x3f91ad1b	1.1380953
40	0x3e1d5c7e	0.15367314
41	0x3ed3a1e3	0.41334447
42	0x3f35aecb	0.7096984
43	0x3f04ba25	0.51846534
44	0x3e637774	0.22213537
45	0x3f09c340	0.5381355
46	0x3ea49df2	0.32151753
47	0x3f2a6443	0.6655924
48	0x3e1fb937	0.15597998
49	0x3e46d574	0.19417363
50	0x3f473f03	0.77830523
51	0x3f43359d	0.7625368
52	0x3fa7ea84	1.3118443
53	0x3d850eac	0.06496939
54	0x3f6685dd	0.9004801
55	0x3dfa7432	0.12229194
56	0x3ef3bb74	0.47603953
57	0x3f2f5f20	0.68504524
58	0x3ec39500	0.38199615
59	0x3f8e6f2f	1.112768
60	0x3da07dbf	0.07836484
61	0x3c418d48	0.011813469
62	0x3f2efe52	0.6835681
63	0x3b67c33e	0.0035364176
64	0x3dbc7d5f	0.092036
65	0x3f1128a5	0.56702644
66	0x3ef6b00e	0.48181194
67	0x3da81edd	0.08209012
68	0x3f20574c	0.62633204
69	0x3e0fad6c	0.14030999
70	0x3f0436b8	0.51645994
71	0x3e035866	0.1282669
72	0x3f38704e	0.72046363
73	0x3d7246e5	0.05914964
74	0x3f303616	0.6883253
75	0xbd8f4703	-0.06995966
76	0x3f3b507e	0.73169696
77	0x3f44170e	0.7659768
78	0x3f1feb00	0.62467957
79	0x3b6b3c56	0.0035894117
80	0xbb3891d2	-0.0028163088
81	0x3e63dca3	0.22252135
82	0x3f16b11c	0.58864
83	0x3b00b3cf	0.0019638424
84	0x3f3b8a35	0.7325776
85	0x3f16f92b	0.5897395
86	0x3f002d66	0.5006927
87	0x3f25d242	0.6477395
88	0x3ed5be9e	0.41746992
89	0x3f37482d	0.71594507
90	0x3d2d8e26	0.04237189
91	0x3f840a37	1.0315617
92	0x3f65b5d8	0.89730597
93	0x3f6d38d6	0.9266485
94	0x3edcd1e5	0.43128887
95	0x3f35c5a8	0.71004725
96	0x3f8adca2	1.0848582
97	0x3f03b66e	0.5145024
98	0x3e8c7017	0.27429268
99	0x3e5f2f08	0.21795285
100	0x3f466424	0.7749655
101	0xbd77eacf	-0.060526665
102	0x3f15f35a	0.5857445
103	0x3e9ec705	0.31011215
104	0x3fa4fb35	1.2889162
105	0x3cc2511c	0.023720317
106	0x3f48c26e	0.78421676
107	0x3f41f526	0.7576469
108	0x3f328147	0.6972851
109	0xbcdfab80	-0.027303457
110	0x3f8bac7b	1.0912012
111	0x3eff5ee4	0.49877083
112	0x3cf6c5cb	0.030123612
113	0x3e531659	0.20613994
114	0x3e781075	0.24225028
115	0x3f837768	1.0270815
116	0x3f29ef26	0.66380537
117	0x3f29c9a4	0.66323304
118	0x3ef5a711	0.47979024
119	0x3f1cf951	0.61317927
120	0x3e67c9a1	0.22635509
121	0x3f3a15d2	0.72689545
122	0xbcd87d14	-0.02642683
123	0x3f187e85	0.59568053
124	0xbc06ce30	-0.00822787
125	0xbc650f37	-0.013980678
126	0xbd2413bb	-0.04005788
127	0x3e9c31a1	0.30506614
128	0x3eac19b2	0.33613354
129	0x3f33212f	0.6997251
130	0x3da29b36	0.079397604
131	0x3f1bdb59	0.6088157
132	0x3f1478c9	0.57996804
133	0x3e147723	0.14498572
134	0x3edf7436	0.4364335
135	0x3d173190	0.0369125
136	0x3f52eaea	0.823897
137	0x3ebcc903	0.3687211
138	0x3ed20a3e	0.4102344
139	0x3f21f7e2	0.63268864
140	0x3f58571a	0.84507906
141	0x3f666a60	0.90006065
142	0x3f37b77b	0.71764344
143	0x3edbffcb	0.42968592
144	0x3f88f992	1.0701163
145	0x3f5af728	0.8553338
146	0x3f38a4fe	0.7212676
147	0x3ce0a611	0.027422937
148	0x3ea00482	0.3125344
149	0x3ef6d885	0.48212066
150	0x3e8489bb	0.2588633
151	0x3fa5e2a7	1.2959794
152	0x3ce617a6	0.028087448
153	0xbbe6cac2	-0.0070432136
154	0x3d486c5c	0.048931465
155	0x3eeb0520	0.45902348
156	0x3f2c233b	0.6724126
157	0x3ebc7ce8	0.36814046
158	0x3f4f8dd6	0.810758
159	0x3eb2052c	0.3476957
160	0x3f2cc30d	0.67485124
161	0x3ed34ce2	0.41269594
162	0x3b995885	0.004679742
163	0x3d4c7fcd	0.049926568
164	0x3f7861a7	0.97024006
165	0x3aeac13b	0.001791037
166	0x3f6c7fa3	0.9238226
167	0x3e464074	0.19360524
168	0x3f1a2b1b	0.60222024
169	0x3c53282e	0.012887998
170	0x3f213962	0.62978184
171	0x3f0fdc81	0.5619584
172	0x3f2daabe	0.67838657
173	0x3f86f31e	1.0542943
174	0x3e5acfa7	0.21368276
175	0x3f4b8e0e	0.79513633
176	0x3f4ab00b	0.7917487
177	0x3f1bad1b	0.60811013
178	0x3f204eff	0.6262054
179	0x3f2e6ace	0.6813172
180	0xbac4e6f9	-0.0015022448
181	0x3d3ef16b	0.046616953
182	0x3e5e0700	0.21682358
183	0x3ec67276	0.38759202
184	0x3e55f047	0.2089244
185	0x3ed42c33	0.4143997
186	0x3f40bc62	0.7528745
187	0x3c428708	0.011873014
188	0x3de5815f	0.11206316
189	0x3d21932a	0.039446987
190	0x3f2c86a2	0.67392933
191	0x3e6a49c8	0.22879708
192	0x3ec3d1d4	0.38246024
193	0x3d2c4500	0.04205799
194	0xbcd87467	-0.026422692
195	0x3f853079	1.0405418
196	0x3f717705	0.94322234
197	0x3f38f35b	0.7224633
198	0x3f6bc8ea	0.92103446
199	0x3d4d29a7	0.05008855
200	0x3efe4075	0.49658552
201	0x3cc3140a	0.023813266
202	0x3f46cb55	0.7765401
203	0x3f0a2405	0.5396121
204	0xbce497cc	-0.027904414
205	0x3ef248b6	0.473211
206	0x3f1733c6	0.59063375
207	0x3f06c405	0.5264285
208	0x3aee1f4f	0.001816729
209	0x3f0e5364	0.55595994
210	0x3e46bf72	0.19408968
211	0xbc2a7581	-0.010403992
212	0x3f1bbe51	0.60837275
213	0x3f8dcffa	1.1079094
214	0x3d62779d	0.055289853
215	0xbd1d9f0f	-0.03848177
216	0x3f070d94	0.52755094
217	0x3e2d47c0	0.16921902
218	0x3f055aed	0.52091867
219	0x3e5cc761	0.21560432
220	0x3e1f0bef	0.15531896
221	0x3f479b20	0.77971077
222	0x3c26b8a5	0.010175859
223	0x3f160a6e	0.58609664
224	0x3e0def18	0.13860738
225	0x3f32fe2a	0.69919074
226	0x3ebeb666	0.37248534
227	0x3f5eac8c	0.86982036
228	0x3f3340ce	0.7002076
229	0x3f22bfae	0.6357373
230	0x3c5c234b	0.013436149
231	0x3ef908ee	0.48639625
232	0x3d4f8f9c	0.050674066
233	0x3f823360	1.0171928
234	0x3f44d895	0.7689298
235	0x3f9a845d	1.2071644
236	0x3f424163	0.7588102
237	0x3f38e7b0	0.7222853
238	0xbce0c1d0	-0.027436167
239	0x3eff66aa	0.49883014
240	0x3f31d215	0.69461185
241	0x3d1d320d	0.03837781
242	0xbed7745e	-0.4208097
243	0x3e9d5637	0.3072984
244	0x3f493ae8	0.7860551
245	0x3ba85ee2	0.005138264
246	0x3f6923be	0.91070163
247	0x3f04a0fb	0.51808137
248	0x3f0cea13	0.5504467
249	0x3d609f30	0.054839313
250	0x3d130e2c	0.035902187
251	0x3da2e0c5	0.07953028
252	0x3f2ad2a6	0.66727674
253	0x3f24ef5f	0.6442775
254	0x3d91f581	0.07126904
255	0x3e9d56f6	0.30730408

bn1.bias f4 [256]
0	0xbe03997e	-0.12851521
1	0xbd0ea82c	-0.03482835
2	0xbf7df2c7	-0.99198574
3	0xbe9b204e	-0.30298084
4	0xbf5b09f2	-0.8556205
5	0xbf87642d	-1.0577446
6	0xbf01d601	-0.5071717
7	0xbf6db75a	-0.928579
8	0xbf656479	-0.89606434
9	0xbee2639c	-0.4421662
10	0xbe5962f2	-0.21229151
11	0xbf0c7378	-0.5486369
12	0xbf8397e9	-1.0280734
13	0xbf3610bb	-0.7111928
14	0xbe950a00	-0.29109192
15	0xbf3dc070	-0.7412176
16	0xbfacac6e	-1.3490121
17	0xbf23d052	-0.63989747
18	0xbf8e6907	-1.1125802
19	0xbfadd6f2	-1.3581221
20	0xbf9ee7fe	-1.2414548
21	0xbf6735ed	-0.9031666
22	0xbe6f41c1	-0.23364927
23	0xbeb0360b	-0.34416232
24	0xbdf18bba	-0.11794229
25	0xbe7f9452	-0.24958923
26	0xbd0b9117	-0.034073915
27	0xbf39c67d	-0.72568494
28	0xbecfbc2c	-0.4057325
29	0xbefdd19d	-0.49573985
30	0xbf7f25a0	-0.99666786
31	0xbfaefddc	-1.3671222
32	0xbf1a2f37	-0.60228294
33	0xbf34f9cb	-0.70693654
34	0xbdd89e60	-0.10577083
35	0xbf02da6c	-0.51114535
36	0xbf2681cf	-0.6504182
37	0xbe55892f	-0.20853113
38	0xbe9c64f7	-0.3054578
39	0xbea86d38	-0.32895827
40	0xbf2ceae8	-0.6754594
41	0xbecb2b58	-0.39681506
42	0xbf0da0b6	-0.5532335
43	0xbf14f57b	-0.58187073
44	0xbdc1348d	-0.094338514
45	0xbf9bc6b2	-1.2170012
46	0xbeb49db5	-0.3527657
47	0xbed30ea0	-0.41222095
48	0x3db93742	0.09043743
49	0xbf2f6c86	-0.6852497
50	0xbf4d9ac8	-0.803143
51	0xbe0522a5	-0.13001497
52	0xbf5059b5	-0.8138688
53	0xbe7ffd84	-0.24999052
54	0xbf656dc4	-0.89620614
55	0xbf238eb3	-0.63889617
56	0xbf0c34c7	-0.5476803
57	0xbfbc7465	-1.4723021
58	0xbf1cb32c	-0.61210895
59	0xbf88ad06	-1.0677803
60	0xbea64c28	-0.32479978
61	0xbd524f15	-0.05134495
62	0xbfa31fa9	-1.2744037
63	0xbd10336d	-0.035205293
64	0xbea71851	-0.3263574
65	0xbe432c87	-0.19059955
66	0xbf292c03	-0.6608278
67	0xbe8e01de	-0.277358
68	0xbf704a28	-0.93863153
69	0xbede5435	-0.4342362
70	0xbcc83c50	-0.024442822
71	0xbf43c265	-0.764685
72	0xbf3c64d4	-0.7359135
73	0xbf073a4d	-0.52823335
74	0xbefccf04	-0.4937669
75	0xbed3093c	-0.41217983
76	0xbf9ffa6f	-1.2498301
77	0xbf22efd8	-0.6364722
78	0xbf9fd398	-1.2486448
79	0xbcb102ed	-0.02160784
80	0xbc58faf5	-0.013243427
81	0xbf489294	-0.7834866
82	0xbf9d2ff1	-1.2280256
83	0xbc76b7b4	-0.015058447
84	0xbf396b4e	-0.7242936
85	0xbf425ad1	-0.75919825
86	0xbf251f24	-0.6450064
87	0xbf54f510	-0.83186436
88	0xbeb51fb8	-0.35375762
89	0xbfae4100	-1.3613586
90	0xbf09ff04	-0.5390475
91	0xbf2ba6f4	-0.67051625
92	0xbfb38cf6	-1.4027393
93	0xbf2bdc2d	-0.67132837
94	0xbf30fdc9	-0.69137245
95	0xbf4e0e02	-0.80490124
96	0x3d76d251	0.060259167
97	0xbf131416	-0.57452524
98	0xbf5caa80	-0.8619766
99	0xbfa66dea	-1.3002293
100	0xbf79f028	-0.97632074
101	0xbee85348	-0.4537604
102	0xbfa49d64	-1.2860532
103	0xbf197e81	-0.59958655
104	0xbd770f9f	-0.06031763
105	0xbe33ceb4	-0.1755932
106	0xbf7e0044	-0.99219155
107	0xbfc5c452	-1.5450537
108	0xbf94bafe	-1.1619565
109	0xbe8a75ed	-0.27043095
110	0xbf46d1f7	-0.7766413
111	0xbf6b4273	-0.9189827
112	0xbf0d8833	-0.5528595
113	0xbf534892	-0.8253261
114	0xbf5b44cf	-0.8565187
115	0xbf8ed296	-1.1158016
116	0xbf8fd12b	-1.1235708
117	0xbf9c044f	-1.2188815
118	0xbcbc7096	-0.023002904
119	0xbf142bcc	-0.5787933
120	0xbf83fbcd	-1.0311219
121	0xbf99b75c	-1.2009082
122	0xbe9ca87b	-0.3059729
123	0xbfc445b9	-1.5333778
124	0xbd160ded	-0.036634374
125	0xbe04f955	-0.12985738
126	0xbe614419	-0.21998633
127	0xbe4f426d	-0.20240183
128	0x3cd42a2a	0.025899012
129	0xbf201717	-0.6253523
130	0xbf7bfa8b	-0.98429173
131	0xbf699c89	-0.9125448
132	0xbf7c2667	-0.984961
133	0xbf3fdc24	-0.7494528
134	0xbe7f571a	-0.2493557
135	0xbeb281dd	-0.34864703
136	0xbfc9ac4b	-1.5755705
137	0xbbf9f012	-0.0076274956
138	0xbfbb2251	-1.4619848
139	0xbf4cc66a	-0.79990256
140	0xbfb02917	-1.376254
141	0xbfa2f985	-1.2732397
142	0xbf3f7867	-0.74793094
143	0xbf1bd30d	-0.6086891
144	0xbf197bf6	-0.59954774
145	0xbf88f0e0	-1.0698509
146	0xbed48afc	-0.41512287
147	0xbe4cad4c	-0.19987983
148	0xbfa5c320	-1.2950172
149	0xbf00b393	-0.5027401
150	0x3e1ae729	0.15127243
151	0xbfa43c3e	-1.2830884
152	0xbf1acd30	-0.6046934
153	0xbef0dfcd	-0.47045746
154	0xbec4d2ad	-0.38441983
155	0xbed186e0	-0.40923214
156	0xbf36c8bb	-0.7140004
157	0x3dfd9cdd	0.12383435
158	0xbf7de06e	-0.9917058
159	0xbf37e9be	-0.7184104
160	0xbfa86448	-1.3155603
161	0xbf679c15	-0.9047254
162	0xbe9d83dc	-0.30764663
163	0xbe84c996	-0.25935048
164	0xbf81161c	-1.0084872
165	0xbd029640	-0.03188157
166	0xbf1155e3	-0.5677168
167	0xbf8fc554	-1.1232095
168	0xbed4c39e	-0.41555494
169	0xbe124b21	-0.14286472
170	0xbf767940	-0.9627876
171	0xbf82bbd8	-1.0213575
172	0xbfb6a339	-1.4268562
173	0xbf359372	-0.7092811
174	0xbd6bdc11	-0.05758292
175	0xbfac1088	-1.3442545
176	0xbf98ce51	-1.1937963
177	0xbf67be97	-0.9052519
178	0xbf88cb37	-1.0687016
179	0xbfa25166	-1.2681091
180	0xbd050fb4	-0.03248568
181	0xbf316900	-0.6930084
182	0xbdc6a33b	-0.096991025
183	0xbf0b37fd	-0.54382306
184	0xbf64fe9b	-0.89451
185	0xbf232498	-0.6372771
186	0xbfa93d30	-1.3221798
187	0xbe883cba	-0.2660883
188	0xbeec95b2	-0.46207958
189	0xbe821d7b	-0.25413117
190	0xbf7f6735	-0.99766856
191	0xbf6db7aa	-0.92858374
192	0xbf05fe5c	-0.52341247
193	0xbee9c56a	-0.45658427
194	0xbe42017b	-0.18945877
195	0xbf5870a4	-0.84546876
196	0xbe9dca8f	-0.30818602
197	0xbf71caef	-0.9445028
198	0xbeb482d7	-0.35256073
199	0xbf0ffda0	-0.56246376
200	0xbf4dcd54	-0.8039143
201	0xbe8f7c55	-0.28024545
202	0xbf42b758	-0.7606101
203	0xbebf0fc9	-0.3731673
204	0xbec4155a	-0.3829754
205	0xbeb0b004	-0.3450929
206	0xbf81e148	-1.0146875
207	0xbf49998b	-0.7874991
208	0xbe9d583e	-0.30731386
209	0xbf9cfb41	-1.2264177
210	0xbf7730e6	-0.9655899
211	0xbe936293	-0.28786144
212	0xbfa99252	-1.3247778
213	0xbf50af05	-0.8151706
214	0xbe5a7923	-0.21335272
215	0xbe2137e4	-0.15743977
216	0xbf60adce	-0.87765205
217	0xbf3ccbd1	-0.737485
218	0xbf817a92	-1.011553
219	0xbf9dc184	-1.2324681
220	0xbf4085a1	-0.752039
221	0xbee52443	-0.44754228
222	0xbeadfe38	-0.33983016
223	0xbf9e358b	-1.236009
224	0xbf09e838	-0.5386996
225	0xbfaa0f31	-1.3285886
226	0xbf0d2406	-0.5513309
227	0xbfe439fc	-1.7830195
228	0xbf8c7d0e	-1.0975664
229	0xbf3f24b4	-0.7466538
230	0xbea5fce2	-0.32419497
231	0xbe80ddb2	-0.2516914
232	0xbf14ea33	-0.5816986
233	0xbf509360	-0.81474876
234	0xbf5abb6f	-0.8544225
235	0xbe33ab5e	-0.1754584
236	0xbfa4ee74	-1.288527
237	0xbecfc09f	-0.40576646
238	0xbe38b5ab	-0.18038051
239	0xbe9882a7	-0.2978718
240	0xbf79ef7c	-0.9763105
241	0xbe353148	-0.1769458
242	0x3d4f47a1	0.05060542
243	0xbf8abea7	-1.0839432
244	0xbee02056	-0.4377467
245	0xbe46b9c8	-0.19406807
246	0xbe475c35	-0.19468768
247	0xbf3453e4	-0.70440507
248	0x3e7a83ba	0.24464312
249	0xbe4b1827	-0.19833432
250	0xbe48d669	-0.19613041
251	0xbe9bf5c7	-0.3046095
252	0xbefac050	-0.48974848
253	0xbf6971e5	-0.91189414
254	0xbf00be0f	-0.50290006
255	0xbd36d56b	-0.044637125

bn1.running_mean f4 [256]
0	0xc2a1456a	-80.635574
1	0xbfdae8f0	-1.7102337
2	0x41181a93	9.506488
3	0x41b179f3	22.184546
4	0x4275d282	61.455574
5	0xc190ea6a	-18.11446
6	0x42222b61	40.542362
7	0x427d9036	63.39083
8	0x4145211b	12.320582
9	0x3ecabfbb	0.39599404
10	0xbfe41171	-1.7817823
11	0x4288c12c	68.37729
12	0x42d13fe5	104.624794
13	0x424363b0	48.84735
14	0x40e98077	7.2969317
15	0x41af8e36	21.944439
16	0x41b0faf1	22.12253
17	0xc017ae8f	-2.3700292
18	0x429bbb2e	77.865585
19	0x41c40008	24.500015
20	0x420f00b4	35.750687
21	0xc182ef71	-16.366915
22	0x3ffc84d4	1.9728036
23	0x4031d202	2.7784429
24	0x400ea783	2.228974
25	0x420f2182	35.782722
26	0xbf0ee20d	-0.55813676
27	0xc29a4f74	-77.15518
28	0x40fd8a34	7.9231205
29	0x42aa9833	85.297264
30	0xc286c60b	-67.3868
31	0x41f2f1d9	30.36809
32	0x40a8784d	5.264685
33	0x42b31868	89.54767
34	0x3ff50f0e	1.9145219
35	0x42053f8d	33.31206
36	0x42f0ecfe	120.462875
37	0xc05439f3	-3.316037
38	0x4135cbb3	11.362231
39	0x421a892d	38.63396
40	0x41e61107	28.758314
41	0x42bb9ca4	93.80594
42	0x40957235	4.6701913
43	0x429a8cbf	77.274895
44	0xc1f6088e	-30.754177
45	0xc1e576b6	-28.682964
46	0x41d66c63	26.802923
47	0x423e6c86	47.60598
48	0x422ce406	43.22268
49	0x411d15b1	9.817796
50	0x42bd300f	94.593864
51	0x4226b0ba	41.672585
52	0x413ac5ae	11.673262
53	0x40851c8f	4.159736
54	0xc10c1c6e	-8.756941
55	0x3e2f4cb3	0.17119102
56	0x42f4f2aa	122.47395
57	0x42295240	42.330322
58	0x427563aa	61.34733
59	0x416d8c9b	14.8468275
60	0xc0970d1a	-4.7203493
61	0x3f9d5b74	1.2293534
62	0x42271385	41.769062
63	0x3f306263	0.68900126
64	0x413d3492	11.825335
65	0x42a8c03d	84.375465
66	0xc1806112	-16.047398
67	0x406956a7	3.6459138
68	0x429d316c	78.59653
69	0x428eadbf	71.33935
70	0x426a006d	58.500416
71	0x419458ee	18.543423
72	0x4280d2d0	64.41174
73	0x419b6456	19.423992
74	0x41e9de79	29.23363
75	0x414812e4	12.504612
76	0x42a22996	81.08122
77	0x423e7bf9	47.621067
78	0x41ef9192	29.94608
79	0x3fc33b65	1.5252501
80	0xbfc39cf8	-1.5282278
81	0x41556a45	13.338445
82	0x40e62a8c	7.1926937
83	0xc1439ede	-12.226286
84	0x42a25986	81.17485
85	0x422e4a8c	43.5728
86	0xc1a19fd9	-20.20305
87	0xc0cc226c	-6.379202
88	0xc1b247dd	-22.28509
89	0x41fda622	31.70612
90	0x41307da9	11.030679
91	0x42306005	44.09377
92	0x4041cdae	3.0281787
93	0x42300085	44.000507
94	0x422a0ac7	42.510525
95	0xc18afd34	-17.373634
96	0x3f8db8a7	1.1071976
97	0x42bb63a6	93.694626
98	0x423ac9ee	46.697197
99	0xc15795ca	-13.47407
100	0x40b0170e	5.5028143
101	0xc0c7b12f	-6.240379
102	0xc23539d6	-45.30648
103	0x42802b81	64.08497
104	0xc09c4d38	-4.884426
105	0xc08f23d5	-4.473124
106	0xc284a24f	-66.31701
107	0xc0d9a264	-6.801073
108	0x428e01f5	71.00382
109	0x4088a75a	4.2704287
110	0x42437ac1	48.869877
111	0xc24af25e	-50.736687
112	0xc012b9e7	-2.2925966
113	0x41d1e907	26.238783
114	0xc2000a90	-32.010315
115	0x4246f68c	49.74077
116	0xc22b4ee5	-42.827045
117	0x41af840f	21.939482
118	0xbfa2401f	-1.2675818
119	0x430e0918	142.03552
120	0x415589c0	13.34613
121	0x42035c16	32.839928
122	0xbf710144	-0.94142556
123	0x41529a86	13.162725
124	0xbf692d68	-0.9108491
125	0x3de7a5ae	0.11310898
126	0x3f4a4ca0	0.7902317
127	0xc242b0f4	-48.672806
128	0xc2330814	-44.75789
129	0x429b897f	77.76855
130	0x4134743e	11.278379
131	0x41d4f203	26.61817
132	0x42b27763	89.23318
133	0x411f6b26	9.963659
134	0x4230ea32	44.228706
135	0x40807083	4.0137343
136	0x422b256f	42.786556
137	0xc0483c86	-3.128694
138	0x4216d6f5	37.70992
139	0x42012d90	32.294495
140	0xc1ff2f7f	-31.898191
141	0x4255b91f	53.430782
142	0xc25270e6	-52.610252
143	0xc2553158	-53.298187
144	0x41ed35c8	29.65126
145	0x421d25cd	39.286915
146	0x41861dda	16.764576
147	0xbdbc5438	-0.09195751
148	0xbfcfacc2	-1.6224597
149	0xc1b83218	-23.02446
150	0xc00cc8a1	-2.1997454
151	0x41a1c430	20.220795
152	0x40b0968e	5.5183783
153	0x409e672b	4.9500937
154	0x40530477	3.2971475
155	0x42b1444b	88.633385
156	0x410583dc	8.344692
157	0x42e81d86	116.05766
158	0x4202604e	32.594048
159	0x4296b594	75.354645
160	0x42178cfc	37.88768
161	0xc295b9b7	-74.862724
162	0x3ffcf129	1.9761096
163	0x405bd531	3.4348872
164	0x406d5082	3.7080388
165	0x3e953fce	0.29150242
166	0x42a4f50d	82.478615
167	0xc23c29f8	-47.040985
168	0x4142de7b	12.1793165
169	0x3e802151	0.25025418
170	0x428cc240	70.379395
171	0xc073b15a	-3.8076997
172	0x42812219	64.5666
173	0x420d8d0b	35.387737
174	0x4209fc33	34.49629
175	0x42036cba	32.85618
176	0x4284743d	66.22703
177	0xc0bbb5fa	-5.865964
178	0x4057a949	3.3697073
179	0x41cd2106	25.641125
180	0x3e427cbe	0.18992898
181	0x419e633e	19.798458
182	0xc2560e88	-53.51419
183	0x421aa497	38.660732
184	0xc15a27e2	-13.634737
185	0x42367450	45.613586
186	0x425d72b8	55.36203
187	0x414088d5	12.033406
188	0x41a100f7	20.125471
189	0xbfea616c	-1.8310981
190	0x41f31c19	30.38872
191	0x4167443e	14.454161
192	0x41e01242	28.008915
193	0x3fff9cee	1.9969766
194	0x3feb10d6	1.8364513
195	0x41cc9af2	25.575657
196	0x42fd3ca0	126.61841
197	0x42e260e2	113.189224
198	0x407a0e51	3.9071238
199	0xc19909bf	-19.129759
200	0xc1af83c5	-21.93934
201	0x410d82dc	8.844448
202	0x4202a209	32.658237
203	0xc25d7a87	-55.369656
204	0x3fe15f42	1.7607195
205	0x4269a577	58.411587
206	0xc2c6a869	-99.328926
207	0x427c9f6b	63.15568
208	0xc0b686d6	-5.7039595
209	0xc258edf2	-54.23237
210	0xc2802a8f	-64.08312
211	0x40780ebd	3.8758996
212	0x429389a4	73.76883
213	0x42a4e10a	82.43953
214	0x409af4b0	4.842369
215	0xc0d94327	-6.7894473
216	0x4075f88c	3.843295
217	0xc096985a	-4.7060976
218	0xc283f3b6	-65.976
219	0xc2ba3a5f	-93.114006
220	0xc205d3fe	-33.457024
221	0x42802cbf	64.087395
222	0xc12149c0	-10.080505
223	0xc1eaf1b8	-29.368027
224	0x4172f91e	15.18582
225	0x42711b6c	60.27678
226	0xbeb0f290	-0.3456006
227	0xc287bb1d	-67.865456
228	0x416cb75d	14.794766
229	0x42a57ebe	82.74754
230	0x409f8b48	4.985752
231	0xc1355ca0	-11.335114
232	0xc01405ba	-2.3128495
233	0x41dbff9a	27.499805
234	0xc1fe6b4e	-31.802395
235	0x421c1000	39.015625
236	0x429b5db1	77.68299
237	0x42388071	46.12543
238	0x3e6e93f6	0.2329863
239	0x42954376	74.63176
240	0x41f3646d	30.424036
241	0x402c8e75	2.696195
242	0x410477af	8.27922
243	0x41c1417b	24.156973
244	0x42a1a6c2	80.8257
245	0xc100c596	-8.048239
246	0x42119b32	36.401558
247	0xc29628c9	-75.07966
248	0x426806bb	58.006573
249	0x40595e50	3.3963814
250	0x3eb08023	0.3447276
251	0xbe89e5d4	-0.26933157
252	0x406ab36f	3.6672018
253	0x4235c323	45.440563
254	0xbed5309b	-0.41638646
255	0x428a81b4	69.25333

bn1.running_var f4 [256]
0	0x4487631e	1083.0974
1	0x41947798	18.558395
2	0x449a76e7	1235.7157
3	0x4445fa18	791.9077
4	0x4410c853	579.13007
5	0x44e24225	1810.067
6	0x440ed397	571.3061
7	0x44c98c8c	1612.3921
8	0x4490ce10	1158.4395
9	0x43409a22	192.60208
10	0x41fd24c4	31.642952
11	0x447d6c7e	1013.6952
12	0x44b05de0	1410.9336
13	0x44541ce0	848.4512
14	0x429a9a8e	77.301865
15	0x4391cd57	291.60422
16	0x4496e5ab	1207.1771
17	0x43ed9b2d	475.2123
18	0x448dbf87	1133.9852
19	0x44dea17b	1781.0463
20	0x44459446	790.3168
21	0x443b7f15	749.98566
22	0x4133a0ab	11.226726
23	0x4383dfeb	263.74936
24	0x42230b55	40.761066
25	0x45afc275	5624.307
26	0x409763f4	4.7309513
27	0x4515dbe0	2397.7422
28	0x425c7241	55.111576
29	0x4421b965	646.8968
30	0x44f8316e	1985.5447
31	0x44558af4	854.17114
32	0x430fe85a	143.90762
33	0x444ce92e	819.64343
34	0x4137b216	11.480978
35	0x44da5034	1746.5063
36	0x447dc004	1015.00024
37	0x41dcc450	27.595856
38	0x4217d855	37.96126
39	0x4408b38e	546.80554
40	0x431dd94d	157.84883
41	0x44444f32	785.2374
42	0x43ab1e21	342.23538
43	0x44b86016	1475.0027
44	0x446eecf5	955.70245
45	0x457e5589	4069.346
46	0x44b7a66a	1469.2004
47	0x443cbe70	754.9756
48	0x4472e3a7	971.55707
49	0x4316e1ed	150.88252
50	0x4485f298	1071.581
51	0x432cc2a6	172.76035
52	0x439fc991	319.57474
53	0x43106cd1	144.42506
54	0x43df7c31	446.97025
55	0x433f2066	191.12656
56	0x448f6d40	1147.4141
57	0x44ab177d	1368.734
58	0x4471ac47	966.69183
59	0x448790aa	1084.5208
60	0x430f9d49	143.6144
61	0x40a93e1d	5.288832
62	0x4462aabb	906.66766
63	0x410069ed	8.025861
64	0x43d854c5	432.66226
65	0x43d7870a	431.055
66	0x44f7253b	1977.1635
67	0x42399ce7	46.403225
68	0x449db05b	1261.5111
69	0x446337ec	908.8738
70	0x43aaa30d	341.27383
71	0x43a779f4	334.95276
72	0x44aea6d2	1397.2131
73	0x42e6a58d	115.32334
74	0x43843f5a	264.49493
75	0x42ec484e	118.14122
76	0x4494dc0d	1190.8766
77	0x4306d664	134.83746
78	0x44d34336	1690.1003
79	0x40439d53	3.0564773
80	0x40a1855c	5.047529
81	0x43da3755	436.43228
82	0x43668843	230.53227
83	0x4326c307	166.76183
84	0x43e5edde	459.85834
85	0x441aac37	618.69086
86	0x45077795	2167.4739
87	0x450feb97	2302.7244
88	0x446a7ee7	937.98285
89	0x4522fa2c	2607.6357
90	0x435f2219	223.1332
91	0x434dad75	205.67757
92	0x456f7a44	3831.6416
93	0x4390d3bf	289.65427
94	0x44585666	865.35
95	0x44299ef2	678.4835
96	0x4236ef61	45.73377
97	0x44bf974b	1532.7279
98	0x4438a18c	738.5242
99	0x44741f64	976.4905
100	0x44ed19ae	1896.8025
101	0x42494598	50.317963
102	0x44b1987e	1420.7654
103	0x44ba4c20	1490.3789
104	0x4620aab1	10282.673
105	0x42c4a324	98.318634
106	0x443be151	751.52057
107	0x45061d70	2145.8398
108	0x44d350af	1690.5214
109	0x435409c5	212.03816
110	0x442a8cbc	682.199
111	0x4476449c	985.072
112	0x430bac5b	139.67326
113	0x43261fab	166.1237
114	0x43e0224e	448.268
115	0x44156118	597.5171
116	0x4477b0e1	990.76373
117	0x45068279	2152.1545
118	0x448a5081	1106.5157
119	0x44a66725	1331.2233
120	0x44b82656	1473.198
121	0x44fb2dd8	2009.4326
122	0x42a9d9cb	84.92538
123	0x4406fa7b	539.91376
124	0x401d6a6b	2.4596202
125	0x428a1c4b	69.05526
126	0x43045029	132.31313
127	0x43e28d81	453.1055
128	0x4431b514	710.82935
129	0x44170d5d	604.2088
130	0x43e80909	464.0706
131	0x44fed885	2038.7662
132	0x4438ffb8	739.9956
133	0x43bbe331	375.77493
134	0x450133f2	2067.2466
135	0x41e0b901	28.090334
136	0x4496af14	1205.4712
137	0x43b60fce	364.12347
138	0x445bf48b	879.821
139	0x44fca3f3	2021.1234
140	0x4525e706	2654.439
141	0x447b8421	1006.0645
142	0x44d58a78	1708.3271
143	0x45025356	2085.2085
144	0x42d6f666	107.48125
145	0x43c7d656	399.6745
146	0x44866e65	1075.4498
147	0x4215788b	37.367718
148	0x44253102	660.76575
149	0x44832a59	1049.3234
150	0x428164d5	64.69694
151	0x440a4d60	553.209
152	0x42e550b1	114.6576
153	0x434d0f86	205.06064
154	0x4219a300	38.40918
155	0x447f8487	1022.07074
156	0x4324ca8b	164.79118
157	0x44e0468f	1794.205
158	0x4462be49	906.9732
159	0x441bebf2	623.68665
160	0x44acaec0	1381.4609
161	0x4502fced	2095.8079
162	0x425d8476	55.379356
163	0x420b2c6d	34.793385
164	0x4476358d	984.83673
165	0x407a93f1	3.9152796
166	0x440fbca1	574.9473
167	0x4450adfa	834.7184
168	0x45282d64	2690.837
169	0x4129d8cf	10.615432
170	0x444b0905	812.1409
171	0x45141e1a	2369.8813
172	0x448d9173	1132.5453
173	0x432828e1	168.15968
174	0x443686d9	730.107
175	0x44fb9ec0	2012.9609
176	0x44fa0695	2000.2057
177	0x43dd7985	442.94937
178	0x44fd8bec	2028.3726
179	0x4497ffa7	1215.9891
180	0x405e70ce	3.475635
181	0x43c97770	402.9331
182	0x446b4116	941.01697
183	0x44e9e981	1871.297
184	0x43f8a51c	497.28992
185	0x44f7e484	1983.1411
186	0x450c09ae	2240.605
187	0x433b9733	187.59062
188	0x43308876	176.53305
189	0x424aa4dc	50.660995
190	0x44c7346b	1593.6381
191	0x4373799c	243.47504
192	0x4438451d	737.0799
193	0x42d85aef	108.177605
194	0x41ab7432	21.431736
195	0x4324c398	164.76404
196	0x4465ca98	919.1655
197	0x44804b61	1026.3556
198	0x43217a9d	161.47896
199	0x439ad752	309.6822
200	0x449d78f3	1259.7797
201	0x43248ac4	164.54205
202	0x44c3ec28	1567.3799
203	0x443703ac	732.0574
204	0x423ac5c6	46.69314
205	0x43e10db1	450.10696
206	0x44096bba	549.6832
207	0x44b80398	1472.1123
208	0x41b6a375	22.829813
209	0x44606ae9	897.6705
210	0x441f7b4e	637.92664
211	0x42cfb853	103.86001
212	0x4504c7e1	2124.4924
213	0x448d68ef	1131.2792
214	0x4281f3b3	64.975975
215	0x4371a0e2	241.62845
216	0x445c4b8a	881.1803
217	0x44cb4068	1626.0127
218	0x44d21e60	1680.9492
219	0x440942e5	549.0452
220	0x44ec074c	1888.228
221	0x44029a67	522.41254
222	0x4336cfc5	182.8116
223	0x44fc386c	2017.7632
224	0x4359845d	217.51704
225	0x45a25f1a	5195.8877
226	0x4401e2f4	519.54614
227	0x4511e456	2334.271
228	0x4490556a	1154.6692
229	0x45005add	2053.679
230	0x43395a32	185.35233
231	0x44dc11bd	1760.5543
232	0x43fdbad0	507.45947
233	0x43137d46	147.48935
234	0x44ba1d67	1488.9188
235	0x43437269	195.44691
236	0x45062e1b	2146.8816
237	0x439f449e	318.53607
238	0x42cd0895	102.51676
239	0x44a3524f	1306.5721
240	0x45a53e7b	5287.81
241	0x4167ddb6	14.491629
242	0x4244cde6	49.201073
243	0x44c543ec	1578.1226
244	0x43f07f4e	480.99457
245	0x433e4a86	190.2911
246	0x43ebc3b8	471.52905
247	0x442889bb	674.15204
248	0x43eed1b8	477.63843
249	0x4197e656	18.987469
250	0x4276b726	61.678856
251	0x44052564	532.5842
252	0x457d9e17	4057.8806
253	0x44d8d974	1734.7954
254	0x4331ac65	177.67342
255	0x449dc175	1262.0455

fc2.weight f4 [256, 258]
0	0xbde9785b	-0.11399909
1	0x3c00e260	0.007866472
2	0xb92023ba	-0.00015272098
3	0xbc1c66ac	-0.009545963
4	0xbe15ecd3	-0.14641123
5	0xbcc10253	-0.023560679
6	0xbd8aa4d7	-0.06769722
7	0x3d907c74	0.070549875
8	0x3d2c377b	0.042045098
9	0x3d3341f7	0.04376408
10	0x3c78b418	0.015179656
11	0xbda77592	-0.08176722
12	0x3c0306af	0.007997199
13	0xbda954e6	-0.08268146
14	0x3cef8400	0.029237747
15	0x3c80d16a	0.015724856
16	0x3cb01e6f	0.021498887
17	0xbe14da45	-0.14536388
18	0x3d2aefe3	0.04173268
19	0xbd71b86e	-0.059013776
20	0x3c3bc75b	0.011461104
21	0xbd1bb9d5	-0.03801902
22	0x3c037821	0.008024246
23	0xbc8b0688	-0.016970888
24	0xbe27590d	-0.16342564
25	0x3cff8792	0.031192575
26	0x3d7472d3	0.059679817
27	0xbd98b39f	-0.07456135
28	0xbd7680d2	-0.060181446
29	0x3da23f41	0.07922221
30	0xbdcae41d	-0.099067904
31	0x3bd3056a	0.0064398544
32	0xbd3dd7e7	-0.04634848
33	0x3cc2f418	0.023798034
34	0xbc4b5cb8	-0.012412243
35	0x3d4834d4	0.048878506
36	0x3ce392ea	0.027780015
37	0xbd81afbe	-0.06332348
38	0xbca903d9	-0.020631718
39	0x3d104dbf	0.035230394
40	0xbd44dc1f	-0.048061486
41	0x3c885274	0.01664088
42	0xbbc27dc6	-0.0059354035
43	0x3c30bd9b	0.010787393
44	0xbc6e3afc	-0.01454043
45	0x3d12afda	0.035812236
46	0x3d0d415e	0.034486167
47	0xbe280e83	-0.16411786
48	0xbd0291f4	-0.031877473
49	0xbd5a6071	-0.05331463
50	0x3cbd2956	0.023091
51	0x3c71d82a	0.01476101
52	0xbc6b8fed	-0.014377576
53	0xbd842cfc	-0.064538926
54	0xbd9a1150	-0.07522833
55	0x3c63a8b4	0.013895202
56	0xbc9ad04d	-0.018898154
57	0x3d28f1cf	0.04124623
58	0xbc8b4d8a	-0.017004747
59	0xbd2303b5	-0.039798457
60	0xbd427e9e	-0.047484033
61	0x3d179028	0.037002712
62	0xbbd60c3c	-0.00653222
63	0x3bf1e012	0.0073814476
64	0xbdbb1319	-0.09134502
65	0xbadf4f1f	-0.001703713
66	0x3cbd054e	0.023073819
67	0x3d0f2e10	0.034956038
68	0x39e18e49	0.00043021355
69	0xbd4a7318	-0.04942617
70	0xbde8a434	-0.11359444
71	0xbcd7e579	-0.026354538
72	0xbd91ca13	-0.07118621
73	0x3d0e538f	0.034747656
74	0xbe1b0bdb	-0.15141241
75	0x3d10711a	0.035264112
76	0xbd771c09	-0.06032947
77	0xbd4062e2	-0.046969302
78	0xbb29d14c	-0.0025912104
79	0x3d1a4166	0.037660025
80	0xbd354824	-0.04425825
81	0xbd0c868b	-0.034307998
82	0xbdb889f6	-0.09010689
83	0xbd5022a6	-0.050814293
84	0x3adc8f23	0.0016827326
85	0xbdc08d3e	-0.0940194
86	0x3c3b9494	0.011448998
87	0xbc0a7860	-0.008451551
88	0xbda828d4	-0.08210912
89	0x3cefe154	0.02928225
90	0x3ce26e24	0.02764041
91	0xbc0ef325	-0.008724962
92	0xbd4a03c6	-0.049320005
93	0x3d29c17c	0.041444287
94	0x3d06e5c4	0.032933965
95	0xbd98461e	-0.07435249
96	0xbd924496	-0.07141988
97	0x3b9697ce	0.0045957332
98	0xbc6eb624	-0.014569793
99	0x3c9ea2f9	0.01936482
100	0x3cf17a03	0.029477125
101	0xbb622616	-0.0034507564
102	0xbd589661	-0.052877788
103	0xb9bebb56	-0.000363792
104	0xbd5e4f0a	-0.054274596
105	0xbd7097a9	-0.058738384
106	0x3dc0810b	0.09399613
107	0xbd79ef84	-0.061019436
108	0xbd82503f	-0.06362962
109	0xbc260714	-0.0101335235
110	0x3d24f617	0.040273752
111	0xbdbe243d	-0.09284256
112	0xbca36b80	-0.019948721
113	0xbd4a8003	-0.049438488
114	0xbc305e88	-0.0107647255
115	0xbceb3fbe	-0.028716918
116	0xbdc80aaf	-0.09767663
117	0xbcde2ad6	-0.027120035
118	0xbd74e294	-0.059786394
119	0x3c378415	0.011200924
120	0xbd78a426	-0.06070342
121	0xbd186dfd	-0.037214268
122	0xbda77bd9	-0.08177919
123	0xbc1b6f2e	-0.0094869565
124	0xbc472213	-0.01215412
125	0xbd1aa594	-0.037755564
126	0xb990b5b9	-0.00027601214
127	0xbd5b34fa	-0.05351732
128	0xbdbba1e9	-0.09161741
129	0x3bf7fb31	0.007567786
130	0x3b423d71	0.0029638673
131	0x3b59aa53	0.0033213093
132	0x3ca16627	0.01970203
133	0xbd17d0ca	-0.03706435
134	0xbd8fac54	-0.07015291
135	0xbd527234	-0.051378444
136	0x3b6dc877	0.0036282816
137	0x3bc4bd41	0.006004006
138	0x3d00feed	0.031493116
139	0xbd4450d1	-0.047928635
140	0xbd59d352	-0.053180046
141	0xbd82be07	-0.06383901
142	0xbb163472	-0.0022919443
143	0xbdb9d342	-0.09073497
144	0xbcbe05b0	-0.023196071
145	0x3d84e247	0.064884715
146	0x3ce409ce	0.027836706
147	0xbc9be626	-0.019030642
148	0x3ba96ea6	0.005170661
149	0xbd3d4630	-0.046209514
150	0xbe144ea5	-0.14483126
151	0x3b1ad9a1	0.0023628252
152	0xbcaf2b38	-0.021382913
153	0xbdaf074a	-0.08546312
154	0xbd8d5a16	-0.06901948
155	0xbdde0bc9	-0.108420916
156	0xbda21d6c	-0.07915768
157	0x3c830b4a	0.015996594
158	0x3cd24f62	0.025672618
159	0xbd5e732f	-0.054309066
160	0xbcb25278	-0.02176784
161	0xbd01938e	-0.03163486
162	0x3caa9955	0.020825068
163	0xbceb551e	-0.02872711
164	0xbc7f7916	-0.015592834
165	0x3ccd31cc	0.025048159
166	0xbd633254	-0.05546792
167	0xbd840b0b	-0.06447419
168	0xbcddc871	-0.027073117
169	0xbcadd523	-0.021219796
170	0x3c24a27a	0.010048503
171	0xbc36ca03	-0.011156562
172	0xbd1552ad	-0.0364558
173	0x3c54d069	0.012989142
174	0x3b31e3aa	0.0027143755
175	0x3c28bef7	0.010299436
176	0xbd12c621	-0.03583348
177	0xbd45154d	-0.048116017
178	0x3ca2215b	0.019791296
179	0xbd623cbf	-0.055233713
180	0xbce92fad	-0.028465116
181	0xbd988c29	-0.074486084
182	0xbd523068	-0.051315695
183	0xbc841d1c	-0.016127162
184	0xbc2ba181	-0.010475517
185	0x3c25f369	0.010128834
186	0x3c722261	0.014778704
187	0xbca79953	-0.020458853
188	0xbd938219	-0.072025485
189	0x3d01d29d	0.031694997
190	0xbd4d8aaa	-0.05018107
191	0x3be2000c	0.0068969782
192	0x3c8c6f34	0.01714287
193	0xbcf0495f	-0.029331861
194	0xbc1c4c27	-0.0095396405
195	0x3c9454a8	0.018106773
196	0xbd887724	-0.06663349
197	0xbd454af4	-0.048167184
198	0x3c651609	0.013982304
199	0xbde84a6f	-0.11342322
200	0x3b5c6839	0.0033631457
201	0xbd0d7ec0	-0.034544706
202	0xbd356029	-0.04428116
203	0xbd89f5c1	-0.06736327
204	0xbd606712	-0.054785796
205	0xbd6bc20b	-0.0575581
206	0xbd1d449d	-0.038395513
207	0xbd9545d8	-0.07288712
208	0xbd756e7e	-0.059919827
209	0xbd17609a	-0.03695736
210	0xbd900425	-0.070320405
211	0xbd60a021	-0.05484021
212	0xbd796a45	-0.060892362
213	0xbd4c19a2	-0.049829133
214	0xbd47c6e8	-0.048773676
215	0x3ca24f49	0.019813197
216	0x3c99863e	0.01874077
217	0xbda0556f	-0.07828795
218	0xbd1d56e6	-0.03841295
219	0xbcadc590	-0.02121237
220	0xbd38d120	-0.045121312
221	0xbda4a29f	-0.0803883
222	0x3d0dda6d	0.034632135
223	0xbd4577af	-0.048209842
224	0x3cc377ac	0.023860775
225	0x3ba73664	0.0051029194
226	0xbbbd4906	-0.0057765273
227	0xbcc34bad	-0.023839796
228	0xbd5f56a7	-0.054525997
229	0xbd1eb734	-0.038748935
230	0xbafb2fea	-0.001916406
231	0xbda2cb40	-0.07948923
232	0xbc3c1344	-0.011479203
233	0xbd018504	-0.031620994
234	0x3c8751af	0.016518442
235	0xbd108e74	-0.035292104
236	0xbd92bb82	-0.071646705
237	0xbc342270	-0.010994539
238	0xbca0be99	-0.019622134
239	0xbd82deaf	-0.0639013
240	0xbcd49273	-0.025948739
241	0xbd7a0f53	-0.06104977
242	0x3c2c85c8	0.010529943
243	0xbcaffff4	-0.021484353
244	0x3d3354ea	0.043782152
245	0x3ca00d90	0.019537717
246	0x3d1f10ad	0.038834263
247	0xbd1bbe63	-0.038023364
248	0xbe074e24	-0.13213402
249	0xbd8ceb30	-0.06880796
250	0xbc8e1840	-0.017345548
251	0xbc1f6ac2	-0.009730043
252	0xbdfb04e8	-0.12256795
253	0x3aa60fdb	0.001266952
254	0xbd00c7d0	-0.031440556
255	0x3c4a26d1	0.012338356
