p3_collab-compet/checkpoint_critic.pth (torch_old, 297420 bytes, 9 tensors)

fc1.weight f4 [256, 24]
00000000: 015d 1a3f 3d2b 0540 cb6c ef3d 6728 cfbb
00000010: 7fcb 683f a28c bcbf bd06 643d 1112 64bc
00000020: f7a7 75bf 6914 8b40 74cc f5bd 56de 6a3f
00000030: 1621 d8be 9196 0bbe d9c5 04bd 1493 6d3f
00000040: 0378 2bc0 3ded 5740 f037 10be 7e8e 04bf
00000050: 6639 8ac0 5ccb 8f40 e1fa f2bd 3777 f5be
00000060: df4f 623e 9a72 463e 90f5 74bd 1d93 fd3d
00000070: 72fc 493d 8ba5 7d3d 387b a2bd 43d6 8b3d
00000080: 5cea 5d3e 10e8 783e b021 f6bc 9c05 a7bd
00000090: 3e71 c03d f316 fc3d b522 bbbb c007 b6bd
000000a0: eabb 473c 041f a53d 8089 f3bd 4b83 52be
000000b0: d122 e83d adfb 9c3d b01d 6dbd dbad 3dbe
000000c0: 30d0 c03d 9ef2 f83f c2d7 2b3e 50c8 403e
000000d0: 2467 073f 8cf5 833d 9e0b 3d3e 91e5 1e3e
000000e0: ae4d d73f c2ec 4240 a9a4 653e 7a63 063f
000000f0: a6d9 a83f 78e9 13c1 6177 693e 422d 0f3f
00000100: 8287 3840 e46a 4840 2693 543e dbf6 86bf
00000110: 03e5 853f 213b d7c0 0e64 6f3e 044b 83bf
00000120: ca91 4abf 5f9c 02c0 5283 3abb 0910 ce3f
00000130: 6e3a 92bf 7561 ae3e e9fe 0cbd 1ff9 c33f
00000140: 31b9 11bf 1b47 a4bf b04e 353f 74ef b83f
00000150: 8551 08bf ba14 0c3f febf 1d3f d083 b83f
00000160: 7857 6cbf f233 45bf d24e bbbe d6c4 2bbf
00000170: 8b6a b7be 2f7c 9b3c f637 ccbe a0a0 3dbf
00000180: 4d4c b0c0 4c35 3fc0 e5c6 13bd 0cf0 3dbf
00000190: 9e24 17c0 0280 a240 6f31 31bd 0c48 3dbf
000001a0: 8cb4 0bc0 8cd9 203d 5dee 84bd 1296 413f
000001b0: 3f79 ccbf 9b04 5d40 1d43 3fbc 7627 373f
000001c0: 64a7 0bc0 1e5e 1cbf 4f44 413e 1441 87bf
000001d0: b50e c03f 260f b93e 8c20 4e3e 6c54 85bf
000001e0: 81d5 eb3d 3b97 1d3e 63a5 6bbf 43c7 b43e
000001f0: 5ea9 cd3f f1c7 3cbf 6f9f 56bf df21 b83e
00000200: 0612 c7be 36eb 0ebf b09e 9c3e d858 bfbf
00000210: 94c0 bfbe 48d0 bb3e 3c47 c83e b291 c6bf
00000220: 3687 f0be 0ff5 e3bf 80db a0be 6381 06c0
00000230: 4319 90c0 2aeb 0940 3a3c 9cbe 1d22 0dc0
00000240: c573 d53f 2b0b 93c0 073c 3cbd 97ea b4bb
00000250: bb42 0e3f fbb2 3ac0 e3b4 32bd 5320 633d
00000260: 1e05 5740 67e4 7cc0 b716 a33d 26ae 5fbe
00000270: a1c7 babd d29b 7cbd a53f 8b3d e52a 76be
00000280: 852e 7440 48d0 1bc0 c68d 94be 4a91 7e40
00000290: 5cc8 dfbd b47e 9140 3655 b4be b6bb 7d40
000002a0: eb27 97bf b7dc 75be b9b8 7a3d 0d43 1ebd
000002b0: b8ee d23f 209b b7bf 610b 783d 3b10 c7bd
000002c0: 405f d3bd acd9 b2be 1242 d2bc 852e f0bd
000002d0: b290 4f3d 00db d13f 0e04 af3d 9386 08be
000002e0: 77d3 0bbf a191 29bf 39d3 123e 9364 323d
000002f0: b170 f5bf faa4 2a41 0ff6 2b3e 8784 12bc
00000300: ed1c 41be da75 b93e a76c 0abe c9a5 09bf
00000310: 370f 3440 0234 de3f 0185 17be f9c8 1abf
00000320: fec8 5e3e cfd8 f23f 743c 2c3e 6950 6abb
00000330: d496 723f e843 8f3f eeff fd3d 9a2b 7abd
00000340: 12d4 893e cad0 0c40 8fb2 3e3b 4989 acbe
00000350: ce88 20c0 25f7 6640 c080 a23d 8351 bbbe
00000360: 39ea 733e 84f6 893e 6a84 48be be2b b7bd
00000370: 6c6a d03e 191c 863f b248 61be e1a8 54bd
00000380: 3881 fc3e a0f9 0c3e c22d 0bbe c85a cdbe
00000390: ebb7 e43e db6f 3a3f 3745 efbd 4ec1 d1be
000003a0: 8227 1cbd 942f f6bd 764c b7be ebc9 0bbf
000003b0: 32d0 073f 9a09 51be e0f2 b7be 0526 16bf
000003c0: fff8 463d 32a5 e3b9 f91e f93c 4217 17bd
000003d0: 187e a3bd 2a41 163d 5f9b 78bd bf68 e53c
000003e0: 4370 693c 71af d8bc a99f d9bd b7d4 c9bc
000003f0: dd05 1bbe 1ebe 423d ea06 1ebd af59 94bd
0.6029816 2.080764 0.116906725 -0.006321955 0.9093551 -1.4730418 0.05567049 -0.013920323
-0.9595942 4.3462415 -0.12001887 0.9174551 -0.42212743 -0.13631655 -0.032415245 0.9280255
-2.6792 3.3738549 -0.14083838 -0.51779926 -4.3195066 4.493574 -0.118642576 -0.47942516
0.22100781 0.19379655 -0.0598045 0.12381575 0.049313016 0.061925452 -0.07933658 0.068279766
0.21671432 0.24307275 -0.03004536 -0.08155367 0.09396599 0.12309065 -0.0057109245 -0.08888197
0.012190798 0.080625564 -0.118914604 -0.20557897 0.11334766 0.07665191 -0.05788964 -0.18523352
0.094147086 1.9449041 0.16781524 0.18826413 0.52891755 0.06443319 0.18461463 0.1551726
1.6820581 3.0457006 0.22426094 0.5249554 1.3191421 -9.244499 0.22799446 0.5592843
2.8832707 3.131524 0.20759258 -1.0544084 1.0460514 -6.725968 0.23378012 -1.0257268
-0.79128706 -2.0407941 -0.002845962 1.6098644 -1.1424081 0.3405873 -0.03442279 1.5310401
-0.56923205 -1.28342 0.7082319 1.4448075 -0.5324939 0.54719126 0.6162108 1.4415226
-0.92320967 -0.7703239 -0.36583573 -0.6709722 -0.35823473 0.018980114 -0.39886445 -0.7407322
-5.509314 -2.987628 -0.036078352 -0.7419441 -2.36161 5.078126 -0.043260034 -0.7393806
-2.1828947 0.03926997 -0.06490777 0.75619614 -1.5974501 3.453406 -0.011673716 0.7154459
-2.1820917 -0.6108111 0.18873714 -1.0566735 1.5004488 0.3614437 0.20129603 -1.0416389
0.11515332 0.15389721 -0.92049235 0.35308275 1.6067312 -0.73742586 -0.83837026 0.35963342
-0.38880938 -0.55827653 0.3058982 -1.4948988 -0.37451613 0.36682343 0.39116848 -1.5513213
-0.46978158 -1.7809161 -0.31417465 -2.1016471 -4.5030837 2.1549783 -0.305147 -2.205207
1.6675955 -4.5951133 -0.045955684 -0.0055211294 0.5557057 -2.917174 -0.04362954 0.05545075
3.3596873 -3.9514406 0.07963317 -0.21843776 -0.091201074 -0.06167204 0.067992486 -0.240398
3.8153393 -2.4345875 -0.29014415 3.9776177 -0.109268874 4.5467167 -0.3522126 3.964582
-1.1809057 -0.24009977 0.06121132 -0.038638163 1.6479101 -1.4344215 0.060557727 -0.097198926
-0.10320902 -0.34931695 -0.02566627 -0.11727623 0.0506751 1.6394958 0.08545695 -0.13332586
-0.54619545 -0.6623784 0.14338388 0.043552946 -1.9175016 10.6652775 0.16793083 -0.00894273
-0.1885869 0.36222726 -0.1351801 -0.53768593 2.8134286 1.7359622 -0.1479683 -0.6046291
0.2175636 1.8972415 0.16819936 -0.0035753495 0.94761395 1.1192598 0.1240233 -0.061076738
0.2691961 2.2002435 0.0029098128 -0.3369849 -2.50835 3.6088345 0.07934713 -0.36585626
0.23819818 0.2694589 -0.19581762 -0.0894389 0.40706193 1.0477325 -0.22000387 -0.051918868
0.49317336 0.137671 -0.13591674 -0.40108323 0.44671568 0.7282693 -0.116831236 -0.40967792
-0.038123615 -0.120207936 -0.35800523 -0.5460498 0.53052056 -0.20413819 -0.35927486 -0.58651763
0.048577305 -0.00043419894 0.030410277 -0.036887415 -0.07983035 0.03668324 -0.06069505 0.028004048
0.014247957 -0.026450844 -0.10626156 -0.024637563 -0.15138955 0.04754459 -0.038580813 -0.07243668

fc1.bias f4 [256]
00000000: faa2 d63d c6ba 14be f7e0 103e 9288 0bbe
00000010: 5911 3b3e 9d37 0e3e 4ed3 953d 1d75 4cbe
00000020: c6b2 a7bd 0f9f c33d b09c 3ebe 9b47 c83d
00000030: e13a a8bd 42cd 18be c850 11bb e0df ff3c
00000040: 6afb 1d3e 870d 05be 0ee5 29be cae2 8cbd
00000050: 4836 1f3d c73f babd 6731 9fbd adf6 91bd
00000060: e7da b33d 2529 dc3c 4637 373e e08a 043e
00000070: 5408 35be caf2 573d 2310 37be 43c3 40be
00000080: 537a 91bd d831 503e 14ad 953c a14c 16be
00000090: 5b7d 3cbe 4b8e 1d3e c0d9 213e 5b3c e8bd
000000a0: bb72 113e f868 9a3d a622 d7bd 08ff 7f3d
000000b0: 554c fd3b e954 57bd 0b98 53bd 0b98 1a3e
000000c0: 1592 b43d 735f b63d f491 733d 02d0 0e3e
000000d0: afe5 55bd 9f7f 37bb 90d8 2c3e d99c fa3d
000000e0: 408c 4f3d b1e4 d4bd 43c0 56bd 529a 033d
000000f0: a535 01be ea5c bd3d face 01be e55b 14be
00000100: 8635 963d f6c0 cebd 00f0 50be 4e27 033e
00000110: 8297 aabd 7f53 9ebd 8a62 c2bd 04fd eebd
00000120: 1272 0cbe 806d b6bd 43e1 18be 6059 91bc
00000130: 9553 853d 2932 02be 0fba 48be 68d6 913d
00000140: f3f3 e6bd c2e2 643d d50b 82bc 98ad 373d
00000150: 1e37 14bb 86db 82bd 3826 22be a89d 0f3e
00000160: 76d8 c53d 4136 ad3c 894f 323e 8cf2 3f3e
00000170: e20e 28be 2611 d23d fdf8 3f3e 67df 37bc
00000180: f4f1 45be 8b0f 98bd 7d5d 9a3c 5d3d 32bd
00000190: 81da c83d 32cc a23d c3a8 46be 7e39 e23c
000001a0: 07d9 043d 8875 053e f9bf d63c 0b90 e33d
000001b0: dd8e 2b3d e2f1 0abe 2125 22be f43f 8fbd
000001c0: 0277 653a dd27 f4bd d726 39be b8fc 323e
000001d0: 1fe3 bb3c f158 a13d 128f d4bd d716 0a3d
000001e0: 41e0 83bc 3a63 db3d e933 98bd 661d 3a3e
000001f0: 10af 2d3c 02ef 0b3c eead 123e 0bd6 d8bb
00000200: 2a82 733d 7e9c 67bc c766 213e d835 4bbe
00000210: 4f8b 493e 5445 f6bd 5847 4c3e 8c91 8d3d
00000220: 3aef 04be 3d91 32be c75f 653d 64be a93d
00000230: 8fdc 0ebe 9035 053e f5da bebd 5335 253e
00000240: 5c76 083d b94c 33be b40d 063d 5675 5dbd
00000250: 3d2d 5d3d 631c 9dbd c41f 373e a757 eebd
00000260: 54be 2b3e ec43 4fbe 485a 173e 36ea 0fbe
00000270: 881a 1b3d 04ff 54bd 4d08 50be 4f5f 243e
00000280: c515 463d ec77 e83d 9a10 c8bd 363e 81bd
00000290: 18a8 c0bd f400 41be c4d2 363d 1a32 983d
000002a0: eed8 cabc 47fe 07be b44c c73c 722c b33d
000002b0: 70f6 9e3c 305a 4fbe 20d9 cc3d cf43 183e
000002c0: 93ab 88bd 1912 36bd f623 933b 980d 2a3d
000002d0: b66b 393e 8b4d 153e 3b94 ba3d c2c3 09be
000002e0: 77c3 fa3d 5509 cc3d 6eed 433e bbc2 a1bd
000002f0: 0f63 933d 52f4 093e 97d2 c33d 5c28 a6bc
00000300: c756 70bd d748 19bd d4e1 e83d 47fe 83bd
00000310: 84b9 4fbe 2098 06bd dcf7 3fbe 62e3 23be
00000320: ef59 343e a891 03be d9a1 f23d 7f63 fbbd
00000330: 3159 4dbe feec 943b f7e1 d63d f59e 1b3c
00000340: ec15 f03d c521 08bc 2ce1 14be 2089 ff3d
00000350: 047d 0f3d f34e e7bd 030a acbc 3490 933d
00000360: 94f4 2fbd 022b 16bc 2b96 533d 1ed7 853d
00000370: 9e74 f03d 3caa 54bd d8c6 783d bb8b 453d
00000380: b352 a0bd 4b62 003d 41db e53b 40cd 19be
00000390: bab0 3bbe 1f32 363e 7e17 bfbd 8c98 183e
000003a0: 2f0b 283d d750 ec3d 2606 e3bc c41a 30bd
000003b0: 8717 9bbd df8f 46be 01a5 3cba 221e 303e
000003c0: df1c 283d 8a80 8bbd 2a59 04be f989 44bd
000003d0: 919d adbd 59c2 ff3d 68e8 bc3d 4a00 583d
000003e0: 304a f53c 28e5 ed3b d631 dcbd 898c c9bc
000003f0: 4383 053e 8438 d5bc d011 903d f36b e8bc
0.10480304 -0.14524373 0.14148317 -0.13626316 0.18268336 0.13888402 0.07315694 -0.1996655
-0.08188395 0.095518224 -0.18614459 0.09779283 -0.08214355 -0.1492205 -0.0022173394 0.031234682
0.15427938 -0.12993442 -0.16591284 -0.06879194 0.038870126 -0.09094196 -0.077730946 -0.07127128
0.08781987 0.026875088 0.17892179 0.12943602 -0.17678958 0.052721776 -0.1787725 -0.18824486
-0.071034096 0.20331514 0.018271007 -0.14677669 -0.18407194 0.15386312 0.15805721 -0.11339637
0.14203922 0.075395525 -0.105046555 0.062499076 0.0077300468 -0.05257121 -0.05165867 0.15097062
0.088169254 0.08904924 0.059465364 0.13946536 -0.052220996 -0.0027999652 0.16879487 0.122369476
0.050670862 -0.10395182 -0.05242945 0.032129593 -0.1261812 0.092462376 -0.12676612 -0.1448818
0.073344275 -0.10095398 -0.20404053 0.12807962 -0.08329679 -0.07730769 -0.09491451 -0.11669353
-0.1371539 -0.08907604 -0.1492968 -0.017742813 0.06510083 -0.12714447 -0.19602226 0.07120973
-0.11276998 0.055880316 -0.015874783 0.044843286 -0.002261586 -0.06389527 -0.15834892 0.14024985
0.09660427 0.021144034 0.17413153 0.18744868 -0.16411927 0.10257177 0.18747325 -0.011222697
-0.19330579 -0.074248396 0.018843407 -0.04351555 0.09807301 0.079491034 -0.19400315 0.027615305
0.032433536 0.13033116 0.026214587 0.111114584 0.041884292 -0.13568833 -0.15834476 -0.0699462
0.000875339 -0.11921666 -0.18081222 0.17479217 0.022935448 0.07878292 -0.10378851 0.033713188
-0.016098144 0.10712285 -0.07431776 0.18175277 0.01060082 0.008540871 0.14324161 -0.006617313
0.059450306 -0.014136432 0.15761863 -0.19844759 0.19682048 -0.12024942 0.1994909 0.069125265
-0.12981883 -0.17438217 0.055999544 0.08288267 -0.13951324 0.13008714 -0.093191065 0.16133623
0.033316 -0.17509736 0.032727912 -0.05406698 0.05399822 -0.0767143 0.17883211 -0.11637812
0.16771823 -0.20240754 0.14780533 -0.14054188 0.0378671 -0.052001014 -0.20315666 0.16051982
0.048360605 0.11350998 -0.097687915 -0.06310694 -0.09407061 -0.1884802 0.044634596 0.07431431
-0.024761643 -0.13280593 0.024328567 0.08748712 0.01940462 -0.20249248 0.10002351 0.14869617
-0.0667335 -0.044450853 0.004490371 0.04151687 0.18107495 0.14580362 0.09110304 -0.13453582
0.12244313 0.099627174 0.19133541 -0.0789847 0.07196628 0.13472107 0.09561651 -0.020282917
-0.058676507 -0.03742298 0.11371198 -0.06444984 -0.20285612 -0.03285992 -0.18746895 -0.16004708
0.17612432 -0.12848532 0.11847276 -0.12274837 -0.20053555 0.004544853 0.10492318 0.0094983475
0.11722931 -0.0083088325 -0.14539021 0.124773264 0.035031334 -0.11294355 -0.021000868 0.07205239
-0.042957857 -0.009165527 0.051656883 0.06535171 0.11740993 -0.05192016 0.060736507 0.04822896
-0.078282736 0.03134374 0.0070146625 -0.15019703 -0.18329135 0.17792557 -0.09330653 0.14901942
0.04102629 0.115388565 -0.027712893 -0.042994276 -0.07572847 -0.1939082 -0.00071962184 0.17198995
0.04104316 -0.06811626 -0.12924638 -0.047983143 -0.08477319 0.12488241 0.092240155 0.05273465
0.029942602 0.0072599836 -0.10751693 -0.024603145 0.13038354 -0.026027925 0.070346475 -0.028371787

bn1.weight f4 [256]
00000000: b96c 633f 3f9e 643c 60e2 1e3f 8f2b 8dbc
00000010: 2e19 4f3f 6e60 c23e 7a16 103f 3ac9 723f
00000020: 89e0 933e 66b0 813d c887 bfbc 86d7 4b3f
00000030: ddd3 863d af98 863f be86 f23d d167 9f3f
00000040: 4694 a23c 7807 423e a113 273e 0fc5 4d3f
00000050: 3a27 8d3f 5eec 8b3e 5b42 33bd 7536 443d
00000060: 6e59 993f de44 293f 75ff 1fbc 0935 4ebb
00000070: 7939 08bc 3d64 883d 9b3d 5d3f 0aa1 983c
00000080: 1fec 9c3e c5e1 9e3e ef4e 343d 691c 773e
00000090: 42ba 093c 25fa f3bc f37d a73e f7ea 393f
000000a0: be80 1f3e f533 023e 8b0b 513d cfc9 8a3b
000000b0: c1ba 663f e9d4 363e 24be 7d3f 57ea 673e
000000c0: 1a16 8d3f 5370 523e 83c0 3e3f 2e52 773f
000000d0: 8f73 ea3d fd4e 0f3c 5b6f e33e 93a0 713f
000000e0: 6192 323e 6267 543f 4fbf 8d3f c25a fe3e
000000f0: 1efe 8d3f e61c 563c 2c9e e73d e315 9cbd
00000100: d952 7a3e 24ca 403d 7ded 1bbd aa0a 873f
00000110: 741a 163e 4fba ad3e f527 293f 86cf 623f
00000120: a3a3 f8bc 7364 1a3f baf2 813e 6c38 d23c
00000130: 787a 8f3f 4e23 a23e 8a66 f43e e7d0 213d
00000140: e0f7 1dbd 6f65 183f b035 d73e 4e80 b0bc
00000150: 1169 883d da8e ad3d 4fba be3d 6744 583e
00000160: dbec 6c3d f497 e23d 4797 b43c 2ef0 2f3e
00000170: b43c 9c3f baff 183e f97a 663d cc69 883f
00000180: 4129 5a3f 67f4 c63d 1893 2f3f 6d38 f63e
00000190: dec9 773e e917 3a3c 3bd9 4f3f aa9d 6d3f
000001a0: f82b 9a3f 8a37 a6ba bff9 0e3c 3049 c13c
000001b0: 87c9 9e3e b114 813b 3829 7a3f bec3 793f
000001c0: f8df a63e 281d 8a3f fdff 0dbc 4ea6 603f
000001d0: c63f c3bc 352f 363f 433c 4b3f c09d 23bd
000001e0: a335 503c 9ee2 4c3e 3b3c 053f 3550 3f3e
000001f0: 11b6 163a dfdd 0bbd 5a64 bbbb 7469 cdba
00000200: daa4 913f ed9b 313d e6ad b53d ab06 33bd
00000210: e059 c53d d26b 333f 2dd4 033f 6537 6cbd
00000220: 0517 813f b4f4 5f3f c646 843f 0f35 a83d
00000230: 0d26 61bc 7719 093f da31 3f3f 2707 5b3f
00000240: 59b8 893d ce93 5a3f 5974 4b3f 6564 c4b9
00000250: fe34 933e 7b4a 3c3e 13a0 ca3b 5e29 7a3d
00000260: d346 213f f3fc 003e 677d 483c fb08 923c
00000270: 3aaf 2d3d 4d14 5c3f f4eb 263f 65a3 8c3f
00000280: 8e02 6e3f 16a9 893d 3655 b43d 77e1 a43d
00000290: 5567 9f3a 9f98 7d3f ae51 f43c bde4 833f
000002a0: e3a5 db3c 54dc 7dbd 14c6 4f3f 668e 0e3f
000002b0: 3af4 653f 8547 ac3d 4461 8b3d f594 8d3f
000002c0: fb02 323e e2ba 6c3f a700 fb3e 84d6 4d3f
000002d0: 62e6 f13b f7e9 363f fc7e 4abd f89f 3e3e
000002e0: b4b9 3e3f d1e9 973f 75a3 293f 3db2 e53d
000002f0: 2e74 14bb ab95 283d 4c64 223f 6f85 033f
00000300: 53ca f03c 7be2 1d3c dacc 443d 555a 823f
00000310: 34b0 453d 8e3b 463c 9488 893f 9f25 cf3d
00000320: 24f9 243c df45 cc3b cae0 5b3f 8c76 363f
00000330: 0b11 853d f19c d93e 94c1 843d 01fe c63c
00000340: 3b84 2b3c 01a2 aa3e 12cc c23e 19e3 0bbc
00000350: 9c62 843e fb0b 5a3e 79c9 f23c 04ae 82ba
00000360: 0ed9 0a3d 94e8 b6bd e65e 953f ea30 ca3d
00000370: 62fd 55bd 0158 a33f 84c4 653e 89ce 1b3f
00000380: 0142 dc3e d497 c0bc 8029 a6bd 12e7 3f3e
00000390: 507e a83e 2d74 f63c a8c9 123d cae2 403f
000003a0: 40c6 303c 4376 c03e 7308 ee3d 2016 4c3f
000003b0: e0bd 683f 0474 083e 6d8d 90bb 62db 4c3d
000003c0: e1bc da3d 0ff0 84bc b54c 19bb 2373 c13e
000003d0: 6e3f a23e d306 0b3d 7bff fa3d c51b 193e
000003e0: 1ffe 31bc 9e5c 943b b70b 023e ac58 833f
000003f0: 7b17 693f fb39 0abd 26d9 c3bc 7d8f f43e
0.8883777 0.013953744 0.6206417 -0.017232684 0.80897796 0.37964195 0.56284297 0.948383
0.28882244 0.063324735 -0.023380175 0.7962574 0.065833785 1.0515345 0.11842106 1.2453557
0.019846093 0.18948162 0.16316082 0.8037881 1.1027596 0.2732877 -0.043764453 0.047903497
1.1980417 0.6612071 -0.009765496 -0.0031464717 -0.008314484 0.06659744 0.8642213 0.018631477
0.30648896 0.31031623 0.04402059 0.24131931 0.008406224 -0.029782364 0.3271328 0.7262415
0.15576455 0.12715133 0.0510364 0.0042354832 0.90128714 0.17854656 0.99118257 0.22647987
1.102237 0.20550661 0.745125 0.9660977 0.11447822 0.00874686 0.44420895 0.9438564
0.17438652 0.8297025 1.1074008 0.49678618 1.1093175 0.013068413 0.11309466 -0.07621362
0.24445666 0.047067776 -0.038068283 1.055013 0.14658529 0.33931205 0.66076595 0.88597906
-0.030351466 0.60309523 0.25380498 0.02566167 1.120925 0.3166756 0.4773448 0.039505865
-0.03856647 0.59529775 0.42033148 -0.021545555 0.06660665 0.084745124 0.09312879 0.21119843
0.05784307 0.11064139 0.02204479 0.17181465 1.2206025 0.14941302 0.05626962 1.0657287
0.852192 0.09714585 0.6858382 0.48089924 0.241981 0.01135824 0.8119084 0.928187
1.2044668 -0.0012681347 0.008726536 0.023594469 0.31013128 0.003939234 0.97719145 0.97564304
0.3259275 1.0790148 -0.008666989 0.8775376 -0.02383412 0.7116578 0.7938883 -0.039945364
0.0127081005 0.20008323 0.5204503 0.1868294 0.0005749176 -0.03414714 -0.00571875 -0.0015671686
1.1378434 0.043361593 0.08871059 -0.04370753 0.09636283 0.70086396 0.5149563 -0.057670016
1.008515 0.8748276 1.0334098 0.08213245 -0.013741982 0.5355448 0.7468544 0.8555779
0.06724615 0.8538178 0.7947441 -0.00037458833 0.28751367 0.18387787 0.006183633 0.061074607
0.62998694 0.12596492 0.0122369295 0.017826548 0.042403437 0.85968477 0.65203786 1.0987364
0.9297265 0.06721704 0.08805315 0.080508165 0.0012161533 0.99061006 0.029824104 1.030418
0.0268125 -0.0619777 0.8116162 0.5568603 0.89825785 0.08412079 0.06805661 1.1061083
0.1738395 0.9247266 0.49023935 0.8040545 0.0073822 0.7145075 -0.049437508 0.1861571
0.7450211 1.186823 0.6626504 0.11215637 -0.0022652256 0.04115836 0.6343429 0.5137548
0.02939335 0.009636517 0.048046924 1.0183817 0.048263744 0.01209916 1.0744805 0.101145975
0.010069165 0.006233915 0.85889876 0.7127464 0.06497391 0.4250255 0.064822346 0.02429104
0.010468538 0.33326724 0.38046318 -0.008538031 0.25856483 0.21293633 0.029637085 -0.0009970074
0.033898406 -0.089310795 1.1669586 0.09872611 -0.052243598 1.2761232 0.22438246 0.6086202
0.43019107 -0.023509897 -0.08113384 0.1874049 0.3290887 0.030084694 0.035836846 0.7534605
0.010789454 0.37590227 0.11622705 0.7972126 0.90914726 0.13325506 -0.0044113905 0.050013907
0.10680557 -0.01622775 -0.0023391668 0.37783155 0.31689018 0.033942055 0.1225576 0.14952
-0.01086381 0.0045276424 0.12699781 1.0261436 0.91051453 -0.0337467 -0.023907255 0.47765723

bn1.bias f4 [256]
00000000: df61 12bf d9e8 cdbd ac44 87bf 38b0 44bf
00000010: d3e5 01bf 94aa 03c0 21f7 9abf cc7b 65bf
00000020: b0bf 6dbf 96a3 a9be cfd3 33be 36cf c8be
00000030: 60a3 96be 3fd9 d6bf f66a 97bf a745 bcbf
00000040: 0d60 94be 17a3 4abf 1d12 6abf 5280 a1bf
00000050: 4403 a9bf 1981 c9bf aa0e cabe 219d bbbe
00000060: bab9 56bf 4d10 b9be cc92 d5bd 27da adbd
00000070: 1e09 68be 918b 49bf e9b2 853d 0ba6 33be
00000080: fe3f c93d 67ae 70be e7cf 61be dabc b7bf
00000090: 838d d0bd ea80 8abe 7b0b 90bf b08e ddbe
000000a0: 5ac3 90bf e0e4 11bf b959 1bbf 9c78 99bd
000000b0: 8757 44bf 856b 81bf bb79 17bf cbc2 36bf
000000c0: 7246 0dc0 f79a 80bf 4f07 21bf be74 27bf
000000d0: 1e46 4cbf f4aa 0fbe c214 a4be 4ab3 86bf
000000e0: d607 26bf 08fa a5bf 5188 bbbf 534b bcbd
000000f0: 72c3 7dbf 651f cfbd 8cd7 4ebf 5b32 83be
00000100: 11b8 8ebf e729 6abe bbbd 9ebe c852 13bf
00000110: cf7c 9dbf 2703 a8bf 6b7b bdbf f8b9 c439
00000120: 0f2b 80be 9896 15be 1143 8abf ae52 16be
00000130: f847 9fbf ca6d 91bf c28d 68bd f354 39be
00000140: 9e58 9abe d587 a4be a3a3 d7bd 79e7 1fbe
00000150: 914f 8dbf 2b9a 97bf c938 abbe a803 42bf
00000160: 5f80 b5be 88d4 09bf c1cc e1bd efb1 55bf
00000170: 8346 a3bf e01c 90bf e20b 52be 660f 15bf
00000180: e223 e5bf 95e6 1ebf 6d51 c8bf 2913 8abe
00000190: ddd8 e7bc c9a8 d2bd a813 4ebf 93ec 61bf
000001a0: f91e e2bf 20bd 41bd c99a 93be bf37 53be
000001b0: fb36 afbf 9ac0 14bd c766 74bf 5474 a5be
000001c0: 0028 c3bf 3761 c5bf 8bed 90bd 6e22 07bf
000001d0: eae2 1bbf 56b7 60bf c182 e2be bdca edbe
000001e0: 16db 8ebd baad afbf 0388 ccbd 3f06 5ebf
000001f0: 3bee a3bc 9ccb 88be d565 a9bd e3c6 8fbe
00000200: f5a1 1fbf a532 abbe 85d7 d4be 9286 dfbe
00000210: b3cb 5cbf a5d3 67bf fede 56bf dd5c d3be
00000220: 8871 5fbf 83c2 95bf 2af0 9cbf bd2d ddbe
00000230: fcf9 c9be c616 4fbf 1119 9abf 2a29 8fbf
00000240: e2a5 a3be 715f 42bf 9aff 85bf de88 66bc
00000250: bf87 c7bf c1e3 14bf 7751 69be c598 34bf
00000260: 6c1d 23bf cbc1 1fbf 19b1 22be 6685 b8bd
00000270: ca5a 0abf 18e2 2bbf 6db0 90bf a59d 50bf
00000280: cc47 a0bf bb12 3bbf 0454 29bf cb78 1ebf
00000290: a205 17bd 0d5e 10bf 468c eabd 0253 a3bf
000002a0: a0da 2bbe 91d7 a9be 8caa 8cbe ce2c 87bf
000002b0: 205e 79bf 5fd1 2dbf 5078 75bf 7c2e 8cbf
000002c0: 0950 6abf 032e b8bf e4a1 fabe fbd5 9fbf
000002d0: d016 6bbd 1cf9 7fbf 6aee 88be 8cee bebf
000002e0: f0ce 56bf f85e 9dbf 9fb0 73bf 7a9c 48bf
000002f0: 5397 12bf 73df 61be d9a3 a1bf 6766 27bf
00000300: 8f05 5fbe 0c35 15be 4dca 71be a48f 3fbf
00000310: 1278 38bf 247b c3bd f30b 7ebf ad8b 3ebf
00000320: 71a9 cbbe 145d 86bd f9c1 e0be 9627 21bf
00000330: 3104 2dbf 9e2b 5ebf 44fd 8bbe b59f 23be
00000340: f4f5 7cbd 1f61 d9bf cf88 0dc0 7bf7 13bd
00000350: 8732 9dbf a2e2 60bf 6e34 e5bd 1a98 c3bc
00000360: a846 8ebe 3c7d bebe cc53 0ec0 d6e6 83bf
00000370: 65db 98be e410 8abf f243 afbf e27f 50bf
00000380: 3d16 cdbf 2903 68be 1c84 12bf 30dc 5abf
00000390: ae56 99bf 2c69 c5be 72c1 59bf fd53 cebe
000003a0: 858b 82bd c8ee 86bd 59e4 0bbf 94c1 2fbf
000003b0: daa4 6abf aee1 22bf e8a5 bdbc dda6 0dbf
000003c0: b0d8 12bf ed51 2fbe ad7f edbc 6a88 bbbf
000003d0: 3cd7 043e dbee acbe c94c 36bf 8f29 51bf
000003e0: 489c 95bd 04c9 87be 5621 72bf 29b8 2ebf
000003f0: fdea 98bf a740 c0be 1cae adbe a0fc 04bf
-0.5718059 -0.10054178 -1.0567832 -0.7683139 -0.5074131 -2.0572863 -1.2106668 -0.89642024
-0.92870617 -0.3313262 -0.17561267 -0.3922059 -0.2942152 -1.6785048 -1.1829517 -1.4708756
-0.2897953 -0.79155105 -0.9143389 -1.2617285 -1.3204122 -1.5742522 -0.39464313 -0.36643317
-0.83877146 -0.3614525 -0.1042839 -0.08488875 -0.22659728 -0.78728586 0.06528265 -0.17543809
0.09826659 -0.23504029 -0.22051965 -1.4354508 -0.10183241 -0.2705148 -1.1253504 -0.43272924
-1.1309617 -0.5698986 -0.6068378 -0.074937075 -0.76696056 -1.0110937 -0.5917012 -0.7139098
-2.2074246 -1.0047292 -0.6290178 -0.6541251 -0.7979449 -0.14030057 -0.32047087 -1.0523465
-0.64855707 -1.2966928 -1.4650975 -0.091940545 -0.9912635 -0.1011341 -0.8079765 -0.25624356
-1.1149923 -0.22867547 -0.31004128 -0.5754819 -1.2303714 -1.3125962 -1.4803289 0.0003752259
-0.2503285 -0.14608228 -1.0801717 -0.14679977 -1.2443838 -1.136163 -0.056775816 -0.18098812
-0.30145735 -0.32134882 -0.10529258 -0.15615644 -1.1039907 -1.1843923 -0.3344176 -0.7578683
-0.35449502 -0.5383992 -0.11025382 -0.8347463 -1.2755893 -1.1258812 -0.20512345 -0.5822662
-1.7901576 -0.6207059 -1.5649849 -0.26967743 -0.02830165 -0.102860995 -0.80498743 -0.8825161
-1.7665702 -0.047299504 -0.2882903 -0.20626734 -1.3688654 -0.03631649 -0.95469326 -0.32315314
-1.5246582 -1.5420293 -0.07076558 -0.5278691 -0.6089312 -0.8777975 -0.44240382 -0.4644374
-0.06975381 -1.3724892 -0.0998688 -0.8672828 -0.020011058 -0.26717842 -0.08271376 -0.28081426
-0.623565 -0.33437076 -0.41570678 -0.43657357 -0.8624832 -0.9055732 -0.8393401 -0.41281787
-0.8728261 -1.1699985 -1.2260792 -0.43198958 -0.39448535 -0.80894125 -1.20389 -1.1184437
-0.31962496 -0.7592688 -1.0468628 -0.014070718 -1.5588301 -0.58160025 -0.22784983 -0.7054561
-0.6371677 -0.6240508 -0.1588787 -0.09009819 -0.54044783 -0.67141867 -1.1303841 -0.81490546
-1.2521911 -0.73075455 -0.6614382 -0.61903065 -0.036870606 -0.5639351 -0.11452536 -1.2759707
-0.16782618 -0.33172277 -0.27473867 -1.0560548 -0.9740925 -0.678976 -0.9588671 -1.0951686
-0.91528374 -1.4389042 -0.48951638 -1.2487177 -0.057394803 -0.99989486 -0.26744395 -1.4916549
-0.8390951 -1.2294607 -0.9519138 -0.78363764 -0.5726215 -0.22057895 -1.2628127 -0.6539063
-0.21779464 -0.14571017 -0.23612328 -0.74828553 -0.7205821 -0.095449716 -0.99236983 -0.7443188
-0.3977771 -0.06560722 -0.4389799 -0.6295103 -0.6758452 -0.86785305 -0.27341664 -0.15978892
-0.061757997 -1.6982764 -2.2114751 -0.036124688 -1.2281045 -0.87845814 -0.11191641 -0.023876239
-0.2778828 -0.3720492 -2.2238646 -1.030482 -0.29854885 -1.0786405 -1.369261 -0.81445134
-1.6022412 -0.22657456 -0.5723283 -0.8549223 -1.1979578 -0.38556802 -0.850608 -0.40298453
-0.063742675 -0.06588513 -0.54645306 -0.6865475 -0.91657794 -0.6362561 -0.0231504 -0.5533274
-0.5736189 -0.17121096 -0.028991545 -1.4651005 0.1297273 -0.33775982 -0.71210915 -0.8170404
-0.07305199 -0.2652055 -0.94582117 -0.68249756 -1.1946713 -0.37549326 -0.33921897 -0.51947975

bn1.running_mean f4 [256]
00000000: 388c 1842 b42c 87c0 19a4 cdc2 9af8 d741
00000010: b65c 0243 1948 2541 6961 9ec2 50aa 6242
00000020: c7e2 9741 1ccb 43c0 7116 1fbf f17b 8642
00000030: 8d5e 8241 267d 9f41 039a 7142 e3ef ec41
00000040: 4bee 0641 c84f 2142 ebdf a541 3396 7242
00000050: 5ebf 0f3f 2c1f 8842 7847 3c3f 7a0f d5c0
00000060: b79c a541 5955 0942 b9e0 813e 3006 203d
00000070: 53b9 63c0 77b8 7e41 0efa e1c1 f688 bac0
00000080: f177 5f42 e2a6 1142 2eef 6b40 00f7 eb41
00000090: eadc 2240 dbe7 0340 1d9f 3342 5e7b db40
000000a0: 117a 8342 ca68 c241 9cb8 c441 c632 e840
000000b0: 9101 1941 97a9 3842 71e2 4041 c9cc cbbf
000000c0: 65f4 99c2 880e 1042 6dcd 2c41 d822 f441
000000d0: 05a8 0241 2c48 bac0 4487 4242 ba5d 9542
000000e0: c738 e141 790c 0242 8e1e ca41 b250 fe41
000000f0: 8fd4 ebc0 4c97 2fbf e2e6 5b42 f026 4fc0
00000100: b92e 3340 396a 48bf 7ab4 943f dde2 a1bf
00000110: 194c 0042 39c9 2641 2e5c 99c2 1839 9b40
00000120: f1ad 2bc0 0ec8 c941 5899 4940 6a0a a53f
00000130: 98ec 1441 5f37 27c1 e250 8fc0 71a9 cbc0
00000140: fb8a 4540 0f4a f141 b066 b140 2595 c7bf
00000150: 299e c441 36ec c241 b66d 2141 e74b 9941
00000160: 7d3e 73c1 759d 4442 ecdf 8140 712e 99c1
00000170: c91b 8741 68ff c541 97a6 cfbe 97bf 433f
00000180: 7a18 5642 30aa bec1 e713 4842 1500 c2c2
00000190: c5d3 1a41 9d58 653f 0b1e 6f42 d66e 9c41
000001a0: fe76 00c2 404f 94be 7b3b 4b40 62be 9f3f
000001b0: 02cf e841 a4d1 76bf 1a4e 0941 7f92 3141
000001c0: b8cd e540 d023 ccc1 6f74 25be 1dd1 9c42
000001d0: e9dd fcc0 ac83 a642 9fa0 ebc0 7710 95bd
000001e0: 73bd f041 3934 1d40 486d 3fc1 967d be42
000001f0: 07c4 313f 7229 cebf 3976 8f3f 79ac 02c1
00000200: 91a3 6a42 2920 1f3f 0932 b5c0 9bd9 7541
00000210: 75b1 8942 b0bf 8e42 ccd3 7cc2 91d2 3cc0
00000220: f81f a542 ad2f db42 516f 8d42 669f 8341
00000230: aadb b8c0 29ac c442 3d8d 2f42 e2a4 0d41
00000240: 90b1 9841 9397 24c2 653c 0842 6eaa 1240
00000250: 5eef 2041 7e7a 9641 3051 c8be fe38 a740
00000260: be2a e541 b0db 6e41 2f70 9940 f2e3 1440
00000270: 32fa eabf 15c8 9141 d3e5 b842 4743 3242
00000280: b514 6d42 a59a e641 eabe 9a40 da64 d940
00000290: a175 5040 8ff7 0942 a6fb 8d42 4907 df41
000002a0: f7d7 f23f 75aa c1bf 4b15 ac42 4702 14c0
000002b0: 84bf 2242 1983 2dc0 7c06 b9c0 928b 6dc1
000002c0: 6372 7f41 4ddd ec42 599e afc1 8e3d 71c1
000002d0: f214 8c3f bb3a a742 5cb9 b63f 1bf9 2d42
000002e0: 339d b8c2 66cf d241 310a e441 da3c f341
000002f0: 0a41 8f41 b5d1 af3e 7e0d f441 3fe2 5740
00000300: b04b 6340 960a 37bf 4233 8e3f 81de ca41
00000310: 0679 0442 5e83 263f f35b c23f e627 4241
00000320: 9e5f 52c1 6a92 223d e27c 4842 ea50 9242
00000330: cb79 0242 0cc7 7cc2 f5a8 093f b9de 043f
00000340: 727d 8c3e 905c b242 d826 70c2 b3d2 6f3f
00000350: f055 6442 0101 8b42 0e52 8d40 902f a03f
00000360: f71d c83f 8809 8041 197d aa41 f489 f0bf
00000370: c4be d93f 1c82 3742 208e c741 feb9 0342
00000380: 0aca 8142 6430 15c0 d0e3 ad40 0465 4941
00000390: 888f 9841 4ae9 2341 3318 06c0 09f3 cd41
000003a0: c69a 19c1 62ad c440 486b 0e41 3122 8b42
000003b0: ae58 9542 a11b c641 294e db3b da9c 1641
000003c0: 2273 bd41 a9a4 a7be c6af 3140 d7a6 ed41
000003d0: 2060 c141 393e 3b41 55fd 00c1 50d3 0242
000003e0: ff2f 15c0 5551 d4c0 37d1 bdbf 00db 2041
000003f0: 708a a141 5469 56c0 cd0f 8340 b164 56c2
38.136932 -4.224207 -102.8205 26.996387 130.36215 10.330102 -79.190254 56.66632
18.985731 -3.0592718 -0.6214362 67.24207 16.296167 19.936108 60.400402 29.617132
8.433177 40.32791 20.734335 60.64668 0.5615138 68.06088 0.7354655 -6.658139
20.70152 34.333347 0.25366762 0.0390684 -3.5581863 15.920035 -28.247097 -5.829219
55.86713 36.41297 3.6864734 29.495605 2.5447335 2.0610263 44.905384 6.8588095
65.73841 24.301167 24.590141 7.256198 9.562882 46.165615 12.055284 -1.592187
-76.97733 36.01419 10.800153 30.517014 8.16602 -5.82131 48.632095 74.68306
28.152723 32.51218 25.26492 31.789402 -7.369697 -0.68590236 54.97547 -3.2367516
2.7997267 -0.7828708 1.1617577 -1.2647358 32.074314 10.424127 -76.68004 4.8507195
-2.6824915 25.222683 3.1499844 1.2893803 9.307762 -10.451018 -4.4786234 -6.364434
3.0866077 30.161161 5.543785 -1.559239 24.577227 24.365337 10.089285 19.162062
-15.202756 49.153767 4.058584 -19.147676 16.888567 24.74971 -0.40556785 0.7646422
53.523903 -23.8331 50.019436 -97.00016 9.676702 0.8958834 59.77934 19.55412
-32.116203 -0.28966713 3.1755054 1.2479975 29.101078 -0.96413636 8.581568 11.098266
7.181362 -25.517487 -0.16157697 78.408424 -7.9020886 83.25717 -7.363357 -0.07278531
30.092505 2.4563124 -11.96418 95.245285 0.6943974 -1.6106398 1.1207954 -8.167108
58.659733 0.6215845 -5.662358 15.365626 68.846596 71.37439 -63.206833 -2.950352
82.56244 109.59312 70.717415 16.452831 -5.7768145 98.33625 43.887928 8.852755
19.0867 -41.14802 34.05898 2.2916522 10.058439 18.80981 -0.3912444 5.225707
28.64587 14.928635 4.7949443 2.3264127 -1.8357604 18.222696 92.448875 44.5657
59.27022 28.82551 4.835805 6.793561 3.2571795 34.491756 70.9915 27.878557
1.8972157 -1.5130144 86.04159 -2.312639 40.687027 -2.7111266 -5.7820415 -14.846575
15.965426 118.43223 -21.952318 -15.077528 1.0943892 83.61471 1.4275317 43.493267
-92.30703 26.351269 28.504976 30.404713 17.906757 0.3433968 30.506588 3.373184
3.5514946 -0.7150053 1.1109393 25.358644 33.118187 0.650442 1.5184311 12.134741
-13.148344 0.039690413 50.121956 73.158035 32.61894 -63.19438 0.5377343 0.5190235
0.27439457 89.180786 -60.037933 0.93680876 57.083923 69.50196 4.4162664 1.2514515
1.5634145 16.004654 21.311083 -1.87921 1.7011342 45.87706 24.944397 32.931633
64.89461 -2.3310785 5.434059 12.587162 19.070084 10.244455 -2.095227 25.74367
-9.6002865 6.146165 8.901192 69.56678 74.6732 24.76349 0.006692667 9.413294
23.681217 -0.32742813 2.7763534 29.706465 24.171936 11.702691 -8.061849 32.70636
-2.3310544 -6.634928 -1.4829472 10.053467 20.192596 -3.3501787 4.095679 -53.59833

bn1.running_var f4 [256]
00000000: 2e45 6a44 2e35 4941 cad3 ed44 05c5 2244
00000010: d069 a444 dee9 af44 3fc6 c744 eaaa c043
00000020: 2295 3e43 3df4 5643 8271 0141 7a53 0a44
00000030: 9b90 5b45 47fd a243 7f7f fa43 3cf9 5144
00000040: 38c6 3443 b372 b443 2e18 fa42 a027 ab43
00000050: bff8 0644 26d4 1b45 8aed 6942 63e3 2243
00000060: 9dd4 9c43 86db 5843 7604 2e41 8167 bf41
00000070: c00e ad42 99ab 0043 6a29 5246 4fd2 0041
00000080: a2e0 9c44 7425 dd44 99c7 cb41 c623 7944
00000090: 7df6 2641 aad9 8f41 707b 5145 f54d dc42
000000a0: 8ec3 8844 2584 2a43 7e4d f443 8594 8242
000000b0: 9e97 4f44 a2e8 1f44 2f16 2f43 4c10 6544
000000c0: 8dd6 a245 55cb d343 1717 c943 fb71 d744
000000d0: ec5c c442 8f8f 2941 cff3 c244 5741 c444
000000e0: 3c0a 3543 ee5e 1345 11fc 2845 edac 4443
000000f0: e4de 9244 18ed 0141 ce64 5b43 e6fc 9142
00000100: 4cfc 4343 eac0 1141 7f6b e141 2cfa 9244
00000110: b983 1b44 5b61 c344 4e03 7e44 1217 e345
00000120: 4026 ef41 362a 1843 7f94 f243 ae9b 2c41
00000130: 9936 b344 09e7 0b45 3dc2 8943 0934 0642
00000140: 6fb0 4b43 e30e ba44 3b69 e642 4a50 0f41
00000150: a5ab cb44 4487 ef42 312b a842 7b29 d544
00000160: b7ee 8243 be19 9b44 8437 c942 df40 8344
00000170: 921d 0044 5381 bd43 e570 a642 6048 5343
00000180: c018 b244 d6fa e042 cd12 f944 c2a1 3f44
00000190: 5f93 3345 c534 1042 9bd5 4144 421d 1544
000001a0: 3465 fc44 4824 0740 dc73 2742 1600 b341
000001b0: fdb1 b844 b782 8240 8f25 2644 1b05 d642
000001c0: 6e37 ff44 eb24 0d45 84c6 9340 2238 8f44
000001d0: c9c3 fc42 3200 ec44 9852 5c44 c05b de42
000001e0: 6662 a343 b405 4c44 9ecb 5743 3cfa 1345
000001f0: 8f5b 3940 6f62 8442 7726 2441 1f6e da42
00000200: 26e9 5c43 eecf 9442 7274 4f44 e4ac 2143
00000210: 5231 8c43 410c fe44 647a 9344 a1b1 0b42
00000220: 4dd0 a144 0397 1145 4b17 8a44 3ba4 d742
00000230: 6674 b442 3852 8a44 aec0 7f44 32d4 6d45
00000240: 11ae 9243 59f6 3444 37cf cc43 11f1 2b41
00000250: 4a02 e944 21a5 1743 60f4 f442 fc0f dc42
00000260: 352c 5144 4fc2 7442 1ff0 bd41 a73e 5740
00000270: a941 ae42 a393 1044 975d c044 e2dd ec43
00000280: 5b22 9644 94f0 b143 84a1 bd42 6463 4243
00000290: fc6f 9e41 eb13 1444 84aa 3744 01cb ad44
000002a0: f802 f542 226f d441 d946 3a44 41f2 c944
000002b0: 14c1 0244 0713 9943 ec4a 5443 335e c744
000002c0: fc30 6e43 219e a144 bd00 1445 b60e a244
000002d0: b900 d940 707c 0245 71e0 8d41 5889 9344
000002e0: df16 b544 b9cb 9f44 8840 2444 e426 e442
000002f0: e0f5 8243 272a ea41 47e7 1045 7715 2343
00000300: 0b51 0843 b054 c840 fc3a 1942 127e 8444
00000310: 2819 8143 9c6e 1944 04ee 6a45 f5d9 1d43
00000320: d6db 1343 121a 3a40 ba8b 4e44 4e4a a144
00000330: 33d5 1143 451a 8f44 909c 0b42 819b e440
00000340: 2fff 1740 2f41 fa44 cb91 a644 704d ca3f
00000350: 4816 4f44 7023 c743 e985 9441 e8ca 9140
00000360: 8fd3 4441 766f 9343 6b30 2f43 cd44 9d43
00000370: 8127 c741 6cfe 5944 f9fd b044 ec3a ec43
00000380: 4f19 9444 20b8 1d43 3f90 5042 037e 7c44
00000390: b430 9a44 f574 8443 50ba de43 3604 9643
000003a0: fcea 9a42 d198 0a43 72aa 6c43 1f30 9844
000003b0: d020 5b44 8b5d 4a43 47e9 2a40 2b4d 4743
000003c0: 22d2 af43 d6e8 8c40 a8fc 9940 1a89 8244
000003d0: 884b 2044 322f c142 f678 d443 35fa aa42
000003e0: 9869 3b40 7fe4 9141 c18a 5644 e3eb 4343
000003f0: 97cd 2645 e2a5 3842 ae3c b241 b243 5644
937.08093 12.575483 1902.6184 651.0784 1315.3066 1407.3083 1598.1952 385.33527
190.58255 214.95406 8.090212 553.3043 3513.0378 325.97873 500.99606 839.8943
180.77429 360.8961 125.047226 342.30957 539.88666 2493.2593 58.48197 162.88823
313.66104 216.85751 10.876089 23.925539 86.52881 128.6703 13450.354 8.051345
1255.0198 1769.1704 25.47246 996.55896 10.435178 17.981281 3351.7148 110.15226
1094.1111 170.51619 488.6054 65.29008 830.369 639.6349 175.08665 916.25464
5210.819 423.58853 402.1804 1723.5619 98.18149 10.5975485 1559.619 1570.0419
181.03998 2357.933 2703.7542 196.67549 1174.9653 8.120384 219.39377 72.99394
195.98553 9.109598 28.177488 1175.8179 622.05817 1563.0424 1016.05164 7266.884
29.893677 152.16489 485.16013 10.788008 1433.7062 2238.4397 275.5175 33.550816
203.6892 1488.4652 115.20553 8.957102 1629.3639 119.76419 84.08436 1705.2963
261.86496 1240.8044 100.60843 1050.0272 512.46204 379.01035 83.2205 211.28271
1424.7734 112.489914 1992.5875 766.52747 2873.2107 36.051533 775.3376 596.45715
2019.1626 2.1115894 41.863144 22.375042 1477.5621 4.0784564 664.58685 107.00997
2041.7322 2258.3074 4.617983 1145.7542 126.38239 1888.0061 881.2905 111.1792
326.76874 816.0891 215.79538 2367.6396 2.8962133 66.19225 10.259391 109.21508
220.91074 74.40611 829.81946 161.67535 280.3853 2032.3829 1179.8247 34.923466
1294.5094 2329.4382 1104.7279 107.82076 90.22734 1106.5693 1023.0106 3805.2622
293.3599 723.8492 409.61887 10.746354 1864.0715 151.64503 122.477295 110.03122
836.69073 61.189754 23.742247 3.363199 87.12824 578.3068 1538.9247 473.73346
1201.0736 355.87952 94.81546 194.38824 19.80468 592.3112 734.6643 1390.3439
122.5058 26.554264 745.107 1615.5704 523.01685 306.14865 212.29266 1594.9437
238.19135 1292.9415 2368.0461 1296.4597 6.781338 2087.7773 17.73459 1180.292
1448.7147 1278.3663 657.0083 114.07596 261.9209 29.270582 2318.4548 163.08385
136.31657 6.260338 38.307602 1059.9397 258.19653 613.7283 3758.876 157.8514
147.85873 2.9078412 826.1832 1290.322 145.83281 1144.8209 34.902893 7.1439824
2.3749502 2002.037 1332.556 1.5804882 828.34814 398.27686 18.565386 4.556019
12.30165 294.8708 175.18913 314.5375 24.894289 871.97534 1415.9366 472.46033
1184.7909 157.71924 52.140865 1009.96893 1233.522 264.91373 445.45557 300.0329
77.458954 138.59694 236.6658 1217.5038 876.5127 202.3654 2.670488 199.30144
351.64166 4.4034224 4.812092 1044.2844 641.1802 96.59218 424.945 85.488686
2.92832 18.23657 858.168 195.92143 2668.8494 46.161995 22.279629 857.05774

fc2.weight f4 [256, 258]
00000000: 9564 823c 58d9 983b cca8 bebe 4752 eabd
00000010: b3c0 00bf 139a debd 5b65 5bbe 363b 2f3e
00000020: 64b7 2ebd 3b90 c2bd 7e4a ae3c 77e6 bcbc
00000030: 75f4 b2be afd4 21be 5aa1 b0bd 534a f2bd
00000040: f5a6 2f3e 76b1 abbc 9d79 b9bd df89 4dbd
00000050: 7bce d1bd 36ac bbbe be97 7b3c cef1 afbc
00000060: bf1a b8be d015 b83d 136d d13c e14c 00bd
00000070: 3a9c b5bd 54cc 9c3d 51e1 6abe 2119 063d
00000080: 05f3 a7be 9acd bcbe e84f 1bbd 1f8f 38bc
00000090: 223d 2d3d e2f3 07bd 2209 ecbc d46c 2bbe
000000a0: 1b3f 31be a03e 43bd 2736 9a3c 9e8e 153e
000000b0: d73b 00be 7062 143e 4cc3 053e 9847 a7bd
000000c0: be3a 1abe 0841 83bd fd4c aabe 03b8 41be
000000d0: a95f 43be 4a74 92bd dcea eabe 4a69 afbd
000000e0: 1840 84be 60d9 8bba b833 533b 79ad 99bd
000000f0: c2e3 aabe b0a3 373d 073a 903c b068 8eba
00000100: f25b f9bd b975 c33b faec 5e3d 5306 9abe
00000110: 1faf a33c 2741 c4bd e9b3 aabd c842 76be
00000120: 9ed8 2cbd c78a d33d 3370 41be 6c72 283d
00000130: a4e2 80be 3561 f9be c8a9 99bd 8c11 433d
00000140: 6e4e 40bd e6d5 a6be 5a92 48bd a63c 8a39
00000150: 01c3 47bd e4b1 4bbe 4a3e 893c 64b7 84bd
00000160: a1be 0abe 73fe d2bd d195 0a3d 98b7 18be
00000170: fc83 b6bd 7245 e53c 9c56 a9bd ce9d 91be
00000180: 7e0c 9bbe feda 163d 045c 863c 6889 69be
00000190: 0f43 ab3d 73bc 123c fa1f bfbe 80d2 303e
000001a0: ba76 2dbe de31 53bd 11c5 163d 111e 2d3c
000001b0: 351d 1dbe d95b 98bc e70c 05be 263e c3be
000001c0: f441 033d 7301 1f3e bad6 39bd 8ff6 23be
000001d0: 3de9 81bd 05ca 2f3e bb32 b3be f506 bdbb
000001e0: 122a 11be dad9 1dbe 238d 1ebe dbfd 8c3d
000001f0: 4831 abbb 7557 26bd cd93 9c3a 6779 4fbd
00000200: 1a35 7fbe 4f0d 81bc 495d 8bbe 37bc 863d
00000210: 1792 0b3d a420 5cbe b13a 9b3e b643 41bd
00000220: b412 1e3d af54 4b39 5961 ce3b 8a4c 7cbd
00000230: 38bf 03bd 93b3 b13d 6093 abbe a983 28be
00000240: dfea 073d f48f debd d550 32be e851 d3bc
00000250: 0fa3 7d3c 7d7b e33c 5b4e 53bd 7b17 9f3c
00000260: 1917 83be 6019 9bbd ab38 6ebd 890b 83bd
00000270: f264 1abd bb57 4ebe 462f ac3d 3958 7ebe
00000280: 94b7 473d 0180 05be 3d72 ea3c 1ff0 8cbc
00000290: 0392 1d3c fe9d 1e3e 2ba2 64bc 4a35 a2be
000002a0: e2b4 0dbd be46 d6bb bd47 54bd c551 1a3c
000002b0: a846 c2bd b447 e03c 69f9 16be 7102 a8bd
000002c0: b21b 40be bfa4 193e 0d20 47be 658e 3abe
000002d0: 5eb1 7ebc 571d 15be 2c91 2b3c e631 c03d
000002e0: 5697 8fbe a7b4 a8be 42f9 c2be 0988 c8bd
000002f0: df33 08bd cde8 2f3c 76c2 c8be 3ff5 ddbc
00000300: d193 c53c c7f8 40ba 6898 cb3b 26ee a2bd
00000310: b82f 7cbe cb59 2ebe b1e8 e03d 602d bcbd
00000320: 822d 29be 93ff 3abd 4533 a9be fbac 86bd
00000330: 6d01 b8bd fc93 89be a3f2 a9bc 5b95 54bd
00000340: 70e1 16bd f8e3 21be 397b 1dbe 97c2 2ebd
00000350: 1c0b 203e 535e 72bd 4c61 31bd 50d3 283d
00000360: 3da5 d73c f0af f5bc 0446 d9bd e58d 3cbe
00000370: b5be 823c e857 d03d 5288 853d 3a69 42be
00000380: db0f b93c b54d 9dbb cea5 803b 4abe 15bd
00000390: 9952 8abd c0a2 263d 4c3a 50bd 8021 74be
000003a0: f87b adbb 093b 7ebe f7f8 293b 8c3a 94bd
000003b0: 2332 103e 3994 473c 772f a4bc a5c3 f0bd
000003c0: 9819 08bc 3676 80bd 2f17 68bd 8bbb 48bc
000003d0: d799 a8be 6ce9 df3c 88cc 1f3d f564 a73b
000003e0: c232 8bbd c99f 80bd ed10 c6bd 4063 febc
000003f0: 2294 18be 15bd a8bc 4b5d f4bc a131 12be
0.015917102 0.0046645813 -0.37238157 -0.114414744 -0.50294036 -0.10869231 -0.21425383 0.17112431
-0.042655364 -0.09500166 0.021275755 -0.023059113 -0.3495213 -0.15803789 -0.08624525 -0.118305825
0.17153533 -0.020958643 -0.09056399 -0.050180312 -0.10244461 -0.36654824 0.015356002 -0.021477606
-0.35957906 0.089885354 0.025564706 -0.031323317 -0.088676885 0.0765616 -0.22937514 0.03273881
-0.32802597 -0.36875612 -0.037918 -0.0112645915 0.04229463 -0.03319157 -0.028812949 -0.16740733
-0.17309229 -0.047667146 0.01882465 0.14605185 -0.12522827 0.14490676 0.13062781 -0.08167952
-0.15061471 -0.06408888 -0.33261862 -0.18917851 -0.1907946 -0.07151087 -0.45882308 -0.08565004
-0.2583015 -0.0010669641 0.0032226872 -0.075037904 -0.3337689 0.04483384 0.017605795 -0.001086494
-0.1217574 0.0059649614 0.054425217 -0.3008295 0.019980965 -0.09582739 -0.083350964 -0.24048913
-0.04219877 0.10329204 -0.18890457 0.041124746 -0.25172913 -0.48706976 -0.07503086 0.047624156
-0.046949796 -0.32585067 -0.048967697 0.00026366598 -0.048769955 -0.19892079 0.016753335 -0.064802915
-0.13549282 -0.103024386 0.033834282 -0.14913785 -0.08911893 0.027987216 -0.082684726 -0.28440708
-0.30282968 0.03682994 0.016401298 -0.22806323 0.083624 0.008956063 -0.37329084 0.172678
-0.16939822 -0.05156123 0.03680903 0.01056625 -0.15343173 -0.018598484 -0.12993203 -0.38133353
0.03204532 0.15527897 -0.045370795 -0.16012023 -0.06343315 0.17166908 -0.34999642 -0.0057686516
-0.14176205 -0.15415135 -0.15483527 0.068843566 -0.0052243806 -0.04061075 0.0011945904 -0.050652888
-0.249226 -0.015753416 -0.27219608 0.06578868 0.03407487 -0.21496826 0.30318215 -0.047183715
0.038592055 0.00019391136 0.006298226 -0.06159643 -0.032164782 0.08676829 -0.33510876 -0.16456474
0.033182975 -0.10867301 -0.17413647 -0.025795892 0.015480771 0.027768845 -0.051588397 0.019420376
-0.2560356 -0.07573199 -0.05815951 -0.063986845 -0.037693925 -0.20150654 0.08407454 -0.24838342
0.048759058 -0.13037111 0.028618926 -0.017204342 0.009617331 0.15489957 -0.0139546795 -0.3168128
-0.03459633 -0.006539195 -0.051826227 0.009418909 -0.09486133 0.02737794 -0.1474358 -0.08203591
-0.18760565 0.15004252 -0.1944582 -0.18218382 -0.015545217 -0.14561974 0.010471623 0.09384517
-0.28045148 -0.32950327 -0.38080794 -0.09791572 -0.033252593 0.010736656 -0.39210862 -0.027094482
0.024118336 -0.00073612895 0.0062132366 -0.079555795 -0.24627578 -0.17026441 0.10981882 -0.09188342
-0.16521266 -0.04565389 -0.33046928 -0.06575962 -0.08984647 -0.26870716 -0.020745581 -0.05190025
-0.036836088 -0.1580962 -0.15379037 -0.042666044 0.15629238 -0.059171986 -0.04330568 0.04121715
0.026323909 -0.02999112 -0.106090575 -0.18413503 0.015960077 0.10173017 0.06520142 -0.18985453
0.022590568 -0.004800523 0.0039260155 -0.036558427 -0.067540355 0.040682554 -0.050836846 -0.23840904
-0.0052943192 -0.24827208 0.0025935748 -0.072377294 0.14081626 0.012181335 -0.020042164 -0.11756066
-0.008306883 -0.06272547 -0.056662735 -0.012251745 -0.3292987 0.027332984 0.039013416 0.0051084706
-0.06796791 -0.062804766 -0.09671197 -0.031053185 -0.14900258 -0.020597974 -0.029829642 -0.14276744

fc2.bias f4 [256]
00000000: a2f5 9bbe 8b82 b6be 6abb 64be 7140 cbbe
00000010: 1bdf b7be 433c b0be 8530 b7be 6cb5 8abe
00000020: df7d 27be debc 5cbe a942 d3bd 0b51 dfbe
00000030: 42d7 d13d 61ef 663f 92ff 9ebe 5499 38be
00000040: 5a7c 143f 7c40 d3be a31b 20bf 2958 a0be
00000050: ae55 62be 201e 2dbe e4ca 8abe 0121 4bbe
00000060: c473 65be 3538 12be b62b 35be 9d5f 8abe
00000070: c592 7dbe 950a 8dbe c4d4 04be e480 77bd
00000080: cd26 c3bd d22d 95be df1f 1abe 35f9 d7be
00000090: e594 adbd b80b 2abe 768e b4be feb8 bbbe
000000a0: ba9b 5ebe fe20 6bbe 9312 2abf d038 6cbe
000000b0: 8043 89be 5a9c 79be d6b6 73be 3425 febd
000000c0: 4808 80be 3896 5ebe e7c3 86be 5913 69be
000000d0: c2d0 11bf 623c 73be 2fd6 5cbe 59b8 87be
000000e0: 1c60 81be 5794 a9be 4086 5dbe bef1 0cbe
000000f0: fa08 cabe 66b8 aabe 7083 b0be 2df6 8dbe
00000100: a568 1bbe e55a 82be df55 69be 6e3d 9ebe
00000110: abfd 75be c66d 85be a242 11be 2e0e 4ebe
00000120: 21ca afbe 0e72 82be 3a8b 86be e0ff 7cbe
00000130: 5e6c 59be 1b68 69be 6146 93be 8719 80be
00000140: 1057 9dbe 5904 eabe 9376 83be b6ab 34be
00000150: 32b8 78be 7c6b a8be b97a 55be 1a5e 8bbf
00000160: f307 63be 6811 d9bd ab80 963e bc6a 90bd
00000170: b201 a3be 63ff 583e 590f 54be 6517 c6be
00000180: acb6 1bbe 01ce 93be 23fa 16be 53ab 373f
00000190: 816d ecbd c3bb 07be 441c 7cbe 1a7d b3be
000001a0: ee20 99be 1c3a a6be 954b 68bf bb54 acbe
000001b0: 709c 24bd 78c2 33be 5153 94be d35b a9be
000001c0: 9cdc 89be ed72 8cbd 57b4 91be b6c0 77be
000001d0: aa52 b8be d90f 79be 37ba a9be 5973 91be
000001e0: 92fb acbe ead2 88be 21ea b1be f276 4abe
000001f0: 6a9f 8cbe 73d5 13bf aa2a 8dbe 63f9 78be
00000200: b1b6 a6bd a81b f3be 1758 62be 69c4 1bbe
00000210: bf29 c0be 6ebf 88be 9f8a 3bbe 948c 60be
00000220: 5847 89be b0f3 20be eaca 77be 3b7d 76be
00000230: 4a7d 89be 9fcd bebe 8214 9dbe 4670 cabd
00000240: 5da1 aebe dc55 51be 68c6 68be 166f babe
00000250: 378f 9cbe 84d1 9cbe 6420 79be 7bd1 50be
00000260: 48e6 1dbe e53f 5ebe 44fb dcbe 7230 17be
00000270: ce32 4dbe dbd4 abbe b0b5 a2bd 8eb8 e3bd
00000280: 18ed 84be fc33 b6be ad13 0dbe 5ee2 96be
00000290: 6dc3 41be 6001 94be ae24 48be fe2e 91be
000002a0: 6c54 3bbe 0e73 f5bd 9398 1cbe 89f0 92be
000002b0: 6ac9 bebe b1d1 a9bf fa89 67be 34eb 90be
000002c0: 0510 07bf 1f1b cabd d785 b5bd f237 85be
000002d0: 64bc 16be 3699 29be 7743 94be ad0c 51be
000002e0: 1305 e6bd 9e1a e4bd 648b 34be 5690 bbbe
000002f0: 6c14 50be 8600 c3be 615c aebe 759a 4abe
00000300: 281c 52be cb9e 66be a679 83be 53b5 41be
00000310: 0e0b a1be f5b4 94be 7f0c 5cbe 755c 88be
00000320: eae2 2ebe 62dc ea3e 9403 59be 8dae 39be
00000330: e87a 9dbe 9b95 4fbe a82f 97be eeb8 f1bd
00000340: 78ad 18be 6b20 25be 86c9 57be 1928 d6bd
00000350: ed73 bbbd 4a40 cabe da70 b6be d8d6 14be
00000360: 8262 b6be 4c12 8ebe 69dd 11be fa38 f2bc
00000370: 0964 b0be 778c b2be 2236 a5be 5c6a 26bd
00000380: 9993 efbe e56f bdbe b5ae 2dbe aba9 acbe
00000390: b524 81be 2d6f 8fbe 65da 9ebe ca99 05be
000003a0: 84cc a7be 40ea a1bd 757d 8abe 9709 6dbe
000003b0: 4100 8dbe f209 abbe bbd9 5bbe 056a cebe
000003c0: 0f0b 82be 5ed0 67be 1be0 fbbd 78b8 7abe
000003d0: 4886 acbe bf9b 1dbe fe13 21be ab28 5fbe
000003e0: 7deb 96be 9c94 9abe 0f46 4ebe c6ca 03bf
000003f0: efcf cabe 92c4 aebd b633 43be 26ae b7be
-0.3046084 -0.3564647 -0.22337118 -0.39697602 -0.35912403 -0.34420976 -0.35779205 -0.2709154
-0.1635661 -0.21556422 -0.10315449 -0.43616518 0.10246135 0.90209013 -0.3105436 -0.1802724
0.58002245 -0.41260135 -0.6254217 -0.3131726 -0.22102997 -0.16906023 -0.27107918 -0.19836809
-0.22407442 -0.14279254 -0.17692456 -0.27026072 -0.2476302 -0.27547136 -0.12971789 -0.060425654
-0.09528885 -0.2913652 -0.1505122 -0.42182317 -0.08475665 -0.16606033 -0.3526494 -0.36664575
-0.21739092 -0.22961804 -0.6643459 -0.23068547 -0.2680931 -0.2437605 -0.23800215 -0.1240944
-0.25006318 -0.21736991 -0.26321337 -0.22761287 -0.56959164 -0.23753503 -0.2156608 -0.26507834
-0.25268638 -0.33120987 -0.21633244 -0.13764092 -0.39459974 -0.3334381 -0.3447528 -0.2772688
-0.15176637 -0.25459972 -0.22786663 -0.30906242 -0.24022548 -0.26060313 -0.14185575 -0.20122597
-0.343339 -0.25477642 -0.26278096 -0.24706984 -0.21232745 -0.2279362 -0.28764632 -0.25019476
-0.30730486 -0.45706442 -0.25676402 -0.17643628 -0.24289015 -0.32894504 -0.20847596 -1.0888093
-0.22171001 -0.10599023 0.2939504 -0.07051608 -0.3183723 0.21191172 -0.2070898 -0.38689724
-0.15206403 -0.28868106 -0.14743857 0.71745795 -0.11544324 -0.13255219 -0.24620157 -0.35056382
-0.29907936 -0.3246621 -0.9074033 -0.33658394 -0.040188253 -0.17554653 -0.28969815 -0.3307787
-0.26926124 -0.06857858 -0.284579 -0.24194607 -0.36000568 -0.24322452 -0.33149883 -0.28408316
-0.33785683 -0.26723415 -0.3474894 -0.19771937 -0.27465373 -0.5774757 -0.27571613 -0.24313883
-0.08140314 -0.47482038 -0.22103916 -0.15211643 -0.3753185 -0.2670855 -0.18314599 -0.21928626
-0.26812243 -0.1571796 -0.241985 -0.24071209 -0.268534 -0.3726625 -0.3067971 -0.09884696
-0.34107485 -0.20442909 -0.22731936 -0.36412877 -0.30578014 -0.30628598 -0.24328762 -0.2039241
-0.15419877 -0.21704061 -0.4316045 -0.14764574 -0.20038912 -0.33560833 -0.079448104 -0.111191854
-0.25962138 -0.35586536 -0.13777037 -0.2946958 -0.18922205 -0.289073 -0.19545242 -0.28356165
-0.18293923 -0.119848356 -0.15292577 -0.2869914 -0.37263042 -1.3267118 -0.22611228 -0.28304446
-0.5275882 -0.09868454 -0.088634185 -0.26019245 -0.14720303 -0.16562352 -0.28957722 -0.20414992
-0.112314366 -0.11137889 -0.17631298 -0.36633557 -0.2032029 -0.38086337 -0.34054855 -0.19785483
-0.20518553 -0.22521512 -0.25678748 -0.18916826 -0.31453747 -0.2904431 -0.21489142 -0.2663304
-0.17078748 0.45871264 -0.21192771 -0.18132992 -0.30757833 -0.20271914 -0.29528546 -0.11802851
-0.14909923 -0.16125648 -0.21072969 -0.10456867 -0.091529705 -0.39502174 -0.35632974 -0.14535081
-0.3562203 -0.27748334 -0.14244618 -0.029568184 -0.3445132 -0.3487279 -0.32267863 -0.040628776
-0.46792296 -0.3699943 -0.16961177 -0.33723196 -0.25223318 -0.28014508 -0.31025997 -0.13046947
-0.3277322 -0.07906008 -0.2704884 -0.2314819 -0.27539256 -0.33406025 -0.21469776 -0.4031526
-0.25399062 -0.2263808 -0.12298604 -0.24484432 -0.33696198 -0.15391444 -0.15730283 -0.21792857
-0.29476538 -0.30191505 -0.20143913 -0.5148128 -0.39611766 -0.085335866 -0.19062695 -0.35875052
