p3_collab-compet/checkpoint_critic.pth (torch_old, 297420 bytes, 9 tensors)

fc1.weight f4 [256, 24]
000000 5f 7d 08 bf 88 92 31 be c5 5d 50 3d 2b 6d a3 bd
       -0.533163 -0.17341053 0.050870676 -0.079798065
000010 79 b0 d2 3c f8 e0 c3 3d f8 d4 29 bc 07 fd b2 bd
       0.025718914 0.09564394 -0.010365717 -0.087396674
000020 d1 ea 20 bf 47 2e d5 3c 4e 11 d6 3d 0e 9d 90 3e
       -0.628583 0.026023043 0.10452519 0.28244823
000030 47 42 6a 3d a2 99 07 be 4b bd 44 3e 7e 06 96 3e
       0.057192113 -0.132422 0.19212835 0.29301828
000040 0b d9 60 bf 6b 5a 91 bd d3 4a 83 be cb 63 b2 3c
       -0.8783118 -0.07097324 -0.25643024 0.0217761
000050 96 2d e1 bd f5 0a 53 be ec da 6f be e6 61 76 3d
       -0.10995023 -0.20609649 -0.23423356 0.060151957
000060 b7 46 9e 3c 8c 44 0b 3d 57 7d c5 3d 5d 03 c3 bd
       0.019320829 0.03400092 0.09643047 -0.09522126
000070 46 93 0a 3d 98 1d 28 be dc 7c 9d 3d 23 60 1a be
       0.033831857 -0.16417539 0.07689831 -0.15075736
000080 75 17 b8 bd 9b a5 35 3d 8a 61 6a bd 59 d6 cc bd
       -0.08988849 0.044347387 -0.057221927 -0.10001821
000090 8b 6c 92 be d5 41 b2 3d 1c b5 06 bd 75 d8 db bd
       -0.28598437 0.08703963 -0.032887563 -0.10734645
0000a0 72 23 c1 be 5a d5 a5 bb 32 67 90 be 29 2a 07 3e
       -0.37722355 -0.005060834 -0.28203732 0.13199677
0000b0 54 c1 e6 be 6d 95 c8 3d 16 51 62 be 97 ff 1b 3e
       -0.45069373 0.09794126 -0.22101244 0.15234219
0000c0 ea 10 94 bf c8 08 0a 3e d0 3e ae bd 20 e0 3a 40
       -1.1567662 0.13479912 -0.08508074 2.9199295
0000d0 dc 29 f1 bb 95 62 c4 bf e9 d6 8b bd f6 c1 38 40
       -0.0073597264 -1.5342585 -0.068281 2.8868384
0000e0 c8 5d 9b bf 61 35 28 3f 02 11 3e bd 16 1a 57 3d
       -1.2137995 0.6570645 -0.04640294 0.052515112
0000f0 53 ce e6 bf fe 7a 37 c1 f5 c5 2e bd 43 da b1 3d
       -1.8031715 -11.467527 -0.042669255 0.08684208
000100 b2 1c 84 c0 99 1d 46 3e 46 8a 03 be 6f b4 04 3e
       -4.128503 0.19347228 -0.12845716 0.12959455
000110 22 c6 ae bf ef 09 b3 c0 c3 72 d1 bd 1d 13 22 3e
       -1.3654215 -5.5949626 -0.10226967 0.15827604
000120 21 a3 79 3f ae 86 fa bd dc ef 09 3f 91 9f 3d bf
       0.9751454 -0.12232719 0.5388162 -0.74071604
000130 fc f9 38 3f 84 78 45 3f 84 da 01 3f 8b cd 51 bf
       0.72256446 0.7713702 0.50724053 -0.8195426
000140 67 f9 83 3f f7 81 d6 bd e9 cb ae bd b7 f8 d1 3e
       1.0310487 -0.104740076 -0.085349865 0.41010067
000150 ec 8b 7b 3f a2 12 3b 3f f4 a0 35 be 2d 4a d0 3e
       0.9826038 0.73075306 -0.1773718 0.40681592
000160 29 31 b6 3f 09 91 88 3e 68 10 ea 3e 2f 8b 74 3f
       1.4233752 0.26673153 0.45715642 0.9552488
000170 4c 31 04 40 1d a1 0d bf 3a 27 d9 3e 6d af 62 3f
       2.0655088 -0.55323964 0.4241274 0.8854893
000180 e2 31 97 be ee c8 af be d1 7a 75 be ae ba c0 be
       -0.29530245 -0.34332985 -0.23972632 -0.37642425
000190 23 c0 10 be 32 c6 74 3d 85 d5 7c be ac 6a bf be
       -0.14135794 0.059759326 -0.24690826 -0.37386072
0001a0 5b 79 03 be dd 36 05 bf c9 a5 0c 3f 68 91 81 3d
       -0.12839262 -0.5203684 0.5494047 0.06326562
0001b0 e2 54 be be b7 71 e9 3e 90 46 1a 3f 3b 69 b8 3c
       -0.37174135 0.4559457 0.6026392 0.022511115
0001c0 e5 35 8b be dc f5 25 be 9c ee 51 be 7d 48 b4 3f
       -0.27189556 -0.16207069 -0.20501179 1.4084622
0001d0 5e 82 e2 be 61 38 0a 3f 4e 12 45 be 23 35 b6 3f
       -0.44240087 0.5399228 -0.19245264 1.4234966
0001e0 a7 75 93 3e d7 97 72 3f 97 62 82 be 06 aa 10 bf
       0.288007 0.9476294 -0.25465843 -0.56509435
0001f0 92 0a f0 3e 55 4b 5f bd 09 ad 30 be ad fc 0e bf
       0.46883065 -0.0545152 -0.17253508 -0.558543
000200 2d e1 77 3e 4e 31 7b 3f 84 a2 2c 3e e8 b1 95 be
       0.24206991 0.9812211 0.1685887 -0.29237294
000210 10 0f 1a 3f 59 de e9 bd c6 f9 81 3e 6e 95 b2 be
       0.60179234 -0.114193626 0.25385875 -0.3487963
000220 75 03 b2 be 28 2e 85 3f 4c e6 dc be 40 5b 2c 3f
       -0.34768263 1.0404711 -0.43144453 0.67326736
000230 17 e3 92 3f 4b 66 ac bd 58 47 d8 be ed d7 11 3f
       1.1475552 -0.08417948 -0.4224193 0.569701
000240 f5 8a bf 3f ad 0f 8a 3f 8e 8e cd bc 3c e9 fe 3e
       1.4964281 1.0786034 -0.02509239 0.4978732
000250 88 6d b1 c0 cb 6b 32 40 74 7f ba bc a7 10 0f 3f
       -5.5446205 2.7878292 -0.022765853 0.55884784
000260 9b 00 ef 3e 06 03 c6 3d 03 7b 25 3d 60 14 58 3f
       0.4668015 0.096685454 0.040400516 0.8440609
000270 d8 eb 82 40 e4 1e f9 c0 4d 9a eb 3c 14 75 52 3f
       4.0912895 -7.785021 0.0287601 0.822099
000280 72 90 ff bf 34 f1 bb be 1e 10 9e 3c 1b dd 41 be
       -1.9965956 -0.3670746 0.019294795 -0.18932001
000290 94 80 9b 40 f6 01 79 c0 a2 34 2f bd a3 35 4f be
       4.8594456 -3.8907447 -0.042774804 -0.20235305
0002a0 cb 03 11 bf 37 4d 7d c0 0b 26 ec bc 5f c8 d9 be
       -0.5664641 -3.9578378 -0.028826734 -0.42535684
0002b0 8e 74 03 40 3a 0b 94 bf 17 81 f1 bc 6d c4 f7 be
       2.053989 -1.1565926 -0.0294805 -0.48392048
0002c0 5a 9b cb bf 5d ad a3 c0 16 93 12 bd 8a ce 73 bd
       -1.5906785 -5.1149125 -0.035784803 -0.059523143
0002d0 19 3f a3 40 c3 2b a5 c0 1a 49 9a 3d 95 c5 9a bd
       5.1014524 -5.161592 0.07533474 -0.07557217
0002e0 93 87 87 be af 54 d4 c0 46 e8 84 3c aa f8 a2 3e
       -0.26470622 -6.6353374 0.016224038 0.3183034
0002f0 7d ad 20 41 1c ee c1 c0 2a fd 26 3d a5 17 88 3e
       10.042356 -6.060316 0.04076878 0.2658054
000300 fb 37 3f be ad f4 03 3e 1d c3 04 3d 7f 15 91 bd
       -0.18673699 0.12886305 0.032412637 -0.07084178
000310 1e c3 9f bd 36 b2 d3 be b0 c3 a0 3c e5 17 0d be
       -0.078008875 -0.41346902 0.019624561 -0.13778646
000320 e5 06 17 be 94 f7 09 3e 00 25 88 3e 19 3a 80 3d
       -0.14748724 0.1347335 0.2659073 0.06261081
000330 85 7c d6 bd a2 0f f2 be 3c 0d 63 3e d9 59 a7 3b
       -0.10472969 -0.47277552 0.22173017 0.005107146
000340 ab 8e 51 be 43 e4 ba 3c b1 40 89 be db 30 3c be
       -0.2046458 0.022813922 -0.26807168 -0.18378012
000350 e1 3e 6b 3b a4 43 0a be a2 3b 44 be 8f c1 59 be
       0.0035895633 -0.13502365 -0.19163373 -0.21265243
000360 9a 3f ef bf 3b 43 7c 40 a8 d8 5a 3e b4 0d 8e be
       -1.8691285 3.9416034 0.2137171 -0.2774483
000370 4f 3f 01 be a2 56 9b 3f 5c 14 42 3e 99 af 75 be
       -0.12621807 1.2135813 0.18953079 -0.23992766
000380 62 17 9a c0 19 70 81 40 da d2 a6 be fd ca 99 bf
       -4.8153543 4.044934 -0.32582742 -1.2015072
000390 66 c7 db be 9d b8 f3 3f 5c 0d 9d be a9 e4 9a bf
       -0.42925566 1.9040715 -0.30674255 -1.2101032
0003a0 43 a2 88 c0 20 90 7c 40 4e c5 f6 3e 8c d1 7a be
       -4.2698073 3.9462967 0.48197407 -0.24493998
0003b0 c7 ff a1 bf a5 1d 24 c0 f4 1e f6 3e 32 21 92 be
       -1.2656182 -2.5643094 0.4807049 -0.2854095
0003c0 cd 9c 2a be d2 7c 07 40 a4 41 b3 be 52 cb 94 3f
       -0.16661377 2.1169934 -0.35011017 1.1624548
0003d0 a0 54 ac bf 87 87 91 3f 1b e7 e1 be 9a 19 9d 3f
       -1.3463326 1.1369485 -0.44121632 1.2273438
0003e0 ee 3c 97 bf 91 ef fe 3f f8 0e 37 bf 10 4f e5 3e
       -1.1815469 1.991686 -0.71507215 0.44786882
0003f0 76 ba 25 be d0 64 a2 3f 84 bb 25 bf 26 d6 cc 3e
       -0.1618441 1.2687016 -0.6473925 0.40007132

fc1.bias f4 [256]
000000 b2 72 d6 3d c6 ba 14 be 57 e4 10 3e a8 85 0b be
       0.10471095 -0.14524373 0.14149605 -0.13625205
000010 76 16 3b 3e 18 2e 0e 3e 0f ce 95 3d 0f 71 4c be
       0.18270287 0.13884771 0.07314693 -0.19965003
000020 60 97 a7 bd 3d a9 c3 3d 10 9c 3e be 24 e1 c7 3d
       -0.08183169 0.09553764 -0.1861422 0.09759739
000030 ac 53 a8 bd 53 be 18 be 5f f7 11 bb ee 25 00 3d
       -0.08219084 -0.14916353 -0.0022272689 0.031286173
000040 90 ff 1d 3e a2 0d 05 be 36 e8 29 be e5 bf 8c bd
       0.1542952 -0.12993482 -0.16592488 -0.068725385
000050 0c d3 1e 3d 31 50 ba bd cb 9e 9e bd 4e f4 91 bd
       0.03877549 -0.090973265 -0.07745131 -0.071266755
000060 7a 4a b3 3d 8c 7b db 3c 31 3d 37 3e 57 84 04 3e
       0.0875444 0.02679231 0.17894436 0.12941109
000070 c4 08 35 be d6 55 57 3d 75 5b 37 be 50 c6 40 be
       -0.17679125 0.052572094 -0.17905982 -0.1882565
000080 b4 66 91 bd 17 2e 50 3e bb bb 95 3c b2 c1 16 be
       -0.07099667 0.20330082 0.018277993 -0.14722326
000090 91 77 3c be 4a 8e 1d 3e 93 dc 21 3e e2 eb e7 bd
       -0.18404986 0.1538631 0.15806799 -0.11324288
0000a0 16 77 11 3e 1f 69 9a 3d 55 03 d7 bd 69 ff 7f 3d
       0.14205584 0.075395815 -0.104986824 0.062499437
0000b0 30 2c 06 3c a8 59 57 bd 05 a8 55 bd 92 93 1a 3e
       0.008189246 -0.052575737 -0.05216219 0.15095356
0000c0 42 7d b4 3d 82 64 b6 3d 4b b7 73 3d b3 d0 0e 3e
       0.088129535 0.08905889 0.059500974 0.139468
0000d0 c5 e7 55 bd 2c ec 33 bb 82 d8 2c 3e 6a a1 fa 3d
       -0.052222986 -0.0027454002 0.16879466 0.122378185
0000e0 e3 7f 4f 3d f0 e6 d4 bd 74 f0 56 bd 42 a3 03 3d
       0.05065907 -0.1039561 -0.052475408 0.032138117
0000f0 62 2c 01 be 01 5d bd 3d 75 d1 01 be d1 5b 14 be
       -0.12614587 0.09246255 -0.12677558 -0.1448815
000100 00 3a 96 3d d6 c4 ce bd 1d 41 50 be 56 fe 02 3e
       0.07335281 -0.10096137 -0.20337339 0.12792334
000110 a8 97 aa bd 32 50 9e bd e6 80 c2 bd e8 e7 ee bd
       -0.083297074 -0.0773014 -0.09497242 -0.11665326
000120 03 66 0c be 8c cb b6 bd c9 e3 18 be de 8d 91 bc
       -0.1371079 -0.08925542 -0.14930643 -0.017767843
000130 b4 39 85 3d b2 31 02 be ff a6 48 be 79 d6 91 3d
       0.065051466 -0.1271427 -0.19594954 0.071209855
000140 03 f4 e6 bd 11 96 65 3d c9 90 80 bc bc ad 37 3d
       -0.1127701 0.056051318 -0.015694039 0.04484342
000150 f2 a5 14 bb f4 ce 82 bd 87 14 22 be 60 83 0f 3e
       -0.002268192 -0.063871294 -0.15828143 0.1401496
000160 63 d2 c5 3d 67 33 ad 3c 27 50 32 3e 51 eb 3f 3e
       0.09659269 0.021142675 0.17413388 0.1874211
000170 d9 21 28 be e2 30 d2 3d b2 f4 3f 3e 53 f9 3f bc
       -0.16419162 0.1026323 0.18745688 -0.011717158
000180 b7 e9 45 be 29 14 98 bd 51 60 9a 3c 70 61 32 bd
       -0.19327436 -0.0742572 0.018844755 -0.043549955
000190 02 c2 c8 3d 4c cc a2 3d ab db 46 be 75 e6 e1 3c
       0.09802629 0.07949123 -0.19419734 0.02757571
0001a0 c1 f9 04 3d 9e 75 05 3e 3e a6 d6 3c 08 90 e3 3d
       0.032464746 0.13033149 0.026202317 0.11111456
0001b0 b6 8b 2b 3d 20 f2 0a be 1e 24 22 be 14 90 8e bd
       0.041881286 -0.13568926 -0.1583409 -0.069610745
0001c0 46 d0 62 3a d9 11 f4 bd 3e 26 39 be 2d 14 33 3e
       0.0008652251 -0.11917467 -0.18080994 0.17488165
0001d0 4a d6 bb 3c 17 f6 a0 3d e9 58 d4 bd 43 ab 0a 3d
       0.02292933 0.07859438 -0.10368521 0.033854734
0001e0 01 1d 84 bc 54 f2 db 3d 60 5a 98 bd 88 1c 3a 3e
       -0.016127111 0.1073958 -0.07439113 0.18174946
0001f0 0f af 2d 3c 96 f1 0b 3c 79 ad 12 3e 0d 22 d7 bb
       0.010600819 0.008541485 0.14323987 -0.0065653385
000200 12 95 73 3d 49 f4 6e bc e5 62 21 3e 43 36 4b be
       0.059468336 -0.014584609 0.15760382 -0.19844918
000210 6d 8d 49 3e 57 2e f6 bd 97 49 4c 3e 7b 91 8d 3d
       0.19682856 -0.120205574 0.19949947 0.06912514
000220 e0 ec 04 be f0 08 33 be 55 80 65 3d db bf a9 3d
       -0.12980986 -0.17483878 0.05603059 0.08288547
000230 00 dc 0e be d7 2a 05 3e 98 c3 be bd 7e 60 25 3e
       -0.13951111 0.13004623 -0.0931465 0.1615009
000240 34 20 08 3d 50 3e 33 be af 0e 06 3d 19 4f 5d bd
       0.033233836 -0.17504239 0.032728847 -0.05403051
000250 fd 14 5d 3d 51 1c 9d bd c4 1f 37 3e 68 61 ee bd
       0.053975094 -0.076714166 0.17883211 -0.116396725
000260 a6 b5 2b 3e 4f 3d 4f be 2f 5a 17 3e f6 e8 0f be
       0.16768512 -0.20238231 0.14780496 -0.14053711
000270 f1 1a 1b 3d 82 fc 54 bd 2a 0c 50 be 0f 68 24 3e
       0.03786749 -0.051998623 -0.2031714 0.1605532
000280 9a 2d 46 3d 68 7a e8 3d a1 0d c8 bd 59 40 81 bd
       0.048383333 0.11351472 -0.097682245 -0.063111015
000290 52 a8 c0 bd 71 ee 40 be 05 bb 36 3d 2c 31 98 3d
       -0.094071046 -0.18840958 0.04461195 0.07431254
0002a0 a0 05 cb bc 44 fe 07 be 66 36 c8 3c b1 19 b3 3d
       -0.024782956 -0.13280588 0.024440002 0.087451346
0002b0 51 97 9e 3c f0 59 4f be 37 da cc 3d c2 17 18 3e
       0.019359263 -0.20249152 0.10002559 0.14852813
0002c0 0b f5 88 bd 1c 20 36 bd 2a ab 92 3b 27 39 2a 3d
       -0.06687363 -0.044464216 0.0044759708 0.04155841
0002d0 c0 6b 39 3e 1d 4b 15 3e 4d 94 ba 3d 9e c3 09 be
       0.1810751 0.14579435 0.091103174 -0.13453528
0002e0 0c c6 fa 3d f3 d1 cb 3d da d8 43 3e 22 cc a1 bd
       0.12244806 0.09952154 0.19125691 -0.07900263
0002f0 93 6d 93 3d a8 f4 09 3e 3a c5 c3 3d e3 59 a6 bc
       0.07198634 0.13472235 0.09559102 -0.020306533
000300 3d 5c 70 bd 17 49 19 bd e9 e1 e8 3d aa 2f 84 bd
       -0.058681715 -0.03742322 0.11371214 -0.06454404
000310 94 b7 4f be 3c 9b 06 bd ba 04 40 be 5b e7 23 be
       -0.20284873 -0.032862887 -0.18751803 -0.16006224
000320 29 5b 34 3e a4 91 03 be 41 bc f2 3d 1b c8 fa bd
       0.176129 -0.12848526 0.11852313 -0.12245198
000330 4a 59 4d be 58 c6 95 3b 45 f9 d6 3d 40 dc 1b 3c
       -0.20053592 0.0045707636 0.10496763 0.009512961
000340 e5 4f f0 3d 6a 80 08 bc 4a e2 14 be 20 89 ff 3d
       0.11733989 -0.008331398 -0.14539447 0.124773264
000350 34 1a 10 3d 8c 5f e7 bd 24 09 ac bc 09 90 93 3d
       0.03518124 -0.11297521 -0.021000452 0.07205207
000360 7a f4 2f bd 16 43 16 bc 10 50 53 3d 3f cc 85 3d
       -0.04295776 -0.009171268 0.051590025 0.065330975
000370 8c 9e f0 3d fe e2 53 bd 1b c8 78 3d 60 45 45 3d
       0.117489904 -0.05173015 0.06073771 0.048161864
000380 ac 69 a0 bd 74 42 00 3d d7 d3 e5 3b 10 c4 19 be
       -0.07832655 0.031313375 0.0070137787 -0.15016198
000390 fb d7 3b be f0 35 36 3e 60 1c bf bd 22 df 18 3e
       -0.18344109 0.17794013 -0.09331584 0.14928868
0003a0 38 06 28 3d ed ca ec 3d 39 0b e3 bc 85 6c 30 bd
       0.041021556 0.115621425 -0.027715312 -0.043072242
0003b0 53 a2 9a bd 59 93 46 be 4c a5 3c ba 63 15 30 3e
       -0.07550492 -0.19392146 -0.0007196262 0.17195658
0003c0 52 1a 28 3d a5 80 8b bd 29 5c 04 be 65 f4 44 bd
       0.041040726 -0.06811646 -0.12925781 -0.048084635
0003d0 bf 93 ad bd 49 c3 ff 3d 28 e9 bc 3d 6e 05 58 3d
       -0.08475446 0.124884196 0.092241585 0.052739553
0003e0 3e 15 f5 3c 4e d9 ed 3b ec 36 dc bd 99 a8 ca bc
       0.029917356 0.0072585708 -0.10752663 -0.024738597
0003f0 99 7d 05 3e 34 4e d5 bc b6 11 90 3d 6f 56 e8 bc
       0.13036193 -0.026038267 0.07034628 -0.028361527

bn1.weight f4 [256]
000000 b2 fa 86 3c 12 cf 83 3d b8 25 5a 3f a6 5c 34 3e
       0.016476963 0.0643598 0.85213804 0.17613468
000010 0b c0 60 3e 1a 5d 24 3e 6d 29 4a 3f 04 36 10 3f
       0.21948259 0.1605114 0.7896946 0.5633242
000020 29 4e 90 3d c0 04 34 3f 69 a6 98 3e 22 b1 1c 3e
       0.07046158 0.7031975 0.2981446 0.15301946
000030 aa 52 54 3f 49 5e d1 3d 49 16 67 3f b2 fb 18 3e
       0.82938635 0.102230616 0.9026838 0.14939764
000040 c9 9b bd 3e 11 63 28 3f fa e9 12 3f 4e 37 72 3e
       0.37032917 0.65776163 0.5738827 0.2365391
000050 6e 6e e3 3d f9 be e3 3e 58 db 96 3f 48 18 b6 3e
       0.11105047 0.44481638 1.1785688 0.355654
000060 a6 72 84 3d 49 74 05 3e 53 ad c3 3d 92 cc 2a 3f
       0.0646718 0.1303264 0.09554543 0.667184
000070 16 d0 9c bd 02 ff be 3f 97 d3 48 3f bb d0 68 3f
       -0.07656877 1.4921572 0.7844786 0.909435
000080 9e f7 39 3f a7 d9 ed bc 8e f4 ac 3e 3a 42 83 3f
       0.7264346 -0.029034449 0.3378033 1.0254586
000090 a0 59 f5 3e dd 6b 06 3d 67 c9 6c bd e1 f3 9d 3f
       0.4791994 0.03281771 -0.05780926 1.2340051
0000a0 e5 21 67 3d ba 6b 76 3e 3e 57 72 3f 8a 51 3f 3e
       0.05642881 0.24064532 0.9466437 0.18683448
0000b0 ac 4a a2 3f aa ae 34 3e 28 57 42 3f a4 e4 e8 3d
       1.2679038 0.17644754 0.7591424 0.11371735
0000c0 79 d8 1a 3f b3 74 5e 3f 39 89 80 3f ac 65 9b 3e
       0.6048656 0.8689682 1.0041877 0.30351007
0000d0 8b 28 1d 3f eb ed 95 3f d9 98 04 3e cf 4b 01 3f
       0.6138999 1.1713232 0.12948932 0.505063
0000e0 99 ee 41 3f 1c 7e 1a 3e 5f 93 81 3f 69 92 56 3f
       0.75754696 0.1508717 1.0123099 0.83817154
0000f0 8d 41 d3 3d e9 12 48 3d 93 b2 56 3f 9a 63 49 3d
       0.10315237 0.04884616 0.8386623 0.049167253
000100 13 43 1e 3f b1 72 4e 3e fe 43 92 3f a8 f5 41 3f
       0.618211 0.20160939 1.1427 0.75765467
000110 3f e2 39 3e 6a 26 2d 3f ab 55 34 3f 3d 3e 8e 3e
       0.18152712 0.6763674 0.7044322 0.2778186
000120 ad e8 cf 3e 86 44 8f 3e 92 07 c5 3d 06 68 37 3f
       0.40607205 0.27981967 0.096205845 0.716431
000130 52 e9 4f 3f 34 9d 38 bc a1 00 4f 3f cc 8a a7 bd
       0.81215394 -0.011267949 0.80860335 -0.0818077
000140 4b 65 c4 ba 15 26 b7 3f 54 7b 44 3f f0 a1 2b 3c
       -0.0014983801 1.4308497 0.76750684 0.010475621
000150 05 e6 12 3f b8 cf ed 3d 9c cb 6e 3f 99 64 a7 3f
       0.5738223 0.11611885 0.93279433 1.3077575
000160 f6 d8 35 3f 50 ec 80 3e 15 75 fb 3d 92 f2 22 3f
       0.7103418 0.25180292 0.12278191 0.6365138
000170 f3 06 4f 3f 2e 7e 92 3f b6 2a 4b 3f e1 15 4e 3f
       0.8086998 1.1444757 0.79362047 0.80502135
000180 75 cf e0 3e e8 fb 25 3e 43 21 99 3e e1 bd 3a 3f
       0.43908277 0.16209376 0.2990819 0.7294598
000190 1a 71 a6 3f 35 4a 2e 3b 27 34 1e 3f e0 ef 29 3f
       1.3003266 0.0026594524 0.6179833 0.66381645
0001a0 9f 02 2c 3f 16 9f 9e 3d 9c c0 97 3f 60 04 96 bd
       0.671915 0.07745187 1.1855655 -0.07325053
0001b0 05 be 2d 3f 3d 7c aa bd e3 3c f7 3e 63 96 05 3f
       0.6786807 -0.08324478 0.4828864 0.52182597
0001c0 cc 80 84 bd c1 0f a3 bc 31 24 68 3d 40 70 51 3f
       -0.064698786 -0.019904973 0.05667514 0.81811905
0001d0 67 5a 1a 3f 93 66 ac 3f d7 66 f6 3e a5 81 49 3f
       0.60294193 1.3468803 0.48125336 0.78713447
0001e0 83 8f 44 3f 8b 4d 77 3f 3d e9 8f 3d 8a b9 90 3e
       0.7678148 0.96602696 0.070269085 0.28266555
0001f0 fc ea 80 bb fb 5b 77 3c 67 e0 0f bf b7 f8 72 3f
       -0.0039342623 0.015097613 -0.56201786 0.9491076
000200 40 a3 10 3e 87 49 a8 3f e2 0e 15 3f 67 77 db 3d
       0.14124775 1.3147439 0.58225834 0.107161336
000210 4c ee 34 3f 0b b9 44 3e 7a b5 39 bd 60 95 81 bd
       0.7067611 0.19211213 -0.045339085 -0.06327319
000220 b1 e9 98 bc ea a5 b0 3f 74 b9 50 3e 59 48 f6 bc
       -0.01866612 1.3800633 0.20383245 -0.030063795
000230 d9 cf 3b 3e a4 44 27 3e 91 0d ad 3f ca 31 88 3f
       0.18341006 0.16334778 1.3519765 1.0640194
000240 e1 55 8e 3f ed fd 93 3f fb a4 9d 3e 76 ce 39 3f
       1.1119958 1.1561867 0.30789933 0.7258066
000250 89 40 70 3f da 19 9e bc 54 51 b5 3b 14 f5 25 3f
       0.9384847 -0.019299436 0.0055333767 0.64827085
000260 50 f5 4e bd 35 b7 88 3f f4 e6 ad 3b fa 9d 22 3f
       -0.050526917 1.068091 0.005307073 0.63522303
000270 c1 89 84 3c b3 4b 73 3f 2e 91 66 3f a4 bb 84 3f
       0.016178967 0.9503738 0.90065277 1.0369763
000280 8b bf 93 3d 64 32 ca 3e ea c5 5f 3e 8b 92 1b 3f
       0.07214268 0.3949157 0.21852842 0.6077048
000290 a3 8d 31 3f 14 40 4c b9 60 a4 9b 3e a4 d7 73 3f
       0.69356745 -0.00019478827 0.30398846 0.95250916
0002a0 18 a7 f6 3e b1 98 d8 3c 28 fe 87 3f b1 8d 60 3f
       0.48174357 0.026439996 1.0624437 0.87716204
0002b0 a3 6d 3f 3e 10 15 a2 3d a3 64 21 3b a1 ac 32 3f
       0.18694167 0.079141736 0.0024626635 0.6979466
0002c0 01 64 93 3f 7a 98 4b 3f 55 05 ea 3d a9 8f bb 3d
       1.1514894 0.79529536 0.11426798 0.091582604
0002d0 d2 67 68 3d 8b 54 e4 3e 10 91 57 3d f2 90 c3 3e
       0.056739636 0.4459575 0.052628577 0.38196522
0002e0 c7 93 ae 3e f9 3e 55 3f 76 cf 0b 3e cd 79 f4 3e
       0.3409712 0.83299214 0.13653359 0.47749177
0002f0 a9 76 ff 3e a7 5c 32 3d a0 48 29 3e 7e 53 b9 3e
       0.49895218 0.04354539 0.1653161 0.36196512
000300 5d 45 21 bd 46 8c 13 3d e5 38 57 bb 75 a3 90 3f
       -0.03937279 0.036022447 -0.0032840308 1.1299883
000310 ca 09 25 3c 95 91 38 3f c4 a1 2d 3f 5a 68 01 3e
       0.010073135 0.7209714 0.6782496 0.12637463
000320 d2 c2 66 3f 83 4d be 3d 02 2c ac 3d 4f 16 5d 3f
       0.9014102 0.09292128 0.08406831 0.86362165
000330 56 93 b8 3d c1 7b ab 3d f0 c4 a0 3f ac ba 0a 3f
       0.09012477 0.083732136 1.25601 0.5419109
000340 2e 0b 48 3f d4 92 89 3f 6e 88 3e 3f c6 2e b8 3b
       0.7814206 1.0747933 0.74426925 0.00562081
000350 fb 64 6e 3f 70 66 ec 3e 60 14 82 bd aa 5e 64 3c
       0.93122834 0.46171904 -0.063515425 0.013938585
000360 99 b9 6a bd 2e cc 20 3f 1d fc 54 3f aa ae 5c 3f
       -0.057305906 0.62811553 0.83197194 0.86204016
000370 69 93 9b 3f 42 06 25 3d a5 b1 26 3f 31 0e 5b 3f
       1.2154361 0.04028917 0.65114814 0.8556853
000380 2f 47 f0 3d d3 13 29 3f 63 93 c3 3d e2 bc c8 3e
       0.11732327 0.66045874 0.09549596 0.39206606
000390 fc c9 62 3f 6b 8d 17 3f 72 41 5f 3f 1e ec 42 3f
       0.88589454 0.5920016 0.87209237 0.76141536
0003a0 f5 5b 3b 3e 2d c7 39 3f c3 9d 04 3d 42 61 4f 3e
       0.18296798 0.72569543 0.032377016 0.20251945
0003b0 18 90 8e 3f 67 b8 53 3e 0c cf 82 3a 62 f7 a1 3f
       1.1137724 0.20675813 0.0009979918 1.265362
0003c0 bb ba 2d 3e dd 6c 69 bd 22 83 a8 be 08 51 03 3f
       0.16965763 -0.056988586 -0.32912546 0.5129552
0003d0 ff 6b 54 3f d2 3a 7d 3d 0c 13 54 3f b4 51 01 3f
       0.8297729 0.061823674 0.82841563 0.50515294
0003e0 42 d1 49 3f db a1 00 3e d7 b0 91 bc ab ce 00 3f
       0.7883493 0.12561743 -0.01778452 0.5031535
0003f0 99 f8 7b 3f 06 45 e0 3e 18 70 4a 3d 40 52 66 3d
       0.98426205 0.4380266 0.049423307 0.056230783

bn1.bias f4 [256]
000000 b1 f5 07 bf 27 1e 5f be 5e 1a a9 bf a3 a5 81 bf
       -0.5310927 -0.21788846 -1.3211172 -1.0128673
000010 2b a8 72 bf d9 28 4a bf 2a 58 98 bf a0 39 4d 3e
       -0.94787854 -0.7896858 -1.1901906 0.20041513
000020 04 d4 02 bf 55 65 92 bf af dd 97 bf e2 2b 1c bf
       -0.5110476 -1.1437174 -1.1864527 -0.6100446
000030 57 71 85 bf da 73 8a be 0b e6 c3 bf 5b 8f 36 bf
       -1.0425214 -0.27041513 -1.5304579 -0.71312493
000040 6a 96 dd be b3 11 da bf 0c 74 bf bf 56 19 87 bf
       -0.4327882 -1.7036651 -1.495729 -1.0554607
000050 2e 12 e9 be 3a 4f 2a bf eb a9 98 bf 25 15 c2 be
       -0.45521683 -0.6652714 -1.1926855 -0.37906757
000060 20 dc 8b be df 5f 0f bf ef 3a ba bd b2 61 a0 bf
       -0.2731638 -0.5600566 -0.09093272 -1.2529814
000070 c3 6b 8c be da 8a 8e bf 78 dd fe 3d c8 11 be bf
       -0.27425966 -1.1136124 0.124445856 -1.4849176
000080 ef f4 b4 bf d6 f4 14 bf da 17 96 bf 33 43 aa bf
       -1.4137248 -0.5818609 -1.1726029 -1.3301758
000090 3a 2c 75 be 4e 0b 2a be 6c 01 b2 be 3c 59 43 bf
       -0.23942652 -0.16605875 -0.3476671 -0.76308036
0000a0 24 07 3c be 1a c9 ab bf d8 65 97 bf 22 bc 4d bf
       -0.18362099 -1.3420746 -1.1827955 -0.8036519
0000b0 5b 2f 01 bf 93 e9 7b bf 3a 1e c3 bf ec be 30 bf
       -0.50462884 -0.9840328 -1.52436 -0.69041324
0000c0 57 33 9f bf f8 95 a7 bf 0d 2e d7 bf d5 33 36 bf
       -1.2437543 -1.3092642 -1.6810929 -0.7117284
0000d0 b8 ec b7 bf 81 f7 ad bf 5b e2 c1 be 93 25 02 bf
       -1.4369116 -1.3591157 -0.37868008 -0.50838584
0000e0 b9 a3 66 bf 4f c0 19 bf d9 0e 59 bf df 1f ba bf
       -0.9009357 -0.60059065 -0.8478828 -1.4540976
0000f0 12 dc f7 be 31 43 23 be 6a c8 9c bf 54 50 e8 be
       -0.48410088 -0.159436 -1.2248662 -0.45373785
000100 da 9c ac bf 7f 3d 63 bf 50 ea b2 be e7 ae ba bf
       -1.3485367 -0.8876571 -0.3494439 -1.4584626
000110 8f 0f 25 bf 7d cd 57 bf 77 f7 ae bf 53 e0 e5 bc
       -0.64476866 -0.84297925 -1.366927 -0.028061068
000120 06 2b 0e 3d 3b 5b ff bf e7 15 ba be e7 8c a3 bf
       0.034709 -1.9949716 -0.36344835 -1.2777375
000130 51 7c d0 bf e1 07 ae be 62 0c c3 bf 51 ca a9 be
       -1.6287938 -0.33990386 -1.5238154 -0.33162168
000140 89 d7 84 bc f5 db 10 be b8 e4 bc bf c3 06 ed be
       -0.016216056 -0.14146407 -1.47573 -0.4629422
000150 ed 40 81 bf ab f4 46 bf a5 6d fc bf 9f db da bf
       -1.0097939 -0.77717084 -1.9720961 -1.7098273
000160 e1 85 9b be b9 be 60 bf 9a 30 3a bf 5c b9 d0 bf
       -0.3037558 -0.8779102 -0.7273041 -1.6306567
000170 3c f0 0c c0 ad 95 13 bf 8d 14 8e bf 4d 52 eb 3d
       -2.2021627 -0.5765026 -1.1100022 0.11490307
000180 35 4a 49 bf fe 1f 1b bf b0 ad 94 bf 3f 9b 99 bf
       -0.78628856 -0.6059569 -1.1615505 -1.2000502
000190 87 44 f9 bf 8a ed d6 bc 7a 01 59 bf c1 7e 5f bf
       -1.9474038 -0.026236314 -0.8476788 -0.87302786
0001a0 d5 22 a8 bf 61 6a af be 92 8a 97 bf f0 7e 9f be
       -1.313563 -0.34260848 -1.1839163 -0.31151533
0001b0 88 39 05 c0 f6 f5 17 bf 7f 18 69 bf 68 8a 4b bf
       -2.0816364 -0.5935968 -0.91053003 -0.79508066
0001c0 4b f1 d3 be a5 b1 a1 be e6 5f 8c be 6f 22 66 bf
       -0.4139503 -0.31580845 -0.27416915 -0.8989629
0001d0 bd e6 8d bf dc 63 8e bf af 34 04 bf d8 88 81 bf
       -1.1086041 -1.1124225 -0.5164289 -1.0119886
0001e0 94 11 85 bf 2c 55 f2 3d 6f d3 82 be 74 3d 92 bf
       -1.039599 0.118326515 -0.25551936 -1.1425004
0001f0 0d 26 b9 bc 13 7b df bd a2 12 5f bf 37 d4 10 bf
       -0.022601152 -0.109121464 -0.87137806 -0.56573814
000200 6c c7 06 bf 0a ae 87 bf 13 82 99 bf 89 fd 47 bf
       -0.52648044 -1.0599988 -1.199282 -0.7812124
000210 79 13 41 bf 05 8b 5c bf 34 20 da be 37 df ce be
       -0.7542034 -0.86149627 -0.42602694 -0.40404674
000220 6b 28 81 be a3 83 03 c0 c6 22 25 bf 0e 6d 7a be
       -0.2522615 -2.0549095 -0.64506185 -0.24455664
000230 8d ec 7c bf f9 7c 34 bf b3 77 e4 be 7a 5e a2 bf
       -0.9879845 -0.70503193 -0.44622573 -1.2685082
000240 b2 55 29 bf 9a e3 92 bf c4 ce 32 bf bd 12 af bf
       -0.66146386 -1.1475708 -0.6984675 -1.3677593
000250 39 9f 73 bf 14 35 e6 be 4f 77 b2 bc 46 cc 4d bf
       -0.9516483 -0.4496237 -0.021785406 -0.8038982
000260 3b 6b d8 be a5 24 f0 bf e3 32 83 be 4e a0 93 bf
       -0.4226931 -1.8761183 -0.2562476 -1.1533296
000270 cb 40 a4 bd 02 84 e5 bf 30 d6 bb bf 73 f1 a9 bf
       -0.08020171 -1.793091 -1.467474 -1.327681
000280 4a 30 57 bf f3 dc b9 bf ad d4 7a bf b7 d8 fe bf
       -0.8405806 -1.4520553 -0.9798077 -1.9909886
000290 de ef af bf e7 64 a0 bc 21 f9 fc 3c 7c 70 bc bf
       -1.3745077 -0.019579364 0.030880513 -1.4721828
0002a0 64 8d 17 bf 5e 20 dc bd 18 30 a9 bf 9c c2 c0 bf
       -0.5920012 -0.10748361 -1.3217802 -1.505939
0002b0 7a 71 28 bf 88 b7 01 bf dc e5 d1 bd 63 91 89 bf
       -0.6579815 -0.5067067 -0.1024892 -1.0747494
0002c0 11 2d da be f0 74 8b bf dd 58 0a bf 3f be 3a bf
       -0.42612508 -1.0895061 -0.54041845 -0.7294654
0002d0 f9 6b 8f be 51 f9 4e bf fb 91 18 be ff 80 f5 be
       -0.28012064 -0.80849177 -0.14899437 -0.4794998
0002e0 5c b1 54 be 93 f6 df bf 43 db ed be aa 7d 61 bf
       -0.20770782 -1.7497123 -0.46456346 -0.88082373
0002f0 af b8 19 bf 4a 9a a2 be 21 93 2b bf 17 cc 2d bd
       -0.6004743 -0.31758338 -0.67021376 -0.042430963
000300 82 02 9f be 9a 3b 43 be d7 5f 46 be f5 94 f0 be
       -0.310566 -0.19065705 -0.19372497 -0.46988645
000310 14 07 2f bf d0 0b c8 bf 6b e7 ce bf b7 ae 01 bf
       -0.68370175 -1.5628605 -1.6164373 -0.5065722
000320 2d 5b a5 bf 0e 3a aa be 0a 7e cf be 40 83 8f 3e
       -1.291845 -0.33247417 -0.40525848 0.28029823
000330 cf 26 bd be b9 7d 9c be 3b 67 d9 bf 84 a0 96 bf
       -0.3694367 -0.3056467 -1.6984628 -1.1767735
000340 eb f6 69 bf 25 52 90 bf f2 ed 87 bf ff ca 11 bd
       -0.9139239 -1.1275069 -1.061949 -0.035593983
000350 7a d2 e9 bf b3 c9 9e bf b6 8a b1 be 14 bd b4 bd
       -1.8267357 -1.2405304 -0.3467614 -0.08825126
000360 91 d4 a9 be f3 37 94 bf 26 39 a9 bf aa 48 90 bf
       -0.33169988 -1.1579574 -1.3220565 -1.1272175
000370 2c 3a bf bf f1 f3 18 bf 82 d5 6a bf 6d 36 1e bf
       -1.4939628 -0.59747225 -0.9173204 -0.618018
000380 0b ab 10 bf 5c d8 cc bf 3a d6 85 be 33 a9 c6 be
       -0.5651099 -1.6003528 -0.26140004 -0.38800964
000390 7e 36 eb bf c6 f3 77 bf ae c9 9a bf b7 a0 67 bf
       -1.8376005 -0.96856344 -1.2092798 -0.90479606
0003a0 bf 57 71 bf 89 3c b4 bf 98 cd b6 be 6f 6a 30 bf
       -0.94274515 -1.4080974 -0.3570373 -0.68912405
0003b0 46 7e 8e bf b2 6f 82 bf 41 cf 82 bc a1 de b6 be
       -1.1132286 -1.0190337 -0.015967967 -0.35716727
0003c0 80 d7 23 bf 5e 6e 6f be c0 cd ae bf a7 3d f7 be
       -0.640007 -0.23381945 -1.365654 -0.48289225
0003d0 dc be 5f bf 14 7a ba be 5f ce 31 bf ca 10 69 bf
       -0.87400603 -0.36421263 -0.6945552 -0.91041243
0003e0 0e cf b7 bf 0e ba 45 bf 8e fa bc be ee a7 56 bf
       -1.4360063 -0.7723702 -0.36909908 -0.8384999
0003f0 07 6f f1 bf c1 38 fd be 45 b9 69 be 6c b7 67 be
       -1.8862008 -0.49457362 -0.22824581 -0.22628564

bn1.running_mean f4 [256]
000000 ac 6e 6a 41 3e 65 0c 40 29 a1 64 41 90 06 9a c1
       14.6520195 2.1936793 14.289346 -19.253204
000010 87 99 19 41 f2 b5 09 c1 7c 33 6f c1 94 0b b7 41
       9.599982 -8.60692 -14.950069 22.880653
000020 1e a4 0a 40 03 43 76 42 9f 32 dd 40 b0 b8 58 be
       2.166267 61.56544 6.9124293 -0.21164203
000030 82 0f 12 42 f9 7e 6b 41 78 82 41 42 75 d2 dc 40
       36.515144 14.718499 48.37741 6.9006906
000040 d6 46 40 c2 29 d1 6f c2 b1 14 72 42 ef 0a d9 40
       -48.069176 -59.954258 60.520206 6.7825847
000050 1e 72 8b bf ee 34 48 c1 59 18 b2 41 7b 2d 81 42
       -1.0894201 -12.512922 22.261889 64.58883
000060 cb c5 cf 40 ba 4e 46 bf db 73 0d c0 8e 9a 8d c2
       6.4928946 -0.7746388 -2.2101963 -70.801865
000070 45 2a 90 c0 c3 6f 06 42 16 ea 12 42 85 98 48 41
       -4.50516 33.609142 36.7286 12.537236
000080 1b 0e 50 3f 93 23 05 bf d7 70 25 c2 25 ab d2 c1
       0.81271523 -0.52007407 -41.360195 -26.333567
000090 66 c9 30 41 51 71 8f 3f b2 c8 37 40 1d f7 18 41
       11.04917 1.1206456 2.8716245 9.56033
0000a0 d0 49 37 40 55 04 a0 c0 a1 9b 2b 42 a2 9b 55 c0
       2.8638802 -5.000529 42.90198 -3.337624
0000b0 54 14 23 42 e6 56 99 40 91 86 c9 3f 44 73 81 40
       40.76985 4.7918577 1.5744191 4.0453205
0000c0 d8 6c 8b c1 84 97 f9 c1 df f6 64 c2 c1 5a b9 42
       -17.428146 -31.198982 -57.241085 92.67725
0000d0 01 a1 63 c1 e0 35 57 c2 f5 94 92 40 8b 02 4d c2
       -14.226808 -53.802612 4.580683 -51.252483
0000e0 22 44 bb 41 d8 92 a7 c0 b5 72 73 42 66 22 21 c1
       23.408268 -5.2366753 60.86202 -10.070898
0000f0 03 2a 22 c1 00 cb 44 41 ba b3 52 c1 3e 5b 45 41
       -10.135257 12.299561 -13.168879 12.334776
000100 11 a5 4b c2 a6 7b 12 42 3c 0c 0f c1 5a a3 cd c1
       -50.911198 36.62075 -8.940487 -25.704762
000110 20 77 4f 41 1f 5a 92 42 66 92 04 c2 48 5d fa 41
       12.966583 73.17602 -33.142967 31.295547
000120 60 b4 6b c1 c4 ba 36 40 11 2b e7 41 a0 1f 9e c1
       -14.731537 2.8551493 28.896029 -19.765442
000130 e4 dc 06 c2 a1 d6 a5 40 7f f1 ab c1 cf c0 9f 40
       -33.715714 5.18245 -21.492918 4.992286
000140 13 2e 6d bf 7a fc 72 41 b5 71 c2 c1 ec 8d e0 40
       -0.9264843 15.18664 -24.305521 7.0173244
000150 28 c2 ad c1 9e 8d 50 bf dc bc 8d c2 c3 43 3e 41
       -21.719803 -0.8146609 -70.868866 11.891543
000160 6c b1 17 c2 7a b9 8c 40 06 22 84 41 e4 58 a1 42
       -37.923264 4.397641 16.516613 80.673615
000170 4f 96 07 c2 de a7 96 40 ae ad 46 42 84 f1 ea 3f
       -33.896786 4.7079916 49.66961 1.8354955
000180 c4 f1 2f c2 4f 72 10 42 11 af dc 41 60 90 aa 42
       -43.9861 36.11163 27.585482 85.28198
000190 0a f6 7e c0 59 20 43 bf 80 35 8d 42 74 ac b9 bf
       -3.983767 -0.76221234 70.60449 -1.4505754
0001a0 c3 25 69 c2 0d 5d 62 40 bd fa 25 42 86 86 43 40
       -58.286877 3.5369294 41.49486 3.0550857
0001b0 65 63 02 c2 31 b0 36 40 68 d0 0d c2 1d 62 13 c2
       -32.597065 2.8545039 -35.45352 -36.845814
0001c0 61 53 cd 40 4c 15 8c 3f a6 e6 49 c1 3d b8 aa c1
       6.416428 1.0943999 -12.618811 -21.33996
0001d0 48 66 5a c1 56 fd 0c 42 f6 1b 4d c2 86 d3 89 c2
       -13.649971 35.2474 -51.277306 -68.91313
0001e0 3c f7 cd 42 2e 29 50 41 d0 14 dc 40 37 a3 6e 42
       102.98288 13.010054 6.8775406 59.65939
0001f0 40 5d 03 bf 48 85 09 c1 5a 2d 92 c2 d7 f5 0a c2
       -0.51314163 -8.595039 -73.08858 -34.740078
000200 63 6c 73 c0 25 52 68 40 b2 c2 99 c2 39 40 37 41
       -3.8034904 3.6300137 -76.880264 11.453179
000210 dd 8b 9f 42 13 2d 49 c1 ee 36 06 c1 f6 13 89 40
       79.77317 -12.573504 -8.388411 4.2836866
000220 38 84 d1 c0 15 fd 81 c2 b2 a8 e3 41 45 aa 13 41
       -6.54739 -64.9943 28.45737 9.22907
000230 e2 4e 2c c2 cb 10 67 c1 fb bb 7f 41 f4 0d 8f c1
       -43.077034 -14.4416 15.983394 -17.881813
000240 86 f8 a0 41 b8 5d 0b c2 4f 80 cc 41 7a b6 7f c0
       20.12135 -34.841522 25.56265 -3.9955125
000250 66 f3 38 42 e0 a5 97 bf 2f 71 0f 3e a4 47 e6 42
       46.237694 -1.1847496 0.1400802 115.13992
000260 84 a8 78 bd f0 47 6c 42 57 25 70 40 70 21 b6 42
       -0.060707584 59.07025 3.752279 91.06531
000270 24 28 af c1 e4 02 d0 c1 bc 33 5b 42 db 64 b3 c1
       -21.8946 -26.001411 54.80052 -22.424246
000280 b7 43 77 bf 3c ce 6c 42 fa 6c 80 41 0b 7b 56 42
       -0.965877 59.2014 16.053211 53.62016
000290 cd 18 aa 3d 79 5b ab be 05 8c 40 c0 a1 ee 37 42
       0.083055116 -0.33468226 -3.008546 45.983036
0002a0 62 05 cb c0 82 ae 03 c0 19 c6 05 42 a7 90 dd 41
       -6.344407 -2.057526 33.443455 27.695631
0002b0 f7 99 d7 3e e1 17 17 40 27 a4 09 bf 40 3c e2 c1
       0.42109653 2.3608325 -0.537661 -28.279419
0002c0 20 13 31 42 9e 75 ee 41 91 60 10 c1 5b 7b d8 41
       44.268677 29.80743 -9.023576 27.060232
0002d0 80 f6 b4 40 fd 64 82 c2 f6 a2 c3 40 ae b3 a9 c2
       5.6550903 -65.19724 6.1136427 -84.85094
0002e0 aa 92 eb 41 fb 18 d0 c1 4f e6 9c 3f c2 60 3e 40
       29.446613 -26.012197 1.2257785 2.9746556
0002f0 79 87 73 42 55 dc de 40 84 23 18 42 e0 38 90 c1
       60.882298 6.964396 38.034683 -18.027771
000300 bf e3 67 41 0d 5f 8c c0 38 22 1c 40 cd 6e 52 41
       14.493102 -4.386603 2.4395885 13.152051
000310 66 76 ec 40 60 6b 9b c1 c2 d9 4c c2 66 06 90 c1
       7.389453 -19.42743 -51.212654 -18.003124
000320 a5 6e 49 42 bf d9 34 40 71 63 39 c1 03 ca ed c0
       50.35805 2.8257902 -11.586778 -7.4309096
000330 f6 42 f0 3f 62 a7 cc c0 34 ec 9b 41 84 48 6e 42
       1.8770435 -6.3954325 19.490334 59.570816
000340 4b 7a b0 c1 aa 49 02 c2 16 b6 a0 c2 c2 28 46 40
       -22.059713 -32.571938 -80.35564 3.0962377
000350 69 f0 c8 bf 4e e5 57 40 c7 54 a6 40 34 e4 6b c1
       -1.5698367 3.3733706 5.197849 -14.743214
000360 4e fd d0 bf cf 33 94 c1 05 59 d9 c1 fd 49 cd 42
       -1.6327302 -18.525297 -27.168467 102.64451
000370 06 aa d1 41 ff 3b d2 41 df 23 19 c2 3f d7 de c1
       26.20802 26.279295 -38.28503 -27.8551
000380 29 87 4a 40 55 b2 a9 c1 d7 aa 73 40 14 48 e7 c1
       3.1644995 -21.212076 3.8073022 -28.910194
000390 0a f1 84 c2 a5 f1 4e c2 f4 38 46 c0 1b 4a e7 42
       -66.47078 -51.73598 -3.0972261 115.64474
0003a0 6e 7b 95 c0 f1 c2 94 42 ff c7 b7 c0 52 70 93 40
       -4.671317 74.380745 -5.7431636 4.607461
0003b0 d0 fc 0b 42 21 a8 3d c1 22 e0 87 be c1 cc f9 41
       34.996887 -11.853547 -0.26538187 31.224977
0003c0 90 00 87 c1 40 e1 8c 40 77 fb 16 42 97 ae 8c c2
       -16.875275 4.4024963 37.74557 -70.340996
0003d0 12 58 03 41 c1 ec d8 40 52 1d 51 c1 fa 9f 66 40
       8.209002 6.7789006 -13.069658 3.6035142
0003e0 9d 50 a8 c2 90 fe b7 3f 90 cf 07 40 63 09 3f 42
       -84.15745 1.4374561 2.1220436 47.759167
0003f0 86 6f 67 c2 2c d1 4a c2 f6 f1 89 40 c0 ba a8 41
       -57.85891 -50.70427 4.3107862 21.091187

bn1.running_var f4 [256]
000000 40 e6 22 43 6d b1 0e 43 a2 7a f2 44 71 3a aa 44
       162.89941 142.69307 1939.8323 1361.8263
000010 36 2c 30 44 04 f6 21 44 da 7f 37 44 ff e3 1d 46
       704.6908 647.844 733.9977 10104.999
000020 62 71 29 43 17 43 da 44 40 b4 b6 44 92 c6 c6 43
       169.4429 1746.0966 1461.6328 397.55133
000030 fb 50 c8 45 27 b8 28 45 6c f3 ba 44 63 43 a1 42
       6410.1226 2699.5095 1495.6069 80.631615
000040 6b 60 1d 44 10 44 ab 44 d0 7d 86 44 80 e4 7c 45
       629.50653 1370.127 1075.9316 4046.2812
000050 29 cf e6 42 53 ff 31 45 5d b2 3d 43 1b 85 d4 44
       115.40461 2847.9578 189.69673 1700.1595
000060 d0 50 d6 42 2d 77 f3 43 8d ad d6 44 71 b5 c5 44
       107.15784 486.93106 1717.4235 1581.67
000070 ba aa 9e 43 7b c6 46 43 9e 55 d9 43 b1 24 51 45
       317.3338 198.77531 434.66888 3346.2932
000080 a0 e4 0d 45 4e e3 3e 44 24 5e 06 45 1d 79 81 43
       2270.289 763.55164 2149.8838 258.9462
000090 f9 79 01 44 08 17 a4 41 75 5c 5b 43 71 fc 6e 43
       517.9058 20.511246 219.36116 238.9861
0000a0 b7 a7 34 42 84 1b ec 43 3f e8 6a 44 80 cf 11 44
       45.163784 472.21497 939.62885 583.2422
0000b0 9a 87 76 43 8d f6 01 45 28 45 3b 46 a0 60 5b 43
       246.5297 2079.4094 11985.289 219.37744
0000c0 b4 b4 db 45 4d 71 17 45 d4 0c 9f 45 cf 56 ec 45
       7030.588 2423.0813 5089.6035 7562.851
0000d0 72 80 56 44 7c a2 d9 44 51 b7 73 45 9d 78 de 44
       858.00696 1741.0776 3899.4573 1779.7692
0000e0 0c e6 b8 44 12 ee af 44 47 26 07 44 a0 d1 07 45
       1479.189 1407.4397 540.5981 2173.1016
0000f0 c4 a5 29 44 0d bf d1 42 89 1e a7 45 4b e0 84 43
       678.5901 104.873146 5347.817 265.7523
000100 cf 7c 9f 44 58 d9 07 44 82 35 51 44 80 4a 89 44
       1275.9003 543.396 836.83606 1098.3281
000110 00 3a 1c 43 e7 49 6e 45 31 31 99 44 1c 3c fd 44
       156.22656 3812.619 1225.5372 2025.8784
000120 d7 ef c8 44 de cb 6a 44 85 45 1e 44 ca 35 80 45
       1607.495 939.1854 633.08624 4102.7236
000130 b8 c4 0e 45 a4 e1 23 42 c3 8b b2 44 ee 2f 95 42
       2284.295 40.970352 1428.3676 74.59361
000140 38 0b 9e 40 c8 8f b0 45 9d 56 4c 44 aa 27 36 43
       4.9388695 5649.9727 817.35333 182.15494
000150 e9 06 44 45 fb 60 a3 42 e7 8c 05 45 97 0a 66 43
       3136.432 81.689415 2136.8064 230.04137
000160 cf d8 fd 44 45 d5 52 44 70 24 b2 43 de 34 88 44
       2030.7753 843.33234 356.28467 1089.6521
000170 82 71 69 44 4e 65 8a 42 f2 7c 20 45 62 f5 07 43
       933.77356 69.19786 2567.809 135.95853
000180 dd d8 17 45 67 f6 72 44 10 2e 0e 45 bf 0f 9f 44
       2429.554 971.85004 2274.879 1272.4921
000190 ad a2 3f 45 09 d3 30 41 2b b3 1a 45 8f 1b 70 44
       3066.1672 11.051522 2475.198 960.4306
0001a0 1b 47 04 45 94 f4 62 43 85 b8 51 44 04 13 ec 42
       2116.444 226.95538 838.8831 118.03714
0001b0 a3 46 2c 45 2f e9 71 43 eb 8e 49 44 28 d5 92 44
       2756.4148 241.91087 806.2331 1174.6611
0001c0 1a 1d 0d 43 95 bf ed 42 58 1e 07 44 ed 43 54 44
       141.11368 118.87418 540.4741 849.06134
0001d0 01 d6 b3 45 8d d1 4f 43 05 e4 bc 43 45 62 4e 44
       5754.7505 207.81856 377.7814 825.53546
0001e0 c7 54 f4 44 a6 68 00 43 13 b3 81 42 1e 57 7e 44
       1954.6493 128.40878 64.849754 1017.3612
0001f0 89 39 36 40 5a 64 af 42 0d 82 c6 44 34 a1 93 45
       2.8472617 87.696 1588.0641 4724.1504
000200 ed c9 17 43 c2 68 9a 43 8c dc 65 45 68 8d cb 44
       151.78877 308.81842 3677.7842 1628.419
000210 2d 31 99 44 24 b5 a8 44 22 c6 9b 42 20 7c 80 43
       1225.5367 1349.6606 77.88698 256.96973
000220 0a df da 42 7b b8 c8 44 cd d7 52 44 7a 9f 00 42
       109.43562 1605.765 843.3719 32.15574
000230 ef 4a ca 43 b6 f3 09 44 51 5b 28 46 f1 75 a4 43
       404.58542 551.808 10774.829 328.92142
000240 9a 44 80 43 42 4a d1 44 74 0d e6 43 1b 14 42 44
       256.53595 1674.3206 460.1051 776.31415
000250 d0 11 82 44 24 0e 6a 42 bd 72 51 41 ab f5 8f 45
       1040.5566 58.51381 13.090512 4606.7085
000260 85 f6 d0 42 b5 8d 34 45 d8 51 44 42 04 b9 39 45
       104.48148 2888.8567 49.079926 2971.5635
000270 0f 07 0e 44 f1 a2 e2 44 67 3f b6 44 20 3e 39 44
       568.1103 1813.0919 1457.9813 740.9707
000280 cc d0 a6 43 7d fc 35 44 54 18 a9 43 f0 4f d4 44
       333.63123 727.9451 338.19006 1698.498
000290 35 c1 e8 44 b9 74 0a 41 5c 31 97 44 64 a9 99 45
       1862.0377 8.653497 1209.5425 4917.174
0002a0 42 e4 ff 44 da 7f 95 41 26 30 5a 44 0d dc 16 44
       2047.133 18.687428 872.7523 603.4383
0002b0 37 ea 8a 43 94 49 cc 42 95 d3 fa 42 8f c7 45 44
       277.8298 102.14371 125.413246 791.1181
0002c0 5e 60 86 43 cf 0a e5 44 30 7e f3 42 3d d7 17 44
       268.75287 1832.3378 121.74646 607.3631
0002d0 14 d7 59 43 db 85 af 44 02 c6 f1 41 1c 18 4b 45
       217.84015 1404.183 30.221684 3249.5068
0002e0 b6 8b a6 45 d0 6d 74 45 df bc 15 44 eb f5 67 44
       5329.464 3910.8633 598.9511 927.84247
0002f0 14 49 de 44 ee 79 a3 42 e3 8b e1 44 8d 9a 93 44
       1778.2837 81.738144 1804.3715 1180.8297
000300 6e 5c 57 44 da 7e 9c 41 cd 88 26 43 9d 2c f2 43
       861.4442 19.56194 166.53438 484.34854
000310 76 45 c8 43 33 64 c7 44 1b 1b 25 45 1c df a0 44
       400.54266 1595.1312 2641.694 1286.9722
000320 15 21 9b 44 31 af 8d 42 29 34 85 44 ec 6e 11 43
       1241.0338 70.84217 1065.63 145.43329
000330 bc 29 1e 42 81 92 a4 42 f3 87 84 43 32 92 2d 45
       39.540756 82.28614 265.0621 2777.1372
000340 7d 07 b8 43 63 9b df 44 67 d3 1c 45 c1 19 9d 41
       368.0585 1788.8558 2509.2126 19.637575
000350 bc ed f6 43 32 96 80 44 25 9d bd 43 3c 91 b9 44
       493.8573 1028.6936 379.2277 1484.5386
000360 a8 1c 14 44 be 74 a4 44 6f e8 7f 45 57 d3 1e 45
       592.44775 1315.6482 4094.527 2541.2087
000370 a2 b1 7e 44 5e 91 95 43 f0 fa 22 44 4f bf 3c 44
       1018.7755 299.13568 651.9209 754.9892
000380 2e c6 91 43 95 f4 e1 43 3f 10 de 43 30 40 f6 45
       291.54828 451.9108 444.12692 7880.0234
000390 ea 9e c7 44 12 3c 04 45 2e 2b 01 46 f6 1e 77 45
       1596.9661 2115.7544 8266.795 3953.935
0003a0 66 93 5f 44 10 0c 2e 45 14 a6 ee 42 1f e1 d2 43
       894.3031 2784.754 119.32437 421.75876
0003b0 ea 34 41 44 a6 26 3c 44 4c 26 a6 40 ff d3 64 43
       772.8268 752.6039 5.192175 228.82811
0003c0 61 be d6 43 2e 9a 07 42 fb d7 c3 44 b3 98 f1 43
       429.48734 33.900566 1566.7494 483.19296
0003d0 b9 52 ee 44 0f bf 47 43 33 54 54 44 18 0a 08 45
       1906.5851 199.74632 849.3156 2176.6309
0003e0 51 a4 a0 44 db 15 47 43 57 bf fd 42 d4 22 e3 45
       1285.1349 199.08537 126.87371 7268.3535
0003f0 2c 9d 74 44 58 2f f9 43 7d f2 ad 42 04 d8 8b 44
       978.4558 498.36987 86.97361 1118.7505

fc2.weight f4 [256, 258]
000000 d1 be 01 be 2d ce 14 bd 4d 37 de 3e eb bb f4 3b
       -0.12670447 -0.036329437 0.43401566 0.0074686906
000010 82 ac 00 be 48 34 54 be 89 d3 16 3f e2 87 73 bf
       -0.12565807 -0.20723069 0.5891653 -0.95129216
000020 6e e9 99 be b6 02 87 bd f1 5d 05 3f cf d9 ab bd
       -0.30060905 -0.06592314 0.5209647 -0.08391153
000030 c1 1a 18 3d 70 a8 ce 3c 58 42 63 bf 70 a6 23 3d
       0.03713489 0.025226802 -0.8877311 0.03995365
000040 b7 0d bc 3e 84 ae b2 3e bc fb 06 bf 50 aa 3d bd
       0.36729214 0.3489877 -0.52727866 -0.046305
000050 67 e6 67 3c c7 4d 55 3e 39 ae 44 c0 28 99 cc 3d
       0.014154053 0.20830451 -3.0731337 0.0999015
000060 e5 35 34 bd de 3f ac 3e e7 65 68 bd 6c 11 7c be
       -0.04399671 0.33642477 -0.056737807 -0.24616021
000070 c0 c8 a1 be 99 7e 2a bf 5d ac 80 bf 52 52 bf 3f
       -0.31598473 -0.6659942 -1.0052601 1.4946997
000080 b1 64 fd 3d c4 e0 b7 be 6a 45 ba 3e 5c 94 14 c0
       0.12372721 -0.3591367 0.36381084 -2.3215551
000090 0b fe 40 bf ae fa 95 bd 3a 8b 1f 3c 23 da 94 be
       -0.7538764 -0.07323204 0.009737784 -0.29072675
0000a0 5c e5 11 be 95 ee 48 be 26 68 03 be f0 e9 c8 3e
       -0.1424765 -0.19622262 -0.12832698 0.3924098
0000b0 63 90 59 c0 71 38 22 be 84 af d0 bd d1 06 05 bf
       -3.3994377 -0.15841843 -0.10189727 -0.51963526
0000c0 4c 02 0e bd 00 f7 77 be 09 1e 07 c0 1b 8d f5 be
       -0.03467016 -0.24215317 -2.1112082 -0.47959217
0000d0 d6 b8 c0 be ab 01 2d be a1 61 b9 3d f1 d5 52 3d
       -0.3764102 -0.16895168 0.09051824 0.05147356
0000e0 87 53 83 bf eb 8d 18 be 95 6e 0c 3f 58 5a 5b bf
       -1.0259866 -0.14897887 0.54856235 -0.8568473
0000f0 66 1f 32 be e7 37 19 3d 95 bf e4 3d 7f 31 09 3e
       -0.1739479 0.03740683 0.11169354 0.13397788
000100 bb 91 90 bf e5 97 16 be 3e 43 27 3e 6c 44 23 3f
       -1.1294473 -0.1470638 0.16334245 0.6377628
000110 8d 18 51 3b 9f 69 22 3d 8b 2e 38 bd fe a0 7c 3c
       0.0031905503 0.03965151 -0.04496626 0.015419243
000120 3c c9 2a bf ae 3c 41 3f c5 6d 8d be 73 05 b7 be
       -0.6671331 0.75483215 -0.2762281 -0.35746345
000130 17 b4 3b bf 3e bf 87 bd c2 8d 50 be 87 c9 96 bc
       -0.7332167 -0.066282734 -0.20366576 -0.018406643
000140 af dc 70 bd 4c bc 91 c0 a1 c6 be bd 09 26 82 bd
       -0.05880421 -4.5542355 -0.09315229 -0.06354911
000150 85 53 a7 3e 63 11 29 be 8d f8 d7 bd a9 e7 3a 3e
       0.32680908 -0.16510539 -0.10545454 0.18252434
000160 60 78 2e 40 5c ef 5a 3d 90 b4 2a 3e fd 99 31 bf
       2.726097 0.053450927 0.16670442 -0.6937559
000170 43 fb 36 be 8b 7f a5 bf b6 d3 42 3e 6f 5e ee bf
       -0.17869286 -1.2929548 0.19026074 -1.8622569
000180 ac 19 0e 3f 77 82 83 3e 9a 92 d1 3d 3d 9a 13 3b
       0.5550792 0.25685474 0.1023304 0.0022522353
000190 40 ec 5c c0 bb 95 82 ba 30 d0 78 bd 5f 23 26 bf
       -3.4519196 -0.0009962836 -0.060745418 -0.6489772
0001a0 fc 51 b4 3d 49 02 11 bd 91 2d ae be 73 02 42 bc
       0.088047 -0.03540257 -0.3401914 -0.011841404
0001b0 f6 c1 5d bf 3c 10 40 3e 2e 02 2e 3f d2 55 53 bf
       -0.86624086 0.18756193 0.67972076 -0.82552826
0001c0 c6 77 f8 bc 8f e2 c9 bd cf 4f eb bc 42 6c 9a 3f
       -0.03033055 -0.09857666 -0.02872458 1.2064288
0001d0 e5 8e 8e 3e e2 84 7e bf 06 84 0c bf ed d7 60 3f
       0.27843395 -0.99421513 -0.5488895 0.87829477
0001e0 c5 09 54 3f 00 d2 a2 3e 25 03 b3 bd 7e 66 be 3e
       0.8282741 0.31800842 -0.08740834 0.3718757
0001f0 3d fb 36 bc cb 84 55 bd d0 45 5c bf 19 9f 9e bd
       -0.011168298 -0.052128594 -0.86044025 -0.07745189
000200 2f 10 86 3c 06 00 db 3e 3c df 42 bf 5b b0 97 bd
       0.016365139 0.42773455 -0.7612188 -0.07406684
000210 2d 3b 1b be d6 3d 23 3e 0d a3 ce bd b0 38 45 be
       -0.15159293 0.15941557 -0.10089693 -0.19259906
000220 18 38 8a bb d4 3e fd bf 6c 24 11 be 68 4f d5 bd
       -0.0042181127 -1.9784799 -0.1417405 -0.10415536
000230 c3 ea d8 3e 45 f5 00 3e ef b5 12 40 69 3a 22 bf
       0.4236661 0.12593563 2.2923543 -0.63370377
000240 78 4e c1 bf 8a a4 e9 3d fc b6 67 bd 61 94 5e be
       -1.5102072 0.114083365 -0.056570992 -0.2173629
000250 71 30 e4 3e ca f9 96 bd 55 3a 06 bd 07 4e b4 3e
       0.44568208 -0.07371862 -0.032770474 0.3521578
000260 59 83 59 bd 84 d8 39 be 19 d6 80 bd 75 de 30 be
       -0.05310378 -0.18149 -0.06290836 -0.1727236
000270 fb 0e 5f bf e1 67 ef bd d8 5e 08 c0 a0 c2 ae be
       -0.87132233 -0.11689735 -2.1307888 -0.34132862
000280 24 3e 82 bc cc 99 0d bf 77 85 d9 3e 8b 58 0f 3f
       -0.015898772 -0.553128 0.42484638 0.5599448
000290 6d 1e f8 bd 68 39 f6 3c fd 2d 76 3f 66 c8 34 3e
       -0.12115178 0.03005667 0.9616392 0.17654571
0002a0 ba 64 00 be 31 ac 2e bc ac 8e ea bf 18 5d fb bf
       -0.12538424 -0.010661171 -1.832479 -1.9637785
0002b0 34 7b 11 be 89 60 8a ba be 0a 16 bd fd ed 8c be
       -0.14207155 -0.0010557334 -0.03663134 -0.2752532
0002c0 b5 eb 66 3f 6e 45 65 3e df dc 79 bc fb 61 e8 bd
       0.9020341 0.22389767 -0.015250414 -0.11346813
0002d0 e3 dd 4c 3b c3 10 10 be e0 0f 3b 3b 61 12 99 3d
       0.0031260184 -0.14068894 0.0028543398 0.074742086
0002e0 72 19 85 bd 65 87 38 3e 85 b5 8c bc c6 53 1f bf
       -0.06498994 0.18020399 -0.017176399 -0.62237203
0002f0 b7 3a 50 3e 56 98 71 3c ef a3 6a be 41 fa 8e be
       0.20334898 0.014745792 -0.22914098 -0.27925304
000300 f2 f9 98 3e aa e3 93 bd a1 fd 33 bd e6 78 57 3f
       0.29878193 -0.07221158 -0.04394305 0.8416885
000310 a2 c2 87 bd 14 63 4d bf b3 3b e0 be da e7 99 3e
       -0.0662892 -0.80229306 -0.43795547 0.300597
000320 de dc 94 bf 3b 8a 67 bd 1c aa 33 3f 43 fb 01 be
       -1.1629903 -0.05652831 0.7018144 -0.12693505
000330 3f 09 e5 3c 2d e9 e2 bc 0e df 25 c0 c8 5f dc 3e
       0.02795851 -0.027699078 -2.5917392 0.43041825
000340 a9 7f d8 bc fc 54 96 be 58 34 0d 3e 6d 92 83 bd
       -0.02642806 -0.29361713 0.13789499 -0.06424413
000350 9d 98 81 3c 08 91 50 bf ac 5a 4c 3e 2b d5 3b be
       0.015819842 -0.814713 0.19956464 -0.18343036
000360 3d 11 2c 3e 9e cc 2e bf fe 2f f1 bd 49 14 be 3d
       0.16803451 -0.6828097 -0.11776732 0.09281213
000370 25 d1 60 3d 2d 57 e7 3d 02 92 f2 be d8 02 43 3d
       0.054886956 0.11295924 -0.4737702 0.047610134
000380 56 e2 f3 bd 87 69 01 3e 17 e4 7e bc 0e 08 57 bd
       -0.119084045 0.12637912 -0.015557311 -0.052497916
000390 f3 73 f6 3d 25 9f b8 3d 9f 32 17 3e ae c2 6d 3f
       0.12033834 0.090147294 0.14765404 0.9287518
0003a0 e2 ca e2 3e 4e a6 24 be 28 87 41 3b 23 e7 77 bd
       0.44295412 -0.16079065 0.0029530022 -0.060523164
0003b0 3b 79 69 3f e0 48 bf bc 74 bd e3 bc 8f d2 02 40
       0.9120061 -0.02335018 -0.0278003 2.0441015
0003c0 01 84 26 be 3b 47 a1 bd 64 1b 94 be 6e 2e a3 be
       -0.16261293 -0.07874914 -0.28927147 -0.3187136
0003d0 21 ee b5 3f c6 45 10 3d 30 3f ad 3f dd 29 5a bf
       1.4213296 0.03522279 1.3534908 -0.8522013
0003e0 50 72 2f 3e 56 7b a8 3c 15 99 a2 bc 43 7a 21 3f
       0.1713345 0.020566624 -0.019848386 0.6307718
0003f0 c2 fb ee bf d2 c8 fc 3e c3 93 bf bb f3 a6 f0 3c
       -1.867058 0.49371964 -0.005846472 0.029376483
