p3_collab-compet/checkpoint_critic.pth (torch_old, 164292 bytes, 9 tensors)

fc1.weight f4 [256, 24]
000000 82 8f 96 bd b4 7f 55 bd e7 db 70 3d 26 de f2 bc
       -0.07351591 -0.05212374 0.058803465 -0.029646944
000010 3f d8 99 3d 64 25 84 ba 1c 5e f2 3c 2d 41 a7 bd
       0.07511949 -0.0010081944 0.02958589 -0.08166728
000020 c8 74 ec bc 68 31 90 bd 22 35 81 bd 86 ac bb 3c
       -0.02886428 -0.070406735 -0.063089624 0.022909414
000030 7e 5d a9 3b fc c7 05 3d 0b 55 a8 3c dd 5d 65 bd
       0.005168616 0.032661423 0.020548364 -0.055997718
000040 03 c4 04 3c 7f 68 b7 bd 35 cd 50 bc 9c 07 81 bd
       0.008103373 -0.08955478 -0.012744238 -0.063002795
000050 2f ef fc bc 76 7f 78 bd b4 eb 78 3d c0 ea c3 bd
       -0.03087577 -0.06066843 0.06077166 -0.095662594
000060 7f 77 a5 3c eb fe f9 bc 7a e8 68 bb bb f2 a3 bd
       0.020198582 -0.030517062 -0.0035538957 -0.080052815
000070 57 c1 64 3d 5b 91 03 3d b4 55 24 3d d8 a3 bb 3c
       0.055848446 0.032121044 0.040120795 0.022905275
000080 76 c0 a3 3c 8c 45 87 3d 19 37 a2 3d ff 01 4e bd
       0.019989233 0.06605062 0.07920665 -0.050294872
000090 6b 69 79 3d 5c 20 db bb 04 56 8c 3d 4e 52 f9 bc
       0.06089155 -0.006687207 0.06852344 -0.030434754
0000a0 c4 26 bf 3b 6b a9 55 3d b0 cd c9 bc 8d 40 04 bd
       0.0058334786 0.052163523 -0.024634212 -0.032288123
0000b0 cf b4 4e 3d 27 cd 1c 3c 51 91 e5 3c 91 0c 07 bd
       0.0504654 0.0095703965 0.028023394 -0.03297097
0000c0 92 a0 71 3b d1 64 42 bd 78 58 79 3c b9 99 37 bd
       0.003686939 -0.047459427 0.0152188465 -0.044824336
0000d0 5f 1c a4 3d dc e6 cb 3b 97 7f dc bc 0b 02 b0 bd
       0.08013224 0.006222589 -0.026916308 -0.0859414
0000e0 73 cc ae 3d 89 cf a6 bd 38 20 25 3d c0 f1 a3 3d
       0.08535089 -0.08145053 0.04031393 0.080050945
0000f0 3c 14 0e 3c 2c 7f b9 3d 79 22 96 3d 86 1f 16 3d
       0.008671816 0.09057459 0.07330794 0.036651157
000100 00 47 a8 3d f4 98 8f bd 0d ad 65 3c 5b 52 25 3c
       0.08216667 -0.07011595 0.014018309 0.010090436
000110 81 34 bf 3c 0b ca bc 3d 83 e8 c3 3c f7 d8 cf 3c
       0.023340466 0.09218224 0.023914581 0.025372012
000120 0b e8 6d bc e4 a7 8d bd 2f 5e a6 3d 9d 6d 40 3d
       -0.014520655 -0.06916788 0.08123433 0.046979535
000130 62 ea 8b 3d 62 ef 5c 3c dd 06 2f bd d0 32 67 ba
       0.06831814 0.013484808 -0.042731155 -0.00088195223
000140 07 d7 6a 3b cf 32 af 3c 64 58 0e 3d 3b 77 a3 bc
       0.0035833733 0.021386532 0.034752265 -0.019954314
000150 66 4c 74 3d 05 87 1e bd 38 0d 2e bd 01 ea 0e 3d
       0.05964317 -0.038702983 -0.042493075 0.034891132
000160 ef b2 1e 3d 1e a8 c6 bc c1 0e c1 bc 98 dc 69 3d
       0.038744863 -0.024250086 -0.023566606 0.05709514
000170 b5 6a c7 bb e4 48 1e bd a2 0c ca 3b 26 e8 af bc
       -0.0060857185 -0.038643733 0.0061660567 -0.021473002
000180 48 60 a2 bd 4a ed ec ba 10 04 b6 bb e3 e0 5d bc
       -0.079285204 -0.0018076089 -0.0055546835 -0.013542387
000190 6e 56 a9 bd 08 85 c0 3c c9 d3 8c bd 50 28 1d 3c
       -0.08268438 0.023500934 -0.06876332 0.009592131
0001a0 09 38 bd bc 52 09 39 bb af 0d 5b bd c9 62 19 3d
       -0.023098009 -0.0028234315 -0.053479847 0.037447724
0001b0 e2 b1 0a bd 82 ae 16 3d 89 05 9d bd 76 97 b1 3b
       -0.03386105 0.036787517 -0.07667071 0.005419667
0001c0 87 c0 b1 bc d7 69 87 3d 43 e5 d5 3c ca de 38 3d
       -0.02169825 0.06611984 0.026110297 0.045134343
0001d0 02 57 0f bc ae 3f 05 bd 44 90 fe 3c 83 33 c5 bb
       -0.008748772 -0.032531433 0.03107465 -0.0060181036
0001e0 c6 16 cd bb 6a 9a c9 bd 66 eb 9f 3c dc ca 95 3d
       -0.0062588183 -0.09843905 0.019521426 0.07314083
0001f0 5d bf 3b 3c 0e 0e c6 bc 3b fb f3 3a 80 b0 a5 3c
       0.011459199 -0.024176624 0.0018614301 0.020225763
000200 d9 21 f5 bc b4 8d 2b bd e2 89 0d bd f6 dd 4f 3d
       -0.029923366 -0.041883186 -0.034555323 0.050748788
000210 24 3f 56 3d 9b 55 82 3d 3f b5 09 bd e3 5c a9 3d
       0.05230631 0.06363984 -0.033620115 0.0826967
000220 36 07 28 bd 98 92 6c bd af 8e 7c 3c f5 2a e4 3c
       -0.041022502 -0.05775699 0.015414878 0.027852515
000230 8f 77 8c 3d 14 16 1d 3d 48 08 34 bd ad 66 b7 3c
       0.068587415 0.038351133 -0.04395321 0.022387827
000240 d1 15 af 3d a0 57 76 bc d5 ff c4 3c 7f 5f 80 bd
       0.08549083 -0.01503554 0.024047771 -0.062682144
000250 6e a3 0b 3c b6 99 aa bc af 00 63 bd 7c 12 8a bd
       0.008522851 -0.020825248 -0.055420574 -0.06741807
000260 fd c0 88 bd 13 9a 2d 3c 45 0c 1e bd a0 fe 41 bd
       -0.066774346 0.010595816 -0.03858592 -0.04736197
000270 4d 0d 9c bc 6b d7 91 bd 36 ac ac bd e8 ad ac bd
       -0.019049311 -0.07121166 -0.08431284 -0.084316075
000280 47 5d d5 3c a1 a0 9d bd 23 c6 f5 bb 06 9f 84 bb
       0.026045455 -0.07696653 -0.0075004264 -0.0040472774
000290 34 cb 1f bc e7 4a 9a 3c c1 8b 42 3d bf 3f 9c bd
       -0.009753037 0.018834544 0.04749656 -0.07629346
0002a0 51 3c 82 bd 5f 55 c9 bb d9 22 a8 bd 14 55 83 3d
       -0.06359161 -0.00614421 -0.08209772 0.06412712
0002b0 86 37 d3 3b 4d d3 bf 3d 67 83 ed 3c 79 60 bd bc
       0.006445828 0.09366474 0.028993322 -0.02311729
0002c0 c8 2d 0b bc 90 f2 45 bd 8d 74 3b bd 36 93 75 3c
       -0.008494802 -0.04832703 -0.04576545 0.014988711
0002d0 3c 4e 7f bc e0 e1 0d bc 45 9b 2b bc 17 b1 c8 3c
       -0.015582617 -0.00865981 -0.010474031 0.024498506
0002e0 e5 af b0 3a 1d 07 ad bc 7c 1e 83 bd 64 85 83 3d
       0.0013480155 -0.021121556 -0.06402299 0.064219266
0002f0 d0 2b 04 bc b5 cb 0f 3c 85 05 93 bd fb 9b a1 3d
       -0.008067086 0.008776595 -0.07178787 0.07891079
000300 71 5b 5e bc be 88 6c bd dd 70 1a 3d e5 0c 71 3d
       -0.013571606 -0.057747595 0.03770529 0.058850188
000310 c6 11 cd bb ba c3 30 bc d7 59 1e 3d f4 5a 88 3d
       -0.0062582223 -0.010788852 0.038659897 0.06657973
000320 40 cf 94 3b e4 2c 1c 3c c1 3e a9 3d af 29 a8 3d
       0.0045413077 0.009532187 0.082639225 0.082110755
000330 ae d4 93 3d ca ee 48 3a d5 1a 38 3c dd 04 08 bc
       0.072183 0.0007664977 0.011236866 -0.008301941
000340 52 13 c1 bd da bb 6b 3c cc 95 43 bc 49 49 82 3d
       -0.09427513 0.014388049 -0.01193757 0.06361634
000350 2e f6 eb bb 77 fb 99 bd 90 be cf bb 98 2b 26 3c
       -0.0072009778 -0.07518666 -0.0063398555 0.0101422295
000360 10 ca 2b 3d df d7 55 3c 67 23 c9 3c 5f 8a 02 3d
       0.04194075 0.013051956 0.024553014 0.031870242
000370 ba e6 08 bd 78 1b a2 bd cc f6 44 bd 02 22 1f 3d
       -0.033423163 -0.079153955 -0.048086926 0.03885079
000380 04 06 b2 3c 23 4a 8c 3d 5f 04 82 3d a1 b2 77 3d
       0.021731384 0.06850078 0.0634849 0.06047309
000390 88 eb 98 bd 39 f4 a6 bc 58 e0 06 bd 6b 9e af 3d
       -0.07466799 -0.020380126 -0.032928795 0.08575138
0003a0 4f 36 76 3c ea 80 08 bd 8f 35 8a bb d2 5a a6 bc
       0.015027597 -0.033326067 -0.0042178105 -0.020306978
0003b0 ab db 15 bd a5 7b 2b 3d 38 26 bb bc bf 43 8d 3d
       -0.036586445 0.041865963 -0.022845373 0.06897687
0003c0 e7 e4 38 3c 18 e3 45 3c 70 65 96 bd 1d 59 a4 bc
       0.011285043 0.012078069 -0.073435664 -0.020062024
0003d0 bc 40 89 bd 21 11 dd bc 60 4c 94 bd d3 44 c1 3c
       -0.067018 -0.026985707 -0.0724113 0.023592388
0003e0 aa a0 80 bd f2 37 31 bd 94 07 99 3d 8d 1e a5 bb
       -0.06280644 -0.043266244 0.074721485 -0.0050390423
0003f0 a5 42 e2 3c c9 25 4f 3d 39 c7 70 3d 44 c7 45 3b
       0.02761967 0.050573144 0.058783744 0.0030178586

fc1.bias f4 [256]
000000 ab 72 d6 3d c6 ba 14 be e4 d6 10 3e 41 87 0b be
       0.1047109 -0.14524373 0.14144474 -0.13625814
000010 a9 16 3b 3e f4 2e 0e 3e fd bf 95 3d 43 6c 4c be
       0.18270363 0.13885099 0.073120095 -0.19963174
000020 22 97 a7 bd 93 9e c3 3d b3 9c 3e be 9c e1 c7 3d
       -0.08183123 0.0955173 -0.18614464 0.097598284
000030 ae 43 a8 bd 30 c1 18 be 99 fa 11 bb d6 25 00 3d
       -0.08216034 -0.14917445 -0.0022274612 0.031286083
000040 36 fc 1d 3e 20 0e 05 be 8e e3 29 be 5f c5 8c bd
       0.15428242 -0.1299367 -0.16590711 -0.06873583
000050 49 d3 1e 3d 31 4a ba bd 60 31 9f bd a6 f6 91 bd
       0.038775716 -0.09096182 -0.077730894 -0.071271226
000060 1f 4a b3 3d 60 6f db 3c 46 37 37 3e 18 8a 04 3e
       0.08754372 0.026786506 0.17892179 0.12943304
000070 a2 08 35 be 1b f4 57 3d a5 0d 37 be 42 c3 40 be
       -0.17679074 0.05272303 -0.17876299 -0.18824485
000080 1e 63 91 bd 56 2e 50 3e 02 ae 95 3c 29 4c 16 be
       -0.07098983 0.20330176 0.01827145 -0.1467749
000090 87 7d 3c be 4a 8e 1d 3e 86 dc 21 3e e3 fb e7 bd
       -0.1840726 0.1538631 0.1580678 -0.113273405
0000a0 13 77 11 3e 32 6c 9a 3d 55 19 d7 bd bf fe 7f 3d
       0.1420558 0.07540168 -0.105028786 0.062498804
0000b0 90 bc fb 3b 67 5e 57 bd fa a4 55 bd 40 92 1a 3e
       0.0076823905 -0.052580263 -0.052159287 0.15094852
0000c0 f8 7f b4 3d 85 5c b6 3d 1a 8b 73 3d 74 d1 0e 3e
       0.088134706 0.089043655 0.05945883 0.13947088
0000d0 8c e9 55 bd fe 7c 37 bb 68 d7 2c 3e fb 9c fa 3d
       -0.05222468 -0.0027998085 0.16879046 0.12236973
0000e0 04 89 4f 3d 6c e6 d4 bd 02 d0 56 bd 3a aa 03 3d
       0.050667778 -0.10395512 -0.052444465 0.032144763
0000f0 54 2c 01 be ec 5c bd 3d c7 d0 01 be d8 5b 14 be
       -0.12614566 0.09246239 -0.12677298 -0.1448816
000100 a5 32 96 3d d2 c0 ce bd c3 ef 50 be 18 13 03 3e
       0.073338784 -0.10095371 -0.20403962 0.12800252
000110 78 98 aa bd b7 53 9e bd 36 83 c2 bd 68 f8 ee bd
       -0.08329862 -0.07730811 -0.09497683 -0.116684735
000120 18 72 0c be 91 c9 b6 bd 8d e3 18 be 6d 59 91 bc
       -0.13715398 -0.089251645 -0.14930554 -0.017742837
000130 16 39 85 3d 9e 31 02 be 61 b7 48 be 68 d6 91 3d
       0.06505029 -0.1271424 -0.19601204 0.07120973
000140 03 f4 e6 bd 1c ae 64 3d 79 c1 80 bc 93 ad 37 3d
       -0.1127701 0.055830106 -0.015717255 0.044843268
000150 e2 87 16 bb bd d2 82 bd 5b 26 22 be e2 9b 0f 3e
       -0.0022969176 -0.063878514 -0.15834944 0.14024308
000160 36 d9 c5 3d c6 3a ad 3c 4e 4f 32 3e 77 e6 3f 3e
       0.0966057 0.02114619 0.17413065 0.18740259
000170 f8 25 28 be 25 06 d2 3d b1 f5 3f 3e 29 2b 3a bc
       -0.16420734 0.10255078 0.18746068 -0.011362829
000180 9b e9 45 be 80 0f 98 bd 7d 6a 9a 3c 2c 7f 32 bd
       -0.19327395 -0.074248314 0.018849606 -0.04357831
000190 f5 cf c8 3d 4c cc a2 3d 9d d7 46 be 5c 9c e1 3c
       0.0980529 0.07949123 -0.19418187 0.027540378
0001a0 e7 fe 04 3d 88 75 05 3e a0 c0 d6 3c 09 90 e3 3d
       0.032469656 0.13033116 0.026214898 0.11111457
0001b0 48 85 2b 3d e2 f1 0a be cb 22 22 be 58 97 8e bd
       0.041875154 -0.13568833 -0.15833585 -0.0696246
0001c0 13 7b 62 3a dc 10 f4 bd d1 26 39 be da 09 33 3e
       0.00086395553 -0.11917278 -0.18081214 0.17484227
0001d0 b7 ea bb 3c bd 65 a1 3d 8b 62 d4 bd 80 18 0a 3d
       0.02293907 0.07880733 -0.10370358 0.03371477
0001e0 15 e7 83 bc be 5e db 3d 7c 5a 98 bd 36 1d 3a 3e
       -0.0161014 0.1071143 -0.074391335 0.18175206
0001f0 10 af 2d 3c 50 f1 0b 3c ee ad 12 3e 51 d9 d8 bb
       0.01060082 0.00854142 0.14324161 -0.006617703
000200 cf 95 73 3d 31 b6 67 bc f6 60 21 3e b1 36 4b be
       0.05946904 -0.014142559 0.15759644 -0.19845082
000210 78 8c 49 3e a3 2d f6 bd 9c 49 4c 3e 7c 91 8d 3d
       0.19682491 -0.12020423 0.19949955 0.069125146
000220 2a ed 04 be 1b 94 32 be cf 81 65 3d 74 bf a9 3d
       -0.12981096 -0.1743931 0.056032 0.0828847
000230 84 dc 0e be f8 2a 05 3e 57 d7 be bd 02 38 25 3e
       -0.13951308 0.13004673 -0.093184166 0.16134647
000240 43 8e 08 3d 9f 5e 33 be 32 0f 06 3d 84 75 5d bd
       0.033338796 -0.17516564 0.032729335 -0.05406715
000250 45 2b 5d 3d e5 1b 9d bd c4 1f 37 3e 01 59 ee bd
       0.053996343 -0.07671336 0.17883211 -0.1163807
000260 7b b5 2b 3e c8 44 4f be 48 5a 17 3e 36 ea 0f be
       0.16768448 -0.20241082 0.14780533 -0.14054188
000270 23 19 1b 3d 0c ee 54 bd 7f 0e 50 be 28 4b 24 3e
       0.03786577 -0.05198483 -0.2031803 0.16044295
000280 7e 2d 46 3d 4e 7a e8 3d 05 10 c8 bd 70 3e 81 bd
       0.04838323 0.11351453 -0.097686805 -0.06310737
000290 13 a8 c0 bd 71 ee 40 be a3 9b 36 3d 8a 35 98 3d
       -0.094070576 -0.18840958 0.04458202 0.07432087
0002a0 a5 d7 ca bc 50 fe 07 be 63 0f c8 3c 6f 28 b3 3d
       -0.02476103 -0.13280606 0.0244214 0.087479465
0002b0 18 8e 9e 3c c1 59 4f be 4a d9 cc 3d cb 14 18 3e
       0.019354865 -0.20249082 0.10002382 0.14851682
0002c0 56 a9 88 bd 4c 0c 36 bd b2 87 92 3b 20 3b 2a 3d
       -0.06672923 -0.04444532 0.0044717425 0.041560292
0002d0 b6 6b 39 3e d9 4f 15 3e 82 94 ba 3d 91 c2 09 be
       0.18107495 0.1458124 0.09110357 -0.13453127
0002e0 8f b2 fa 3d cb d2 cb 3d a1 d6 43 3e 50 c4 a1 bd
       0.122410886 0.09952315 0.19124843 -0.07898772
0002f0 94 65 93 3d 52 f4 09 3e 91 c7 c3 3d 83 d7 a6 bc
       0.07197109 0.13472107 0.09559549 -0.020366436
000300 f8 57 70 bd b4 48 19 bd d2 e1 e8 3d e5 06 84 bd
       -0.058677644 -0.03742285 0.11371197 -0.064466275
000310 7f b7 4f be 1f a9 06 bd 6e 00 40 be 4b e6 23 be
       -0.20284842 -0.03287613 -0.18750164 -0.16005819
000320 e2 5b 34 3e a8 91 03 be f4 b0 f2 3d da 6b fb bd
       0.17613176 -0.12848532 0.118501574 -0.122764304
000330 7a 59 4d be ee ce 95 3b 6e e5 d6 3d 65 9e 1b 3c
       -0.20053664 0.004571787 0.10492979 0.009498213
000340 ec 15 f0 3d b6 1f 08 bc 64 e3 14 be 20 89 ff 3d
       0.11722931 -0.008308342 -0.14539868 0.124773264
000350 70 80 0f 3d 58 4e e7 bd 5c 09 ac bc 34 90 93 3d
       0.035034597 -0.1129424 -0.021000557 0.07205239
000360 70 f4 2f bd 15 13 16 bc cc 69 53 3d c8 d2 85 3d
       -0.042957723 -0.009159823 0.051614568 0.06534344
000370 94 74 f0 3d 77 fb 53 bd 9a c3 78 3d 8b 35 45 3d
       0.117409855 -0.051753487 0.060733415 0.048146766
000380 32 6a a0 bd 1b 60 00 3d c3 d3 e5 3b ec c5 19 be
       -0.07832755 0.031341653 0.0070137694 -0.15016907
000390 f2 d4 3b be 32 34 36 3e a0 16 bf bd 43 e9 18 3e
       -0.18342951 0.17793348 -0.09330487 0.14932732
0003a0 54 0e 28 3d 32 d2 ec 3d dc 0a e3 bc 53 6b 30 bd
       0.04102929 0.11563529 -0.02771514 -0.043071102
0003b0 76 cd 9a bd 47 93 46 be de a4 3c ba fb 1c 30 3e
       -0.0755872 -0.1939212 -0.0007196198 0.17198555
0003c0 cf 1a 28 3d 88 80 8b bd 2a 59 04 be 0c 9f 44 bd
       0.04104119 -0.06811625 -0.12924638 -0.04800324
0003d0 4b a6 ad bd cc c2 ff 3d 77 e6 bc 3d 8f 02 58 3d
       -0.084789835 0.124883264 0.09223645 0.052736815
0003e0 18 4a f5 3c c8 e2 ed 3b ef 36 dc bd 75 cd ca bc
       0.029942557 0.0072597004 -0.10752665 -0.024756173
0003f0 5e 79 05 3e 07 21 d5 bc c8 11 90 3d 9a 37 e8 bc
       0.13034579 -0.026016725 0.070346415 -0.028346825

bn1.weight f4 [256]
000000 ec 05 2f 3f 64 6a fd 3d f5 89 3b 3f a9 4d 1f 3f
       0.6836841 0.12373808 0.7325738 0.62227875
000010 a7 ff 3e 3f fb b4 5f 3f 92 ef e7 3e 68 90 4e 3f
       0.74608845 0.8738553 0.45299965 0.80689096
000020 91 e6 29 3f 48 a4 8e 3e 7f 0f fb 3d f0 c7 65 3f
       0.6636744 0.27859712 0.12258815 0.89758205
000030 8d 64 30 3f 94 b7 1f 3f 0a fe 07 3f 12 4b 9a 3e
       0.6890343 0.62389493 0.5312201 0.301354
000040 43 f6 32 3f 2a 8d 4d 3e cd eb e9 3e fb 0f 21 3f
       0.69907016 0.20073381 0.45687714 0.6291501
000050 a0 a8 00 3f db fc 42 3f ce 58 aa 3d 45 47 d0 3c
       0.502573 0.76167077 0.083177194 0.025424609
000060 68 8e cc 3d cd 3c ea 3c 5f a6 e2 ba bd 0b b0 3e
       0.09988099 0.028593445 -0.0017292014 0.34383956
000070 c5 b4 94 3e 64 0d 48 3f d7 58 88 3e 65 11 73 3e
       0.29044166 0.7814543 0.2663028 0.23737104
000080 84 43 95 3e 83 24 55 3f be 0d db 3d 0b d8 1c 3f
       0.29153073 0.8325884 0.106959805 0.61267155
000090 b7 22 83 3e 22 33 39 3e 7f 25 9b 3e 95 50 61 3f
       0.25612423 0.18085912 0.30302045 0.88013583
0000a0 42 35 dd 3e 32 d0 33 3f e8 14 65 3f 45 5a d8 3e
       0.43204695 0.70239556 0.89485025 0.4225637
0000b0 1c 38 27 3f 6b b8 4e 3f 4e f1 57 3f 9e 80 91 3e
       0.6531999 0.8075015 0.84352577 0.2841844
0000c0 81 3a 35 3f fc 57 10 3f cf bd 57 3f c9 00 66 3f
       0.70792395 0.56384254 0.84274 0.8984495
0000d0 9f 3d 05 3f 6c 4f 28 3e 6a 2b 04 3f 53 cc 00 3f
       0.5204715 0.16436547 0.51628745 0.50311774
0000e0 ac 43 85 3e 18 fd e9 3e 97 80 52 3f 42 90 49 3f
       0.26028192 0.45700908 0.8222746 0.78735745
0000f0 d7 9b 98 3e 8e b5 42 3d 8e fe 25 3f 00 7b 0c 3c
       0.29806396 0.047536425 0.64841545 0.008574247
000100 60 4d a9 3e ac b5 c3 3e 37 cb 8a 3e 39 7d ce 3e
       0.33066845 0.38224542 0.27108166 0.40329912
000110 bf 8a 11 3f 3e 19 63 3f 90 3f 1f 3f 97 c5 1e 3f
       0.56852335 0.8871039 0.62206364 0.6202025
000120 b6 7d 18 3e 49 2b 8e 3e 2c e0 62 3e 43 d0 45 3e
       0.14891705 0.277674 0.22155827 0.19317727
000130 5c bd 0a 3f a1 98 c5 3e 39 bd 1c 3f 81 ac 52 3d
       0.5419519 0.3859301 0.6122623 0.051434044
000140 63 68 86 bb 12 de ca 3e fc ee bb 3e 7a 48 64 3e
       -0.0041017993 0.3962255 0.36705768 0.22293273
000150 00 c1 41 3f e0 ef 41 3f 52 b9 05 3e 3d 10 d8 3e
       0.7568512 0.75756645 0.13058975 0.4219989
000160 1b 6b 15 3f 84 6b 25 3f 7f 9c 36 3e bb c6 31 3f
       0.58366555 0.6461718 0.17833136 0.69443864
000170 92 99 42 3f 5d 06 1f 3f e9 5c f7 3e 66 91 a1 3e
       0.7601558 0.62119085 0.48313072 0.31556243
000180 97 3b 53 3f a9 aa a0 3e 25 cc 2f 3f 8c 4b 4a 3f
       0.825128 0.31380203 0.68670875 0.79021525
000190 4e cf ab 3e 12 76 96 3c 52 11 5f 3f ff 46 18 3f
       0.33556598 0.018366847 0.87135804 0.5948333
0001a0 1d 63 6c 3f c8 1a f7 3c 0e 85 6e 3e 6e 94 dc 3d
       0.92338735 0.030164137 0.23292944 0.10770498
0001b0 c8 63 78 3f e7 18 f9 3b 3d da 2e 3f f6 80 23 3f
       0.97027254 0.0076018455 0.68301755 0.63868654
0001c0 fc 28 c3 3e 82 79 3b 3f 96 a8 9e 3d 17 37 39 3f
       0.38117206 0.7323228 0.07746999 0.72349685
0001d0 03 b7 f9 3e 15 b5 10 3f 5e cc e9 3e 7c f2 e4 3e
       0.4877244 0.5652631 0.45663732 0.4471625
0001e0 30 88 e2 3e f7 cc 6b 3f 44 df 4c 3e 59 2b 51 3f
       0.44244528 0.92109627 0.20007044 0.8170677
0001f0 39 cc 36 3d 13 7a 64 3d 82 f0 4e bc bb ef 9b 3e
       0.044628356 0.05578048 -0.012630584 0.30456337
000200 9a b5 68 3f dc b7 11 3f c3 89 05 3f aa 64 e8 3e
       0.909021 0.5692117 0.5216333 0.453893
000210 d4 d4 a6 3e e2 83 00 3f 89 68 9b 3e f6 ef 88 3e
       0.3258425 0.5020124 0.30353191 0.26745576
000220 73 9e 5c 3e 99 7e 0d 3f c4 2b 3d 3f 14 86 83 3e
       0.21544819 0.552713 0.73894906 0.2568823
000230 f3 18 76 3e a1 2c 03 3f 43 79 16 3f 41 10 e6 3e
       0.24032955 0.51239973 0.5877878 0.44934276
000240 d4 7b 51 3f 44 65 02 3f a0 53 22 3f 7e e7 22 3e
       0.8182957 0.5093577 0.6340885 0.1590862
000250 90 e6 c5 3e f4 c6 fa 3e 96 b1 76 3d 77 40 4b 3e
       0.38652468 0.48979914 0.060227953 0.1984881
000260 02 8f e5 3e 25 a4 c7 3e 72 40 6c 3d 36 2b 01 3e
       0.4483567 0.3899242 0.057678647 0.1261414
000270 6e 0b 84 3e 55 f6 fd 3e 6e c7 03 3f e8 27 63 3f
       0.2578997 0.49602 0.5147618 0.8873277
000280 22 47 3c 3f 6e 3b 3d 3f a8 2a 1e 3f 8f a0 98 3e
       0.7354604 0.7391881 0.6178384 0.29809996
000290 7d aa 8f 3e c3 7c 9a bc 44 66 bc 3e 84 2d 73 3f
       0.2805976 -0.01885832 0.36796772 0.94991326
0002a0 c6 9b fa 3d 95 fa 1e 3e 79 af 5d 3f 21 9b 2b 3f
       0.12236743 0.15525277 0.86595875 0.6703358
0002b0 d0 2b 47 3f db e4 10 3f f3 2f da 3e 52 55 34 3f
       0.7780123 0.56599206 0.42614707 0.7044269
0002c0 ab 5c 64 3f 0e 15 51 3f cb 0b 00 3f a0 c7 77 3f
       0.892039 0.8167275 0.50017995 0.9678898
0002d0 f7 1a 87 3d 39 a6 60 3f 5d b6 2d 3e d3 b1 4e 3f
       0.0659694 0.87753636 0.16964097 0.8074009
0002e0 6d a4 5f 3f a3 4b 02 3f a0 c9 1a 3f b6 fb a1 3e
       0.8736027 0.5089666 0.60463905 0.31637353
0002f0 f8 47 c0 3e 2c 4b c9 3d b8 48 0c 3f ec 3d 2d 3f
       0.37554908 0.09828791 0.5479846 0.6767261
000300 bb 81 04 3f 07 23 43 3e 57 63 f1 3d f3 e9 2e 3f
       0.51760453 0.1905633 0.11786526 0.6832573
000310 54 cc a4 3e c9 02 fb 3e 47 1d 35 3f 7d 8d 63 3e
       0.3218714 0.49025562 0.707478 0.22221942
000320 c4 4e 13 3f 2c 06 cd 3d 0b e5 fe 3e 04 5e 29 3f
       0.5754206 0.10010943 0.4978412 0.6615908
000330 83 cd 88 3e 95 2e f8 3e 6d ae 3e 3f 7e ee 69 3e
       0.26719293 0.4847304 0.744849 0.22844884
000340 be e1 61 3d 32 36 52 3e 64 d7 43 3e da 15 62 3d
       0.055146925 0.20528486 0.19125134 0.05519662
000350 bb cd 13 3f 33 75 29 3f 74 41 68 3e 2e 60 f9 bb
       0.57735795 0.66194457 0.22681218 -0.0076103425
000360 19 6a 59 3e d8 b9 3f 3f 89 da 28 3f 54 2b 21 3f
       0.2123188 0.7489295 0.6595846 0.6295674
000370 36 f7 17 3e ac 35 5c 3f 4a 63 4e 3e 95 26 ba 3e
       0.14840397 0.86019397 0.20155063 0.3635756
000380 5a 92 4e 3e 98 f4 c2 3e dc 11 cf 3e 4b 50 15 3f
       0.20173016 0.38077235 0.40443313 0.5832564
000390 04 06 4f 3f fb 97 46 3f 5c 10 34 3f 66 f8 59 3f
       0.80868554 0.77575654 0.7033746 0.8514465
0003a0 46 f7 1e 3f 93 3f 74 3f a8 9f 26 3e 06 dc 41 3f
       0.6209606 0.95409507 0.16271842 0.75726354
0003b0 22 ad 7c 3f 77 f0 14 3f 1b 63 46 3d a1 77 70 3f
       0.9870168 0.5817942 0.048434358 0.9393254
0003c0 92 68 92 3e 3f 48 32 3e 30 9a a8 bc ae 3e 76 3f
       0.28595406 0.17410372 -0.020581335 0.9618939
0003d0 12 ac 74 3f 63 92 97 3d 1e 44 e3 3e 4d 5b 8e 3e
       0.9557506 0.07400968 0.44387907 0.27804032
0003e0 78 7c f1 3d 26 75 36 3e 17 7a b0 3d 4c 0c 16 3f
       0.11791319 0.17818126 0.08617037 0.58612514
0003f0 df 5a d8 3e 55 46 15 3f b5 7a 02 3e 2d 5b 25 3f
       0.4225683 0.58310443 0.12742122 0.6459225

bn1.bias f4 [256]
000000 b3 d3 09 bd 13 db 15 3d 97 dc db bc e1 9e d6 3c
       -0.033649158 0.03658588 -0.026838584 0.026198806
000010 82 ec be 3c 95 57 c2 bc 91 51 05 bd 03 70 0b bd
       0.023306135 -0.023723403 -0.03254849 -0.03404237
000020 68 17 c5 bc 5d b3 c4 bc f3 71 c8 bc 84 71 c1 bc
       -0.024059013 -0.024011308 -0.024468398 -0.023613699
000030 d1 26 d3 bc b6 f4 ba bc dd ec be bc d3 c3 b1 bc
       -0.025775345 -0.022821765 -0.023306305 -0.021699822
000040 0e c9 e3 3c fe 8a d8 bc d8 71 c6 bc 9d 65 1f 3d
       0.027805831 -0.026433464 -0.024224207 0.038915265
000050 ce 1d 04 bd ed 0a 1b bd 02 15 c9 bc 01 30 d2 bc
       -0.032254986 -0.037852217 -0.02454615 -0.025657656
000060 3f 89 c2 bc e5 c1 cf bc bc 75 ae bc 4f 0b ce 3c
       -0.023747085 -0.02536101 -0.021296374 0.025151877
000070 31 81 1e bd 16 a3 b5 bc dd 91 c2 bc af e7 00 bd
       -0.038697425 -0.022172492 -0.023751194 -0.03147095
000080 00 c3 c8 bc 26 b7 c7 bc 7a 57 f1 bc 2b fc 93 3c
       -0.024507046 -0.024379324 -0.029460657 0.018064579
000090 64 af f4 bc 07 fa 94 bc 13 3e 09 3d 31 30 f8 bc
       -0.029868789 -0.018185629 0.033506464 -0.030296417
0000a0 79 5a be bc 01 0d c7 bc a5 16 ec bc fb fd 05 bd
       -0.0232365 -0.024298193 -0.028819392 -0.032712918
0000b0 19 cd 38 3d fd 7d d5 3c 0f e8 fe bc 23 c0 ac bc
       0.04511747 0.026061052 -0.031116514 -0.021087712
0000c0 42 bb fc bc fd a2 c4 bc 9a 25 ec bc 64 10 9f bc
       -0.03085101 -0.0240035 -0.028826524 -0.019416995
0000d0 76 d3 bd bc c8 c3 ea 3c de b4 cb 3c 15 31 dd bc
       -0.023172121 0.028657809 0.024866518 -0.027000943
0000e0 36 b7 ad bc 09 78 b4 bc 25 61 ad bc 91 f9 bc bc
       -0.021205526 -0.022029893 -0.021164486 -0.023068221
0000f0 be 29 04 bd 66 83 cc bc db 4f cd bc 48 a6 c4 bc
       -0.03226637 -0.024965 -0.025062492 -0.02400507
000100 d0 7c e5 bc b7 28 d2 bc 5d 2b ae bc 43 f0 dd 3c
       -0.028013617 -0.02565418 -0.021260912 0.027092105
000110 1a d4 ac bc 2f 0c cb bc 2d de cb bc 2b 51 c7 bc
       -0.021097232 -0.024786083 -0.024886215 -0.024330696
000120 75 14 e0 bc fa 19 f6 3c c9 0f f8 3c 92 8c c4 3c
       -0.027353505 0.030041683 0.030280964 0.02399281
000130 7f c3 cb bc 58 82 c5 3c 7b ca fd bc cb ba f7 bc
       -0.024873493 0.024110004 -0.03098034 -0.030240437
000140 ab 13 a5 bc 0f c8 d7 bc 82 0e 89 bc 26 a0 d2 3c
       -0.02015098 -0.026340513 -0.01673055 0.02571113
000150 10 a1 cf 3c 9f 89 c7 bc 20 85 ca bc 54 4a c3 bc
       0.025345355 -0.024357615 -0.024721682 -0.023839153
000160 4d 03 bd bc 4e a3 de 3c ec b0 cf bc 15 54 ca bc
       -0.023072863 0.02717748 -0.025352918 -0.024698297
000170 db 4a d7 bc fc 98 b0 bc 34 d0 01 bd d1 61 d2 3c
       -0.026280811 -0.021557324 -0.0316927 0.025681408
000180 dd 74 0c bd 5a 12 0d 3d 60 8a fe bc 63 60 15 bc
       -0.034291137 0.03444133 -0.031071842 -0.009117219
000190 f7 f9 04 bd ee a3 bb bc 04 15 c0 bc e5 f2 fb 3c
       -0.032464948 -0.022905316 -0.023447521 0.03075547
0001a0 48 36 cb bc 87 98 c4 bc e0 53 ca bc 55 a9 05 bd
       -0.024806157 -0.023998512 -0.024698198 -0.03263219
0001b0 e3 6b c1 bc 2e 19 4a bd 4e b2 c9 bc e2 70 ab bc
       -0.023611015 -0.04934042 -0.024621155 -0.02092785
0001c0 1b 8e 16 3d 0a 71 da bc 6e c0 c0 bc 0d b7 48 bc
       0.036756616 -0.02666523 -0.023529258 -0.012250674
0001d0 d8 37 05 bd 60 b4 d2 bc 12 b6 d7 bc 80 fe f0 bc
       -0.03252396 -0.025720775 -0.026331935 -0.02941823
0001e0 4f f7 fe bc 9d 7f 61 bd 86 6a 20 bc f9 d5 c5 bc
       -0.031123785 -0.055053342 -0.009791022 -0.024149882
0001f0 de 0c f9 3c 91 10 da 3c 6b 2e c9 bc 6c b5 d9 3c
       0.030401643 0.026619228 -0.024558267 0.026575767
000200 0d 67 c7 bc a6 62 f8 bc 10 b1 ca bc e8 c4 ca bc
       -0.02434113 -0.030320477 -0.024742633 -0.024752095
000210 e0 2a ef 3c 1e b1 ca bc 8d d2 ac bc b6 c6 d5 3c
       0.02919525 -0.02474266 -0.021096492 0.02609573
000220 14 c6 fb bc 1a 0c c5 bc 9e 01 d6 bc f9 d8 00 bd
       -0.0307341 -0.024053622 -0.026123818 -0.03145692
000230 ec cd 99 3c 82 14 e3 bc eb dd 3e bc 8b d4 87 bc
       0.018774949 -0.02771974 -0.011649589 -0.01658084
000240 44 05 0c bd 4c 7c d8 bc 2a 02 85 bc 53 94 05 bd
       -0.03418471 -0.026426457 -0.016236383 -0.032612156
000250 00 56 e6 bc c3 bd fe bc 58 a5 00 3d e7 8a 45 bc
       -0.02811718 -0.031096345 0.031407684 -0.012057043
000260 43 0b af bc f6 84 12 bd 7a dc b4 bc 87 e4 10 3d
       -0.021367675 -0.035771333 -0.022077788 0.03537419
000270 cc 4d ca bc 0a b5 d8 bc e4 d9 48 3d 12 7f 15 3d
       -0.0246953 -0.026453514 0.04903592 0.036498137
000280 e6 17 02 3d c5 b2 d9 bc 49 b8 d0 bc 6d ff c9 3c
       0.031761073 -0.026574502 -0.025478499 0.02465793
000290 74 09 05 bd 6e 10 0c bd dc 59 06 bd e8 a6 b1 bc
       -0.03247972 -0.034195356 -0.03280054 -0.021686032
0002a0 4e d3 bb bc 8c b7 06 bd 11 8b c0 bc fd 8e d9 bc
       -0.022927906 -0.032889888 -0.023503812 -0.02655744
0002b0 62 5a 0c bd 93 c4 cf bc dc d5 fc bc ef 4e 03 3d
       -0.034265883 -0.025362289 -0.030863695 0.0320577
0002c0 3a d8 d5 bc 42 2c 06 bd 2b af be bc c3 14 bd bc
       -0.026104081 -0.03275705 -0.023276886 -0.023081189
0002d0 aa 89 d7 3c cc 81 07 bd e5 96 cd bc 28 1d 25 bc
       0.02631076 -0.03308277 -0.025096366 -0.010077752
0002e0 e6 47 f1 3c 3f 4e df 3c 59 0e d0 bc 1a 4a 06 bd
       0.02945323 0.02725899 -0.025397466 -0.032785513
0002f0 9f a2 c2 bc 23 25 b5 bc e9 da c5 bc 9b 7d ff bc
       -0.023759184 -0.022112435 -0.024152236 -0.031187823
000300 7b b5 c3 3c 52 48 e4 bc 85 3d 0a bc e6 0d c8 bc
       0.023890248 -0.027866516 -0.008437519 -0.02442069
000310 f7 8e 02 bd 21 a3 cd bc df ff ca bc dd 5e ff bc
       -0.031874623 -0.0251022 -0.024780212 -0.031173164
000320 c7 21 ef bc 0a ea 85 3c df 11 c7 bc 2c d5 ba bc
       -0.029190911 0.01634695 -0.024300514 -0.022806726
000330 8c 83 d4 bc 1c 78 da 3c 21 ad ed bc 3b dc a8 bc
       -0.025941633 0.0266686 -0.029013218 -0.020612827
000340 91 49 c2 bc da 5b bc bc 59 93 73 3d c6 1f e8 3c
       -0.02371672 -0.022993017 0.059466694 0.028335463
000350 cf 21 a4 bc 6b 4b fe bc d9 72 d3 3c b7 ad c7 bc
       -0.020035652 -0.031041821 0.0258116 -0.024374826
000360 b6 d8 45 bc f3 e3 e2 3c 83 25 0c bd 89 75 c2 bc
       -0.012075594 0.027696585 -0.03421546 -0.023737686
000370 b3 d2 b1 3c d1 91 cc bc 57 11 ae bc 40 5b ca bc
       0.021706915 -0.024971874 -0.021248503 -0.024701715
000380 74 69 e5 bb 1d 7b d6 bc f6 cd 06 bd 18 a9 bc bc
       -0.0070010964 -0.026181752 -0.032911263 -0.023029849
000390 48 89 fb bc e3 9b da bc a7 6e c7 bc 93 c6 09 bd
       -0.03070511 -0.02668566 -0.024344755 -0.03363664
0003a0 ec 11 cc bc a5 26 da bc 0f 99 d1 bc 00 d5 b5 3c
       -0.02491089 -0.026629755 -0.02558568 0.022196293
0003b0 e5 1f e0 3c 50 97 c9 bc 7d 1b 2f 3d d7 8c c9 bc
       0.027358958 -0.024608284 0.042750824 -0.02460329
0003c0 f8 a0 dd bc 68 f5 b3 3c 13 b7 cb bc 17 cb 1d bc
       -0.027054295 0.021967605 -0.02486757 -0.00963094
0003d0 fa 7a e3 3c 3f 78 00 bd 92 16 03 3d 31 6e 26 bd
       0.0277686 -0.031364676 0.032003947 -0.04063243
0003e0 a1 61 86 bc d6 4b e7 bc 31 6e ea 3c cd 7b 85 3c
       -0.016403975 -0.028234404 0.028616996 0.016294384
0003f0 cb c9 8f 3b f1 07 cf bc 39 aa c5 bc bf 57 c1 bc
       0.0043880693 -0.025272341 -0.02412902 -0.02360141

bn1.running_mean f4 [256]
000000 fb 3a 11 3f 21 0e f3 be 71 25 9c be 8e 56 c5 be
       0.5673062 -0.47471717 -0.30497316 -0.38542598
000010 66 b9 84 3f 5b b4 97 3f 00 1c 38 bf 45 f7 21 3f
       1.0369079 1.1851915 -0.71917725 0.6326793
000020 50 d9 3d 3f c1 c6 d5 be dc 63 18 3e 26 49 86 be
       0.7415972 -0.417532 0.14881843 -0.26227683
000030 26 7a 05 bf 78 b0 de bd f4 7f 6c 3f c3 0f 34 3e
       -0.5213951 -0.108735025 0.9238274 0.17584138
000040 0c 7b 44 3f 39 59 b8 3d fb 7f d5 3e 74 b1 31 3e
       0.76750255 0.09001393 0.41699204 0.17352849
000050 d1 18 0c bf 65 46 f8 3a 47 d2 0b 3f ef a3 9b 3e
       -0.54725367 0.0018941878 0.5461773 0.3039851
000060 26 31 af 3e 93 db 2c be 33 a1 2c 3e fd 84 60 3f
       0.34217185 -0.16880636 0.16858368 0.87702924
000070 b9 8b fc 3e 4e 26 a5 be f8 31 4a 3f dc 95 9c bf
       0.4932535 -0.32255787 0.78982496 -1.2233233
000080 c0 83 39 bf 83 16 d4 3e 63 52 24 be 51 2c c5 be
       -0.7246666 0.41423425 -0.16047053 -0.38510373
000090 b0 77 f8 3e 63 62 65 be e9 62 88 3e e3 7c 32 3e
       0.48528814 -0.22400813 0.26637962 0.17430453
0000a0 cc e5 cb bf f8 d7 aa bf 63 0c a7 bf b2 5c ab 3f
       -1.5929503 -1.3347158 -1.3050655 1.3387663
0000b0 2f 5b 70 bf 61 f4 4c bf 75 23 3a be 73 97 1b 3f
       -0.93889135 -0.8006039 -0.18177588 0.6077797
0000c0 99 b1 ec be 5f 8f 9d 3f 2f ca 8c bf db 9a 7a bf
       -0.46229246 1.2309378 -1.0999202 -0.9789254
0000d0 b9 a3 98 be 6f ea 15 bf 79 d8 28 3e 62 4f 51 3e
       -0.2981241 -0.5856084 0.16488828 0.20440438
0000e0 9e 72 f4 be ca 33 c8 bf 43 36 b0 be 4f 9e 92 3f
       -0.47743696 -1.5640805 -0.34416398 1.1454562
0000f0 54 d6 fc 3e ed e9 2d 3e a1 5c ce 3e 29 e0 b7 bf
       0.4938227 0.16983767 0.40305045 -1.4365283
000100 3e 31 b8 3e 2a cc 66 bf 14 79 a8 bf 0a f0 d7 3d
       0.3597507 -0.9015528 -1.316195 0.10543831
000110 09 74 e6 3d d9 73 ea 3c e7 a1 7e 3e 1c 66 a2 3f
       0.11252601 0.028619694 0.24866448 1.2687411
000120 f2 a7 1a 3f 81 45 ac be f0 44 d3 be b3 0d 11 3f
       0.60412514 -0.33646777 -0.41263533 0.5666153
000130 82 89 14 bf 65 58 a9 bc 44 e2 3b 3f d3 c6 45 3e
       -0.5802232 -0.020672033 0.7339213 0.19314127
000140 62 0e b6 bf 5f 7d ec bc f7 90 c3 3e 43 a2 d2 3d
       -1.4223139 -0.028868375 0.38196537 0.10284855
000150 a1 30 82 bf 86 e2 0e 3e 03 5d 59 3f 57 77 e8 3e
       -1.017109 0.139536 0.8490755 0.4540355
000160 4e 25 c9 be 33 7d 2c 3f 91 d3 83 3f c3 3f 0c 3e
       -0.39286274 0.6737854 1.029894 0.13696198
000170 ce 30 f9 3d f5 41 0f 3f 07 05 d4 3f 65 95 56 3f
       0.12167512 0.5596002 1.6564034 0.8382171
000180 fe 9d 86 be 27 e5 8b bf 0d 7f 33 3f 9f b2 a0 bf
       -0.26292413 -1.0929307 0.7011574 -1.2554511
000190 12 69 7c 3d 95 aa ad 3e 71 11 2d 3f 94 63 f9 3e
       0.06162364 0.33919206 0.6760474 0.48708785
0001a0 a6 b0 5d 3f e0 96 0d 3f c0 d4 07 be 06 d7 27 be
       0.8659767 0.5530834 -0.13264751 -0.16390619
0001b0 1f e4 35 3f e8 09 2f bf b7 03 9e 3e 10 df e4 3e
       0.7105121 -0.6837449 0.3086221 0.44701433
0001c0 c1 b0 ef be 06 01 2c 3f 9b a9 4c bf dc e8 d8 3e
       -0.4681454 0.6718906 -0.799463 0.42365158
0001d0 87 8c bc 3e 44 91 aa be 36 73 84 bf 49 fb 7d bf
       0.36825964 -0.33313954 -1.034766 -0.99211556
0001e0 54 2e d8 be 61 4f ab 3e da bf 20 3f 0a c1 09 be
       -0.42222846 0.33459 0.6279274 -0.13452545
0001f0 2b 4c 31 be 19 25 84 be 5b 0e f7 3e f4 5c a9 3f
       -0.17314212 -0.25809553 0.4825314 1.3231492
000200 22 00 1f 3f e0 54 a9 bf 31 4d 6f 3d b9 17 e1 3e
       0.6210958 -1.3229027 0.058423225 0.4396341
000210 35 0b 70 bf b7 ed aa bd b6 00 36 bf df 47 a1 bd
       -0.937671 -0.08346122 -0.71094835 -0.078750364
000220 b6 69 47 bf ef cc f5 3c df c0 c4 3e 78 4c 93 3f
       -0.7789568 0.030004947 0.384284 1.1507711
000230 f3 e0 87 bf 7f 86 e9 3d 3c 4d 0e bf 6f 6a c8 bc
       -1.0615524 0.11402606 -0.555866 -0.024464814
000240 16 d4 77 3f 6a 74 34 be 5e 9b 8b bf 3d 85 b7 be
       0.9680799 -0.17622533 -1.0906789 -0.3584384
000250 37 b2 f8 be 37 92 fd 3d 02 29 54 bf 2f 91 57 3f
       -0.48573467 0.12381404 -0.8287507 0.8420591
000260 18 58 4f 3e 30 0a 67 bf eb c5 aa 3e 65 77 a7 bf
       0.20248449 -0.9024992 0.33354124 -1.3083311
000270 41 19 5e 3f f9 41 22 3f b2 74 1a bf 85 94 84 3f
       0.86757284 0.63381916 -0.6033431 1.0357825
000280 af 37 4b 3f 09 22 16 3f eb 36 1a 3f 22 f6 f3 be
       0.7938184 0.58645684 0.6024005 -0.47648722
000290 0a 2f 93 bd 0f 2f 89 3e 99 6b c8 3e 52 ff 40 bf
       -0.07186706 0.26793715 0.3914459 -0.7538959
0002a0 7d b2 45 3c c5 bd e9 3f 10 ed 6e 3f f6 a1 d2 3f
       0.012066481 1.8261038 0.9333048 1.6455677
0002b0 66 79 21 bf b7 ee 91 bf 04 ad 32 3e 49 67 dd 3e
       -0.63075864 -1.1400975 0.17448813 0.43242863
0002c0 f6 3f d1 3e e3 e5 46 3f bd 27 6a bf 08 c2 28 bf
       0.4086911 0.7769453 -0.91466886 -0.6592107
0002d0 b2 c7 7c 3e b7 a1 51 3f 24 ed 10 3e 01 d3 8b bf
       0.24685553 0.8188738 0.14152962 -1.0923768
0002e0 c5 23 d0 3e c6 99 03 bf cb 91 51 bf 24 21 b0 3d
       0.4065229 -0.51406515 -0.8186309 0.08600071
0002f0 80 ee 39 bf 66 61 63 bf 4f 12 91 3f 5b b2 65 3f
       -0.7262955 -0.88820493 1.1333712 0.89725274
000300 59 ca bc 3e 88 45 1a bf 41 06 2c 3f 6e 15 25 3f
       0.3687313 -0.60262346 0.6719704 0.64485824
000310 c7 b3 3b 3b 59 41 a8 3f dc 73 cb 3e 1a 7c 52 3e
       0.0028641091 1.3144943 0.3973683 0.20555153
000320 da f2 49 3f 88 75 c9 3f 78 2d 76 bf 7d b5 4e be
       0.7888619 1.5738993 -0.9616313 -0.2018642
000330 c4 d8 8d 3d f5 70 de 3e 6c 50 1d 3e 6a 2f 7c be
       0.069261104 0.43445554 0.1536271 -0.24627462
000340 4d f2 2f bf f4 87 36 3e 5d f9 06 3e b2 60 56 3f
       -0.68729097 0.178253 0.13181062 0.83741295
000350 bd 8f 45 bf 63 eb 9e 3d 14 4b a8 be ac fe 84 3f
       -0.7717245 0.0775974 -0.3286978 1.039022
000360 51 ac 25 bf 5c 74 65 3f 90 bd 4c 3f 44 cd 7c 3f
       -0.6471606 0.89630675 0.7997675 0.9875071
000370 0f b2 36 3e 89 fc 63 3f ee e2 16 bf 7d 5b 3b 3e
       0.17841361 0.89057213 -0.5894002 0.18296619
000380 5d bc 3f bf b3 8e d8 bf 87 62 8f 3f b8 5f 71 3d
       -0.74896795 -1.6918548 1.1201943 0.058929175
000390 01 af c5 bb b9 2c 1f 3f 4a cb 3d bf 9c 19 05 3f
       -0.006032825 0.62177616 -0.7413832 0.519922
0003a0 0c fc da 3e ef 14 89 3e 42 24 18 3f 65 87 a7 bf
       0.42770422 0.26773784 0.59430325 -1.3088194
0003b0 49 80 b7 bf f1 aa 46 3f d6 1d 59 3f f3 ad 5e 3f
       -1.4336025 0.77604586 0.8481115 0.86984175
0003c0 19 94 9c 3f e7 08 92 3e 2c 6c 8c 3e 55 27 88 3f
       1.2232696 0.28522417 0.2742628 1.0637003
0003d0 f4 6e e4 be 20 0b 54 3e 85 c6 40 3e ea 1b ca be
       -0.446159 0.20707369 0.18825729 -0.39474422
0003e0 18 2f 4c bf 18 b2 9c bf 5e f3 fa be 37 5d b2 3e
       -0.7975936 -1.224185 -0.490138 0.34836742
0003f0 29 07 84 bf f3 44 85 3f 0e 5d f0 3e f7 eb 42 bf
       -1.0314685 1.0411667 0.46945995 -0.76141304

bn1.running_var f4 [256]
000000 51 d1 60 3f 2b ec 54 40 10 e7 31 40 cc e8 48 3f
       0.8781939 3.3269145 2.779728 0.7848022
000010 20 b1 38 40 1d c9 df 3f b3 a3 05 40 a9 16 32 40
       2.8858109 1.748325 2.0881164 2.782633
000020 a3 c0 f1 3f b2 b1 a8 3f 85 4f e2 3f 24 f2 09 40
       1.8886913 1.3179228 1.7680517 2.155404
000030 61 09 3e 40 30 d8 97 3f 9b f2 9d 3f 08 9e 1f 40
       2.9693224 1.186285 1.2339662 2.4940205
000040 a6 ef e8 3f a7 d1 b2 40 bd d2 a9 40 a9 dd a7 3f
       1.8198135 5.5880923 5.306975 1.311452
000050 e5 30 13 40 b8 1d c6 3f a3 62 9d 40 95 18 09 40
       2.2998593 1.547782 4.9182906 2.1421254
000060 00 29 98 3f 99 a1 3f 40 80 fb aa 3f 3e d3 16 40
       1.1887512 2.9942381 1.3358002 2.3566432
000070 e8 9b 07 40 0d 88 c7 3f 44 a8 b2 40 ba 96 5e 40
       2.1188908 1.5588394 5.58304 3.4779496
000080 6e aa 1a 40 dc b2 30 40 54 a9 a4 3f d6 9e ea 3f
       2.4166522 2.7609167 1.2864175 1.8329723
000090 b2 65 f6 3f 12 2d 97 3f 9c 45 dc 3f 6f bc 0a 40
       1.9249785 1.1810629 1.7208743 2.167751
0000a0 2c 4d f0 3f 31 ae 3d 40 08 3d ca 3f 56 61 08 40
       1.8773551 2.9637568 1.5799875 2.130941
0000b0 ba af a9 3f 04 f1 ad 3f 5f 01 09 40 2d 11 f4 3f
       1.3256752 1.3589177 2.1407087 1.9067742
0000c0 96 30 42 40 ba 73 c5 3f 7e d2 c3 3f 94 36 2c 40
       3.0342155 1.5425942 1.5298612 2.6908312
0000d0 f8 5c 95 40 18 30 8f 3f b3 1c 0d 40 bc be 9f 3f
       4.6675987 1.1186552 2.2048767 1.2480083
0000e0 ac c8 54 40 fc 4f 20 40 f4 ba f1 3f 19 58 f4 3f
       3.324748 2.5048819 1.8885179 1.9089385
0000f0 d7 d9 c6 3f 5d a6 37 40 10 a2 29 40 63 80 d2 3f
       1.553523 2.869529 2.6505165 1.644543
000100 19 15 e4 3f 4d 35 ea 3f 66 6e c7 3f 62 e5 41 40
       1.7818938 1.8297516 1.5580566 3.0296254
000110 d3 9c 27 40 ba 0b cd 3f de 78 eb 3f 8f 72 34 3f
       2.6189468 1.6019204 1.8396261 0.704873
000120 5f 8e 2e 40 e0 69 78 40 39 ce 14 40 b9 9b d5 3f
       2.7274396 3.881462 2.3250868 1.6688148
000130 51 a3 5e 3f 0e bf 1c 40 d5 dd de 3f 86 f9 0a 40
       0.8696795 2.449161 1.7411448 2.1714797
000140 10 21 d2 3f f9 80 37 40 df 53 33 40 13 1b d7 3f
       1.641634 2.8672469 2.801994 1.6805137
000150 9a ee 45 3f 13 29 c3 3f 80 06 ff 3f 0f 5f ff 3f
       0.773172 1.524691 1.9923859 1.9950885
000160 6b c9 80 3f 36 d0 8d 3f bb 74 ae 3f 73 bb 04 40
       1.0061468 1.1079166 1.3629373 2.073941
000170 ec f3 51 40 96 57 ab 3f cf 00 e2 3f 9d 61 64 40
       3.2805128 1.3386104 1.7656497 3.5684578
000180 6b 01 b5 3e 02 f1 59 3f c3 32 8f 40 a3 6a 57 40
       0.35352644 0.85133374 4.4749465 3.3658836
000190 e3 46 52 3f fa d4 69 40 ad 0c ef 3f d4 1b 28 40
       0.82139415 3.653624 1.8675743 2.6266985
0001a0 48 38 b7 3f aa 04 ea 3f 5c 7f 02 40 19 de 83 3f
       1.4314051 1.8282673 2.0390234 1.0302154
0001b0 8d e2 ec 3f b4 5a b2 3f 83 dc 0a 40 a9 51 4a 40
       1.8506638 1.393393 2.169709 3.1612341
0001c0 96 69 e8 3f 2d ef 3a 40 36 98 0c 40 8d 20 0d 40
       1.8157222 2.9208481 2.1967902 2.2051117
0001d0 f9 e9 bd 40 9c 52 b7 3f 71 45 c5 3f 44 43 38 40
       5.934811 1.4322085 1.5411817 2.8791056
0001e0 a6 04 8f 40 83 2e 87 40 cc 72 1a 40 a8 00 ac 3f
       4.4693174 4.2244277 2.4132566 1.34377
0001f0 bd 7f 8d 3f f2 cd f8 3f a1 fa 40 40 b4 a2 24 40
       1.1054608 1.943785 3.0152972 2.5724306
000200 8b 70 83 40 09 7e 0f 40 01 ef af 3f a0 41 92 3f
       4.107488 2.2420676 1.3744813 1.1426277
000210 46 ad c4 3f 78 8b 2c 40 16 00 0d 40 7f 15 45 40
       1.5365379 2.6960125 2.2031302 3.079437
000220 32 53 ff 3f 93 4c 58 40 e8 13 06 40 02 9c b0 3f
       1.9947264 3.3796737 2.094965 1.379761
000230 93 65 e2 3f 48 1e 31 40 f6 e8 09 40 26 0e 83 40
       1.7687248 2.7674732 2.1548438 4.095477
000240 92 20 f6 3f 5e 29 41 40 e3 5e 0f 40 6b b1 ee 3f
       1.922869 3.0181499 2.2401664 1.8647894
000250 45 92 2b 40 02 70 50 40 6e c4 35 40 ae 43 d1 3f
       2.6808026 3.2568364 2.840114 1.6348779
000260 6c 5c 86 3f 4b 45 21 40 86 50 11 40 a4 5f af 3f
       1.0496955 2.5198543 2.2705398 1.3701062
000270 c9 8a b7 3f a4 a7 16 40 f1 26 6b 40 00 33 21 40
       1.4339229 2.353982 3.6742518 2.5187378
000280 40 f1 04 40 d2 d7 d0 3f d1 d9 bd 3f 77 33 25 40
       2.0772247 1.6315863 1.4832097 2.5812662
000290 48 ee 26 3f 1c 00 3c 40 36 68 ee 3f a6 a5 b9 3f
       0.6520734 2.9375067 1.8625553 1.4503677
0002a0 91 ef 0b 40 0f ab c4 3f 96 ca 8f 3f 43 18 0f 40
       2.186497 1.5364703 1.1233699 2.2358558
0002b0 95 b4 e5 3f a4 f9 95 40 65 a9 f3 3f 8a 85 08 40
       1.7945734 4.6867237 1.903607 2.1331506
0002c0 1d 82 1f 40 f5 85 b5 3f de 31 b3 3f 75 9d ec 3f
       2.4923165 1.4181505 1.3999593 1.8485552
0002d0 da 3c 46 40 fe 56 a0 3f f4 49 ab 3f 3d 08 b6 3f
       3.097464 1.2526548 1.3381944 1.4221264
0002e0 a9 83 1e 40 6f 4e 2a 40 d1 4b 87 40 85 61 0b 40
       2.476786 2.6610372 4.228005 2.1778271
0002f0 c6 07 05 40 83 22 51 40 69 a2 06 40 5e 8c 3f 40
       2.0785995 3.2677314 2.1036627 2.9929423
000300 f9 8f ba 40 5e ef 7b 40 8d 53 85 40 94 56 b3 3f
       5.830075 3.9364848 4.166449 1.4010797
000310 1d eb dc 3f 9e ec 47 40 b3 aa 2a 40 9a 9f 75 40
       1.7259251 3.123817 2.6666687 3.8378663
000320 c4 1a d1 3f 50 59 86 3f 57 34 d7 3f 96 cd a0 40
       1.6336293 1.0496006 1.6812848 5.025096
000330 6c 79 22 40 4a e4 a7 3f 05 58 cf 3f 7c ce 23 40
       2.538661 1.3116543 1.6198736 2.5594778
000340 45 40 eb 3f 12 fc 06 40 a8 64 5e 3f c7 b7 c4 3f
       1.8378989 2.1091352 0.8687234 1.5368584
000350 f1 34 87 40 0c de 02 40 d3 d1 cb 3f 08 62 8d 3f
       4.2252126 2.0448027 1.5923408 1.1045542
000360 66 9e 8c 40 20 a8 bb 3f 81 07 17 40 37 0c 6f 40
       4.3943357 1.4660683 2.359833 3.7351205
000370 42 bf ad 3f de be b7 3f 62 91 29 40 94 a4 fd 3f
       1.3573992 1.4355123 2.6494985 1.981585
000380 1d a4 36 40 fc e0 07 40 09 73 87 40 2a 96 84 40
       2.8537667 2.123107 4.2327924 4.1433306
000390 5f 54 ba 3f f5 41 74 40 be 7c f8 3f 9f 45 96 3f
       1.4556998 3.8165257 1.9413068 1.1739997
0003a0 f8 e0 e0 3f 1b 66 c3 3f 97 5a 70 3f 54 84 d6 3f
       1.7568655 1.5265535 0.9388823 1.6759133
0003b0 81 23 26 40 d9 d2 a8 3f 38 9f 5d 40 43 93 fb 3f
       2.595917 1.3189346 3.462843 1.9654316
0003c0 02 ef 23 40 7c d6 da 3f b7 45 83 3f 51 eb 05 40
       2.5614629 1.7096705 1.025565 2.0924876
0003d0 31 a9 1c 40 0d 17 40 40 25 87 57 40 3e c2 31 40
       2.4478266 3.001407 3.3676236 2.7774806
0003e0 7a 51 66 40 ba 32 14 40 fb 60 f9 3f 4a 3e 18 40
       3.598723 2.315596 1.9482721 2.3788018
0003f0 bc b7 3f 3f be c6 0b 40 77 fe 5f 40 6c 0b 05 40
       0.7488973 2.1840053 3.4999063 2.0788221

fc2.weight f4 [128, 258]
000000 f2 57 c6 bb c1 9f 4d bd 97 32 53 3d 80 7b c5 bd
       -0.0060529644 -0.05020118 0.051561918 -0.096426964
000010 47 d8 c7 bd 02 1b 92 bd e7 3a 80 3c 4b 64 3d 3d
       -0.097580485 -0.071340576 0.015653087 0.046238225
000020 f2 0b 7b 3d 31 87 d2 bb b4 f2 aa bd c1 9a 92 bd
       0.06129069 -0.0064248075 -0.08347073 -0.07158423
000030 a0 9c 9a bd f4 c6 e4 bc df f8 ce 3b c2 fa 52 3d
       -0.07549405 -0.0279269 0.006316289 0.051508673
000040 9e 5f 9c 3a b3 ad 78 bd 6a b1 d6 bd 3b 91 21 ba
       0.0011930352 -0.060712527 -0.10483058 -0.00061633036
000050 d1 a1 ed bc 7c 09 b7 bd 64 bc 2e 3d 31 26 a3 ba
       -0.029007824 -0.08937356 0.042660132 -0.0012447295
000060 10 e7 6f 3d f7 e4 31 bd 5f a7 80 bd 0b 57 41 bd
       0.058569968 -0.04343125 -0.062819235 -0.04720215
000070 a7 68 93 bd d8 07 40 bc 02 e3 0c 3c f2 97 ee 3c
       -0.07197695 -0.01172062 0.008599045 0.029125188
000080 a7 51 47 bd 57 46 e4 3c a9 ec fc 3c 3e 11 8e bd
       -0.048661854 0.027865572 0.030874567 -0.069368824
000090 93 24 b7 3c 5a ba 57 3d 32 5d 89 bd 47 b6 d1 bc
       0.022356307 0.052667953 -0.06707229 -0.025599612
0000a0 84 45 88 3c 81 71 ad bd 46 18 13 3d b2 9a d8 bd
       0.01663471 -0.08468915 0.03591182 -0.10576381
0000b0 f1 a2 f5 3c bf 62 1c bd 4a 08 44 bd 0b 50 77 bd
       0.029984923 -0.03818011 -0.047859468 -0.06037907
0000c0 92 05 d6 bd 08 a7 ce 3b f4 a3 d2 bd 8a 94 78 bd
       -0.10450281 0.006306533 -0.10285178 -0.060688533
0000d0 87 b7 81 3d b7 83 89 bd 02 bb 52 3b 07 52 2f 3d
       0.06333833 -0.06714576 0.0032154922 0.042802837
0000e0 40 66 6b bd 9c e0 0c bd 9c 5d 6d bd c1 4a 3a bd
       -0.05747056 -0.03439389 -0.0579506 -0.045481447
0000f0 0a 7b 1d bd e7 4f bf bd 65 48 e6 3c 7e a0 58 bd
       -0.038447417 -0.09341412 0.028110692 -0.052887432
000100 d9 56 8c 3b 59 9d 83 bd ac 0f 1c bd 9b b9 ca bd
       0.004282814 -0.06426496 -0.038100883 -0.09898683
000110 39 0e a6 bd 54 32 b0 3c 92 3b 04 bd ba 6b 82 bd
       -0.081081815 0.021508373 -0.032283373 -0.063682035
000120 58 f9 87 ba c4 80 01 bd f9 10 a1 bd 1e c7 a8 bd
       -0.0010373993 -0.03161694 -0.078645654 -0.082411036
000130 90 04 63 bd 5a ae 31 3c 75 e0 44 3d 11 81 64 bc
       -0.055424273 0.010844791 0.04806562 -0.013946787
000140 26 59 88 bd 2f 9a c3 bd b5 bf 01 bd 92 de 66 3c
       -0.06657629 -0.095508926 -0.031676967 0.014091151
000150 3b 73 b2 bd c3 88 d4 3c 19 87 22 3d fb 7a 62 bd
       -0.08713385 0.02594412 0.03967962 -0.055293065
000160 d8 bf 13 bd 56 7a b2 bd 0c 99 e1 bd 04 7e d4 bb
       -0.03607163 -0.0871474 -0.110155195 -0.006484749
000170 fe 51 40 3c 29 00 09 3d 7e cf 75 3d 9a 06 9c bd
       0.011738298 0.03344742 0.060012333 -0.07618447
000180 ec 2b b0 bd 13 32 6f bc f2 1c d2 bc 5b d5 3a 3c
       -0.086021274 -0.014599341 -0.025648568 0.011403407
000190 9d 2b c2 3c ab 0d db bd 5e 38 16 3d 2d 99 96 bd
       0.023702437 -0.10695966 0.03667485 -0.07353435
0001a0 f4 79 23 bc 7e c6 cd bd 08 96 c9 3c f3 74 ba bc
       -0.009977806 -0.10047625 0.024607673 -0.022760844
0001b0 bc 82 31 3c f9 60 eb bc cd f6 97 3c 48 fc a4 3c
       0.010834392 -0.028732764 0.018550301 0.020139828
0001c0 34 f3 bc bd 1f a5 0e bd 04 90 8b bd 95 26 db bd
       -0.09226075 -0.03482544 -0.06814578 -0.10700718
0001d0 c2 d4 a9 bd 2c 26 af bd 7d 9c e5 bc a5 e8 a4 bd
       -0.082925335 -0.085522026 -0.028028721 -0.08052186
0001e0 9e 53 a8 bd 93 3a b1 bd 07 c1 49 bd 91 d2 c5 3c
       -0.08219074 -0.0865375 -0.04925635 0.024148257
0001f0 4c d7 ba bd c1 e2 ad bd 41 b7 ae bd ae 48 e3 bc
       -0.09123096 -0.084905155 -0.08531047 -0.027744617
000200 b6 25 4a 3d 4a be c4 bc e2 bd c0 bc bb fb c0 bd
       0.04935237 -0.024016518 -0.023528043 -0.09423014
000210 a0 cb 13 bd 8f 9f 19 3d 78 13 4f 3c 30 09 7b 3d
       -0.036082864 0.037505683 0.012638919 0.06128806
000220 37 2a 45 3d 9e 4c de bd 1e da 95 3c b0 a3 ec bd
       0.048135962 -0.10854457 0.018292483 -0.115546584
000230 8e f7 a4 bd 90 50 2c 3d 67 13 0a 3d 70 9d a4 bd
       -0.0805503 0.042069018 0.03370991 -0.08037841
000240 b2 02 ca bd fa ca f8 3c 04 b2 20 bd 35 7c 8b bd
       -0.09863795 0.030370224 -0.03923227 -0.068108
000250 9a e9 e7 bd 21 4e 44 bc 18 3c 40 bd e3 ca 3f 3d
       -0.11323853 -0.011981518 -0.04693231 0.046824347
000260 8e 8d 13 3d 06 cd 96 3c f6 65 e2 bd 0d 94 93 bd
       0.03602367 0.01840831 -0.11054604 -0.07205973
000270 21 76 4b bd e0 07 67 3c 56 f5 73 3d 87 42 fc bc
       -0.049673203 0.014100999 0.059560142 -0.030793441
000280 88 3a b4 bd b1 ef 6f bd e2 a2 98 bb f5 6c 4f 3d
       -0.088002264 -0.058578197 -0.004658089 0.05064102
000290 05 26 11 bc fd b7 0e bc 2a 0e aa 3c c6 75 03 bd
       -0.008859162 -0.008710858 0.020758707 -0.03209474
0002a0 0e fe 9b bd 7a a6 3c 3d 94 a2 36 3d 93 e6 9a bd
       -0.076168165 0.046057202 0.04458864 -0.0756351
0002b0 91 c9 ec bc b0 97 4d bc f2 e9 30 3b 99 25 94 bd
       -0.028904708 -0.012548372 0.002699491 -0.07233734
0002c0 3c 54 35 bc 46 cf 34 3c 4a 48 3f 3d c1 7e b6 3c
       -0.011067446 0.011035746 0.0466998 0.022277238
0002d0 c6 ad 53 bd 01 43 53 bd 0b af af bd d5 0a a1 3c
       -0.051679395 -0.05157757 -0.08578309 0.019658485
0002e0 2f 6d 3d b8 52 c2 35 bd 46 b8 63 bd cf bb ae bd
       -4.5162797e-05 -0.04437477 -0.05559566 -0.085319154
0002f0 11 b9 24 3d 7b a1 33 bd 0c f2 09 3d 4a 3d 95 bd
       0.040215556 -0.04385517 0.0336781 -0.072870806
000300 44 1f cf bd c8 4d d4 bd 5b c3 4a bd 27 43 de 3c
       -0.10113385 -0.10366398 -0.04950271 0.02713163
000310 4a 32 20 3d e1 08 3f 3d db c3 95 bc 40 f9 29 bd
       0.03911046 0.046639327 -0.018281868 -0.04149747
000320 04 4f 5f 3d 21 48 49 3d 1d ab 03 bc da 6e 03 bd
       0.054518715 0.049141053 -0.008036402 -0.03208814
000330 a5 92 3d bd b3 60 68 bd 73 a7 b2 bd d8 1b 73 bd
       -0.04628243 -0.056732845 -0.08723345 -0.059352726
000340 61 aa d8 bc 81 00 a7 bd b3 4e 39 3c f9 c4 32 3d
       -0.02644843 -0.08154393 0.011310267 0.04364488
000350 93 6c 3a bc 73 30 9f bd 9c 41 2d bd ee 6b 71 3d
       -0.011378425 -0.07772913 -0.042298898 0.05894082
000360 d4 bd ab 3c 9e b9 9c bd 4b 18 96 3c a2 77 a9 3c
       0.02096454 -0.07652591 0.01832213 0.020686928
000370 cb b1 e3 bc a2 14 98 bd c0 35 66 bd 68 4f 8e 3c
       -0.02779474 -0.074258104 -0.056203604 0.017371848
000380 42 f7 ab bd 0f 75 4f 3d 82 82 96 bd 59 dd 9b 3a
       -0.0839677 0.050648745 -0.07349111 0.0011891528
000390 c7 4b 42 3d 1c a0 81 3c 68 5c ab bd b9 4b d1 bb
       0.04743555 0.015823416 -0.083672345 -0.0063872007
0003a0 b7 32 bb 3c 92 61 23 bc 00 4d 4a 3d a1 8d 92 bc
       0.022851331 -0.009971993 0.04938984 -0.0178898
0003b0 db 5a 08 bb 05 c8 7a 3d 15 f6 bf bd ed 32 a9 bb
       -0.0020806107 0.06122591 -0.09373108 -0.0051635415
0003c0 7f c8 18 bd 90 c2 09 bc 14 a6 d9 bd db 1d 71 bd
       -0.037300583 -0.008408204 -0.1062738 -0.058866363
0003d0 ba c0 2e bd c0 6a 93 3c 19 77 c4 bd 2a 10 6a bd
       -0.042664267 0.017995238 -0.095930286 -0.05714432
0003e0 e5 9c b4 38 69 40 c3 3c 83 87 08 bd 12 4a 99 bc
       8.612293e-05 0.023834424 -0.03333236 -0.018712077
0003f0 f0 fd d7 bd 3d 83 2f bd 3b 8f 11 3c d6 bf 04 bd
       -0.105464816 -0.042849768 0.008884246 -0.03240951
