p3_collab-compet/checkpoint_actor.pth (torch_old, 296400 bytes, 10 tensors)

fc1.weight f4 [256, 24]
000000 1c 68 a8 bd 12 2d 75 3d 31 a1 8c ba 21 3e 19 bd
       -0.08222982 0.059857436 -0.0010729191 -0.037412766
000010 8a c3 fb bd 02 9b a0 bd 65 12 04 bd 97 0c 21 3d
       -0.122931555 -0.078420654 -0.032244105 0.039318647
000020 1a db 13 3d 97 71 85 3c 65 8a 0b bd 6b 58 71 bc
       0.036097623 0.016289515 -0.03406753 -0.014730553
000030 e1 d8 8f 3b df 6c 7a 3c d2 0b 2d 3d 7f 59 29 3a
       0.0043898677 0.015284746 0.0422476 0.00064601743
000040 85 12 d1 3c da 30 e3 bc 41 b2 d1 bb 89 ea e6 ba
       0.025521526 -0.027733255 -0.0063994233 -0.0017617504
000050 e7 db 31 bd da ac 5b 3e 78 21 12 bd 92 d8 a3 bc
       -0.043422606 0.21452656 -0.03567645 -0.02000073
000060 e4 e9 d5 3d 44 33 22 bd cf 33 42 bd 03 77 c6 bc
       0.10445002 -0.039599672 -0.04741269 -0.024226671
000070 9b 0d 42 bc ca 30 2c be 65 37 48 3d 75 6f f7 3c
       -0.011844064 -0.16815487 0.048880953 0.030204514
000080 42 a0 12 bc 40 7c 8d bd 20 d2 a1 3c 5e 39 7a 3d
       -0.008949341 -0.069084644 0.019753516 0.061089866
000090 e5 ff a5 bd 85 8a e1 bd cc 42 e9 bc 7c 45 15 bc
       -0.08105449 -0.11012749 -0.028474234 -0.009110805
0000a0 a8 ab f7 3c 16 c4 cf bd 95 74 2b 3d 72 4e 86 3c
       0.03023322 -0.10144822 0.04185923 0.016394828
0000b0 6e a3 ac bd 15 fc 30 be be 66 08 bd fa 66 4f bd
       -0.08429609 -0.17283662 -0.033301108 -0.050635315
0000c0 27 09 25 be 8d af eb 3c d5 e8 9c 3c f2 0e 66 3d
       -0.16116773 0.028770233 0.019153992 0.056166597
0000d0 1b bf 1e bd 0c 17 26 3d d6 32 db 3b 63 2f 23 bc
       -0.03875647 0.040549323 0.0066894097 -0.009960028
0000e0 c4 e1 8a bc 47 ea 81 bd c9 ab ff bb 92 e2 1d 3d
       -0.016953357 -0.06343513 -0.007802461 0.038546152
0000f0 f3 e7 5c bd 9b 84 28 3d ea 9e 88 3c 3f dd 64 bc
       -0.05393214 0.041142087 0.016677339 -0.013968765
000100 46 b9 38 bc 61 52 af bd 16 69 38 3b 37 f9 d1 bd
       -0.011274641 -0.085606344 0.0028138808 -0.10252612
000110 22 90 b2 bc db 14 41 3e ad 74 cf 3c 27 29 53 3b
       -0.021797244 0.18855612 0.02532419 0.0032220574
000120 5f 08 d3 bd 07 7d ee 3d 45 80 e2 3c 9c 99 c2 bd
       -0.10304331 0.11644941 0.027649054 -0.09501955
000130 55 d1 cd bd 0b 5f 3e bd ff 04 50 3c 7a b9 9b bd
       -0.100496925 -0.04647736 0.012696504 -0.07603736
000140 f2 f0 14 bd 4a 02 a6 3d d2 fa 8c 3c 2a 03 0b 3c
       -0.036362596 0.08105905 0.017209444 0.008484641
000150 5e 63 20 bc 5f fa ab bd 6a de 3f 3c da 3d 41 3b
       -0.009789316 -0.08397364 0.0117107425 0.002948633
000160 a7 2c c9 bd 66 46 af 3b 82 d9 dd 3c 0c d4 65 bc
       -0.0982297 0.0053489683 0.027081255 -0.014027607
000170 b8 58 44 3d a2 20 3b 3c 7e 70 1c bd 48 ee 10 bd
       0.04793617 0.0114213545 -0.03819322 -0.035383493
000180 b1 08 b7 3c 8e 5c 49 3d 7e 87 5c 3d ea 6e fe ba
       0.022343012 0.049160533 0.053840153 -0.0019411717
000190 33 0f 65 bd 0f 4e d7 3d 97 01 07 3c 0e be a3 bd
       -0.0559227 0.10512935 0.008240125 -0.079952344
0001a0 28 63 9e ba e6 3b 2e bd 70 43 37 ba 68 fd 7d bd
       -0.0012083994 -0.042537592 -0.0006990945 -0.062009245
0001b0 9b a1 4d bd b6 5c 54 3d dc a0 ed 3b 6e cb 2c bd
       -0.050202947 0.05184623 0.007251842 -0.042186193
0001c0 85 f1 25 bd 44 01 66 bb 9f 48 a2 bc 13 34 23 bd
       -0.040513534 -0.003509597 -0.019810019 -0.039844584
0001d0 a7 46 e6 bd 69 68 f1 bd 0a 51 0f bc 5b 7a 3f 3d
       -0.112439446 -0.11787493 -0.008747349 0.046747547
0001e0 e8 7f 4f bc 49 73 d9 3d 71 d9 0c 3d 7f 0c 9f 3d
       -0.012664773 0.10617692 0.034387056 0.07766055
0001f0 a4 83 cd 3c 2b 73 af 3d fa d3 9f 3c 0d e8 08 bc
       0.025087185 0.085668884 0.019510258 -0.0083561065
000200 86 25 8a 3d b1 ae f3 3d 2a 16 b8 bd 03 39 f6 bc
       0.06745438 0.11898554 -0.089886025 -0.030056482
000210 6a 48 31 bd 6a 8c 47 3d 09 c6 a9 bc 3d c8 90 3c
       -0.04328195 0.048717894 -0.020724313 0.017673606
000220 9d 8f 66 3c a0 07 f8 3d 46 e4 9b bb 49 90 b2 3d
       0.014072326 0.12110829 -0.004757437 0.087189265
000230 d5 76 7c bd 2a 58 0e be 90 e0 ae 3b fa 32 4c 3d
       -0.061636765 -0.1390082 0.0053368285 0.049853303
000240 61 d9 94 bc b5 ba 1d 3e 5a 8c 77 3c ee 47 96 3d
       -0.01817006 0.15403254 0.015109146 0.07337938
000250 c3 d2 fd bd fb 94 74 bd ad 58 f8 bc 6d a1 30 3d
       -0.12393715 -0.05971239 -0.030315721 0.043122698
000260 1c b9 94 bc 53 de 11 3e 03 51 a2 bc f8 69 26 bd
       -0.018154673 0.14244966 -0.01981402 -0.040628403
000270 5d aa 95 3d b8 db cc 3c 82 7a 83 bb 8f a2 ec 3c
       0.07307885 0.025007114 -0.004012407 0.028886108
000280 ec 0c 6f bd 9c fe 75 3d 14 a1 25 3d f3 e3 0c 3c
       -0.058361933 0.060057268 0.04043682 0.008599269
000290 26 c5 89 3d 19 93 e2 3c 33 7e 05 bd a7 a8 bf 3c
       0.06727056 0.027658032 -0.032591056 0.02339585
0002a0 5d 66 07 bd 61 4a cf bd ae f9 09 3c 89 75 e9 bc
       -0.033056606 -0.101216085 0.008421345 -0.028498428
0002b0 79 12 42 3d 33 36 4f 3b f3 dc f9 bb ec e0 9c bc
       0.0473809 0.0031617999 -0.007625216 -0.01915022
0002c0 de 6c 73 bd e8 1a 09 be 04 00 d3 bc 48 80 9f bc
       -0.059429996 -0.1338917 -0.025756843 -0.019470349
0002d0 65 74 61 3d 3a 91 06 be ea bd 99 bc d1 26 8b 3d
       0.055042643 -0.13141337 -0.018767316 0.06794513
0002e0 e9 e5 00 bd 05 5a cd 3c 65 63 a7 bc 20 4b da 3d
       -0.03146926 0.025067339 -0.020433137 0.1065886
0002f0 3f 18 0f 3d 02 56 d8 bd 70 b8 94 bd 50 5f 8b 3d
       0.034935232 -0.1056328 -0.07261741 0.06805289
000300 24 a4 8f 3c f7 1a 41 3d 82 7f 65 3b 73 d1 92 3c
       0.017534323 0.047144856 0.0035018628 0.017922139
000310 fc 84 33 bd fd ed 9f be 71 fe 92 ba bb b1 c3 3b
       -0.043827996 -0.31236258 -0.0011214745 0.005972115
000320 cc af 0d 3d ba 65 56 bd 32 d2 08 bc ff e3 5a bd
       0.03459148 -0.052343108 -0.008350896 -0.05344009
000330 df eb 49 bd e2 99 6d be 2e 5b 16 bb d2 da 9c bc
       -0.04929721 -0.23203233 -0.002294253 -0.01914731
000340 78 4a b1 bc e8 5c 79 3c ce 99 a0 3a e2 bf 00 bb
       -0.021641955 0.0152199045 0.0012252869 -0.001964562
000350 c7 00 e9 bc e1 4c 83 be 78 3e c5 3c c8 c5 22 bb
       -0.028442753 -0.2564459 0.024077639 -0.0024837125
000360 42 48 09 3e 4f 0a 7f 3d 0b a7 e7 3c f4 1b c4 3d
       0.1340647 0.06226569 0.028277894 0.09575644
000370 bd ae 9d bd 0e 09 b9 bd e9 5a a1 bc a8 64 3d ba
       -0.07699344 -0.0903493 -0.01969667 -0.0007224777
000380 e2 fa 50 bb 1a 7f 5c 3d df 3d 3a bc 21 c9 ab 3d
       -0.003188782 0.05383215 -0.01136729 0.08387972
000390 1b ea 45 bd a8 11 c5 bd 82 75 a2 3c e2 84 17 3d
       -0.048318963 -0.09622508 0.019831423 0.03699196
0003a0 f3 21 4b 3d f4 21 fc 3d a8 ad 80 3d 6a 1f 46 bd
       0.049592923 0.123111635 0.06283122 -0.048369803
0003b0 73 e8 e2 bc 48 2c 21 bd 32 64 6d 3c 64 4f db bb
       -0.027698731 -0.03934887 0.01448922 -0.0066928137
0003c0 1e db da 3d 39 3c 87 3c 54 3d 6b 3d a6 a2 ef 3a
       0.106863245 0.016508209 0.057431534 0.0018282726
0003d0 6f 15 f2 3c 5e 82 5d bd c9 95 0b bd df 14 23 3d
       0.029551236 -0.054079406 -0.034078393 0.039814826
0003e0 54 9e a2 3d 57 e6 54 3c 45 6c 1e 3c b3 74 2a bc
       0.07940355 0.01299437 0.009669368 -0.0104038
0003f0 a0 c1 93 3c dc 3d d8 bd d0 2e df 3c 3d b7 bb 3c
       0.018036664 -0.10558674 0.027244002 0.022914523

fc1.bias f4 [256]
000000 ae 76 d6 3d e9 bb 14 be 67 f3 10 3e e0 7d 0b be
       0.10471855 -0.14524807 0.1415535 -0.13622236
000010 07 19 3b 3e 1f 2d 0e 3e 13 d3 95 3d 78 65 4c be
       0.18271266 0.138844 0.0731565 -0.19960582
000020 9e 9c a7 bd ca 9d c3 3d 61 9b 3e be 69 19 c8 3d
       -0.08184169 0.0955158 -0.1861396 0.097704716
000030 e5 4b a8 bd b5 c2 18 be cb 0c 12 bb 94 1f 00 3d
       -0.08217601 -0.14918025 -0.0022285457 0.031280115
000040 4d fb 1d 3e 45 0d 05 be 92 e4 29 be 1b b8 8c bd
       0.15427895 -0.12993343 -0.16591099 -0.06871053
000050 8c dd 1e 3d 1f 41 ba bd a9 3b 9f bd a6 f5 91 bd
       0.038785502 -0.09094452 -0.07775051 -0.07126932
000060 37 4a b3 3d 5c 7e db 3c 46 37 37 3e c8 89 04 3e
       0.0875439 0.026793651 0.17892179 0.12943184
000070 64 12 35 be 67 f7 57 3d 4c 0c 37 be 4b c2 40 be
       -0.17682797 0.052726176 -0.17875785 -0.18824117
000080 5f 64 91 bd 45 28 50 3e 9d a5 95 3c 74 4b 16 be
       -0.070992224 0.20327862 0.018267447 -0.1467722
000090 19 85 3c be bf 8f 1d 3e c1 dc 21 3e 2f e6 e7 bd
       -0.18410148 0.15386866 0.15806867 -0.11323201
0000a0 22 70 11 3e 73 6d 9a 3d cf 17 d7 bd c0 09 80 3d
       0.14202932 0.07540407 -0.10502588 0.0625186
0000b0 19 c3 f3 3b 5d 71 57 bd 30 ae 55 bd 19 92 1a 3e
       0.007439029 -0.052598346 -0.05216807 0.15094794
0000c0 81 8a b4 3d 48 52 b6 3d 86 8b 73 3d f4 c6 0e 3e
       0.0881548 0.08902413 0.05945923 0.13943082
0000d0 75 f6 55 bd f1 f9 36 bb 39 de 2c 3e ff 9a fa 3d
       -0.052236993 -0.0027919973 0.16881646 0.122365944
0000e0 6e 83 4f 3d f3 ed d4 bd 30 fd 56 bd f9 b8 03 3d
       0.05066245 -0.10396948 -0.052487552 0.032158826
0000f0 12 2d 01 be e1 55 bd 3d d2 cb 01 be 91 5b 14 be
       -0.12614849 0.09244896 -0.12675408 -0.14488055
000100 0a 34 96 3d 09 c6 ce bd 41 f1 50 be ce 0f 03 3e
       0.073341444 -0.10096366 -0.20404531 0.12798998
000110 c2 a1 aa bd 8c 04 9e bd 6f 7e c2 bd 02 f7 ee bd
       -0.08331634 -0.07715711 -0.094967715 -0.11668207
000120 56 6e 0c be 7c cb b6 bd a9 de 18 be b2 59 91 bc
       -0.13713965 -0.0892553 -0.14928688 -0.017742965
000130 c1 59 85 3d 76 34 02 be dc b3 48 be 6b d8 91 3d
       0.0651126 -0.12715325 -0.19599861 0.071213566
000140 43 f5 e6 bd f1 bc 64 3d d6 b7 80 bc 7a a6 37 3d
       -0.11277249 0.05584425 -0.01571266 0.0448365
000150 28 69 19 bb 66 98 82 bd fd 24 22 be a2 9b 0f 3e
       -0.0023408625 -0.06376724 -0.15834422 0.14024213
000160 db d4 c5 3d a8 3a ad 3c e7 4d 32 3e 9e f7 3f 3e
       0.096597396 0.021146134 0.1741253 0.18746802
000170 4c 21 28 be 04 05 d2 3d 67 f4 3f 3e 3f 23 3a bc
       -0.16418952 0.10254863 0.18745576 -0.011360942
000180 0a e7 45 be 88 11 98 bd 4d 5e 9a 3c 92 76 32 bd
       -0.19326416 -0.07425219 0.018843794 -0.04357011
000190 50 d2 c8 3d 4d cc a2 3d b5 d3 46 be 2a b8 e1 3c
       0.09805739 0.079491235 -0.19416697 0.027553637
0001a0 76 e8 04 3d 49 75 05 3e 1b 48 d6 3c 14 8e e3 3d
       0.032448255 0.13033022 0.02615743 0.111110836
0001b0 b1 8f 2b 3d e2 f1 0a be cf 22 22 be 3e a1 8e bd
       0.04188508 -0.13568833 -0.15833591 -0.06964348
0001c0 ab d4 64 3a f8 15 f4 bd df 26 39 be eb 09 33 3e
       0.00087292 -0.11918253 -0.18081234 0.17484252
0001d0 34 fc bb 3c 74 6b a1 3d d8 69 d4 bd ad 0a 0a 3d
       0.022947408 0.07881823 -0.103717506 0.033701587
0001e0 70 44 84 bc 9f 5f db 3d 62 5a 98 bd 89 18 3a 3e
       -0.016145915 0.10711598 -0.07439114 0.18173422
0001f0 ed f3 2d 3c a6 cc 0b 3c 20 ae 12 3e 0d 60 d8 bb
       0.0106172385 0.008532679 0.14324236 -0.006603247
000200 7e 95 73 3d ee da 67 bc e3 5e 21 3e 85 35 4b be
       0.05946874 -0.014151318 0.15758853 -0.19844635
000210 dd 8d 49 3e c5 26 f6 bd 0e 52 4c 3e b7 a7 8d 3d
       0.19683023 -0.120191135 0.19953176 0.06916755
000220 9c ee 04 be bf 8d 32 be 4e 89 65 3d 8c b7 a9 3d
       -0.12981647 -0.17436884 0.056039147 0.08286962
000230 b3 dc 0e be 2f 2e 05 3e ae b6 be bd 1d 39 25 3e
       -0.13951378 0.13005899 -0.09312187 0.16135068
000240 d5 a4 08 3d 86 4a 33 be a8 0a 06 3d 29 75 5d bd
       0.03336032 -0.17508897 0.032725006 -0.05406681
000250 5f 2c 5d 3d e4 1b 9d bd a8 21 37 3e 17 5a ee bd
       0.053997394 -0.07671335 0.17883933 -0.11638277
000260 6b b4 2b 3e e9 44 4f be 40 5a 17 3e dd e9 0f be
       0.16768043 -0.20241131 0.14780521 -0.14054056
000270 4e 1b 1b 3d 3e ee 54 bd 26 0e 50 be 11 49 24 3e
       0.037867837 -0.051985018 -0.20317897 0.16043498
000280 77 53 46 3d 95 74 e8 3d 36 09 c8 bd ba 3e 81 bd
       0.048419442 0.11350361 -0.09767382 -0.06310792
000290 91 a7 c0 bd 5b ed 40 be aa 93 36 3d 2b 26 98 3d
       -0.09406961 -0.18840544 0.044574417 0.07429155
0002a0 62 cd ca bc e5 fd 07 be 26 12 c8 3c 12 26 b3 3d
       -0.024756137 -0.13280447 0.024422716 0.08747496
0002b0 94 f3 9d 3c 1f 64 4f be 5f d2 cc 3d 11 15 18 3e
       0.019281186 -0.20253037 0.100010626 0.14851786
0002c0 e3 a8 88 bd e5 36 36 bd 4e 8c 91 3b c6 13 2a 3d
       -0.066728376 -0.044485945 0.0044417745 0.041522764
0002d0 30 6c 39 3e fb 50 15 3e 85 8f ba 3d 49 c7 09 be
       0.18107677 0.14581673 0.091094054 -0.13454928
0002e0 07 a5 fa 3d b1 d2 cb 3d 9a dd 43 3e c1 c6 a1 bd
       0.12238508 0.099522956 0.19127503 -0.078992374
0002f0 82 62 93 3d e6 f4 09 3e f8 c7 c3 3d c5 cd a6 bc
       0.07196523 0.13472328 0.095596254 -0.02036179
000300 1e 28 70 bd e9 2d 19 bd 63 ea e8 3d e1 0b 84 bd
       -0.05863201 -0.0373973 0.11372831 -0.06447578
000310 67 bf 4f be 4c a9 06 bd 84 fb 3f be 74 e6 23 be
       -0.20287858 -0.032876298 -0.1874829 -0.1600588
000320 8e 5c 34 3e 89 90 03 be 22 af f2 3d 7a 60 fb bd
       0.17613432 -0.12848105 0.1184981 -0.12274261
000330 9a 59 4d be 17 83 95 3b 6f de d6 3d 9c 26 1c 3c
       -0.20053712 0.0045627463 0.104916446 0.00953069
000340 d6 15 f0 3d ec 68 08 bc 11 e3 14 be ec 6e ff 3d
       0.11722915 -0.008325797 -0.14539744 0.124723285
000350 c5 77 0f 3d 49 3f e7 bd 35 0b ac bc 33 90 93 3d
       0.03502633 -0.112913676 -0.021001438 0.07205238
000360 15 f2 2f bd 47 f1 15 bc a0 75 53 3d f4 17 86 3d
       -0.042955477 -0.009151763 0.051625848 0.065475374
000370 ab 76 f0 3d 96 ec 53 bd 06 b8 78 3d 11 03 45 3d
       0.11741384 -0.051739298 0.060722373 0.048098627
000380 41 70 a0 bd a9 6b 00 3d 6e 38 e6 3b 5c 96 19 be
       -0.07833911 0.031352673 0.00702577 -0.14998764
000390 94 d1 3b be 75 33 36 3e df 18 bf bd 45 e9 18 3e
       -0.18341666 0.17793067 -0.09330916 0.14932735
0003a0 44 df 27 3d a0 da ec 3d 70 dd e2 bc 07 70 30 bd
       0.040984407 0.11565137 -0.02769348 -0.043075588
0003b0 21 af 9a bd 61 91 46 be cd ce 3c ba 09 1f 30 3e
       -0.075529344 -0.19391395 -0.00072024466 0.17199339
0003c0 c2 12 28 3d 80 7f 8b bd 2a 59 04 be 7f 8e 44 bd
       0.041033514 -0.06811428 -0.12924638 -0.047987457
0003d0 81 b4 ad bd 97 c1 ff 3d 15 eb bc 3d 10 e9 57 3d
       -0.08481694 0.12488096 0.09224526 0.0527125
0003e0 b0 45 f5 3c 5b 03 ed 3b c8 37 dc bd a5 c5 ca bc
       0.029940456 0.007233066 -0.10752827 -0.024752447
0003f0 83 6e 05 3e 3b 2c d5 bc 85 12 90 3d d4 08 e8 bc
       0.13030438 -0.026022067 0.07034782 -0.028324522

bn1.weight f4 [256]
000000 56 88 2d 3f 04 29 1e 3e 51 6c 60 3f db b6 2a 3f
       0.6778616 0.15445334 0.8766528 0.66685265
000010 9c 80 4d 3f 97 6d 63 3f 10 a1 24 3f 31 15 68 3f
       0.8027437 0.88839096 0.6430826 0.90657336
000020 d6 71 34 3f 6f 28 9e 3e 29 c7 43 3e c9 f1 95 3f
       0.704862 0.30890223 0.19118942 1.1714412
000030 21 d5 42 3f b2 c2 28 3f 99 58 17 3f 1e 85 b4 3e
       0.7610646 0.6592208 0.59119564 0.3525781
000040 e0 b0 45 3f 27 79 8c 3e 68 f0 ff 3e 07 a0 23 3f
       0.77223015 0.27436182 0.49988103 0.6391606
000050 9f 36 1b 3f 85 15 40 3f e9 24 4f 3e e7 f9 27 3d
       0.6063022 0.75032836 0.20228924 0.04100981
000060 20 f8 63 3e 60 73 45 3e 2e f4 4e 3d b4 14 c2 3e
       0.22262621 0.19282293 0.050525837 0.3790642
000070 49 64 d4 3e 63 f5 46 3f ce 49 c5 3e c1 c8 be 3e
       0.41482762 0.7771818 0.3853287 0.37262538
000080 90 da bf 3e 22 9d 66 3f a0 78 71 3e 1a e6 12 3f
       0.37471437 0.90083516 0.23581171 0.5738236
000090 3f 75 d3 3e 7e ef ba 3e 1a 41 96 3e ea 7f 7f 3f
       0.4130039 0.36510843 0.29346544 0.99804556
0000a0 39 b9 20 3f 30 f7 62 3f 47 2c 64 3f 37 cb 08 3f
       0.6278263 0.8865843 0.8913006 0.5343508
0000b0 df fa 4b 3f 85 fa 52 3f f4 b1 69 3f e9 b4 af 3e
       0.79679674 0.8241351 0.9128716 0.3431771
0000c0 3b f5 41 3f 1e 88 32 3f 04 e1 5d 3f b9 04 7b 3f
       0.75764817 0.6973895 0.8667147 0.9805408
0000d0 02 5d 0e 3f 44 13 6b 3e cd 73 12 3f ad 6a 12 3f
       0.5561067 0.22956568 0.5720795 0.57194024
0000e0 c1 3d be 3e fe b0 22 3f c6 b7 68 3f 6e 83 63 3f
       0.3715649 0.6355132 0.90905416 0.8887242
0000f0 c8 61 ee 3e de df 9b 3e a1 63 54 3f 1c 65 25 3e
       0.46558976 0.30444235 0.8296452 0.16151851
000100 7d b6 cf 3e 39 77 c3 3e 17 95 cd 3e bc 8c dc 3e
       0.40568915 0.38176897 0.4015281 0.43076122
000110 27 e3 31 3f 65 d8 94 3f a2 24 44 3f b7 fc 3b 3f
       0.6948723 1.1628538 0.766184 0.7343249
000120 b1 f3 92 3e 7f 50 a3 3e c7 33 c3 3e c0 21 4d 3e
       0.28701547 0.3189735 0.3812544 0.20032406
000130 63 58 3a 3f ee 01 ba 3e 18 93 39 3f 43 8f 26 3e
       0.7279112 0.36329597 0.7249007 0.16265588
000140 b2 c4 03 3e ef 63 e8 3e 4b 5c cf 3e 7d bb ee 3e
       0.12868002 0.45388743 0.405001 0.46627417
000150 c9 f2 66 3f ed 01 6c 3f 41 d6 86 3e f4 41 e6 3e
       0.9021421 0.9219044 0.26335338 0.44972193
000160 c9 8d 1c 3f ea b2 20 3f e6 37 bc 3e d3 1c 65 3f
       0.61153847 0.62773 0.36761397 0.8949711
000170 5d a0 64 3f f9 d6 1f 3f 27 05 21 3f e4 4b c2 3e
       0.89307195 0.624374 0.62898487 0.37948525
000180 da d1 6c 3f c6 76 be 3e d8 b9 35 3f d9 73 56 3f
       0.9250771 0.37199992 0.709867 0.8377052
000190 05 f2 c9 3e ff 02 e0 3d b3 15 7f 3f d4 09 1c 3f
       0.3944246 0.109380715 0.99642485 0.60952497
0001a0 fc 21 84 3f 39 28 d0 3d ef 36 a5 3e ea b8 1e 3e
       1.0322871 0.10163922 0.32268474 0.15500227
0001b0 44 f2 84 3f 0d 9b 1a b8 29 43 4c 3f c7 65 2b 3f
       1.0386434 -3.6860863e-05 0.7978998 0.66952175
0001c0 07 19 fc 3e 89 5f 4a 3f ef d2 34 3e 34 af 3e 3f
       0.49237844 0.79052025 0.1765859 0.7448609
0001d0 75 c3 02 3f 9e ec 1b 3f 78 f4 24 3f 0a ed 01 3f
       0.51079494 0.60907924 0.6443553 0.5075232
0001e0 b7 9f 0a 3f f7 ad 71 3f 21 f5 68 3e 44 93 61 3f
       0.54149956 0.94406074 0.2274976 0.88115335
0001f0 2f a1 2d 3e d5 38 00 3e 89 99 1e 3e af f8 19 3f
       0.16956018 0.1252168 0.15488257 0.60145086
000200 85 b8 71 3f e8 94 25 3f 15 75 05 3f da 24 0f 3f
       0.9442218 0.6468034 0.5213178 0.55915606
000210 a0 b3 d0 3e 13 84 0d 3f 13 9f f3 3e 86 a0 c8 3e
       0.40762043 0.55279654 0.47582301 0.3918497
000220 7e 32 9e 3e 1f 7c 3f 3f ac ba 55 3f 9d 67 cc 3e
       0.30897897 0.7479877 0.83487964 0.399228
000230 fc 83 83 3e 54 19 1b 3f fb 5b 29 3f 2f ce 14 3f
       0.25686634 0.6058552 0.66155976 0.5812711
000240 b6 44 83 3f e5 f6 34 3f 4e 30 33 3f 1c 0e 99 3e
       1.0255344 0.7068923 0.6999558 0.29893577
000250 87 34 cc 3e 70 32 09 3f e5 a3 31 3e d1 16 8f 3e
       0.39883825 0.53592587 0.17347677 0.27947095
000260 ea 82 10 3f 40 62 0c 3f a1 9d bb 3d fc d5 1c 3e
       0.5644976 0.5483742 0.09160925 0.15316004
000270 d9 b4 03 3f b0 17 10 3f 61 ee 0f 3f 5e b3 58 3f
       0.51447827 0.56286144 0.5622311 0.8464869
000280 21 76 6e 3f 6f 7c 44 3f 4b da 2f 3f 76 1c ae 3e
       0.93149 0.7675237 0.68692464 0.3400609
000290 97 72 cc 3e c8 da e2 3d f7 1c dd 3e ad 14 7a 3f
       0.39931175 0.110768855 0.4318616 0.976878
0002a0 65 b7 6f 3e 3c 9d 48 3e 48 e5 4e 3f 84 63 4a 3f
       0.23409803 0.1959123 0.80818605 0.790581
0002b0 c7 d1 80 3f c1 c7 06 3f 8b b7 01 3f 0e 54 38 3f
       1.0064019 0.5264855 0.5067069 0.7200326
0002c0 ab 0e 67 3f de 51 6e 3f 99 71 22 3f 43 94 85 3f
       0.90256757 0.9309367 0.63454586 1.0435871
0002d0 d8 9a 26 3e e8 61 7b 3f 71 b6 7e 3e b0 46 9c 3f
       0.16270006 0.9819627 0.24874283 1.2209072
0002e0 9a e1 7b 3f 46 5e 2d 3f db 55 39 3f 05 7e 01 3f
       0.98391116 0.67721975 0.7239663 0.50582916
0002f0 33 4a ee 3e f4 c5 58 3e 26 b6 1b 3f 56 16 48 3f
       0.46540985 0.21169263 0.6082481 0.7815908
000300 9f 66 26 3f 86 25 03 3f 75 0c c7 3e 1e 7f 54 3f
       0.6500034 0.5122913 0.3887669 0.83006465
000310 47 b2 27 3f cd 4b f8 3e 08 43 4e 3f 60 e4 bd 3e
       0.65506405 0.4849533 0.8057103 0.370883
000320 db 2d 55 3f c9 b7 4b 3e 96 ec 2b 3f 63 99 3d 3f
       0.83273095 0.19894327 0.67157876 0.74062175
000330 78 18 61 3e 4e 9a d9 3e 37 89 54 3f 4d ff 02 3f
       0.2198199 0.42500538 0.83021873 0.5117081
000340 cb 22 1c 3e 5e be f8 3e a5 57 95 3e 5a 28 96 3e
       0.15247647 0.4858274 0.2916843 0.2932766
000350 36 63 0f 3f aa 31 60 3f a3 a8 64 3e 93 e5 dd bc
       0.5601076 0.8757578 0.22329955 -0.027087009
000360 92 7a a8 3e d5 5a 44 3f ea 11 26 3f 88 85 54 3f
       0.32906014 0.767011 0.64871085 0.8301625
000370 28 ff 6a 3e 0b 1e 6c 3f 23 98 86 3e 60 e9 08 3f
       0.22948897 0.9223334 0.26287946 0.534811
000380 dd 13 c3 3e e8 27 f2 3e f3 e4 03 3f 4c 1c 6f 3f
       0.38101092 0.4729607 0.51521224 0.9340255
000390 39 48 4b 3f e4 8b 48 3f 7f 78 46 3f ab 9a 75 3f
       0.7940708 0.78338456 0.7752761 0.9593913
0003a0 97 fa 56 3f a8 d9 86 3f 1d ff c7 3e d6 f8 5b 3f
       0.8397612 1.0535173 0.39061823 0.8592657
0003b0 16 19 90 3f 86 63 1a 3f 07 4d 3c 3c 79 46 88 3f
       1.1257656 0.6030811 0.011492974 1.0646507
0003c0 b4 e9 ce 3e 63 b7 0e 3e 37 0c d6 38 1a b6 8e 3f
       0.40412676 0.13937144 0.000102065904 1.1149323
0003d0 cf aa 73 3f aa 77 86 3e 46 bb 04 3f 56 1f bb 3e
       0.9518251 0.2626317 0.51848257 0.36547345
0003e0 26 0f 37 3e 85 a9 9b 3e 63 af 32 3e 4f 19 31 3f
       0.17876872 0.3040277 0.17449717 0.6917924
0003f0 a6 9d 2e 3f ac ed 60 3f 8f 70 45 3e b4 61 57 3f
       0.682093 0.8786266 0.19281219 0.8413346

bn1.bias f4 [256]
000000 df 08 ec bd cc b2 11 be c9 d9 c4 3c 58 f9 bb 3d
       -0.115251295 -0.14228362 0.02402963 0.09178418
000010 a1 33 54 3d f6 06 27 3d fe 72 cf bd ef a6 0d 3d
       0.05180705 0.040778123 -0.10129355 0.03458303
000020 af 0a 3b be 51 0e ea bd c2 88 c1 bc 65 91 14 be
       -0.18265794 -0.11428512 -0.023624782 -0.14508589
000030 f0 23 6b 3a c4 66 67 be 3d bb 47 be 92 bf 3e be
       0.00089698937 -0.22597796 -0.1950502 -0.18627766
000040 8e 2a d5 3c b0 2c ba bd b0 79 ee 3c 63 53 d9 3c
       0.026021268 -0.09090555 0.02911076 0.02652902
000050 dd a7 99 bd 21 03 12 be fa 6e fd bd cc e5 38 3e
       -0.075027205 -0.14259006 -0.12374683 0.1805641
000060 da 3d 03 be 35 c6 1d 3e 46 df 01 3e 41 bf 6e bd
       -0.12816563 0.15407641 0.12682828 -0.058287863
000070 72 66 94 bc 8e 8d 01 be cf 6e 8f 3d a8 5b 93 bd
       -0.018115256 -0.12651655 0.07003557 -0.071952164
000080 9d c3 8f bd 43 b5 cc bd c2 d6 f4 bd 82 ff e8 bd
       -0.07019732 -0.099955104 -0.11955024 -0.11376859
000090 b9 b7 0a 3d 7c c8 64 bd dc 4b 06 be 96 72 91 3d
       0.033866618 -0.05585526 -0.13114876 0.07101934
0000a0 63 c1 dd bd 35 27 b2 3d 38 a2 26 be 93 fc 6f 3c
       -0.10827901 0.086988844 -0.16272819 0.014647621
0000b0 1e c5 0a be 4d 25 ef 3c 27 cf 47 be 01 7e 5d bd
       -0.13551757 0.029192591 -0.19512616 -0.054075245
0000c0 35 5b 3d bd db 83 25 3d 6f 01 19 be 58 b9 c2 bd
       -0.04622956 0.04040895 -0.14941953 -0.09508008
0000d0 8a 65 b8 bc 1b 83 0d be 50 99 32 3d 01 11 2f bc
       -0.022509355 -0.13819544 0.04360324 -0.010685206
0000e0 5a ec e6 bc 94 6e bb bd d8 b7 d0 bd d1 81 d5 bc
       -0.028188873 -0.091519505 -0.101913154 -0.026062878
0000f0 f6 5f ca bd 00 2a ad bc 76 b4 08 be a8 98 b9 bd
       -0.09881584 -0.021138191 -0.1335009 -0.0906232
000100 1a 97 b0 3c 9a 62 b2 3d 39 ad be bd 04 e9 ac bc
       0.021556426 0.08710213 -0.09310383 -0.021107204
000110 a2 4d 5b 3c 83 5a 9c bd ed 14 d3 bc 5b 7f 72 bd
       0.013385208 -0.07634451 -0.025766814 -0.059203487
000120 78 05 0e 3e 66 19 dc bc bb 45 e5 bc 14 57 79 bc
       0.13869274 -0.02686758 -0.027987352 -0.015218515
000130 91 d1 15 3c 93 48 63 bd 6a c4 aa 3c b1 99 0c be
       0.009144203 -0.055489134 0.02084561 -0.13730504
000140 fa 6f 06 be 07 b9 02 3d 4b 15 c8 bc ae b5 5f bd
       -0.13128653 0.031914737 -0.024424216 -0.054616623
000150 42 2b 35 bd 41 8e 0d be db fa 78 bd f9 13 d2 bd
       -0.044230707 -0.13823797 -0.06078611 -0.10257716
000160 61 92 e6 bd bb ce d3 bc 45 82 37 3c 6b bc 91 bd
       -0.11258388 -0.025855413 0.011200492 -0.07116016
000170 4b 78 8b 3d bf a9 46 be aa 26 a7 bd a5 c5 d9 3d
       0.068100534 -0.1940069 -0.081616715 0.10633401
000180 bd 7c 33 be 61 c6 4c 3c a8 61 39 be 03 ba ea bd
       -0.17528053 0.012498469 -0.18103659 -0.1146126
000190 b0 2b 52 bd 56 9b af bc fa e2 c3 bc a4 07 44 bd
       -0.051311195 -0.021436375 -0.023911942 -0.04785885
0001a0 d6 f0 d3 bc 70 db 19 3e 3c a5 91 be 90 74 9b 3b
       -0.025871675 0.15025115 -0.28446376 0.00474412
0001b0 89 cd 1a bd 96 3f a1 ba 3d 1a fa 3c 7d f8 07 3c
       -0.03779367 -0.0012302275 0.03053009 0.00829899
0001c0 30 44 22 3d 5a 03 6b bb d4 fd 93 bd 33 c8 94 bd
       0.03961581 -0.0035860152 -0.07226148 -0.072647475
0001d0 fe 4d af bc cf b0 06 3d 1b 55 02 be da 83 38 bd
       -0.021399494 0.03288346 -0.12727778 -0.04504762
0001e0 88 fa df bd bf 5f 54 be 9b a6 d6 bc 2a f7 08 be
       -0.10936457 -0.20739649 -0.02620249 -0.13375536
0001f0 45 63 7d bd ea 3b af bd 3b 1e ac 3c 2a c5 a2 bd
       -0.06186225 -0.085563496 0.021010509 -0.07947762
000200 6d 6c 22 be 08 28 fe bd a2 50 ae bd d5 05 03 3d
       -0.15861674 -0.12409979 -0.08511473 0.031987984
000210 e2 93 99 bd 8d 8d ac 3c ef 94 60 3b f6 7d f0 bd
       -0.074989095 0.02106359 0.003426846 -0.11742775
000220 02 e0 be 3d 60 c0 12 bd 00 ae 8f bd 57 a6 29 3d
       0.0932007 -0.035827994 -0.0701561 0.0414184
000230 e4 0b 09 be af b2 6d bc 67 04 bf 3c 8e 14 dd bd
       -0.13383442 -0.0145079335 0.023317529 -0.10794936
000240 51 20 d1 3c ac 1e 7a bd 89 2c 16 be 40 5d 10 3e
       0.025528105 -0.061064407 -0.14665426 0.14098072
000250 6c 39 d1 bd a0 15 87 bd 0d b3 0f be 36 de 2d be
       -0.102160305 -0.065959215 -0.14033146 -0.16979298
000260 88 3c bb bc 47 bb 04 be 5e 12 6d bc 64 5d a7 bd
       -0.022856012 -0.12962066 -0.014469711 -0.0817211
000270 b8 1f 80 bd c2 ad 27 be a8 2c 77 bd 36 58 39 be
       -0.0625605 -0.16374877 -0.060345322 -0.18100056
000280 5b 01 2a 3e 8e cf 51 bd 20 fb 1d bd 7d 4c b5 3d
       0.1660208 -0.05122333 -0.03856957 0.088524796
000290 d0 17 d1 bc fc 57 10 3e b2 27 9d bd d9 9d 66 bd
       -0.02552405 0.14096063 -0.07673587 -0.05630288
0002a0 55 8c 38 3d 57 68 28 bd 39 06 4a be 64 00 1a 3d
       0.045055706 -0.04111513 -0.19728936 0.03759803
0002b0 34 f6 bd bd 95 ef 62 be 31 81 24 be 20 1e fe bc
       -0.09275475 -0.22161706 -0.16064908 -0.031020224
0002c0 c7 11 51 bd a1 5b 05 be 65 51 8a bd 69 f6 c0 bd
       -0.051042344 -0.13023235 -0.06753806 -0.09421999
0002d0 e4 39 e8 bc 7a 3a c7 bd 0e 64 21 be 55 65 18 bd
       -0.028347917 -0.097279504 -0.15760824 -0.037206013
0002e0 73 ad 60 3d d5 fb dc bd ea 53 8c 3d 65 fe 5e 3d
       0.054852914 -0.10790221 0.06851943 0.05444183
0002f0 9a 11 ed bd b9 3e ee bd 7b 5a cb bd b5 6c 17 be
       -0.11575623 -0.11633057 -0.09929367 -0.14787562
000300 12 e4 13 be d4 f9 6f 3d be 82 f6 3c 74 1c 51 bd
       -0.1444247 0.058587864 0.03009164 -0.051052526
000310 00 fd 01 bd b7 4d 32 be fb dd ac 3d f8 db 33 be
       -0.03173542 -0.17412458 0.08440777 -0.1756438
000320 b4 cf 07 3e ec 91 27 be 60 ad 57 be 3f 22 bc bd
       0.13262826 -0.16364259 -0.21062231 -0.091862194
000330 ef e9 0e be ab a1 23 be c1 05 49 be 32 bb 79 3e
       -0.13956426 -0.1597964 -0.19631101 0.24387816
000340 d1 1d 1c be 65 4a 06 3d cb 86 9a 3c fe 7b 27 be
       -0.15245749 0.032785792 0.018863102 -0.16355893
000350 69 df b3 3d f8 43 86 bc d8 80 cf bd 7a 81 ad 3d
       0.087828465 -0.016389832 -0.10131997 0.08471961
000360 25 c7 0f 3d 8b 48 8b be 8a e7 52 be ed 14 96 3d
       0.03510203 -0.27203783 -0.20596138 0.0732821
000370 c8 c4 f3 bd 51 1b 10 3d 7a 43 9f 3d 68 81 03 3d
       -0.119027674 0.0351823 0.07776542 0.032105833
000380 28 f9 93 bd 7f d7 48 bb 5e b1 03 be 0e 2a 16 be
       -0.07225257 -0.0030646024 -0.12860629 -0.1466448
000390 37 36 85 be f3 1d 55 be ee c5 ab bc dd a6 05 3d
       -0.26017925 -0.20812206 -0.020968404 0.032629836
0003a0 13 64 39 bd ed 9d 9a 3d 07 59 c5 3c 16 ec 17 bd
       -0.045261454 0.07549653 0.024090303 -0.037090383
0003b0 a3 76 2f bd 99 c0 7a be b4 ab 78 3d 63 3e c7 bd
       -0.04283775 -0.24487533 0.060710624 -0.09728696
0003c0 6d 48 29 be ab a1 c2 bd 00 40 48 ba 4c 9a 80 bd
       -0.16531534 -0.09503492 -0.0007638931 -0.0627943
0003d0 4d f0 b5 bd 1f 76 ba bd 0b 59 f1 bd 91 18 44 3d
       -0.08883724 -0.09104561 -0.11784562 0.04787499
0003e0 39 c6 2d bc fd 41 8e 3c e8 4a 09 3b 85 00 a2 bc
       -0.010606342 0.01736545 0.0020949189 -0.019775638
0003f0 dc 18 ad 3b 9a 06 ea bd 5e 1b c1 bd 08 dc ba bc
       0.0052825045 -0.114270404 -0.09429048 -0.022809997

bn1.running_mean f4 [256]
000000 5c 3c 3f 3f e2 1a 3f c0 5b e3 41 40 8c 1f e4 3f
       0.74701476 -2.9860158 3.0295017 1.7822127
000010 28 3b 00 3f b9 45 26 bf c2 0a 6e 3f c5 1d 03 3e
       0.50090265 -0.6495014 0.92985165 0.12804325
000020 1f b7 50 c0 42 da 1a c0 0e 38 82 c0 11 c5 d4 3f
       -3.2611768 -2.4195714 -4.0693426 1.662264
000030 37 5c 7f 3f 9c 14 ed bf 15 0b 76 c0 e8 94 1c 3e
       0.99750084 -1.8521914 -3.8444264 0.15291178
000040 d3 0e e5 3f 76 cb b2 be 1a 2c b2 3f a8 f8 ac 40
       1.7895149 -0.34920853 1.3919709 5.4053535
000050 8b d4 b4 bf bf 8a 04 40 aa 4b 77 be bc bf 53 bf
       -1.4127363 2.0709684 -0.24149957 -0.8271444
000060 66 e6 ee 3e 2a 33 77 be 09 f9 6e 3e e3 dc 26 bf
       0.46660155 -0.24140611 0.23337187 -0.65180796
000070 8b 1d a8 bf ab bc 32 40 d1 e3 f1 be 65 c0 06 3f
       -1.3134016 2.7927654 -0.47244123 0.5263732
000080 bd 8f a8 bf 7a 36 27 40 8e 2d 12 40 44 ce 92 3e
       -1.3168865 2.6127 2.2840304 0.28672993
000090 18 18 6e bf 6e 96 e4 bf 35 f9 18 3f 03 44 7f bf
       -0.93005514 -1.7858407 0.5975526 -0.9971315
0000a0 19 0a f2 3f 90 4d 16 3f bf 79 c9 bd 97 0d 5e 3e
       1.8909332 0.587121 -0.09837674 0.21684872
0000b0 52 f7 35 40 1b 88 46 40 d0 f0 68 3f 46 c6 3a 40
       2.8432202 3.1020572 0.9099245 2.9183517
0000c0 e7 4f 8d 3d 73 04 92 3d a5 fb 78 bf 72 a3 fa 3f
       0.06900006 0.07129755 -0.9725898 1.958113
0000d0 32 c4 e9 be 51 e4 b3 be 68 0c 5c bf 7b 87 05 40
       -0.45657498 -0.3513513 -0.8595643 2.086394
0000e0 f4 b4 8e 3f 2a 85 c9 3f 15 28 35 40 a8 89 3d 3f
       1.1148973 1.5743763 2.8305714 0.7403817
0000f0 11 7e 82 3f 6f 09 38 be bf aa 8e 3e 97 f4 59 3f
       1.0194722 -0.17972349 0.27864644 0.8513884
000100 82 1f 93 bf bb 59 89 40 d3 e4 cd 3e 0a 9a e4 3e
       -1.149399 4.2922034 0.40213642 0.44648772
000110 e0 54 f6 bf 5a 1a a6 3f c0 9e 07 3f 68 ab 27 c0
       -1.9244652 1.2976792 0.5297661 -2.6198368
000120 96 be 23 bc d3 cd 51 40 5e a3 04 bf 27 5c 17 3f
       -0.00999417 3.2781875 -0.5181178 0.5912499
000130 31 fd a5 bf f0 67 46 3f 2e 1c f7 bf 75 5e 61 3f
       -1.2967893 0.77502346 -1.9305475 0.88034755
000140 23 c6 ff 3e 7f 02 5b 40 f0 07 3a 3f 45 ab d3 3d
       0.49955854 3.4220273 0.7266836 0.103354014
000150 0d 26 14 40 fe b3 20 c0 21 e0 95 3f 63 93 d8 bf
       2.3148224 -2.5109859 1.1709024 -1.6919979
000160 d3 10 50 bf 79 af 15 bf 44 7c 3b 40 0a da 9b be
       -0.8127567 -0.58470875 2.9294596 -0.30439788
000170 bf 40 91 bf 00 59 da 3f ab f4 9e bf 55 98 0d 40
       -1.1347884 1.7058411 -1.2418417 2.2124226
000180 46 45 20 bf 41 d4 87 3f 49 39 d6 bf 06 59 a0 3f
       -0.626057 1.061165 -1.6736232 1.2527168
000190 77 65 3e 40 ef 0f ea 3e ca 78 10 c0 2a 9b 75 3f
       2.974943 0.4571528 -2.2573724 0.95939887
0001a0 7e 77 63 bc ad 22 83 40 0c 7e f9 bc 84 37 a8 40
       -0.01388347 4.097983 -0.030455612 5.256777
0001b0 8f bf bc bd 5f 2c c3 bf ce 9c 57 3f 3a b9 34 3f
       -0.092162244 -1.5247916 0.8422364 0.70595133
0001c0 c5 71 56 3f d1 ad 07 40 b6 ba e0 3f b8 d7 8f bf
       0.8376735 2.119984 1.755698 -1.1237707
0001d0 b1 32 9f 3e 52 b2 f0 3f 02 38 90 bf a8 c0 dc 3f
       0.31093362 1.8804419 -1.1267092 1.7246294
0001e0 c3 e2 2e 40 a9 e9 a0 be ad a9 01 c0 19 99 e4 3f
       2.7325904 -0.3142827 -2.0259812 1.7859222
0001f0 c5 54 94 40 16 94 df 3f 13 4e d7 3f b8 51 bb 3d
       4.635348 1.7467067 1.6820701 0.09146446
000200 a7 16 0b c0 59 95 56 3e 4c 4a c9 be 61 7d e7 3f
       -2.1732576 0.20955409 -0.39314497 1.8085138
000210 3c 40 66 3f 49 75 90 be 26 64 1d be b7 13 62 c0
       0.89941764 -0.2821448 -0.15370235 -3.5324533
000220 cb 4e ee 3f 67 73 c9 3f 56 59 3d 40 01 1f db 3f
       1.8617796 1.5738343 2.9585776 1.7118837
000230 db dc 9f 3e 4b fc 83 bf bf 42 10 40 88 9c 16 c0
       0.31223187 -1.0311369 2.2540739 -2.353304
000240 2f 3f 9f 40 e0 4e 34 40 4a 5d 56 c0 b2 97 03 40
       4.976463 2.8173141 -3.349444 2.0561337
000250 29 6f c0 bf 2c 6e de 3e 36 40 22 c0 6f 98 49 3f
       -1.5033923 0.4344343 -2.5351691 0.7874822
000260 c8 7a 4e bf 2b 42 4b be 68 80 c8 3f ac 26 bb 3f
       -0.806561 -0.1984946 1.5664186 1.4621177
000270 e2 2a 0a bf 8a 0d 4e c0 57 25 18 bf 01 f4 47 be
       -0.53971684 -3.2195764 -0.59431976 -0.19526674
000280 9d 30 07 3f 7b 73 52 be a0 df 46 bf bd c6 23 40
       0.52808553 -0.20551865 -0.77684975 2.559005
000290 86 1e 05 3f 22 2f 00 c0 f4 c3 44 40 84 ec f5 3f
       0.519997 -2.0028768 3.07446 1.9212804
0002a0 6f 95 3b bf b4 0a bb bf 44 87 22 3f 2b dc 75 bf
       -0.7327489 -1.4612641 0.6348765 -0.96039075
0002b0 3c 80 39 3f 20 dd 97 3f 82 a7 5b c0 56 ce b5 3f
       0.72461295 1.1864357 -3.4320989 1.4203594
0002c0 6a 61 45 3f ec 28 9e 3d 95 97 24 bf a6 c5 53 c0
       0.7710177 0.07722649 -0.64293796 -3.3089385
0002d0 9e 15 2e 3f 4b 2d 95 3e 94 00 a8 bf 4d 01 fd 3e
       0.68001735 0.29136118 -1.3125176 0.49415055
0002e0 7a b7 82 bf 7d 99 1a 3f 1e e6 4d 3f e2 a8 f6 3f
       -1.0212243 0.60390455 0.80429256 1.9270289
0002f0 34 4c a1 3e a6 22 26 40 77 25 a1 bf 20 95 85 3e
       0.3150345 2.5958648 -1.2589558 0.26090336
000300 a6 1e 7e be 83 96 5f 3f a3 7d 49 40 3f 64 2a 3f
       -0.24816379 0.8733904 3.1482933 0.66559213
000310 d6 a5 7a 3e 7c 80 b0 3e b4 31 25 40 78 d9 00 3f
       0.24477324 0.34473026 2.5811586 0.5033183
000320 8c 3e e6 3f 14 80 7b bf 2b 3c 05 c0 b2 f0 9a 3f
       1.7987838 -0.98242307 -2.0817974 1.2104704
000330 ea a6 b5 bf ef 84 bd 3f 60 2e 53 c0 3c 78 73 3e
       -1.4191563 1.4806193 -3.2997055 0.23776335
000340 e5 72 a0 c0 67 c2 43 40 f0 7d 5c 3f 8e 3b cb be
       -5.014025 3.0587404 0.86129665 -0.39693874
000350 74 43 f8 3f e1 01 05 40 28 88 3c bf 76 4b 03 3f
       1.9395585 2.0782397 -0.7364526 0.5128702
000360 82 9c 3d bf 99 6b ff be 5d 1b b7 3e 2c 7a b6 bf
       -0.74066937 -0.49886778 0.35763064 -1.4256034
000370 f1 0b d3 bf 22 02 16 40 69 b9 70 3f bc a2 5f 3f
       -1.6488019 2.3438802 0.94032913 0.8735769
000380 06 fa 25 bf f0 fa 73 bf b5 11 e4 bf 5b 0c ba be
       -0.6483463 -0.95304775 -1.7817904 -0.3633755
000390 b8 fb 2c 40 07 3e 87 bf cd 5b a2 bf 23 64 5d 3f
       2.7028637 -1.0565804 -1.2684265 0.8648092
0003a0 39 23 05 40 c8 ef 56 40 36 ee 6a be 9f 53 d0 bf
       2.0802748 3.358385 -0.22942433 -1.6275519
0003b0 74 97 81 be d8 96 da bf 6b 21 78 bf c0 35 14 3f
       -0.25310862 -1.7077284 -0.9692599 0.57894516
0003c0 f9 1e b6 bf 23 a3 85 bf a4 7e 8f be ee 90 99 3e
       -1.4228202 -1.044041 -0.28026307 0.29993385
0003d0 a2 27 32 40 6e ff c1 bf 01 38 50 3d e1 b2 2e 40
       2.783669 -1.5156076 0.05083466 2.729668
0003e0 5c c2 9b 3f 63 f4 33 bf 84 99 9a 3f eb 42 ad bf
       1.2168689 -0.7029478 1.2078099 -1.3536047
0003f0 16 c8 af 3f 81 a7 f7 3f fd 27 80 3f f8 0e df bf
       1.3732936 1.9347993 1.0012203 -1.7426443

bn1.running_var f4 [256]
000000 c4 33 be 3f 3f b7 df 3f f0 0f 90 3f 0d e2 78 3f
       1.4859548 1.7477797 1.1254864 0.97219926
000010 99 14 29 40 5f 84 cd 3f 13 60 1c 3f e0 1d 3e 40
       2.6418822 1.6056021 0.610841 2.9705734
000020 3b fe 14 40 ac 58 23 40 91 b5 d8 3f ac 92 d7 3f
       2.328017 2.552287 1.693041 1.6841636
000030 8f 96 2b 3e 3a 23 5e 40 47 c7 03 40 c1 79 37 40
       0.16756652 3.4709 2.059038 2.8668063
000040 7c 1b d5 3f 4b 3e 22 40 36 c7 f4 3f 93 cb 7f 40
       1.6649013 2.535052 1.9123294 3.9968002
000050 7b fb a3 3f 76 8b 05 40 64 de ed 3f 25 72 23 40
       1.2811121 2.086637 1.8583493 2.5538418
000060 5a f4 31 40 a9 e4 0c 3e 29 da b6 3f a7 d5 00 40
       2.780539 0.13759102 1.4285327 2.0130403
000070 f2 33 5b 40 6b 1f 34 40 4b 86 a4 3f 7c a0 ef 3f
       3.4250455 2.8144176 1.2853483 1.8720851
000080 e4 0b a6 3f 43 63 5c 3f 3a ee 7d 40 66 f2 98 40
       1.2972379 0.8608896 3.9676652 4.7795897
000090 dd 97 76 3e 24 4b 7b 3f 26 cf 5e 40 10 12 89 3f
       0.24081369 0.9816153 3.4813933 1.0708637
0000a0 d4 07 88 3f 96 b0 9e 3e 8f 53 87 3f 6c f3 19 3f
       1.0627389 0.309941 1.0572375 0.6013706
0000b0 3f c9 34 3f 83 a9 df 3f d1 44 17 40 08 58 de 3f
       0.7061958 1.7473606 2.3635752 1.7370615
0000c0 06 e3 0c 40 3a 1d 30 40 b3 c2 dc 3f a9 66 42 40
       2.2013564 2.7517838 1.7246917 3.0375159
0000d0 b2 ed 81 40 73 62 e8 3f f6 e5 c6 3e 9b e8 31 40
       4.0602655 1.8155044 0.3884732 2.779822
0000e0 af d4 ae 3f 35 5b 53 3f 02 8e 1b 40 4e fa 0b 40
       1.3658656 0.82561046 2.4305425 2.1871524
0000f0 82 60 fb 3f 1d 0d 91 3e 63 2e 9c 3f 92 37 33 3f
       1.9638827 0.28330317 1.2201656 0.7000667
000100 c3 29 1c 40 47 9a 5f 40 b0 eb 03 3f c9 fb d4 3f
       2.440049 3.4937913 0.51531506 1.6639339
000110 34 e3 42 40 9e de 4c 3e 37 47 54 40 2e 9a 89 40
       3.0451174 0.20006797 3.3168466 4.300071
000120 71 cc 96 3e a2 37 94 3f 48 1a f9 3f 01 f6 17 40
       0.2945285 1.1579478 1.9461145 2.37439
000130 27 44 6d 3f ce 3e 1e 40 e2 36 07 40 2a d9 6f 3f
       0.9268212 2.4725833 2.1127248 0.9369074
000140 ec ae 22 40 84 cd 45 40 fd 1f 27 40 4a ee 39 3e
       2.5419264 3.0906687 2.6113274 0.18157306
000150 58 d4 8a 3f a6 74 59 3f 49 9b d9 3f 2e 87 eb 40
       1.0846052 0.84943616 1.7000514 7.3602514
000160 fb ca 78 3f 68 7d 7b 40 bb 59 fe 3f c9 d0 91 3f
       0.97184724 3.9295292 1.9871134 1.1391841
000170 e1 ec 31 40 df fb d0 40 06 14 95 3f eb 00 c7 3f
       2.780083 6.530746 1.1646736 1.5547155
000180 44 61 8e 3f c0 53 28 3f f6 56 3b 40 6e e9 2e 3f
       1.1123433 0.6575279 2.9271827 0.68324935
000190 cd 43 e9 3f b2 4e 98 3f 5f 2a 9d 3f 26 ce 9f 3f
       1.8223816 1.1899016 1.2278556 1.2484787
0001a0 56 2b 2c 40 7e 47 32 40 ec b7 2c 3f 8d 9f ba 40
       2.690145 2.7856135 0.6746814 5.8319764
0001b0 24 2e 1c 40 1c 8d 9c 3e e3 40 c6 3f 20 db 28 40
       2.4403162 0.30576408 1.5488552 2.6383743
0001c0 4f 0a ca 3e a8 a4 a4 3f 65 d5 32 40 10 36 1f 40
       0.3946099 1.2862749 2.7942746 2.4876747
0001d0 2d e7 31 40 68 6d fe 3f 84 5c 13 40 6e 8e c9 3f
       2.7797348 1.9877138 2.3025217 1.5746591
0001e0 87 52 55 40 10 ae 47 3f 31 e6 b5 3f 9b b5 80 3f
       3.333162 0.77999973 1.4210874 1.0055422
0001f0 2b 83 d3 3f 55 95 6b 40 99 9e 6e 3f 6a 3c 1d 3e
       1.6524404 3.6809895 0.9321075 0.15355077
000200 e1 2a f6 3f cf 8f 2d 3f 7f f6 26 40 c3 a5 50 40
       1.9231836 0.6779756 2.608795 3.2601173
000210 ff 8d 2c 40 16 d5 70 40 cc 48 96 3e 9f 9a b1 3f
       2.6961668 3.7630057 0.29352415 1.3875312
000220 9f fa 12 3f 5d 2b 13 40 b4 a8 17 40 00 a1 99 3f
       0.5741367 2.2995217 2.3696718 1.2002258
000230 82 ca 5c 40 57 09 40 40 21 b7 2d 40 c6 1c d5 3f
       3.44986 3.00057 2.7143023 1.6649406
000240 7f 0e 06 40 f1 6e e1 3f 6e f4 92 3f 73 eb 7a 3f
       2.0946348 1.7611982 1.1480844 0.98015517
000250 ed f8 5a 40 62 37 83 40 f2 6e 92 3f 9f fd 8a 3f
       3.4214432 4.1005106 1.1440108 1.0858649
000260 90 a8 8d 3f d1 cf a1 3f 1d 3b 51 40 b3 30 45 40
       1.1067066 1.2641546 3.269233 3.0810974
000270 a3 3b 04 3f 48 2f f1 3f 5b 7a 39 40 aa b9 2e 40
       0.516535 1.8842554 2.898093 2.730082
000280 df 37 9f 3e 75 1f 31 40 23 28 b4 3f 46 df 9c 40
       0.31097314 2.767545 1.4074749 4.902255
000290 27 67 16 40 5c 42 b7 3f 80 08 2a 40 49 1f 0f 40
       2.350046 1.4317126 2.6567688 2.2362845
0002a0 a8 3e 22 40 78 05 c1 3f 21 09 be 3f af 5e 59 3f
       2.5350742 1.5079794 1.4846536 0.849101
0002b0 90 97 6a 3f 05 b7 31 3f 53 4d a5 3f 66 b2 a9 3f
       0.91637516 0.6941989 1.2914222 1.3257568
0002c0 38 70 12 40 71 c3 12 40 15 a5 75 3f cf 02 00 40
       2.2880993 2.2931788 0.9595502 2.0001714
0002d0 ed 9a 35 40 d7 d8 1f 40 87 71 41 3f 64 ed b9 3d
       2.837581 2.4976099 0.75563854 0.09078482
0002e0 ea 82 fd 3e 2b a6 38 3e 4e 2c 01 3f 48 9d 75 3f
       0.49513942 0.18032138 0.5045823 0.9594312
0002f0 32 0d c6 3f 18 9c 5a 40 ff ea 91 40 0a 5e 2e 40
       1.5472777 3.4157772 4.559936 2.7244897
000300 1a c1 d7 3f 2a 1b 06 3f 0b 8a 47 3f b5 ed 6b 3e
       1.6855805 0.523852 0.7794501 0.23039897
000310 05 56 8c 3e 5b 1b a7 40 06 9b aa 3f 46 dd bf 3e
       0.27409378 5.2220893 1.3328559 0.37473506
000320 87 41 54 3f 24 15 ea 3f 62 57 ab 3f f9 ef 89 3f
       0.82912487 1.8287702 1.3386042 1.0776359
000330 63 e1 90 40 d1 41 85 40 c4 3e f8 3f 5b 08 b5 3d
       4.527513 4.164284 1.9394155 0.08839484
000340 4e 79 36 40 c1 3a 9e 3f 1e 52 3c 40 9d 4a 97 3e
       2.8511539 1.236168 2.942512 0.29549113
000350 90 cc cd 3f ec 9a aa 3e 83 5e 63 40 e3 b0 b3 40
       1.6078053 0.3332132 3.5526435 5.6153426
000360 34 37 b7 3e a3 8d 9c 3f 5b b6 89 40 af ed ce 3f
       0.35784304 1.2230724 4.30351 1.6166285
000370 1c 50 ce 3f 73 05 2e 40 e3 71 01 3f 28 72 02 3f
       1.6118197 2.7190826 0.505644 0.5095544
000380 27 a3 66 3f 6d cd c7 3f a8 9f db 3f 08 87 39 3e
       0.900927 1.5609566 1.7158098 0.18117917
000390 ae b6 81 40 e5 76 23 40 fe 80 65 40 48 0d 5e 3e
       4.05355 2.5541317 3.585998 0.21684754
0003a0 0a 1b 00 3f aa c7 07 40 8d 0b 90 3e bf d0 1b 40
       0.5004126 2.1215615 0.28133813 2.4346159
0003b0 0a 2d 32 3f 3e b8 82 3f a0 58 87 40 d7 ba 11 3f
       0.69599974 1.0212476 4.2295685 0.5692572
0003c0 f9 0b 56 3f 18 10 99 3f 51 dd 1d 40 a9 c7 c1 3f
       0.8361202 1.1958036 2.466633 1.5139056
0003d0 55 c7 87 40 b3 ae 9d 3f fa 6f ce 3f 15 d7 92 40
       4.2430825 1.2318939 1.6127923 4.588755
0003e0 1d 75 36 40 57 cb 13 40 7e 39 ab 3f 7f 41 89 40
       2.850898 2.3092859 1.337692 4.289245
0003f0 5e 27 d5 3f 51 15 0d 40 91 61 c5 3f 13 b9 c6 3e
       1.6652639 2.204426 1.54204 0.38813075

fc2.weight f4 [256, 256]
000000 00 d0 34 3c fd 41 c4 3d f6 55 26 3e 8c 5c 06 bd
       0.011035919 0.09582899 0.16243729 -0.032803103
000010 69 24 97 bc 6e e0 46 bc 05 b1 ce bd 24 d2 ee ba
       -0.018449979 -0.012138469 -0.100923575 -0.0018220586
000020 d3 43 0b bd 7a 5b 9c bd 67 5f 8e bb 2d 20 ae be
       -0.03400023 -0.07634635 -0.004344869 -0.34008923
000030 74 83 4f bb da 36 5c 3d eb 6b c6 3d d9 31 ae bd
       -0.0031664046 0.053763248 0.096885525 -0.085056014
000040 99 60 bc bc 2a 60 7a 3d 72 5f 37 3d d7 64 e0 3c
       -0.02299528 0.061126865 0.044768758 0.027391834
000050 c5 dd 24 bd 39 70 84 bd 23 48 b5 3b 68 6b 42 bd
       -0.04025056 -0.06466717 0.005532281 -0.04746571
000060 ae 34 a4 3c 22 cb 18 3b 5e a2 e8 bc c6 63 18 3c
       0.02004465 0.0023314436 -0.028397735 0.009301132
000070 f8 0d 00 3e b3 48 95 3c 07 b0 53 be e8 3e af 3d
       0.12505329 0.018223142 -0.20672618 0.0855692
000080 40 e0 1a 3d 20 17 de 3d f0 28 3c be a6 02 b8 3d
       0.037811518 0.108442545 -0.18374991 0.0898488
000090 e8 9e bc 3b 20 5e d4 bd 0a 7e fe bd 34 3a d9 bd
       0.005756248 -0.103695154 -0.12426384 -0.106068045
0000a0 f0 8f 3d 3e 34 9d 20 be eb c0 40 3c 9c 38 64 be
       0.18511939 -0.15684968 0.011764745 -0.2228722
0000b0 c1 5c 3e 3d 94 4b a5 3c 40 cf 17 3e d4 57 8b 3d
       0.046475176 0.02017764 0.14825153 0.06803861
0000c0 6c 12 b0 ba 4e ec b9 bd a4 de b3 3d c8 33 1b bd
       -0.0013433225 -0.09078275 0.087827 -0.03789118
0000d0 1e 57 02 bd c8 2f 8b be 1b 8f 06 be 9d b0 6f 3d
       -0.031821363 -0.27184892 -0.13140528 0.05851804
0000e0 fc 22 c7 3b be 34 85 3d 5c f9 90 3c 9f 72 31 3e
       0.0060771685 0.065042004 0.017697029 0.1732888
0000f0 96 95 16 bd 8b d2 9a 3e 2a e6 6a 3e bf 4d de bc
       -0.03676375 0.30238757 0.22939363 -0.027136682
000100 aa e2 48 3c 36 46 69 bd a8 d0 30 3c e5 8c af 3d
       0.012261072 -0.056951724 0.010791935 0.085717954
000110 bd 60 dc bc 6e ba a9 3d c0 4d d2 3d 58 39 c1 3c
       -0.026901597 0.08287512 0.10268736 0.023586914
000120 3a 65 88 3c ce ec 38 bb 8d ce 77 3d 27 12 9b 3d
       0.016649831 -0.0028217318 0.060499717 0.07571822
000130 16 81 57 be c0 79 1c 3d 7a 44 71 bb 92 25 60 3d
       -0.21045336 0.038202047 -0.0036814497 0.05472333
000140 2f a0 79 bd 68 62 1c bd bf fd b4 bd b6 b9 ad bd
       -0.06094378 -0.038179785 -0.08837461 -0.08482687
000150 8e 17 44 3e b3 2a 34 3d f6 db 33 39 c2 34 c1 3c
       0.1914961 0.043986034 0.00017152712 0.023584727
000160 49 fe 8e 3d 88 c8 e6 3d 82 37 1a 3e fc a3 46 3e
       0.06982095 0.11268717 0.15060237 0.19398493
000170 a2 6c 8e bd ae b2 b0 bd 46 31 51 bd 1d 81 53 bd
       -0.06954314 -0.086278304 -0.05107238 -0.051636804
000180 d2 96 7f 3d 7d 26 25 3d 64 1b 13 3d 84 3c 94 bd
       0.062399693 0.04031991 0.035914794 -0.07238105
000190 a0 84 11 3d 3b 8a 2b be 19 97 b9 3c 00 bf 90 3d
       0.03552687 -0.1675195 0.022655057 0.0706768
0001a0 d6 68 6b 3c 38 e2 80 3d a6 f4 02 3e 3d 8b a5 3c
       0.014368257 0.06293148 0.12788638 0.020207996
0001b0 9e aa 03 3e ff 76 75 bd da b0 59 bc 12 71 af 3d
       0.12858054 -0.059927937 -0.013286794 0.08566488
0001c0 2d 80 2d 3e 4b a8 e7 bd 82 6d 09 be 9d 9e b9 bd
       0.16943426 -0.11311396 -0.1342068 -0.09063456
0001d0 fe c5 2c 3d d8 eb b7 3d d3 2b 65 3d e8 5f 82 bc
       0.042181008 0.089805305 0.055949997 -0.015914872
0001e0 c8 b1 05 3e a2 9c 3c 3c 06 fe 19 be c5 94 7e 3d
       0.130561 0.011511954 -0.15038309 0.062153596
0001f0 2f 58 2f 3e c8 96 93 3b 38 63 30 bc 1f b6 2f be
       0.17123483 0.0045040585 -0.010765843 -0.17159317
000200 ec e7 88 3d ba 7f dc 3d b3 71 81 3d 6f 82 d5 bd
       0.066848606 0.107665494 0.063205145 -0.10425269
000210 a2 93 36 3e d7 99 13 be 05 18 2f bd 39 ba 0b 3c
       0.17829755 -0.14414154 -0.042747516 0.008528286
000220 06 05 f7 bc 68 77 0a 3e 71 69 7e 3d ea 24 e2 bd
       -0.030153763 0.13522112 0.062112276 -0.11042197
000230 c3 93 95 3d 0f be b2 3b 1b 16 f9 3c 1d 7d 8a 3d
       0.07303574 0.0054547857 0.030406049 0.06762145
000240 fb 47 57 3d 97 66 2a 3e 89 1e 1f 3d 78 62 06 3d
       0.05255888 0.16640697 0.03884748 0.03280875
000250 91 a3 60 bd 24 82 72 3d d5 51 5d 3e 0b 51 10 3d
       -0.05484349 0.059206143 0.21613248 0.03523354
000260 37 bc 17 be 1a 81 53 bd e7 43 8b 3c 99 36 a8 bc
       -0.14817892 -0.051636793 0.017000152 -0.020533847
000270 f9 2c 55 bc 45 ab 98 3d 04 2b 56 bc 6b df ee 3d
       -0.013011211 0.07454542 -0.013071779 0.11663707
000280 75 a4 a3 bc 4e aa 22 bd 46 d0 e4 bd 12 6a b4 bd
       -0.01997588 -0.039713196 -0.111725375 -0.08809294
000290 d2 e9 ff 3d 64 6d 8f bc 3c c1 dc bb 43 a8 f8 bd
       0.124957696 -0.017508216 -0.0067369025 -0.121414684
0002a0 be df 08 3d cb 1d f1 bd b6 dd b5 3a e2 9c 0f be
       0.033416502 -0.11773261 0.0013875279 -0.1402469
0002b0 b1 0e ee 3d 03 ad 07 be 2e 10 b9 bb bb 2b 51 39
       0.11623896 -0.13249592 -0.0056476807 0.00019948084
0002c0 c9 73 46 bd 29 15 d0 3d 4e a4 c9 bd e3 ac b5 3d
       -0.048450265 0.10160286 -0.09845792 0.08870866
0002d0 12 94 c1 3d 01 18 00 3e 0a ed ba bc ff 22 f1 3e
       0.0945207 0.12509157 -0.022818107 0.47097012
0002e0 7e 34 a7 be 2c c6 eb bd 9c 95 49 bd 4e 22 d0 3d
       -0.32657236 -0.11512408 -0.049214944 0.10162793
0002f0 c0 ad 21 3c 1a 14 06 be 13 27 ab 3d f2 1c 20 be
       0.009868085 -0.13093606 0.08357062 -0.15636042
000300 aa 06 d4 3d 46 01 1d 3e c4 7a 22 3e e8 1d 89 bd
       0.103528336 0.15332517 0.15867144 -0.06695157
000310 15 85 d7 bc 2a 4c 47 bd 05 72 56 bd b5 0b 49 be
       -0.026308576 -0.04865662 -0.05235483 -0.19633372
000320 2c 1a 78 3b bb 59 4f be e9 5c 4e bd a8 e3 d6 3d
       0.0037857397 -0.20249073 -0.050381575 0.10492641
000330 2a 1c 91 bd a0 11 c2 3d 1d b7 bb 3d cb d4 5d bd
       -0.0708545 0.09476018 0.091657855 -0.054158013
000340 2d 8d 50 3d f4 66 b1 3d 95 a0 21 3d b8 74 51 3d
       0.050915886 0.08662215 0.039459784 0.051136702
000350 87 31 60 3d 9c 98 12 3d 1c b5 bd bd e2 7e 4f 3d
       0.054734733 0.03579007 -0.092630595 0.050658114
000360 29 32 d7 bd 24 ae b5 3d 76 1e 77 3a 73 4f a7 bd
       -0.10507614 0.08871105 0.0009426841 -0.081694506
000370 4a 4d 24 bc d0 e6 7a 3c 21 80 44 bd ea 37 94 bd
       -0.010028193 0.015313819 -0.047973756 -0.07237227
000380 ac 88 0b be ec 51 84 bd 6e 30 d0 3d 10 c1 b0 3d
       -0.13626355 -0.06460938 0.10165487 0.08630574
000390 34 61 32 3c 00 6c e0 bc 56 c7 a9 bd 10 3c 65 bc
       0.010887433 -0.027395248 -0.082899734 -0.013991371
0003a0 b6 85 1d 3c e0 d2 d1 3c 84 88 10 bd f6 ef b9 bd
       0.009614399 0.025613248 -0.03528644 -0.09078972
0003b0 a1 df 6a 3d 65 ab 2e bc 66 34 06 3d 3e cb cf 3d
       0.057342175 -0.010660981 0.032764815 0.10146187
0003c0 9d c9 6b bd f0 48 9a bc 38 1f 16 bd 9a 6e 90 3c
       -0.05756532 -0.018833607 -0.036650866 0.017630864
0003d0 53 86 93 bc 6c 70 ad ba 36 75 0a 3e 90 65 12 3d
       -0.018008387 -0.0013232357 0.13521275 0.03574139
0003e0 25 d4 8c bd 7f f2 9c bb 1c 85 91 3c 57 79 88 3c
       -0.06876401 -0.00478965 0.017763667 0.016659422
0003f0 45 79 5b 3e ca d6 b2 3d 70 57 87 3b 3d c8 e0 bd
       0.2143298 0.08732374 0.0041302964 -0.109756924
