p3_collab-compet/checkpoint_actor.pth (torch_old, 163785 bytes, 10 tensors)

fc1.weight f4 [256, 24]
000000 5c aa 21 3d 7f c9 e5 3c 55 6b 37 3d f3 cd 40 bc
       0.039469108 0.028050182 0.044780094 -0.011767852
000010 cc 13 a5 3d 6e 81 36 bd 95 ec e7 3c 2b c7 2c bd
       0.080604166 -0.044557028 0.028311053 -0.04218213
000020 36 06 4e bc 79 f1 0a bd 95 24 85 3d 6e 94 96 bd
       -0.012574723 -0.033921693 0.06501118 -0.073525295
000030 a2 c3 bb 3d 90 b2 a1 bc 6a 52 a2 3d 29 18 e6 bc
       0.091681734 -0.019738466 0.079258755 -0.028087692
000040 d6 dc ac 3d c0 39 33 bd 70 d6 f6 b9 d2 74 32 3d
       0.084405586 -0.043756247 -0.00047080545 0.04356844
000050 d7 3c 23 3d 37 41 5e bd f8 2d f2 bb 5a d9 1e 3c
       0.039852943 -0.054261412 -0.007390734 0.009695375
000060 9a 57 6a bd fe 85 28 bd de 45 be bd 57 6e 06 3d
       -0.05721245 -0.04114341 -0.0929067 0.032820072
000070 e3 b7 11 bd e6 ef d3 3c c8 56 a4 bd 37 37 c3 3b
       -0.03557576 0.025871228 -0.08024365 0.00595751
000080 b0 67 c7 3c 22 15 83 bd 2a 1d a2 3c 26 7b 83 bb
       0.024341434 -0.06400515 0.019789297 -0.004012483
000090 5e 4b 80 3d 2b ae 25 bd 4e c8 be 3c 74 01 68 bd
       0.06264375 -0.040449303 0.023288872 -0.05664201
0000a0 a1 4f bd bc 94 aa 83 bc 43 b7 15 3d cb e8 90 3d
       -0.02310926 -0.016072549 0.036551725 0.07075652
0000b0 25 24 eb bc b7 49 d6 3c 18 2d 3e bb 33 01 af bc
       -0.028703758 0.026158197 -0.0029018577 -0.021362877
0000c0 2d ca 91 bd 27 72 cd bc a4 3d 7c bd 46 fa 9d 3d
       -0.0711864 -0.025078846 -0.061582223 0.077137515
0000d0 66 29 f2 3b ec 16 df 3c 47 9f 03 be 4d 3d 86 bc
       0.007390189 0.02723261 -0.12853728 -0.016386652
0000e0 da f6 c8 3b b8 bf fd bc 26 88 ff bc e7 bb 02 bc
       0.0061329426 -0.030975208 -0.03119285 -0.00797937
0000f0 4f c9 4c 3d 26 24 0d bb 02 2c 35 bd 41 ee 09 bd
       0.04999667 -0.0021536439 -0.044231422 -0.033674482
000100 f7 92 9f 3b aa 4d ca 3c ad 0c 2f 3b d5 32 a7 3c
       0.0048698145 0.024695236 0.0026710436 0.02040998
000110 8d 4f 0d bc 89 3a 02 bc 81 d6 60 3d 6f df 62 3c
       -0.008624923 -0.007948526 0.054892067 0.013847216
000120 dd bf 2e bd 7b 15 89 bd ab 3d 8c bc 2b ae cb ba
       -0.042663444 -0.0669355 -0.01711925 -0.0015539577
000130 5e 64 44 bd 2e 8f 6e 3d a4 a9 ea bd fa 2f be 3b
       -0.04794728 0.058242016 -0.11458138 0.005804059
000140 70 9a cb bd 1e 92 9e 3b 1c f3 db bd 8c 2f 0f bd
       -0.09941566 0.004839196 -0.10739729 -0.034957454
000150 5a 34 eb 3c a8 4b 1d bd 9e a1 86 bb 1e 0b d9 bd
       0.028711487 -0.03840223 -0.0041086217 -0.105978236
000160 33 5c 86 bc 3f 3d 5f bd b7 af 35 bd 4f e7 ba 3c
       -0.016401386 -0.05450177 -0.044357028 0.022815375
000170 0d c2 c5 bc eb c9 46 bb 07 91 84 3c 75 ba 9b bc
       -0.024140382 -0.0030332755 0.016182436 -0.019009808
000180 0a 41 a2 bc 5e dc 81 bc 78 c6 74 3b 7e 35 19 3d
       -0.019806404 -0.01585215 0.0037349742 0.03740453
000190 42 a0 1a bd a4 15 38 bd a3 09 ae 3d 1d a7 2d bb
       -0.03775049 -0.044942513 0.08497932 -0.0026497312
0001a0 1a c4 89 3a 6e 89 0a bd 4c b0 b1 3d d1 c3 5d bc
       0.0010510713 -0.03382247 0.08676204 -0.013535456
0001b0 91 c9 1f bd 3d 4e 34 3d 9a 3d 5b 3d 16 59 89 3c
       -0.039010588 0.044019926 0.053525545 0.016766112
0001c0 dd bc b1 3d 6d 2d 5a 3d 66 5b 92 3d d6 18 d1 ba
       0.08678601 0.053265978 0.07146339 -0.0015952836
0001d0 69 b7 e7 3c e4 80 0c bd 78 1f 4d 3d 77 00 41 bd
       0.028285699 -0.034302607 0.05007884 -0.047119584
0001e0 dd 7d 30 3c 18 b2 c9 bd e3 7b 97 bd 6b cc 62 3c
       0.010772196 -0.09848422 -0.073966764 0.013842682
0001f0 c0 47 0f 3c 5a 73 1a bc 25 0d f5 bd a7 c8 09 bd
       0.008745134 -0.009426916 -0.11965398 -0.033638623
000200 31 c4 82 bd c9 f6 58 3c 68 fc a9 bc 85 89 4b 3d
       -0.06385077 0.013242432 -0.02075024 0.049691696
000210 09 6b 1c bc 50 5b 9e 3c bf 08 95 bd 04 3f 15 3c
       -0.009547004 0.01933065 -0.07277059 0.009109262
000220 68 34 2f bd 61 c6 83 bc 2b 2f da 3d 7e a8 1a 3c
       -0.042774588 -0.016085805 0.10653528 0.009439586
000230 00 34 76 3d b6 70 24 bc a1 54 e2 3c 83 87 98 3d
       0.060108185 -0.010036638 0.027628245 0.07447722
000240 35 77 48 bd 25 19 f2 bc 62 f7 6b bd ff bf b8 bd
       -0.04894181 -0.029553005 -0.05760897 -0.09020995
000250 20 f1 e9 bc 4c 68 24 bc cc de b8 bd 99 5e 08 3c
       -0.02855736 -0.010034632 -0.0902687 0.008323335
000260 2b 61 bb 3a 29 60 1d bd 38 b3 ef bc fc 01 83 b8
       0.0014295926 -0.038421784 -0.029260263 -6.2469364e-05
000270 58 6d 26 3d 11 be ad bc e1 ee 96 3d 34 c2 14 bd
       0.040631622 -0.021208795 0.07369781 -0.03631802
000280 39 3b 89 3d 32 7a 61 3d 89 c3 7d 3c 60 c6 94 3d
       0.06700749 0.055048175 0.015488514 0.072643995
000290 a8 d9 8b 3d 77 b1 ab 3c b6 c9 10 3d 6d b2 8f 3c
       0.06828624 0.020958645 0.035348617 0.017541135
0002a0 1b 09 fb 3b 81 d9 ab bd af d6 a2 bd ac be 8b bc
       0.0076609976 -0.08391095 -0.07951104 -0.017058693
0002b0 13 dc 16 3d 65 6d aa 3c b1 3c a4 bd 8b ec 70 bd
       0.036830973 0.020804117 -0.080193885 -0.058819335
0002c0 1e 2c b0 bd 05 d7 6c bd bb 4b c9 bc 59 51 39 3c
       -0.08602165 -0.057822246 -0.024572244 0.011310899
0002d0 37 dc 2d bd bb c6 2a bd 1f 88 86 bd 72 f1 a4 3c
       -0.04244634 -0.04169343 -0.06568932 0.020134661
0002e0 30 9c cd bd 94 49 26 bc e1 e7 b5 3d 23 2a e2 3a
       -0.10039556 -0.010149378 0.08882118 0.0017254989
0002f0 3f cb b8 3c 3a 51 cf 3a c2 0b 3a 3d a5 4d 9f 3d
       0.022557853 0.0015817054 0.04542137 0.077784814
000300 ae 87 40 bd 84 db a0 bc f7 a9 98 bd 1e f1 4d bd
       -0.047004394 -0.019635923 -0.07454293 -0.050278775
000310 88 21 49 3d 47 03 65 bc 0f bc 72 bd 8a 40 a3 bd
       0.049104244 -0.013977832 -0.059261378 -0.07971294
000320 2d 4a 47 bd d9 c4 5e 3d 85 91 1e bd 42 9f af 3b
       -0.048654724 0.054386947 -0.038712997 0.005359561
000330 b2 c2 23 3d 3b 8b bb bd ef 4d b1 bd 3c 50 d0 bb
       0.039980598 -0.091574155 -0.08657443 -0.006357221
000340 8d 87 43 3d c2 34 77 3c e0 2d 0e bc 70 8c 05 3d
       0.047736693 0.015088262 -0.00867793 0.032604635
000350 33 dc 19 bd 67 92 94 bd 26 1a 3d 3d 58 13 81 3d
       -0.037563514 -0.072544865 0.046167515 0.06302518
000360 f3 22 ca bb 43 72 08 bd cc dd 34 bc 39 43 db bc
       -0.006168717 -0.033312093 -0.011039209 -0.026765453
000370 08 48 33 bb 6e f8 94 bc 0b 84 b7 bd 00 62 d4 bc
       -0.0027356166 -0.018184867 -0.08960732 -0.025925636
000380 2a 85 97 bb cc 89 dd 3c 7e fd b2 bd 08 0a 6d bd
       -0.0046240287 0.027043246 -0.08739756 -0.057870895
000390 89 06 0f bc 46 90 3a bd 55 9c 83 bd 9b f9 61 3c
       -0.008729585 -0.045547746 -0.06426302 0.013792421
0003a0 fe 9f 60 bc ed 70 a0 bc 3e 16 d5 3c 33 f0 78 3c
       -0.01371002 -0.019585097 0.026011582 0.015193987
0003b0 cb ad 8f bc 3f 8d 53 bd c8 25 c5 bb 8a cb 15 3d
       -0.017538926 -0.051648375 -0.0060164668 0.036571063
0003c0 3e 89 9d 3d 09 1c 55 3d 07 8e 6c 3d 5b 88 a6 3c
       0.076921925 0.05202869 0.057752635 0.020328691
0003d0 87 11 10 bd 2d 43 2c 3d 70 46 d8 3b 09 40 c9 bc
       -0.035172965 0.04205625 0.0066001937 -0.024566667
0003e0 02 27 e7 bc e6 75 20 3c 70 b7 95 3d b3 42 86 bc
       -0.028216843 0.009793734 0.073103786 -0.016389227
0003f0 22 08 6d bc 2c f3 f3 bc e4 62 a5 3c 94 32 15 bd
       -0.014467271 -0.02977904 0.020188756 -0.03642519

fc1.bias f4 [256]
000000 24 73 d6 3d c6 ba 14 be d8 d6 10 3e 61 87 0b be
       0.1047118 -0.14524373 0.14144456 -0.13625862
000010 c0 16 3b 3e 48 2f 0e 3e 2c c0 95 3d 3a 6c 4c be
       0.18270397 0.13885224 0.073120445 -0.1996316
000020 1c 97 a7 bd f0 9d c3 3d b0 9c 3e be f0 e1 c7 3d
       -0.08183119 0.095516086 -0.18614459 0.09759891
000030 98 43 a8 bd 3d c1 18 be da fa 11 bb ec 25 00 3d
       -0.082160175 -0.14917465 -0.0022274763 0.031286165
000040 36 fc 1d 3e 20 0e 05 be 92 e3 29 be 4a c5 8c bd
       0.15428242 -0.1299367 -0.16590717 -0.068735674
000050 00 d3 1e 3d 44 4a ba bd 60 31 9f bd a6 f6 91 bd
       0.038775444 -0.09096196 -0.077730894 -0.071271226
000060 20 4a b3 3d 60 6f db 3c 46 37 37 3e 18 8a 04 3e
       0.087543726 0.026786506 0.17892179 0.12943304
000070 a2 08 35 be 3e f4 57 3d a5 0d 37 be 43 c3 40 be
       -0.17679074 0.052723162 -0.17876299 -0.18824486
000080 28 63 91 bd 8e 2e 50 3e f0 ad 95 3c 44 4c 16 be
       -0.07098991 0.20330259 0.018271416 -0.1467753
000090 87 7d 3c be 4a 8e 1d 3e 86 dc 21 3e 11 fb e7 bd
       -0.1840726 0.1538631 0.1580678 -0.11327184
0000a0 20 77 11 3e 4c 6c 9a 3d 09 1a d7 bd e0 fe 7f 3d
       0.14205599 0.07540187 -0.10503013 0.062498927
0000b0 c0 ba fb 3b d0 5d 57 bd 9c a5 55 bd 3e 92 1a 3e
       0.0076821744 -0.0525797 -0.05215989 0.1509485
0000c0 20 80 b4 3d 6c 5c b6 3d 48 8b 73 3d 78 d1 0e 3e
       0.088135004 0.08904347 0.059459 0.13947093
0000d0 b0 e9 55 bd c4 7d 37 bb 80 d7 2c 3e 18 9d fa 3d
       -0.052224815 -0.0027998546 0.16879082 0.122369945
0000e0 f8 88 4f 3d 2b e6 d4 bd e4 ce 56 bd 28 aa 03 3d
       0.050667733 -0.103954636 -0.0524434 0.032144696
0000f0 54 2c 01 be ec 5c bd 3d 3e d0 01 be d8 5b 14 be
       -0.12614566 0.09246239 -0.12677094 -0.1448816
000100 a8 32 96 3d ce c0 ce bd 03 f0 50 be 18 13 03 3e
       0.07333881 -0.10095368 -0.20404057 0.12800252
000110 5a 98 aa bd 3a 53 9e bd 80 83 c2 bd bc f8 ee bd
       -0.0832984 -0.07730718 -0.09497738 -0.11668536
000120 12 72 0c be 90 c9 b6 bd 8d e3 18 be 60 59 91 bc
       -0.1371539 -0.08925164 -0.14930554 -0.017742813
000130 f8 38 85 3d 96 31 02 be 89 b7 48 be 68 d6 91 3d
       0.065050066 -0.12714228 -0.19601263 0.07120973
000140 03 f4 e6 bd e8 ae 64 3d 80 c1 80 bc a0 ad 37 3d
       -0.1127701 0.055830866 -0.015717268 0.044843316
000150 07 7c 16 bb ce d2 82 bd 5b 26 22 be a0 9b 0f 3e
       -0.002296211 -0.06387864 -0.15834944 0.1402421
000160 3c d9 c5 3d a2 3a ad 3c 4e 4f 32 3e b8 e6 3f 3e
       0.09660575 0.021146122 0.17413065 0.18740356
000170 b2 25 28 be 6c 06 d2 3d dc f5 3f 3e 50 2b 3a bc
       -0.1642063 0.10255131 0.18746132 -0.011362866
000180 bd e9 45 be 82 0f 98 bd 60 6a 9a 3c 34 7f 32 bd
       -0.19327445 -0.07424833 0.018849552 -0.04357834
000190 ac cf c8 3d 4c cc a2 3d b1 d7 46 be 77 9c e1 3c
       0.09805235 0.07949123 -0.19418217 0.027540429
0001a0 60 fd 04 3d 88 75 05 3e f0 bf d6 3c 08 90 e3 3d
       0.0324682 0.13033116 0.02621457 0.11111456
0001b0 4c 86 2b 3d e2 f1 0a be 91 22 22 be 52 97 8e bd
       0.041876122 -0.13568833 -0.15833499 -0.06962456
0001c0 04 7d 62 3a ca 11 f4 bd d7 26 39 be da 09 33 3e
       0.00086398446 -0.119174555 -0.18081222 0.17484227
0001d0 d8 ea bb 3c a4 65 a1 3d 79 62 d4 bd 90 18 0a 3d
       0.02293913 0.078807145 -0.10370345 0.03371483
0001e0 08 e7 83 bc c4 5e db 3d 7c 5a 98 bd aa 1c 3a 3e
       -0.016101375 0.107114345 -0.074391335 0.18174997
0001f0 10 af 2d 3c 50 f1 0b 3c ee ad 12 3e 64 d7 d8 bb
       0.01060082 0.00854142 0.14324161 -0.0066174734
000200 c8 95 73 3d 80 b6 67 bc dc 5f 21 3e b8 36 4b be
       0.059469014 -0.0141426325 0.15759224 -0.19845092
000210 78 8c 49 3e ba 2d f6 bd 9c 49 4c 3e 7c 91 8d 3d
       0.19682491 -0.120204404 0.19949955 0.069125146
000220 2a ed 04 be 28 94 32 be 28 82 65 3d 30 bf a9 3d
       -0.12981096 -0.1743933 0.05603233 0.08288419
000230 84 dc 0e be f8 2a 05 3e 6f d7 be bd 02 38 25 3e
       -0.13951308 0.13004673 -0.093184344 0.16134647
000240 0c 8f 08 3d a2 5e 33 be 08 0f 06 3d 84 75 5d bd
       0.033339545 -0.17516568 0.03272918 -0.05406715
000250 a0 2b 5d 3d f8 1b 9d bd c4 1f 37 3e 13 59 ee bd
       0.053996682 -0.0767135 0.17883211 -0.11638083
000260 7a b5 2b 3e bf 44 4f be 48 5a 17 3e 36 ea 0f be
       0.16768447 -0.20241068 0.14780533 -0.14054188
000270 44 19 1b 3d 0c ee 54 bd 88 0e 50 be 28 4b 24 3e
       0.037865892 -0.05198483 -0.20318043 0.16044295
000280 60 2d 46 3d 30 7a e8 3d df 0f c8 bd 86 3e 81 bd
       0.048383117 0.113514304 -0.09768652 -0.063107535
000290 de a7 c0 bd 71 ee 40 be ac 9b 36 3d a4 35 98 3d
       -0.09407018 -0.18840958 0.044582054 0.07432106
0002a0 b8 d7 ca bc 44 fe 07 be 90 0f c8 3c 08 29 b3 3d
       -0.024761066 -0.13280588 0.024421483 0.087480605
0002b0 c0 8b 9e 3c ca 59 4f be 44 d9 cc 3d cc 14 18 3e
       0.019353747 -0.20249096 0.10002378 0.14851683
0002c0 0a aa 88 bd 4c 0c 36 bd a3 83 92 3b c0 3a 2a 3d
       -0.066730574 -0.04444532 0.0044712587 0.041559935
0002d0 b6 6b 39 3e ae 4f 15 3e 48 94 ba 3d a2 c2 09 be
       0.18107495 0.14581177 0.09110314 -0.13453153
0002e0 9c b2 fa 3d dc d2 cb 3d a2 d6 43 3e 40 c4 a1 bd
       0.12241098 0.099523276 0.19124845 -0.0789876
0002f0 94 65 93 3d 52 f4 09 3e 04 c8 c3 3d 16 d7 a6 bc
       0.07197109 0.13472107 0.09559634 -0.020366233
000300 f0 57 70 bd b8 48 19 bd d4 e1 e8 3d a2 06 84 bd
       -0.058677614 -0.037422866 0.11371198 -0.064465776
000310 7f b7 4f be 88 a9 06 bd 60 00 40 be 5c e6 23 be
       -0.20284842 -0.03287652 -0.18750143 -0.16005844
000320 d8 5b 34 3e a8 91 03 be d8 b0 f2 3d d1 6b fb bd
       0.1761316 -0.12848532 0.118501365 -0.12276424
000330 7f 59 4d be eb ce 95 3b 2c e5 d6 3d 30 9e 1b 3c
       -0.20053671 0.0045717857 0.1049293 0.009498164
000340 ec 15 f0 3d 90 1f 08 bc 64 e3 14 be 20 89 ff 3d
       0.11722931 -0.008308306 -0.14539868 0.124773264
000350 74 80 0f 3d 98 4e e7 bd 60 09 ac bc 34 90 93 3d
       0.03503461 -0.112942874 -0.021000564 0.07205239
000360 70 f4 2f bd 06 14 16 bc a0 69 53 3d 10 d3 85 3d
       -0.042957723 -0.009160047 0.051614404 0.065343976
000370 94 74 f0 3d 80 fb 53 bd d8 c3 78 3d 88 35 45 3d
       0.117409855 -0.05175352 0.060733646 0.048146755
000380 2e 6a a0 bd dc 60 00 3d 20 d4 e5 3b f6 c5 19 be
       -0.07832752 0.031342372 0.0070138127 -0.15016922
000390 0c d5 3b be 34 34 36 3e c6 16 bf bd 3e e9 18 3e
       -0.1834299 0.17793351 -0.093305156 0.14932725
0003a0 e0 0d 28 3d 58 d2 ec 3d 20 0b e3 bc 68 6b 30 bd
       0.041028857 0.115635574 -0.027715266 -0.04307118
0003b0 98 cd 9a bd 2e 93 46 be 00 a5 3c ba 08 1d 30 3e
       -0.07558745 -0.19392082 -0.0007196218 0.17198575
0003c0 d4 1a 28 3d 88 80 8b bd 2a 59 04 be ec 9e 44 bd
       0.04104121 -0.06811625 -0.12924638 -0.048003122
0003d0 8a a6 ad bd cc c2 ff 3d 78 e6 bc 3d a0 02 58 3d
       -0.084790304 0.124883264 0.09223646 0.05273688
0003e0 18 4a f5 3c be e2 ed 3b ef 36 dc bd c0 cd ca bc
       0.029942557 0.007259696 -0.10752665 -0.024756312
0003f0 5e 79 05 3e a8 21 d5 bc c8 11 90 3d b0 3c e8 bc
       0.13034579 -0.026017025 0.070346415 -0.02834925

bn1.weight f4 [256]
000000 b7 ec 2d 3f 9f 13 9f 3d 59 cb 43 3f 41 65 14 3f
       0.67939323 0.07767414 0.7648216 0.57967
000010 23 0d 34 3f ac 4c 5f 3f e8 ea e3 3e 98 0e 52 3f
       0.70332545 0.87226367 0.44515157 0.8205352
000020 8e 43 28 3f e9 67 84 3e 10 a4 21 3e 81 42 62 3f
       0.6572808 0.25860527 0.15785241 0.88382727
000030 53 85 33 3f f7 87 17 3f 98 17 05 3f 55 b5 9a 3e
       0.7012531 0.5919184 0.51989126 0.3021647
000040 3f 72 26 3f 14 ec 3c 3e e6 d4 e8 3e ef ae 10 3f
       0.65018076 0.18449432 0.4547493 0.5651693
000050 ac da fd 3e d4 66 4a 3f fc 85 92 3d 7d c4 15 3d
       0.49580896 0.79063153 0.07154462 0.03656434
000060 8d 80 d7 3d a1 aa ec 3c 14 e4 0c bc 95 84 8f 3e
       0.10522566 0.028889956 -0.0085993 0.2803084
000070 2b 70 aa 3e 10 85 49 3f ca e2 7a 3e 75 9d 62 3e
       0.33288702 0.7871866 0.24500576 0.22130378
000080 fd 22 8e 3e 13 8f 56 3f 47 34 a5 3d d5 32 18 3f
       0.2776107 0.83812064 0.08066612 0.59452564
000090 8d 9f 8f 3e 7a 61 05 3e a5 70 84 3e fd 62 5f 3f
       0.28051415 0.13025466 0.2586719 0.8726042
0000a0 ef 06 d1 3e c6 6b 31 3f 19 b9 67 3f 38 a2 d5 3e
       0.40825602 0.69305074 0.9051681 0.41725326
0000b0 3c 3e 1b 3f 30 5e 44 3f 0e 68 52 3f dd fb 8a 3e
       0.6064184 0.7670622 0.82190025 0.2714528
0000c0 40 97 33 3f c3 ff 10 3f 18 9d 59 3f f4 68 64 3f
       0.70152664 0.5664026 0.8500533 0.89222646
0000d0 6d cb 00 3f 8a 19 ac 3d a8 fc f3 3e a2 97 03 3f
       0.50310403 0.08403309 0.476537 0.5140325
0000e0 90 b2 81 3e 4d 25 e0 3e fd 80 4a 3f 99 0b 4c 3f
       0.25331545 0.43778458 0.7910307 0.79705197
0000f0 01 05 9b 3e 9f 81 ac 3d 72 05 2c 3f 90 0e 54 3d
       0.30277255 0.08423161 0.6719581 0.0517717
000100 14 74 a8 3e 9b bf c7 3e 4e 51 82 3e 66 3f d2 3e
       0.3290106 0.3901337 0.25452656 0.41063994
000110 4a 22 0d 3f 48 1a 67 3f d2 e2 19 3f 9b 0f 16 3f
       0.55130446 0.90274477 0.60111725 0.5861756
000120 69 c3 0c 3e 84 84 68 3e 6d e1 6d 3e eb 54 25 3e
       0.13746418 0.227068 0.23230524 0.16145675
000130 d2 52 08 3f c8 2c c8 3e bd 98 24 3f df f8 1d 3d
       0.53251374 0.39096665 0.6429556 0.03856742
000140 ea f7 06 3d 4c 20 d3 3e 14 9f af 3e ae b1 22 3e
       0.032951273 0.41235578 0.34301054 0.15888092
000150 09 b9 33 3f 57 11 42 3f e4 ee 05 3e 4d 2e cf 3e
       0.70204216 0.7580771 0.13079411 0.40465012
000160 d0 49 0e 3f 92 39 16 3f 96 52 22 3e f4 4c 2e 3f
       0.5558138 0.58681595 0.15851817 0.6808617
000170 a8 2c 48 3f 74 af 1c 3f 3b df f9 3e 54 36 98 3e
       0.7819314 0.6120522 0.48803124 0.2972895
000180 cd de 56 3f 50 7a 9e 3e ed 9b 2d 3f 53 4d 43 3f
       0.83933717 0.30952692 0.6781605 0.7628986
000190 0f 56 ad 3e 1a 35 42 3c b3 6b 5f 3f 91 a7 0a 3f
       0.3385472 0.011853481 0.8727371 0.54161936
0001a0 5e 37 71 3f 3c 08 11 3d 1b 27 58 3e 20 38 db 3d
       0.9422511 0.035408244 0.21108668 0.10704064
0001b0 0a 24 75 3f 09 27 0e 3c 77 36 34 3f 97 18 20 3f
       0.95758116 0.008676299 0.70395607 0.6253752
0001c0 33 f7 9d 3e 55 77 3b 3f 2e e0 ae 3d f7 4d 3c 3f
       0.3085266 0.7322896 0.08538853 0.73556465
0001d0 39 57 02 3f b1 c2 14 3f 13 6c df 3e ae a6 eb 3e
       0.5091434 0.58109576 0.43637142 0.46025604
0001e0 5d 2c e4 3e a9 20 71 3f 7b 83 45 3e 5e 3f 4a 3f
       0.44565096 0.9419046 0.19288437 0.7900294
0001f0 8f 8b 19 3d 98 e7 ae 3c d7 e9 18 3d b7 0e 85 3e
       0.03748661 0.021350667 0.037332382 0.2598779
000200 98 24 67 3f 74 ac 15 3f 08 dc 03 3f e5 33 f5 3e
       0.9029021 0.5846627 0.51507616 0.47891155
000210 c1 a5 8c 3e df 60 00 3f f9 fe 96 3e 84 4a 61 3e
       0.2747021 0.50147814 0.29491404 0.22001082
000220 57 af 4f 3e 09 ae 0e 3f eb 8a 42 3f 7c ff 79 3e
       0.2028173 0.55734307 0.7599322 0.24413866
000230 27 c6 62 3e e8 5e fe 3e e3 bf 15 3f 04 d0 e2 3e
       0.22145902 0.49681783 0.5849592 0.44299328
000240 4a 68 57 3f 51 22 05 3f c8 30 1d 3f f8 93 0b 3e
       0.8414351 0.5200549 0.6140256 0.13630664
000250 9d d6 c5 3e ec 63 00 3f 2c 96 8b 3d e7 b0 57 3e
       0.386403 0.5015247 0.068157524 0.21063577
000260 4f 40 de 3e 23 d1 d4 3e 4d d9 8e 3d cf 55 44 3d
       0.4340844 0.4156581 0.069750406 0.047933396
000270 b6 d6 8c 3e 2a cd 00 3f e7 26 08 3f bc 55 51 3f
       0.2750756 0.50313056 0.5318436 0.81771445
000280 4e ee 30 3f 48 01 3b 3f c1 74 1d 3f 81 fb 76 3e
       0.69113624 0.7304883 0.6150628 0.24119379
000290 99 8c 99 3e d6 8f 3d bc 66 97 c0 3e fc 04 7a 3f
       0.2999008 -0.011569938 0.37615508 0.97663856
0002a0 70 ba fe 3d cd 48 20 3e 3c 56 5d 3f 0a 1e 2b 3f
       0.12437904 0.15652771 0.8645971 0.6684271
0002b0 2c 98 43 3f f7 ca 0f 3f 12 a4 d4 3e 94 f5 2e 3f
       0.7640407 0.56169075 0.41531426 0.6834347
0002c0 7c 00 62 3f 27 29 57 3f 73 f7 f7 3e 64 a7 75 3f
       0.8828199 0.8404717 0.48430976 0.9595854
0002d0 fc bd 9a 3c a2 89 62 3f 9e 1a 2a 3e a7 9d 4e 3f
       0.01888942 0.8849126 0.16611716 0.8070931
0002e0 a4 be 63 3f 5f d7 ea 3e 1b 1e 17 3f ff e8 9c 3e
       0.8896277 0.4586744 0.5903031 0.30646512
0002f0 ba 3a b1 3e ed 09 8d 3d 3e bb 05 3f 9e fa 27 3f
       0.34615117 0.06886659 0.52238834 0.65616786
000300 5c fd e4 3e bb 6c 35 3e c3 6a f0 3d 89 ba 34 3f
       0.44724548 0.17717259 0.11739113 0.7059713
000310 28 0a a9 3e dc ba 02 3f 87 b2 33 3f 94 46 60 3e
       0.3301556 0.51066375 0.70194286 0.21901923
000320 a5 dc 14 3f f2 18 9f 3d 73 31 03 3f b1 48 23 3f
       0.58149177 0.0776843 0.5124733 0.63782793
000330 df 07 89 3e 01 88 ce 3e cc 12 3b 3f b0 95 51 3e
       0.26763818 0.40338138 0.73075557 0.20467257
000340 b5 24 a2 3d 4c 92 6d 3e 82 05 ee 3d ed b2 30 3d
       0.079171576 0.23200339 0.11622144 0.043139387
000350 19 cb 16 3f 31 53 2e 3f 28 68 17 3e f3 8f b8 3c
       0.5890365 0.6809569 0.14785826 0.022529578
000360 71 f1 42 3e 93 83 3d 3f ea 17 26 3f 36 47 1e 3f
       0.19037415 0.7402889 0.6488024 0.6182741
000370 09 bc cd 3d 62 b5 5c 3f 6a 5f 23 3e 56 a2 af 3e
       0.100456305 0.8621427 0.15954366 0.3430354
000380 17 3f 4a 3e 3e f0 bb 3e cf 86 c6 3e 7a 28 1d 3f
       0.1975063 0.36706728 0.38774726 0.6138989
000390 77 da 4e 3f e7 d5 47 3f d2 99 2f 3f c8 c2 5a 3f
       0.808021 0.78060764 0.68594086 0.8545346
0003a0 de 05 19 3f 7a da 72 3f 57 1a 18 3e b1 04 37 3f
       0.5977458 0.9486462 0.14853798 0.71491534
0003b0 40 e4 6e 3f ef bc 0e 3f 8d 4d bd 3c 3e 2d 6a 3f
       0.9331703 0.5575704 0.023108268 0.91475284
0003c0 88 d6 99 3e e1 68 fd 3d 87 d1 a6 bc 08 a3 73 3f
       0.30046487 0.1237352 -0.020363582 0.9517064
0003d0 fe f9 68 3f 5f 50 8c 3d b3 87 c3 3e 5c cc 93 3e
       0.9100646 0.06851267 0.38189468 0.2886685
0003e0 40 74 fe 3d 17 c5 3a 3e 14 26 a4 3d 15 0c 13 3f
       0.12424517 0.18239246 0.08015075 0.5744031
0003f0 ea 82 be 3e 85 d1 19 3f f1 00 ef 3d aa 03 28 3f
       0.37209255 0.60085326 0.116701014 0.6563059

bn1.bias f4 [256]
000000 7d 97 f0 bc a3 ce 92 bc 18 73 12 bc 21 12 6a bc
       -0.02936911 -0.017920798 -0.008938573 -0.014286549
000010 30 41 08 bd 85 0f 10 bd 2f b4 27 bd 26 9b de bc
       -0.033265293 -0.03517105 -0.04094332 -0.02717359
000020 5e 54 18 bd f0 8a 3f bd 72 d6 c7 3b 96 16 38 bd
       -0.037189834 -0.04676336 0.006098562 -0.044943415
000030 12 b2 a6 bc 58 d7 49 bd 3f e2 04 bd 9b 89 e7 bc
       -0.020348582 -0.049277633 -0.032442328 -0.028263858
000040 12 f3 5d bc 0d e1 80 bd 15 f3 df bc 5c 13 94 bc
       -0.013546722 -0.06292925 -0.02733759 -0.018075638
000050 fe 29 3b bd 97 18 5e bc 69 ca 5a bd 92 7e 65 bc
       -0.045694344 -0.013555667 -0.05341569 -0.0140072275
000060 8c fe ba bc 93 d4 b2 bc 44 83 db bc 09 b3 4b bd
       -0.022826456 -0.021829879 -0.02679599 -0.049731288
000070 d9 98 1f 3a 4b ab 84 bc 5c 52 3c bd 8c 22 71 bd
       0.0006088145 -0.01619496 -0.04597698 -0.058870837
000080 02 9d 03 bd 09 b5 b7 bc 12 b1 59 bd ff fb 3a bd
       -0.032132156 -0.022425191 -0.053147383 -0.04565048
000090 25 09 26 bb f0 50 35 bd 74 4c ca bc 3a a2 48 bd
       -0.002533504 -0.04426664 -0.024694659 -0.048982836
0000a0 3f be 2d bd 43 c0 0d bd 33 47 04 bd dc ff 45 bd
       -0.04241776 -0.034607183 -0.032294463 -0.04833971
0000b0 d1 0a 21 bc 36 a6 d0 bc cc d0 6c bd 6d 55 08 bd
       -0.009829239 -0.02546988 -0.05781631 -0.033284593
0000c0 05 20 30 bd 54 28 2d bc 47 37 f1 bc a0 e6 01 bd
       -0.042999286 -0.010568697 -0.029445304 -0.03171408
0000d0 e8 de 34 bd 5b b0 64 bd b7 23 84 bc b9 84 92 bc
       -0.044157892 -0.05583225 -0.016130311 -0.017885553
0000e0 bc 07 f3 bc 20 59 5e bd 26 25 6b bd e6 8a be bc
       -0.029666774 -0.054284215 -0.057408474 -0.023259591
0000f0 ed 2e 36 bd 66 38 25 3c 03 0a 9a 3b 5f a8 1e 3b
       -0.044478346 0.010084247 0.0047009005 0.0024209244
000100 df 1e fb bc bc 8e bd bc d0 0a 12 bd 72 4d be bc
       -0.030654369 -0.02313935 -0.035654843 -0.023230288
000110 6d 63 11 bd 8f f4 54 bc 63 a1 4f bd 78 c5 84 bd
       -0.03549521 -0.01299776 -0.05069102 -0.06482977
000120 74 76 31 bd 7c 6a 9a bc 15 99 92 bc eb 07 a3 bc
       -0.043325856 -0.018849604 -0.01789526 -0.019901237
000130 ee b3 ed bc 6a af ba bc c6 5b b8 bb bf 78 41 bd
       -0.029016461 -0.022788722 -0.0056261746 -0.047234293
000140 e3 24 b1 3c 85 4d af bc c3 1e 45 bd ec 32 bb bc
       0.021624034 -0.021399269 -0.04812504 -0.02285143
000150 25 b0 ec bc 13 ce 03 bd 74 6e f5 bc ca 2a 3c bd
       -0.028892586 -0.03217895 -0.029959895 -0.045939244
000160 0c b4 54 bd 23 94 b5 bc 0e c1 0e bd 9d 94 44 bd
       -0.05192952 -0.022165364 -0.03485208 -0.04799329
000170 fe c6 91 bc 4d 78 12 bd bb 96 20 bd ad 20 68 3c
       -0.017795082 -0.03575926 -0.039206248 0.014167947
000180 95 9b be bc e0 19 fa bc 92 77 13 bd fb 10 29 bd
       -0.023267547 -0.030529916 -0.036002703 -0.04127596
000190 bc b7 12 bd 0e dc e2 bc 39 c6 e9 bc 75 a2 01 bd
       -0.035819754 -0.02769282 -0.028536903 -0.03164907
0001a0 dd 36 b5 bc 06 0b 80 bc 59 47 48 bd 33 bf ff bc
       -0.022120887 -0.015630256 -0.048896167 -0.0312191
0001b0 99 a9 3d bd 74 76 f0 3c bc d3 9a bc 6c e3 1f bd
       -0.04630432 0.029353358 -0.018899791 -0.039035246
0001c0 81 6e 15 bd 11 db 14 bd f8 c8 e2 bc 2e dd cd bc
       -0.036482338 -0.03634173 -0.02768372 -0.02512988
0001d0 9f ee ad bc e4 5f bd bb 15 6f 4e bd 29 60 cd bc
       -0.021231947 -0.0057792533 -0.050398905 -0.025070267
0001e0 c1 5b ec bc 2b 0d 04 bd 72 1e 0b bd 1c 12 86 bd
       -0.028852345 -0.03223912 -0.03396458 -0.06546423
0001f0 6e d8 39 3c e7 b7 5a bc 5f 44 8e 3c f8 21 b8 bc
       0.011343105 -0.01334951 0.017366586 -0.022477135
000200 90 bf 08 bd 34 48 b8 bc 6c 83 26 bd 22 bd e4 bc
       -0.033385813 -0.022495367 -0.040652677 -0.027922217
000210 d4 d3 bd bc 71 a9 e0 bc ec 42 22 bd 1e 1a 9a bc
       -0.023172297 -0.027424546 -0.039614603 -0.018811282
000220 8f 6a 02 bd 44 a2 c7 bc 8d ff 0b bd 17 06 4b bd
       -0.031839903 -0.024369366 -0.03417926 -0.049566355
000230 0c 2d 98 bc 5f 4a 4c bd 1b e2 fa bc 24 15 ec bc
       -0.018576168 -0.049875613 -0.030625394 -0.028818674
000240 cd 95 69 3b 9a 5b 50 bc e7 3d 56 bd 71 1d 7f bd
       0.0035642267 -0.012717152 -0.05230513 -0.062283937
000250 41 dd 34 bd 7d f7 fc bc 95 23 e8 3c 44 40 97 bc
       -0.044156317 -0.03087973 0.02833728 -0.018463261
000260 ff 9a f3 bc a3 1a 85 bc 10 d6 71 bc b0 dc 23 bd
       -0.029736994 -0.016248053 -0.014760509 -0.040005386
000270 4b 26 75 bc b0 69 a4 bc c7 73 d5 bc c6 48 01 bd
       -0.014962743 -0.020069927 -0.026056184 -0.031563543
000280 03 cc a1 bc 9c 55 11 bd d1 bb 16 bd 44 14 1d bd
       -0.0197506 -0.035482034 -0.03680021 -0.038349405
000290 e7 c4 89 bc 35 4d 01 bd 1e 94 df bc c6 61 a6 bc
       -0.016817523 -0.03156777 -0.027292307 -0.020310294
0002a0 54 23 12 bd 83 aa 0c bd 9e 74 29 bd 23 3f 00 bd
       -0.035678223 -0.0343423 -0.04137098 -0.031310212
0002b0 aa 6f 5d bd 56 7c dd bc 91 7d 26 bd 2d d3 25 bd
       -0.05406157 -0.027036827 -0.040647093 -0.040484596
0002c0 65 8f 35 bd 3e 61 57 bc c0 43 63 bd 22 bc 17 bd
       -0.044326205 -0.013145743 -0.055484533 -0.03704465
0002d0 4e 0b 72 bc ca a1 d9 bc 4d 55 18 bd a6 f5 64 bd
       -0.014773203 -0.026566405 -0.037190724 -0.05589833
0002e0 0c 10 ae bc f5 35 dc bc 4d e0 0b bd 28 71 15 bd
       -0.021247886 -0.026881197 -0.034149457 -0.036484867
0002f0 70 d1 7d bd 0b 3f 60 bd 9c 5d 63 bd 49 22 48 bd
       -0.061967313 -0.054747622 -0.055509195 -0.048860822
000300 00 e5 11 bd de 82 1b bd c2 b3 4b bc 59 1b 62 bc
       -0.035618782 -0.0379666 -0.012432994 -0.0138004655
000310 ec ea 9b bc 40 2e 10 bc fd 53 03 bd 14 8f 4c bd
       -0.019032918 -0.008800089 -0.03206252 -0.049941137
000320 fe 6f fc bc c3 a4 19 bd dd 5b 42 bc 24 c9 2d bd
       -0.03081512 -0.037510645 -0.011862722 -0.04242815
000330 13 cc f5 bc bf 4f 55 bd 3d 94 46 bd 24 e0 3a bd
       -0.030004537 -0.052078005 -0.048481215 -0.045623913
000340 b2 ef ba bb f7 23 7b bc a2 61 27 bd cf ca 0a 3c
       -0.0057048434 -0.015328399 -0.040864594 0.008471205
000350 3f 4a a2 bc 24 01 e0 bc ed cf 54 bd 09 db 70 3b
       -0.019810794 -0.027344294 -0.051956106 0.003675165
000360 30 36 27 bd 91 de d0 bc d5 eb 74 bd a9 aa 18 bd
       -0.04082316 -0.025496753 -0.05979522 -0.03727213
000370 70 3d e8 bc 60 16 03 bd 25 37 61 bd 74 ab 43 bd
       -0.028349608 -0.03200376 -0.05498423 -0.047770932
000380 28 8d 9f bc 70 61 31 bd 73 26 2f bd a4 b9 3d bc
       -0.019476488 -0.043305814 -0.042761277 -0.011579905
000390 3d cb 29 bd 55 44 d7 bc 93 7f 30 bd cf 35 02 bd
       -0.04145359 -0.0262777 -0.043090414 -0.031789597
0003a0 7c c4 7a bd 6f 8d 04 bd 79 f6 15 bd 62 1d b7 bc
       -0.06122254 -0.032361444 -0.036612008 -0.022352878
0003b0 41 0d 01 bd 68 dc 4f bd 5a f9 01 3c 8c bd 5d bd
       -0.03150678 -0.050747305 0.007932985 -0.054135844
0003c0 33 74 e2 bc 7e b5 e4 bc 11 0c d9 bc 9a b7 0b bd
       -0.027643299 -0.027918573 -0.026495012 -0.034110643
0003d0 29 6a c9 bc 0d 08 26 bd 40 69 1f bd e2 5a 82 bc
       -0.024586754 -0.04053502 -0.038918734 -0.015912477
0003e0 a7 50 8f bc 33 9c b4 bc 06 41 e7 3c 69 64 38 bd
       -0.017494513 -0.022047138 0.028229248 -0.045017634
0003f0 12 87 53 bd 85 19 a4 bc 21 61 f7 bc 74 6d dd bc
       -0.051642485 -0.0200317 -0.030197682 -0.02702973

bn1.running_mean f4 [256]
000000 21 2c 74 bf 0e f6 a0 3e 45 79 0b 3f 42 d8 4f 3f
       -0.95379835 0.31437725 0.5448192 0.8118936
000010 94 7b 78 be e0 37 68 3f 2a 06 2b be 28 38 89 3f
       -0.24265891 0.9071026 -0.1670157 1.0720263
000020 d5 2f e7 be 61 86 3e be 34 bc 0f bf ac dd 10 3f
       -0.4515368 -0.18605949 -0.5614655 0.56588244
000030 f9 14 12 3f c2 98 a5 bf e6 26 c6 be 76 68 3a be
       0.5706325 -1.2937243 -0.38701552 -0.18203911
000040 fb fc 92 3f ef 9f 03 bf 12 f0 31 be dc a5 db 3e
       1.1483454 -0.51415914 -0.17376736 0.42899978
000050 fa a2 7a 3f a2 ef 8d 3e 8e 22 eb be e9 2d 9e 3b
       0.9790493 0.27721888 -0.459248 0.0048272503
000060 56 4b 1d bf 95 53 fa be 37 f6 e4 be e1 9e 05 bd
       -0.6144308 -0.48891893 -0.44719097 -0.03262222
000070 86 8f 1b bf 56 27 41 3e f4 7f ec bc c9 66 1c be
       -0.60765874 0.18862662 -0.028869607 -0.15273584
000080 ac 10 ce 3e 59 cf 83 3f 2e 00 6d bf a1 59 d8 be
       0.40247095 1.0297652 -0.925784 -0.4225588
000090 2c ce c0 bf ac 84 a2 bf 58 41 b7 3c fa 62 24 3b
       -1.5062919 -1.2696738 0.022370026 0.0025083409
0000a0 17 77 6f 3e 9c 26 f6 be 19 6f 1d bd ae 80 36 bf
       0.23385273 -0.48076332 -0.03843603 -0.712901
0000b0 d9 fb 25 3f 67 92 0b bf 04 d3 91 be 84 91 8e 3f
       0.64837414 -0.5452027 -0.28481305 1.1138158
0000c0 77 5e 8b bd 4e 41 01 bf ad f2 03 3e 4f da 9a 3e
       -0.06805127 -0.5049027 0.12885542 0.3024468
0000d0 01 a2 05 3e 2e 89 ea 3b 87 1d bd 3e 26 8f c5 3f
       0.13050081 0.0071574664 0.3693659 1.543431
0000e0 1c 8b fd be 08 f7 7b 3f 29 1e 05 bf bb a6 1a bf
       -0.49520195 0.98423815 -0.51999146 -0.6041066
0000f0 c1 24 ac be b7 81 2a 3e bb 62 73 3e f0 57 65 bc
       -0.3362179 0.16651045 0.23768131 -0.013998017
000100 0e df ac 3d 3c e1 00 3f f1 c8 8b be c1 a8 1a bf
       0.08440982 0.5034368 -0.27301744 -0.6041375
000110 b7 37 2e 3f 4e 5b 86 3f c9 51 88 be 67 3b 82 bf
       0.68053764 1.0496614 -0.26624897 -1.0174378
000120 14 d8 be bf 78 85 b2 3e c5 74 79 be 4b 38 2f 3c
       -1.4909692 0.34867454 -0.2436095 0.010694574
000130 03 f4 1e bf 4e 72 98 3f ac ca 42 3f 4a 6d e9 be
       -0.6209108 1.1909883 0.760905 -0.45591193
000140 f7 18 4d 3d 15 f1 4d 3f a7 5f da 3d 4e 22 a4 bf
       0.050072636 0.80445987 0.106627755 -1.2822969
000150 eb 54 26 bf 39 1f 1f 3e 8a da 6c bf cc e8 26 3e
       -0.64973325 0.15539254 -0.92520964 0.16299742
000160 81 16 e6 be be 87 9b 3e 5c fb 31 be 0a e8 ca 3d
       -0.44939044 0.30377 -0.17381042 0.09907539
000170 ed a7 f4 3e 30 50 9a bf 5c 9e 88 3e 60 60 2c bf
       0.47784367 -1.2055721 0.2668332 -0.67334557
000180 7a c9 82 3f a3 5c 6c bf ec 5b 55 bf 4f c2 99 bd
       1.0217736 -0.9232885 -0.83343387 -0.075077645
000190 a0 41 f1 3d e2 60 93 bd 4b 81 24 3f 61 2c 24 be
       0.11780095 -0.07196213 0.64259785 -0.16032554
0001a0 62 e7 45 3d 22 50 5b 3f 4f d0 eb bd 89 56 16 be
       0.048316367 0.8566915 -0.11514341 -0.14681448
0001b0 09 65 46 bd 17 97 d5 bd a4 2d 1a 3e 28 31 95 bf
       -0.0484362 -0.10429209 0.15056473 -1.1655626
0001c0 29 83 1d 3f 2d 6f af be 6c f5 5f bf 30 73 99 3f
       0.6152826 -0.34264508 -0.8748386 1.1988277
0001d0 c7 0e 0b 3f c0 8d 31 bf a4 89 54 be 93 0f 01 3e
       0.54319423 -0.6935692 -0.2075563 0.12603597
0001e0 62 57 18 3e 49 a4 f0 3d 56 42 08 bf ac 10 2e 3f
       0.14877084 0.11750085 -0.5322622 0.6799419
0001f0 e7 4f c1 3e 61 05 9c 3e 14 c6 c8 3e e9 6f 3d 3d
       0.37756273 0.30472854 0.39213622 0.046249304
000200 fc a9 f1 3e 3a 7e c8 bd e7 3b 6d bf b6 60 30 3f
       0.472 -0.09789701 -0.9266953 0.6889757
000210 6b 21 8f 3f 78 97 aa 3e a9 5d b0 3f 8c 7f e2 3e
       1.1182073 0.33318686 1.3778583 0.44237936
000220 2d a4 c7 be 9e 81 5c 3e 34 7f 73 3e a5 17 26 bf
       -0.38992444 0.2153382 0.23778993 -0.6487983
000230 e5 cb d7 3e 67 75 38 3e 84 da 43 bd 24 71 a7 3f
       0.42147747 0.18013535 -0.047815815 1.3081403
000240 05 5e 40 bf 5c 33 6f bf be 77 69 bd 7e 22 0a 3e
       -0.7514346 -0.93437743 -0.05699896 0.1348972
000250 c6 3d be be 96 cb a6 3d f8 1f 1a 3f df 78 fb 3e
       -0.37156504 0.081443 0.6020503 0.49115655
000260 92 df 77 bc 0b a9 12 3f b9 5a 92 bc bf 24 54 bf
       -0.015128987 0.5728919 -0.017865526 -0.8286857
000270 99 a5 7f 3d 6f 14 89 be 6f d3 99 3e a7 3f 36 3f
       0.062413786 -0.26773402 0.30044124 0.71190876
000280 b2 f9 43 3e 5a 41 ff bb 00 57 17 bf 6b 85 a0 3e
       0.1913822 -0.007789773 -0.59117126 0.3135179
000290 50 92 f3 be 5d c3 ad bd be ef aa bd 21 70 df 3c
       -0.47572565 -0.08484528 -0.083465084 0.027275147
0002a0 c1 6b 1b be 37 b6 32 be c7 51 da 3e 21 e5 81 3f
       -0.15177824 -0.17452322 0.42640516 1.014805
0002b0 f1 bc c9 bd c8 fb 79 bf f9 29 c7 be 90 6f ee bd
       -0.09850491 -0.9764981 -0.3889921 -0.116423726
0002c0 58 b2 a7 be e2 3c 73 3f 8b 23 3a be 0d 75 01 3f
       -0.32753253 0.95014775 -0.18177621 0.5056923
0002d0 5d 41 7d 3e 03 cc 2f bd f5 87 df 3e 3e 96 a2 bf
       0.24731965 -0.04291917 0.43658414 -1.27021
0002e0 c4 5a 4f 3e c7 bb c7 3e 37 b4 b7 3f 29 dc db bc
       0.20249468 0.3901045 1.4351872 -0.026838379
0002f0 ff 89 34 3f 83 06 17 bf ba 85 22 bf 88 44 c2 bf
       0.70523065 -0.5899431 -0.634853 -1.5177164
000300 4f c9 07 bf 42 42 a1 3e 4b f7 89 3e 0d 6f 5f 3f
       -0.5304155 0.31495863 0.26946482 0.87278825
000310 cd e0 9c bc e5 08 52 3f 49 1d 04 3f ac bf 3e bd
       -0.019150162 0.8204482 0.51607186 -0.04656951
000320 ef 7e 2e 3e 8e 50 4a 3e dc 1c 9c bd 27 59 e6 be
       0.17040609 0.19757292 -0.07622692 -0.44989893
000330 22 4e 11 be ca b1 06 3f 2f 38 1a bf 3f dc 98 3e
       -0.14189962 0.52615035 -0.6024198 0.29855534
000340 56 4e 37 3f 2e be a1 3f 08 15 32 bf 15 29 19 3f
       0.71603906 1.2636163 -0.6956334 0.5982831
000350 64 e0 60 3e 26 26 6c bd 15 3e 17 3f 0b ec ed be
       0.21960598 -0.05765357 0.59079105 -0.4646915
000360 ae f3 dc bd 62 00 12 3f a8 a0 e1 3e ce e3 6e be
       -0.10788666 0.57031834 0.44067883 -0.23329088
000370 5f 58 f6 bd 7b b3 b6 3e 09 d6 a6 be b2 52 5c 3e
       -0.12028574 0.35683808 -0.3258517 0.21515921
000380 5c 67 0a 3f f4 3a 3d 3e 2b 03 7c be a1 d6 8e 3e
       0.54063964 0.1847952 -0.24610583 0.27898124
000390 c7 6c 64 3f 44 92 0e 3f b2 6a ed 3e ee d4 22 3f
       0.8922848 0.55691934 0.46370465 0.63606155
0003a0 d9 5e 9d bf 6e 83 85 bf 84 7e 5b bf 51 63 b3 be
       -1.229457 -1.0430734 -0.8573992 -0.3503671
0003b0 78 20 3e 3f be c6 95 bd 9b 52 f2 be 10 1a ce be
       0.74268293 -0.07313298 -0.47328648 -0.4025426
0003c0 77 ea 05 3f 62 44 87 bd 0a f0 7c 3e 58 2f 84 bf
       0.5231089 -0.0660484 0.24700943 -1.0326948
0003d0 d3 e4 43 3e 68 48 e3 3e 1e 06 d9 be f5 c6 1f 3f
       0.19130258 0.4439118 -0.4238748 0.6241296
0003e0 de 2b 48 3d 89 a4 7a be 9b 39 1f be 14 f0 46 3e
       0.04886996 -0.24476828 -0.15549318 0.1942752
0003f0 7e 12 b7 3c 24 da 0d 3f e6 c7 30 bf 1e f5 9d 3d
       0.022347685 0.5541098 -0.6905502 0.07712768

bn1.running_var f4 [256]
000000 aa 59 98 40 83 96 c6 3f 4b 03 55 40 34 5f 89 40
       4.7609453 1.5514683 3.328326 4.2928715
000010 25 c0 af 40 59 a8 91 40 60 4a cc 3f f5 4d 7d 40
       5.492205 4.5518003 1.5960197 3.9578831
000020 97 e6 51 40 26 de 42 40 86 af 29 40 ef 10 8b 40
       3.279699 3.0448089 2.651338 4.345817
000030 1a c2 e3 3f 55 86 9c 40 36 2d 0f 40 7e 36 01 40
       1.779361 4.891398 2.2371345 2.018951
000040 a1 5d b1 40 10 7e 12 40 f3 b4 07 40 b2 3a 7c 40
       5.5426793 2.2889442 2.1204193 3.9410825
000050 92 04 39 40 d9 35 47 40 f0 73 8a 3f c5 16 5d 3f
       2.890904 3.1126616 1.0816631 0.8636287
000060 05 ba 3f 40 b8 27 c5 3f 4d 52 20 3f 77 4a 3f 40
       2.9957287 1.5402746 0.6262558 2.98892
000070 e1 50 24 40 ec df 19 40 9f 2c d2 3f d9 5e 1c 40
       2.5674365 2.404292 1.6419867 2.443289
000080 4a 27 1a 40 8f bb 53 40 1b 5a 2d 40 f6 21 4c 40
       2.408648 3.3083227 2.7086246 3.1895728
000090 b6 41 8d 3f eb 43 ff 3f ee db 21 40 e6 b1 3f 40
       1.1035678 1.9942602 2.5290484 2.995233
0000a0 3e 72 1e 40 29 2a 47 40 a2 79 db 3f 69 ff 6f 40
       2.4757228 3.1119483 1.7146494 3.749964
0000b0 67 95 88 40 b5 a2 7e 40 99 3c 2e 40 f8 fd 37 3f
       4.2682376 3.9786808 2.7224486 0.718719
0000c0 e7 5d 59 40 e3 7e 72 40 98 38 e8 3f e6 42 20 40
       3.3963563 3.7889946 1.8142271 2.5040832
0000d0 30 6e 06 40 cf 47 ce 3f 42 7e 29 40 f9 a0 81 40
       2.1004753 1.6115664 2.6483312 4.0509
0000e0 44 f3 fa 3f dc 26 0d 40 2b 72 63 40 38 78 dd 3f
       1.9605489 2.2054968 3.5538433 1.7302313
0000f0 af 0f 16 40 34 90 ec 3f bd c5 91 3f b0 35 d2 3f
       2.3447073 1.8481507 1.138847 1.6422634
000100 24 42 3d 40 16 5e 4f 40 10 2a 42 40 a2 7e e7 3f
       2.957162 3.2401175 3.0338173 1.808552
000110 4b 05 fa 3f 55 b9 53 40 63 d0 86 40 f4 ea a8 40
       1.9532865 3.3081868 4.212938 5.278681
000120 5a f5 cc 3f 3d 9a f4 3f e1 90 90 40 91 d4 f7 3f
       1.6012375 1.910957 4.5176854 1.9361745
000130 9f 9f d3 3f 31 01 85 40 a4 f1 65 40 4a bb da 3f
       1.6533087 4.1563954 3.5928736 1.7088406
000140 f6 67 5a 3f ac 52 17 40 d2 d9 f1 3f e3 c5 43 40
       0.8531488 2.364421 1.8894598 3.058953
000150 38 5c 75 40 62 51 8e 40 67 6d 10 40 3a 2a 61 40
       3.8337536 4.4474344 2.2566774 3.5182023
000160 27 79 72 40 26 4f 03 40 8b 90 45 40 52 d2 88 40
       3.7886446 2.0517058 3.0869472 4.275674
000170 be 00 74 40 58 8f 66 40 c2 af 50 40 67 98 1d 40
       3.8125453 3.602499 3.2607274 2.462427
000180 eb f5 7c 40 2d 9e 23 40 3e 86 87 3f 5b f7 8a 40
       3.9525096 2.5565293 1.0587842 4.3426948
000190 79 09 4d 40 f7 fc 48 3f 3b 4f 84 40 01 1d 11 40
       3.2037032 0.78510994 4.1346717 2.2673953
0001a0 63 46 8d 40 42 84 8d 3f 4a 08 35 40 ca 9c 9e 3f
       4.414842 1.1055987 2.828631 1.2391598
0001b0 05 ee c6 3f 62 84 a5 3f b9 f2 17 40 fe 4e d1 3f
       1.5541388 1.2931025 2.3741896 1.6352232
0001c0 80 60 09 40 39 27 75 40 2f c9 b1 3f a6 2a a3 40
       2.146515 3.830519 1.3889521 5.098956
0001d0 95 33 6d 40 e4 fc 21 40 3b 08 96 40 76 91 37 40
       3.7062733 2.5310602 4.6885047 2.8682532
0001e0 ed 0c aa 3f e9 6e 3b 40 84 13 0a 40 23 b0 25 40
       1.3285195 2.9286444 2.1574411 2.5888755
0001f0 54 4b 37 3f f7 44 1a 3f 22 66 3a 3f 2f 4a c2 3f
       0.71599317 0.6026148 0.7281209 1.5178889
000200 92 fc 0c 40 3d 15 79 40 8f ef ed 3f 38 99 3e 40
       2.2029157 3.8919213 1.8588732 2.9781017
000210 e1 2c 8e 40 7c 69 2e 40 31 2a b7 3f 3d 7f 26 40
       4.4429784 2.7251883 1.4309751 2.601516
000220 09 ee 45 40 fe d5 c3 40 7b ed 0a 40 43 d5 1d 40
       3.0926535 6.119872 2.1707447 2.4661415
000230 ee 80 2a 40 83 cf a2 40 43 86 85 40 d5 f6 18 40
       2.6641192 5.087831 4.1726394 2.3900654
000240 94 a2 a0 40 93 8c a3 40 63 97 1d 40 0e 54 63 40
       5.019846 5.11091 2.462365 3.5520053
000250 53 53 2c 40 24 55 48 40 a7 17 04 3f ab 41 79 40
       2.6925857 3.1301966 0.5159859 3.894633
000260 d2 51 da 3f 3c 0f 8a 40 c0 5d f1 3e 53 64 21 40
       1.705622 4.3143597 0.47141838 2.5217483
000270 f3 08 6a 40 34 cc 8b 40 91 07 19 40 97 13 09 40
       3.6567962 4.368677 2.3910868 2.1418207
000280 db f8 6f 40 4c 4e b5 3f 7b 73 f1 3f fa 3e 64 40
       3.749564 1.4164519 1.8863367 3.5663438
000290 fe 3d 86 40 fc d5 82 3f 6d 25 d6 3f 33 6b b7 3f
       4.1950674 1.0221553 1.6730171 1.432959
0002a0 9a 49 ec 3f 00 97 6b 40 f2 4c 21 40 1d b6 04 40
       1.8459961 3.6810913 2.5203214 2.0736153
0002b0 20 70 c1 40 97 70 5c 40 1d 22 8d 3f 6d c1 76 40
       6.044937 3.444372 1.1026036 3.8555558
0002c0 5e 7b ec 3f e3 87 29 40 9f 04 d6 3f 72 2a 22 40
       1.8475149 2.6489189 1.672016 2.5338407
0002d0 ef d8 bb 3f e1 51 86 40 8d 91 e0 3f 68 bf 78 40
       1.4675578 4.197495 1.7544419 3.8866825
0002e0 a0 f5 b5 3f 10 6c 21 40 23 19 e2 3f f2 66 32 40
       1.4215584 2.5222206 1.7663921 2.7875333
0002f0 08 ae 8f 40 b9 0a c4 3f 5a 9e 9e 40 8d c0 16 40
       4.489994 1.5315772 4.95683 2.3555024
000300 e5 9d 8a 3f fa 1d 2f 40 da ad c8 3f 07 5f ad 40
       1.0829436 2.7362046 1.5678055 5.41785
000310 3e f6 1e 40 4c fd 58 40 05 18 70 40 b8 7a 14 40
       2.4837794 3.39046 3.751466 2.3199902
000320 86 c4 3f 40 1a a8 99 3f 27 2f 4a 40 1a 24 5b 40
       2.9963698 1.2004426 3.159128 3.4240785
000330 0f c0 47 40 26 c7 22 40 fa cb c0 40 54 6d 3d 40
       3.1210973 2.543405 6.0248995 2.9597979
000340 71 65 65 40 37 e2 0f 40 77 8a 0e 40 45 a6 39 3f
       3.5843165 2.248182 2.2272012 0.7251933
000350 e6 05 85 40 83 d6 8d 40 7c 6c c0 3f 35 60 86 3e
       4.15697 4.4324355 1.5033107 0.26245275
000360 0e 5a f0 3f fa 6e 18 40 44 5f 0e 40 04 83 39 40
       1.8777483 2.3817735 2.2245646 2.8986216
000370 22 60 ef 3f 95 29 17 40 e1 79 aa 40 76 48 3e 40
       1.8701212 2.361913 5.327378 2.9731727
000380 09 9a f5 3f 71 83 41 40 f3 fc 91 3f fe 95 09 40
       1.9187633 3.0236475 1.1405319 2.1497798
000390 1b 3f 36 40 8a 17 12 40 25 8c 1d 40 0d 4a fc 3f
       2.8476017 2.2826867 2.4616787 1.9710099
0003a0 99 7e 44 40 c2 37 69 40 62 43 28 40 0d bd 16 40
       3.070227 3.6440282 2.6291127 2.3552887
0003b0 e4 0e 39 40 e3 44 00 40 83 5f 27 40 b4 73 5e 40
       2.8915339 2.0042045 2.6152046 3.475812
0003c0 ec 25 89 40 90 4e 0a 40 4e 07 93 3e f8 54 3e 40
       4.285879 2.161045 0.2871651 2.973936
0003d0 11 82 d1 40 66 00 04 40 40 3e 8f 40 1a 5f 45 40
       6.5471272 2.0625243 4.476349 3.0839295
0003e0 d1 f9 45 40 f0 a8 7e 3f 3f b9 13 3f 87 8e 59 40
       3.0933726 0.9947653 0.5770454 3.3993242
0003f0 28 be 40 40 9f 79 89 40 7e bc fb 3f ca 7c 4e 40
       3.0116062 4.2960963 1.9666898 3.2263665

fc2.weight f4 [128, 256]
000000 dd f2 3e 3d b6 0d e3 bb a2 33 88 3c 0c 5e 97 3d
       0.04661833 -0.0069291247 0.016626183 0.07390985
000010 c1 b8 b5 bd a0 4a 5a bd a1 e4 83 3d 88 27 a3 ba
       -0.0887313 -0.053293824 0.06440092 -0.0012447694
000020 50 bb 18 3d 28 b2 34 3d 65 de 01 3d de c1 90 bd
       0.03728801 0.044115216 0.031706233 -0.07068227
000030 93 9d ab bd 48 4d 12 3d 58 39 46 3d 5d ea 59 3d
       -0.08379664 0.035718232 0.04839453 0.053202022
000040 9b 4f 9b bd 32 8b 30 3d b5 7d 1f bd ab be 77 bd
       -0.07583543 0.043101497 -0.038938243 -0.06048457
000050 de ea 9f 3b 91 8c 2e bd 44 55 78 3d 5c 3b ad bd
       0.0048802933 -0.042614523 0.06062819 -0.084585875
000060 2b ba 3f 3d f8 2a e3 bb 53 75 6c 3c cd f5 a8 bd
       0.046808403 -0.0069326125 0.014432269 -0.08250008
000070 f1 f3 b9 3c 2a d6 97 3d a7 5c 37 bd 5a 68 17 3c
       0.022699328 0.074138954 -0.044766095 0.009241188
000080 66 3d d1 bd 7e 10 e1 bc 65 92 9b bd 98 cd f6 3c
       -0.10216789 -0.027473684 -0.07596282 0.030127332
000090 86 a8 d1 bc c1 d8 71 bd bd 5a d2 3c 77 2c f0 3c
       -0.025593054 -0.059044603 0.025678033 0.029318077
0000a0 e4 ef 64 bd 58 be 0a 3d cb e9 cf bd 42 84 8e 3d
       -0.05589284 0.033872932 -0.10152014 0.0695882
0000b0 3e 6d 71 3d 22 7e 99 3d 05 5b 9e bd 1d c7 b2 3d
       0.058942072 0.07494761 -0.07732204 0.08729384
0000c0 40 29 88 3d ce fa d5 bc c8 4f ae 3d 87 c0 48 3d
       0.06648493 -0.02612057 0.08511311 0.049011733
0000d0 6a a2 e4 3c 9f 83 dc bb 18 d2 26 3d a8 24 3a 3d
       0.027909476 -0.0067295576 0.040727705 0.045445114
0000e0 0c a0 ad bd eb d6 4a bd b7 92 a1 bd 05 32 ba 3d
       -0.08477792 -0.049521368 -0.07889312 0.09091572
0000f0 26 79 bd 3c ae 56 a3 3d 0e 24 25 3b 18 77 a8 bd
       0.023129057 0.07975517 0.0025198492 -0.0822584
000100 19 a4 c0 3d 1a 75 0b bd c7 6d 9b 3c ce 71 a5 bd
       0.09406299 -0.034047224 0.018973244 -0.08078347
000110 0a dd 18 3d 9a 4e db 3a cc 3b 86 bc 3a 5d 19 bd
       0.037320174 0.0016731799 -0.016385935 -0.037442423
000120 94 7e 82 bd 39 9c cd 3c c8 81 5a bb 4b da 9a 3c
       -0.06371799 0.025098907 -0.0033341516 0.018902918
000130 a2 0b 97 3a ec 9b 60 3c 2e 3c 45 3c b4 07 a3 3d
       0.0011523853 0.01370905 0.012038274 0.07960454
000140 34 11 9a 3d fc 65 07 bd ec e6 d7 bc a1 fd 93 ba
       0.075228125 -0.033056244 -0.02635523 -0.0011290797
000150 2e c4 59 3d 76 42 40 3d 82 0b 22 bd f3 1f c0 3c
       0.053165607 0.046938382 -0.039561756 0.023452735
000160 39 2e 12 bd db 8a d7 bd 77 0c af bd 12 06 75 bd
       -0.035688613 -0.105245315 -0.08547299 -0.059820242
000170 b3 ba 6f bd 56 a7 13 3d dd ad 45 3d 72 42 dc bd
       -0.05852766 0.036048256 0.048261512 -0.10754861
000180 96 e7 fa bc e6 da 9c 3b 07 d2 83 bd b5 0d 3d 3d
       -0.030628007 0.004786837 -0.06436544 0.04615565
000190 2b 4a 5c 3d 0c 90 99 bd fe b5 76 3d 16 7e 91 3d
       0.05378167 -0.07498178 0.060232155 0.07104127
0001a0 ec c1 63 bd 8b 96 7f bb f7 50 88 3d b4 e4 b1 bd
       -0.05560486 -0.0038999643 0.06656068 -0.086862
0001b0 4d 51 c7 bc b6 45 0e bd fb a9 a5 3c 7d 07 90 3d
       -0.02433076 -0.03473445 0.020222655 0.07032678
0001c0 21 d3 b8 3b 51 b9 ba bd 6b 8e c7 3c c5 3b 26 3d
       0.005640403 -0.091173775 0.024359902 0.040584344
0001d0 9b 7b 5c 3c 21 5c 36 3d 84 b6 67 bd 9b 6a 43 bd
       0.013457204 0.044521455 -0.056570545 -0.04770909
0001e0 ca 8c 36 bd d7 1c be 3c df eb 93 bd c9 a0 33 3d
       -0.04456786 0.023207111 -0.07222723 0.04385451
0001f0 fc 24 12 3d eb b0 8a 3c 52 c6 fe 3c 22 d8 c5 3b
       0.035679802 0.016930064 0.031100426 0.006037728
000200 1e 7c fd bc a3 5b a8 3d ab a2 92 bd 66 78 a4 bd
       -0.030942973 0.08220603 -0.07159933 -0.08030777
000210 b8 63 54 bd 17 82 2e 3d a2 1d 9a 3d 3e 95 ac 3d
       -0.05185291 0.042604532 0.07525183 0.08426903
000220 40 d9 5d 39 7c 22 89 bd 2d 3f 35 bd 10 8f 4d bd
       0.00021157134 -0.066960305 -0.044249702 -0.050185263
000230 02 61 56 3b cd 4b a8 3c 7b f8 a8 3d 15 31 8a 3b
       0.003271163 0.020543957 0.08250519 0.004217277
000240 e3 8e 90 bd b5 f7 b2 bd e3 01 38 3c 19 9b 59 bc
       -0.070585035 -0.087386526 0.011230919 -0.013281607
000250 c0 99 a4 bd 77 ed 85 3d 06 bd 50 3c db 76 b0 3d
       -0.08037138 0.065394334 0.012740379 0.0861642
000260 27 1f 2d bd 1c 99 46 bd 08 04 a5 bc 53 86 70 bd
       -0.042266037 -0.04848586 -0.020143524 -0.05872185
000270 dd f7 82 3b 34 64 ce 3c df 8a 72 3d 85 52 2a bd
       0.0039968328 0.025194265 0.05921447 -0.041582603
000280 e4 67 67 3d ce e9 40 3d 61 9a 70 bd ae 5c 2e 3d
       0.056495562 0.047097974 -0.058740977 0.042568855
000290 85 ed 8f 3d 56 07 31 bd ba 6a 9f 3b e3 fc 4f 3d
       0.07027725 -0.043219887 0.0048650177 0.05077828
0002a0 a5 93 97 bd 12 2d 8b 3d 40 ad e4 bd a8 44 70 3d
       -0.07401208 0.06795706 -0.11165857 0.058659226
0002b0 c2 f9 18 bd 66 7f 5f bd 16 41 90 bd e9 14 af bd
       -0.037347563 -0.054564856 -0.07043664 -0.0854891
0002c0 4f 3a ce 3c d0 0e 90 bd 3f 9d 66 bc 1f c5 ce 3d
       0.025174288 -0.07034075 -0.014075576 0.100961916
0002d0 9a 1e 32 bd 96 69 b3 3b f0 82 96 3d ad 7a 1b bd
       -0.043486215 0.0054752333 0.07349193 -0.03795879
0002e0 09 09 a8 bb 27 07 0b bd 8c be 25 bd f3 d0 17 bd
       -0.00512803 -0.033942368 -0.040464923 -0.037064504
0002f0 50 18 71 bd bd 10 53 3d 63 bc 96 bc f7 4d bd 3b
       -0.058861077 0.051529635 -0.018400377 0.0057771164
000300 f0 57 56 bd f3 b8 d8 bc 0c 38 a9 bd ca 57 66 bd
       -0.052329957 -0.026455378 -0.08262643 -0.056236066
000310 55 8b 85 3c de dc b8 bb 79 31 93 bd e4 82 a4 3b
       0.01630179 -0.005641564 -0.071871705 0.005020486
000320 bf 54 c6 bc 5e 26 65 bd 60 fe 98 bd 72 59 7d bd
       -0.024210332 -0.055944793 -0.07470393 -0.06185288
000330 a0 7c 32 3d dc 6f a8 3d c6 0d 02 3c ac 67 5a bd
       0.043575883 0.082244605 0.007937854 -0.053321525
000340 80 e2 a3 bd 83 d1 8a bc 5c 9a 17 3d 30 49 85 bd
       -0.08002186 -0.016945606 0.037012443 -0.065081
000350 db e3 47 3d 49 22 77 3d 37 e5 ad bc 0d c8 30 bc
       0.048801284 0.06033543 -0.021227462 -0.010789883
000360 36 91 ad bd 41 84 b9 bd 42 6b 2d 3c 11 7b 10 3c
       -0.084749624 -0.090584286 0.010584654 0.008818404
000370 ac c4 18 3d 87 ec af 3d 0b 20 69 bd ba 22 82 bd
       0.037296936 0.08590036 -0.056915324 -0.0635428
000380 37 0c 62 3c 99 cd c8 3b 7c 0c 72 3c 22 b4 71 3d
       0.013796858 0.006128025 0.014773484 0.05900968
000390 1f fe a8 bd 7b 25 0f 3d 8a 60 f5 bc 07 de f8 3c
       -0.08251595 0.034947854 -0.02995326 0.030379308
0003a0 0d 97 96 bd e9 88 ee 3c 9a 4d bf ba ad 79 10 3d
       -0.073530294 0.029118018 -0.0014595271 0.03527229
0003b0 bf 19 c1 bc ce 61 66 3d 00 d4 0b 3d 96 85 8f bd
       -0.023571847 0.056245618 0.034137726 -0.07007901
0003c0 4c 03 54 3b fc 83 73 bd 81 c4 a8 bd 5d 90 93 bd
       0.0032350598 -0.059452042 -0.08240605 -0.072052695
0003d0 b0 28 80 bd 8e d2 ca bc 23 6b 98 bd 19 2a 90 bd
       -0.062577605 -0.024758603 -0.0744231 -0.070392795
0003e0 d5 3f 7d bd b1 4d f7 bb 2f 14 1b 3d 0c c2 9c bd
       -0.061828453 -0.0075471033 0.037861045 -0.07654199
0003f0 7b a3 10 bd 31 0d 3a bd 22 57 b9 bc df 45 8c 3d
       -0.035312157 -0.045422737 -0.022624556 0.06849264
