p2_continuous-control/pth_backups/00checkpoint_actor-v1.pth (torch_old, 548296 bytes, 10 tensors)

fc1.weight f4 [400, 33]
00000000: e4ee 093d 9c9d d13d 5523 72bd 2044 bebc
00000010: a854 933c e7de 8dbb 4eee 8dbc 8ea4 26bd
00000020: 4721 123d b403 d03c a4d3 bc3c 02ed 123d
00000030: 3480 33bd b23b 16bd 0f5f e4bc d93e 853c
00000040: adfc 4f3c 00d0 ad3c 8bd6 deb9 ad7c 92bb
00000050: f58a 3bbc ea55 6bbd 7af0 2c3d d86c e3bc
00000060: 223a 393b 4a43 bf3b 983d d93b ab1d 893a
00000070: 41b7 5d3c 9893 6dbc 6b9b e0bb aa7d bdbc
00000080: 8dde d03e 815b 5fbd 76f0 9e3c 782c dcbc
00000090: a9c3 8bbc 6f97 a43c ed3b fcba 3146 c5bb
000000a0: ab9d 023d dd01 513d 2d77 0c3b 9a08 3339
000000b0: 2af7 323c 96fd 5dbc e8b3 b73c 6b1c 2f3c
000000c0: 1ed5 d53c 47ae 3dbc dbe9 6f3b da08 0cbc
000000d0: 5d77 1e3c f8e2 42ba fe9b 863c 6361 02bd
000000e0: d476 9e3c 3eff ecbb 5722 ad3c 4ac3 fc3c
000000f0: 4bfd 2a3d dd9e 43bc 88d7 2dbc ee6c 5b3a
00000100: 637f 1a3d a5f2 ba3e fe75 c43c 84d1 113d
00000110: 94dc 233d a500 993c 7953 cf39 b670 a6bb
00000120: 3bb3 8abc f637 10bb 21a3 d63b 5e2d 5c3d
00000130: 647b 94bc ae67 26bb 5da8 b73b c809 0fbd
00000140: 5ebe e43b 0aed bfbc 96ac ff3b a9c1 20ba
00000150: 05aa 8b3c b534 71bc 31c0 4fba 5849 a539
00000160: 19d6 16bc eb00 973c 8219 81ba bfef 933c
00000170: 4108 ab3c 9255 e43c d973 483d e9eb 203d
00000180: fd91 4c3d e214 a53c 8e25 dd3e 5497 d1bd
00000190: 5298 263d 0dee 5c3d d1fc 583c 47de fdbc
000001a0: 3316 08bc 7512 8d3c cdb8 beb9 0c71 d6bb
000001b0: 700a 10bd a581 cc3b 0229 e83c dd9b a0bc
000001c0: 38ea d13d 4842 623c 5241 64bc 8a1f 2ebb
000001d0: e462 cc38 0e63 2a3c 1121 bcbb 0158 1dbc
000001e0: f1cb 843d bb4e 5e3d f2b5 a73c d9a2 ba3c
000001f0: 0331 30bd e6c2 503d a64c 8abc ef43 263c
00000200: 98b5 f3bb d43d f93c 4ef7 04bd 545e d6bd
00000210: 5de2 823d 121c 023d 23ba 9e3d f52d e03b
00000220: 97c0 013c da8b a33c 92eb 8d3a 2d4c 6b3c
00000230: 86ca 88bd 8b81 223b d8d9 323b 060e 23bb
00000240: 7cbd 363c 4c02 24bd d1ab 9dbb d3d7 3cbd
00000250: 623f d03b dc6f abba c4c3 663b 73f2 82bc
00000260: 76c6 9d3c b60d cabc 1f91 b23c cebf 12bb
00000270: 2a94 8a3c 3992 62bc 81b1 3d3c bbd5 edba
00000280: 7c71 f13b c0e0 d0ba 25f6 30bd 3847 1fbc
00000290: 8c27 e83e 31f0 253d 0581 0d3d 91e5 f5bb
000002a0: 6672 e63c 363b 6f3d fe8e 64bc 34b8 eabc
000002b0: fd8a 46bc 6afb 313d 1465 4cbd c037 38bc
000002c0: 8218 d43c ed59 d5bc fdfc 623d b5c0 8cbd
000002d0: 01f4 7fbc 4308 703c ba5d f33c c75f 6b3b
000002e0: 2274 853c d751 94bc 4de2 a4bc 406f a23c
000002f0: 0bec e13c c8d2 59bd 04ec 0abd be37 f63d
00000300: dcd1 f3bc 6d2b 053d 6d37 c0bc 0865 1f3d
00000310: 2d27 f2bc 4e11 22be 4e40 fd3c 0162 9dbd
00000320: dfbb 56bd 641d 74bc fcf8 dd3a 8105 d0bc
00000330: 0a99 583c 38ba 313d bfc3 2c3d 7173 a63c
00000340: be42 273c e817 9fbb 7a4a a6bc 4330 743d
00000350: 4a0f bc3d 87b1 2d3d e2c8 01bd 3cdb 99bb
00000360: 41c6 983c 4a9f 77b8 766d c23b ce67 e6bb
00000370: b764 8b3a 7c48 e73d 75e9 68ba 6abc eb3c
00000380: 3dd6 38bd 287e 45bd 74ec b0bc a744 39bd
00000390: a596 5abb c273 d63c 431b eebd 611d 773c
000003a0: c578 833d ffa9 d0bd db2d a73b bbd0 4cbb
000003b0: fe48 2abd da24 3d3d bc45 263c 812d d43d
000003c0: edeb 043d a1b9 d0bb 3491 e73b c909 65bd
000003d0: 386c 743d e95f 68bd f503 2b3d 1aff 7dbc
000003e0: 173a 19bc d472 18bd d0bf 67bc 9b6b 213d
000003f0: b242 86bd 1421 d03c bb3a ec3b 8e51 cbbb
0.03367509 0.1023514 -0.059115727 -0.023225844 0.017984703 -0.0043295505 -0.017325547 -0.040684275
0.035676267 0.02539239 0.023050137 0.03587056 -0.043823436 -0.036678024 -0.027877359 0.01626532
0.01269452 0.021217346 -0.00042502987 -0.004470429 -0.011446704 -0.05745498 0.042221524 -0.027761862
0.002826341 0.005836879 0.006629657 0.0010461112 0.013532461 -0.014500521 -0.0068544648 -0.02313121
0.40794793 -0.054530624 0.01940177 -0.026876673 -0.017061071 0.02009174 -0.0019243933 -0.0060203304
0.031888645 0.051027168 0.002143334 0.00017073975 0.010923186 -0.013549229 0.022424653 0.010687928
0.026102599 -0.0115771955 0.0036607895 -0.008547032 0.009672013 -0.00074343337 0.016431805 -0.031831156
0.019343771 -0.0072325757 0.021134539 0.03085484 0.041745465 -0.011939731 -0.010610469 0.0008370419
0.03771914 0.36513248 0.023982044 0.0356002 0.04000528 0.018677065 0.0003954431 -0.005079354
-0.016931167 -0.0022006012 0.006550208 0.053754203 -0.018125243 -0.0025391388 0.0056047873 -0.034921438
0.0069807013 -0.023428459 0.0078025563 -0.0006132373 0.017048845 -0.014722039 -0.0007925062 0.00031525898
-0.009206318 0.018433055 -0.0009849521 0.018058656 0.02087796 0.027872834 0.048938606 0.03928748
0.049943913 0.02015156 0.43192714 -0.10233942 0.040672608 0.05393796 0.01324387 -0.03098978
-0.008306074 0.017220715 -0.0003637731 -0.006544238 -0.035166204 0.006241041 0.028339867 -0.019605571
0.10249752 0.013809748 -0.013931589 -0.0026569092 9.745898e-05 0.010399593 -0.0057412465 -0.009603501
0.06484211 0.054274302 0.0204725 0.02278273 -0.04301549 0.05096712 -0.016882252 0.010148033
-0.007437419 0.03042499 -0.03246241 -0.104672104 0.063908316 0.03176505 0.077503465 0.006841416
0.007919452 0.019964147 0.0010827652 0.014361423 -0.06679253 0.0024796452 0.002729049 -0.0024880185
0.011153575 -0.040041253 -0.004811742 -0.046104264 0.006355212 -0.0013079601 0.00352119 -0.01598475
0.019259673 -0.024664741 0.021797715 -0.0022392157 0.016916353 -0.0138288075 0.011577965 -0.0018145362
0.0073682647 -0.0015936121 -0.04320349 -0.00972157 0.45342672 0.040512268 0.03454687 -0.007504173
0.028130721 0.058406077 -0.013950108 -0.028652288 -0.012118098 0.043452658 -0.049901083 -0.011243761
0.025890592 -0.026043857 0.05541705 -0.068726934 -0.01562214 0.014650407 0.029707778 0.0035915242
0.016290728 -0.01810543 -0.02012744 0.019828439 0.027578374 -0.053179532 -0.03391649 0.12022351
-0.029763155 0.032512117 -0.02346393 0.03891471 -0.029559696 -0.15826914 0.030914452 -0.076847084
-0.05242526 -0.014899585 0.0016935165 -0.02539325 0.013220081 0.043390483 0.042178866 0.020318719
0.010208784 -0.004855145 -0.020299185 0.05961634 0.09182604 0.04240563 -0.031685717 -0.004695324
0.018649222 -5.903774e-05 0.005933459 -0.0070314175 0.0010634874 0.11293122 -0.00088848855 0.028776366
-0.04512619 -0.048216015 -0.021597125 -0.045231488 -0.0033353951 0.026178245 -0.116262935 0.015082688
0.06419519 -0.10188674 0.005101902 -0.0031252343 -0.041573517 0.046177723 0.010148462 0.10360242
0.03245156 -0.006369785 0.00706687 -0.055917535 0.059673518 -0.056732092 0.04175182 -0.0155027155
-0.009352229 -0.037218884 -0.014144853 0.03940926 -0.0655569 0.025406398 0.0072091497 -0.0062047904

fc1.bias f4 [400]
00000000: bf0b 1c3e c940 033e 3662 bf3d 66de da3d
00000010: ad11 b93d 7772 213e 34b9 033e f661 c0bc
00000020: 3f7f 193e c416 83bd 39a5 153e af20 cb3d
00000030: 557e 18bd a016 2fbe c9d3 213e 92fa 7b3c
00000040: 946c 893c 510d 0abe f8c7 6cbd 5c0c 263e
00000050: 1020 0abe 6b82 283e ed67 243e 68dc 69bd
00000060: 8ed3 cebd 7f3a 5fbd d2e9 abbc abfc 5ebd
00000070: 0c8d 1dbd 477e f7bd 9abe 4bbd 326c f13d
00000080: 9832 ed3d 6a7a dc3a 79fb 073e f591 6fbd
00000090: fd54 1ebd dd27 0dbe dc36 f53d ed69 95bd
000000a0: c5bc 76bd 8ec9 13be d97e 113e c90d 10be
000000b0: 618a bc3b f653 f6bd c4b5 febc 82ba 933d
000000c0: 08f1 da3d cb89 12be 0637 0abe 278b 2a3d
000000d0: a455 4dbc f843 d2bd 15b6 12be deae c23d
000000e0: c8a8 113d a505 dc3d cf4c 853b 53ed 483d
000000f0: 3262 c33c 30c0 73bd 0647 923c eb03 7bbc
00000100: c090 11be c602 063e c5cd 1dbe 15aa eabd
00000110: 23f5 5cbc 81ac 143e ac4f 17be d856 a33c
00000120: 4595 a6bb cc50 92bd 3a99 823d ed08 13be
00000130: 250b 043b ebd8 24be c2a2 0dbe bec8 dcbd
00000140: 4307 27be 23a8 aa3d 3c81 09be 7540 663c
00000150: eec9 bebd fccd 27be 6f09 063e 0904 1d3e
00000160: c193 d2bd 67fe 0cbe 3c11 e83d 7d12 1c3e
00000170: db8b da3d 1e26 a5bd 45d8 01be 1a57 963c
00000180: d415 0a3e 7781 2dbe 9e60 1d3d b53f 06be
00000190: 7e20 cebd 61ca b63d 8fac 203c 051c 253e
000001a0: 1906 333d db43 02bd 316e 0c3e 2f30 e53d
000001b0: f46a 0ebe 6c4f 04be 768a 0c3e e3db 283d
000001c0: 326e f23d 4d6a 0fbe 8a3f 753d 4b87 b1bd
000001d0: 8fbf 1cbe 53dd 8f3d 2c56 df3d bd07 293e
000001e0: a555 263e 49a3 19be 8402 e23d 0ee1 133e
000001f0: fd27 1bbe f7ef 1d3e d213 1f3e 9e20 243e
00000200: d5e8 1fbe 31e5 e43d 3162 193d 9387 4a3c
00000210: 99bf c23d 2f70 8fbd 70bc 18bd f091 62bb
00000220: a513 32be 4720 14be cf73 1fbe ccc9 09be
00000230: cf92 8ebd 1047 e63d b52b 32be 5265 193e
00000240: 762a 05bb 4c03 0fbe 5994 da3d 7154 fc3d
00000250: 1bef 13be d57d 1b3e cd7a b0bd 4b1a 493d
00000260: af27 3d3d aaa7 15bc 8a2c 16be dc13 e43d
00000270: 1eca 1abe b82e cbbd 4399 31bc 080e 433d
00000280: 12a8 1b3e 5281 d2bb afdf 04bd c92a efbd
00000290: 48aa 233e dd99 2abe 12a1 8dbd bfbc a7bd
000002a0: 8765 1dbe 4266 893d b89d c93d 0711 083e
000002b0: 749c 6fbc d310 31be 814d c83d 21d2 2abe
000002c0: 60e8 d1bd 8aeb 7f3d 28ec 9c3d da66 343d
000002d0: 89b4 d9bd 7461 bbbd ffed 8a3c c891 a23d
000002e0: af3c 0bbc 0e02 c1bd 525f 843d cac6 693d
000002f0: a09d 74bd b4eb 75bb a5ee c63c 7ee6 adbd
00000300: fcf6 2cbd bc4b 81bd 4133 37bc 2be6 d5bd
00000310: 6d6b eabd f2f2 e2bd d023 063d 3857 863b
00000320: 72cc 5ebd 31fa d6ba 5d6e 333d 5c5e 523d
00000330: 54fb 413c 3a55 38bd 9b80 cebd 3968 a4bd
00000340: 8bc8 c0bc 80a6 04be 6811 b1bc 6277 e8bd
00000350: 7c2d 27be b113 953d 9faa e5bc c5e8 31bd
00000360: f05f a13d 6e83 e6bc 2bbf 1bbd 6b22 303e
00000370: c45e 9c3d 8229 11be dc72 023e 4261 babd
00000380: 2b16 21bd 6f62 a63d 7903 293e 0810 0fbe
00000390: 080f d9bd a557 1bbe 5533 27be fc1c 24be
000003a0: 4d82 0abe c05a 1d3d be4f 8a3d ff6c 0c3e
000003b0: 2e89 e63d 5d0f 12be 0759 7b3b e41b 23be
000003c0: ea6b 1d3e 7cae 02bd 3fb0 813d 68ef e4bd
000003d0: a73f 153e 069a 03be b420 6d3d 9d06 07bd
000003e0: c068 b1bc 5bdb 1ebd b90e d53d b439 2e3d
000003f0: d135 c03d 58fb 72bd 8f02 c6bd fcbd ea3d
0.15238856 0.12817682 0.09344904 0.106869504 0.090365745 0.15766321 0.12863618 -0.023484211
0.14989947 -0.064008266 0.14613809 0.09918343 -0.037229855 -0.17098475 0.15803446 0.015379565
0.016775407 -0.13481642 -0.057807893 0.16215652 -0.13488793 0.16456 0.1605527 -0.05709496
-0.100989446 -0.054499146 -0.020985518 -0.05444018 -0.03846459 -0.12084632 -0.04974232 0.11788215
0.115819156 0.001682115 0.13279523 -0.058488805 -0.03865527 -0.13784738 0.11973354 -0.07295594
-0.06023862 -0.14432356 0.14208545 -0.14067759 0.0057538007 -0.12027733 -0.031092532 0.07213308
0.10690504 -0.14310376 -0.13497552 0.041636612 -0.012532625 -0.1026687 -0.14327271 0.095060095
0.035561353 0.10743264 0.004067994 0.049054455 0.023850534 -0.059509456 0.017856132 -0.015320758
-0.14215374 0.13086995 -0.15410526 -0.11458222 -0.0134861795 0.1451893 -0.14776486 0.019938871
-0.0050837123 -0.07144317 0.06376882 -0.14358874 0.0020148244 -0.16098373 -0.13831618 -0.10780476
-0.16311364 0.08332851 -0.13428205 0.014053454 -0.09315859 -0.1638717 0.13089536 0.1533357
-0.10282088 -0.13768922 0.11331412 0.15241428 0.106712066 -0.08063911 -0.12680157 0.01835208
0.1348489 -0.16943918 0.03842222 -0.1311024 -0.10064791 0.089253195 0.009806766 0.1612397
0.043706987 -0.031802993 0.1371391 0.11190831 -0.13907987 -0.12920922 0.13724694 0.041225325
0.11837424 -0.14005394 0.05987505 -0.08668383 -0.15307449 0.07024636 0.10905108 0.16506858
0.16243608 -0.15003695 0.11035636 0.1444132 -0.15151973 0.1542357 0.15534905 0.16028067
-0.15616162 0.11176527 0.03744716 0.012361425 0.095092006 -0.07003819 -0.037289083 -0.0034571849
-0.17390306 -0.14465438 -0.15571521 -0.13455886 -0.06961595 0.11244023 -0.17399485 0.14980057
-0.0020319498 -0.13966101 0.10672826 0.123207934 -0.1444668 0.1518472 -0.086171724 0.04909734
0.046180423 -0.0091342125 -0.14665428 0.111366004 -0.15116164 -0.0992102 -0.010839763 0.047620803
0.15200832 -0.0064241076 -0.032439884 -0.116780825 0.15982926 -0.16660257 -0.06915487 -0.08190297
-0.15370761 0.06708957 0.098445356 0.13287745 -0.014624704 -0.17291574 0.09780408 -0.1668172
-0.102494 0.062480487 0.07662231 0.0440434 -0.106301375 -0.09149447 0.016959189 0.07937962
-0.008498355 -0.0942422 0.064634934 0.057074346 -0.059720635 -0.0037524523 0.024283716 -0.084912285
-0.04222773 -0.06313273 -0.0111816535 -0.10444292 -0.11446271 -0.110814944 0.032748997 0.0040997528
-0.054394193 -0.0016401467 0.043806423 0.05135952 0.011839706 -0.045003153 -0.10083123 -0.080276914
-0.023533126 -0.1295414 -0.021614745 -0.113508955 -0.16325945 0.072791465 -0.02803546 -0.043434877
0.07879627 -0.028138842 -0.03802411 0.1720063 0.076352626 -0.1417599 0.12739128 -0.09100582
-0.03932778 0.081242435 0.16505231 -0.13970959 -0.1059857 -0.15170152 -0.16328175 -0.16026682
-0.13526268 0.038416624 0.06753491 0.13713454 0.11256634 -0.14263673 0.0038352625 -0.15928608
0.15373197 -0.031904683 0.063324444 -0.111784756 0.14575063 -0.12851724 0.057892516 -0.03296529
-0.021656394 -0.038783412 0.10403199 0.0425355 0.09385265 -0.05932173 -0.09668457 0.11462018

bn1.weight f4 [400]
00000000: b21d c43e cffb 693f 0bb8 a63f 2e48 0f3f
00000010: 1f52 273f 0dce 7f3f 58b4 573f f4e8 243f
00000020: b52f b93e 8811 7f3f 3e00 e83e 1103 8a3f
00000030: 2042 bc3e 3625 533e d9a6 503f ff0c 813f
00000040: fc66 0f3f 54bf 7d3e e797 123f b821 923e
00000050: db32 393e fd4c 3e3f 9dd9 6f3f 0700 163f
00000060: 9f42 453f a2a1 473f cf4a 143f 90af 4bbe
00000070: d3af fc3e 7f0d 0a3f dce7 823f 1f33 633f
00000080: 2d49 8a3f 52c8 893e 4e77 123f 3376 f83e
00000090: 5a8c 663e f257 6f3f b109 793f 23a8 bf3e
000000a0: 3938 393e d594 b03e 91d8 873f cb41 663f
000000b0: bddd 363f b647 e43e c35b dc3e df5c d73e
000000c0: 07a5 403f 6c7f ed3e 9ede 063f 7a6c 363f
000000d0: 083f 713f 0f66 843f fee5 333f 2331 d53e
000000e0: 8dc4 7f3f 5c6a 733f cb95 f83e 3167 d43e
000000f0: 0d02 e83e 18c6 353f 0d81 4c3f 48d6 843e
00000100: 4122 6a3f ad5c 1a3f 1a2d c83e 79b0 0a3f
00000110: 3f98 733e 5d5d 863f 5efd 033f d71b 8e3f
00000120: d5cc 073f f004 3b3f 67b1 103f 763e 033f
00000130: 1c43 4f3f 86f1 783f 289c 583f a2c4 823f
00000140: 31ca 7d3f 9db7 633f b5bc 683e 8b93 0f3f
00000150: 5410 843f 3549 083f ff8d 0d3f ecc6 013f
00000160: 1603 213f 623c 563f efa6 013f c3cd 5a3f
00000170: 0906 133f b7ba 1c3f 18e2 283f f8bb a83e
00000180: a8a5 0e3f 712b 773f d30b 2a3f 4a81 2a3f
00000190: 0083 933e 3429 8d3e b644 5e3f 13db 963f
000001a0: 0d52 1a3f a136 4b3f 03a0 cf3e 6952 843f
000001b0: af88 3b3f 331b 8a3f 1105 203f 84a2 d33e
000001c0: 02f0 5f3e c363 cd3e 42d8 493f 3795 883f
000001d0: ef4c 563f 44e5 043f 6bc2 713f d64e 2b3f
000001e0: c676 813f ec30 7a3f a6a8 603f df95 7d3f
000001f0: 8e11 423f c2ce 783f 0789 a13e 3986 773f
00000200: 991a 693f a253 8c3f 028a b73e ec24 593f
00000210: 2725 e03e 2a70 633f 3d09 353f 6aab c93e
00000220: 45d7 223f f8fb 833f ac00 633f 60e7 3d3f
00000230: 1a93 403f af7b 7c3f 87a2 313f 961d 6e3e
00000240: 6f48 be3e bc19 873f dd96 613e bd50 9d3e
00000250: 6b49 243f ecde 0d3f b086 7a3f 4219 fa3e
00000260: b069 503f 3d13 343f d5f4 ee3e d45c 523f
00000270: 0303 633f 7c56 4a3f ad7f 863f 003f 963f
00000280: 67da 453f 1c40 213f dfeb 223f 3a16 3e3f
00000290: 7ea3 873e cb19 9c3f d96c 3a3f 39a2 743f
000002a0: 598d 8f3f f933 0d3f 1dca b73e d767 853e
000002b0: 2a01 953e d02a 833f dd8a c43e 9e5e 253f
000002c0: 162b 9a3f 017e 803f d484 da3e c13e 773e
000002d0: 595b 4f3f 2431 4c3f 581b 833f cbcb 903f
000002e0: 5774 553f 11d0 bdbe 4cc4 803f e153 3c3f
000002f0: 7386 193f c0c6 7a3f ef30 ea3e 1e0b 673e
00000300: 8ccc 833f 67fe 043f d224 273f f275 ba3e
00000310: 9ac1 613f 62a8 db3e 394c 923f a5c0 903f
00000320: 0e27 f73e f975 a63e 57d4 343e 5894 883f
00000330: 1c9d 1e3f af40 513f b345 803f 2b47 fd3e
00000340: fe15 ad3e 8c14 053f 5b97 533f e7db 213f
00000350: a32e 3d3f 8aa5 bc3e 5347 353f a265 653f
00000360: 38aa bb3e 7a16 223f 86ce 1f3f 1bb3 603f
00000370: c407 723f 7dc0 a13e d840 803f fe69 c23e
00000380: 3c4b 1d3f 55a6 233f 0610 553f 483b 473f
00000390: b7b4 633f 8e2b 593f eb59 a63e 60cd f13e
000003a0: f49f 6d3f 44b0 783f 66b3 043f 9529 1e3f
000003b0: 2240 4f3f e8be 973e 38aa 993e dbdf 1e3f
000003c0: 3233 043f 2509 1e3f 6376 383f 4f8e 183f
000003d0: b1b3 6b3e 2399 5f3f f10d 6c3f b746 813e
000003e0: 90c3 923f 7305 503f 2294 4d3f c9c6 483f
000003f0: 3960 643f d4ee 263f f13b f63e ab2f 873f
0.38303906 0.91399854 1.3024915 0.5596951 0.6535968 0.99923784 0.8425956 0.6441796
0.3616921 0.99636126 0.45312685 1.0782186 0.367692 0.20619664 0.8150459 1.0082091
0.56016517 0.24780017 0.57263035 0.2854135 0.18085806 0.74336225 0.93691427 0.5859379
0.7705478 0.7798101 0.5792665 -0.1989119 0.49352893 0.53926843 1.0227008 0.8874988
1.0803581 0.26910645 0.57213295 0.4852768 0.22514477 0.9349357 0.9728041 0.37432966
0.18087853 0.3448855 1.0612966 0.8994414 0.71432096 0.4458596 0.4303876 0.42063043
0.7525181 0.46386278 0.52683437 0.7125927 0.94236803 1.0343646 0.70272815 0.4163905
0.9990929 0.95084167 0.48551783 0.4148498 0.45314065 0.7100539 0.79884416 0.25944734
0.9145852 0.6029766 0.3909691 0.54175526 0.23788546 1.0497242 0.5155848 1.1102246
0.53046924 0.7305441 0.56520694 0.5126718 0.80961776 0.97243536 0.84613276 1.0216258
0.99136645 0.88952047 0.22728236 0.5608451 1.0317483 0.53236705 0.55294794 0.50694156
0.62895334 0.83685887 0.50645345 0.8547022 0.57431084 0.61222404 0.6596999 0.3295591
0.5572152 0.9655066 0.6642429 0.6660353 0.28810883 0.27570498 0.86823595 1.1785606
0.6028145 0.7938023 0.40551767 1.033765 0.7325544 1.078955 0.6250773 0.41334927
0.218689 0.40115175 0.7884561 1.0670537 0.8371114 0.5191233 0.94437283 0.6691717
1.0114372 0.977309 0.8775734 0.9905681 0.75808036 0.9719049 0.31549856 0.9668918
0.9105621 1.0963023 0.3584748 0.84821963 0.43778345 0.88843024 0.7071722 0.3938859
0.63609725 1.031127 0.886729 0.74181175 0.7522446 0.98626226 0.6938862 0.23253474
0.37164637 1.0554729 0.22030206 0.3072566 0.64174527 0.55418277 0.97861767 0.48847395
0.81411266 0.70341855 0.46671167 0.82172894 0.8867647 0.79038215 1.0507714 1.1737976
0.7728638 0.6298845 0.6364116 0.74252665 0.26491922 1.2195371 0.7282234 0.9556003
1.1215011 0.5515743 0.35896388 0.26055786 0.2910245 1.024744 0.38387194 0.645975
1.2044399 1.0038453 0.42679465 0.24145032 0.8099876 0.7976248 1.024272 1.1312193
0.83380646 -0.37072805 1.0059905 0.7356549 0.5997078 0.9795952 0.45740458 0.22562835
1.0296798 0.5195069 0.6529056 0.3641811 0.8818604 0.42901903 1.1429511 1.130879
0.48271984 0.3251188 0.17659126 1.0670271 0.6195848 0.81739324 1.002127 0.4946836
0.3380584 0.5198448 0.82652825 0.6322617 0.73899287 0.36845046 0.7081196 0.89608204
0.36653304 0.63315547 0.62424505 0.87773293 0.945431 0.3159217 1.0019789 0.3797149
0.61442924 0.6392568 0.83227575 0.7782483 0.88947624 0.84832084 0.32490477 0.47227
0.92822194 0.9714396 0.5183624 0.617822 0.80957234 0.29637837 0.3001268 0.62060326
0.5164062 0.61732703 0.72055644 0.59592146 0.23017766 0.87343043 0.9220877 0.25249264
1.1465931 0.81258315 0.8030416 0.7842832 0.89209324 0.6520817 0.48092607 1.0561422

bn1.bias f4 [400]
00000000: a37e 87bd 67b0 67bc 885e a6bd 9e00 2cbd
00000010: f3cf 5fbe 1de4 153c 1b26 ebbd 2f0a 67bd
00000020: d062 0a3e c67c 96bc 1656 383d 7201 0a3c
00000030: 53a6 0cbe d6e0 2dbd e2e0 22bd 3c1a 9bbd
00000040: 6346 b9bd 98d8 7e3c 405c 76bc d6d4 0cbc
00000050: 6f10 70bd d36c 9ebd d5fc 4bbd 0c83 1abc
00000060: 461c 623d 38e6 463c 06ae e93c a1be 05bd
00000070: 182b fd3c f902 033d c30f 23bc e4b3 8cbd
00000080: 9679 803d 0ecc 073c 8991 453c f00e 80bc
00000090: 94db 07be daa7 bdbd 8cfb 193d bd9b 82bd
000000a0: 29d5 02be 6c67 ba3a da24 1fbe 8637 003c
000000b0: fdc0 573d e251 033d 9e65 8fbd fcd7 9b3d
000000c0: ba6c 923d 54f1 76bd 8d0e 3bbd 983a af3b
000000d0: 068f b4bd ad29 3d3d 5ade 4fbe 9249 193d
000000e0: 293d 51bd 3fa8 86bd c82d 10bd 117d 843d
000000f0: b7da dc3c 869b 0fbd 069a a2bd 08e4 df3c
00000100: 9807 46bd 0ef3 423b fc57 b6bd 89a4 d03c
00000110: 8f3f 27bd 1fcf abbd aa53 39bd d932 14bd
00000120: 0adf 2ebd 4ef2 92bd 5cef f9bc 03d2 9e3d
00000130: 758c 3cbd 4c10 543b c451 7f3d 4e9e e73b
00000140: ec03 1bbd 4ebc 32bd d798 02bd 378e 63bd
00000150: a21e 223c 9d2c 963d aee0 4dbd 0ca4 cbbd
00000160: 9434 febd 77a6 ad3d 5fe0 36bd d10e 303d
00000170: 0aac a73c c8c8 e7bb 8d77 073d 7be2 96bd
00000180: 889b 8dbc 9d92 9a3c fcaf 27bc 572d 85bd
00000190: c4bf 40bd 5f30 89bd af63 993d 55d8 91bc
000001a0: 4bf5 52bc b6c7 ce3d d675 fbbb 9010 eabd
000001b0: 582f 72bd 55e7 c1bd 494e f53a c511 723d
000001c0: 4d04 55bd a1a5 b3bc b11c ccbd cbc3 8fbc
000001d0: cb07 4bbe 1c7d d8bc 2908 6b3c 9dfe 14bc
000001e0: 0291 db3d 0e7c 63bd 8255 10be c5ad dfbd
000001f0: 3f3b 43be 1f99 e5bd 48af e33b 755a 05be
00000200: fe6b 2a3d 26a1 58bc 26b8 44bc a49d 9a3b
00000210: 9466 ca3c f0a8 f4bd 66a9 a9bc a8f8 a6bc
00000220: 24a3 a5bd 0b8a a5bd 21ad 9f3c 5b5e e0bd
00000230: f747 83bc d2fe 37bd c320 65bd d6b4 0abd
00000240: d979 9dbd dace 65bd ce1f 69bd fa35 433c
00000250: 8375 6fbd ba4d 153d baea 22bd 53bc 8dbd
00000260: 1bec 55bd 8a82 e83b 6c1e 853c bf70 09be
00000270: 34d9 debd 73e9 b63c 7d01 2bbe 5287 6bbc
00000280: c0a8 d7bd 6525 adbd 70bf a4bd 2bc0 7cbd
00000290: d3bd a83c 9d88 3f3b af42 acbc ba6d 71bd
000002a0: e775 0abe b4a0 c0bd 9d5d 513c 4450 0f3c
000002b0: c4a0 ba3d 085b 03bd c7a3 cbbc 1ca2 23bd
000002c0: adfd ebbd 95aa f3bd 6e87 83bd 1ffb a2bc
000002d0: d083 92bd f94b ddbd 6bec a2bd 44b4 983b
000002e0: e283 0abd b16c 6cbb a8e3 e6bc eba4 e2bd
000002f0: e3db 3bbd d9d0 d63b 710f cd3c 8e4e 733d
00000300: ff93 2e3b 9ca6 6a3d c04b 783c 37b5 7cbc
00000310: 980f 03bd 8e9b 663d 34a2 113b db0d 9cbb
00000320: c0bf 93bb ce26 b33c af1a 8dbd 2337 f6bc
00000330: 0790 6f3d 3a6a 05be 8d38 403d 3d17 08bc
00000340: ebd0 eb3d 3be5 4cbd 31c5 75bd 9489 80bd
00000350: 4105 a8bc 418b adbd 2446 a7bc af08 c33c
00000360: 2c76 e1bc 7006 0bbe b8ef 04bd 373a 91bd
00000370: 1a71 50bd 5b2e a5b9 c28d 3fbe 4ee1 6b3d
00000380: 6579 703d ec18 66be 6cfb f03c 1e22 9b3d
00000390: 0765 08be 9a99 08bd 2a79 5a3d 79d1 b23c
000003a0: 782c f4b7 76a8 e0bd dc0c bdbc 2c57 febb
000003b0: 6baa cebc d61e 473d d526 91bd 5df8 8e3c
000003c0: 5b25 e83d b4ea 17bd e447 0fbe 8e18 97bb
000003d0: ff91 073d c0e8 04be 4396 a5bd c92e 4c3d
000003e0: 220d 06bd af0e d43d b316 3b3d 328e 083d
000003f0: eed1 79bc f6a8 eebd bfe0 473d 9ab6 1ebd
-0.06615951 -0.014141179 -0.08123499 -0.041992776 -0.2185667 0.009148625 -0.114818774 -0.056406196
0.13514256 -0.018370043 0.045003973 0.008423196 -0.13735323 -0.04245075 -0.039765246 -0.07573363
-0.09046628 0.01555457 -0.015036643 -0.008595666 -0.058609422 -0.077356 -0.049801666 -0.009430658
0.055202745 0.012139849 0.028525364 -0.0326525 0.030904338 0.031985257 -0.009952488 -0.06870249
0.06273191 0.0082883965 0.012058624 -0.015632123 -0.13267356 -0.09260531 0.03759341 -0.06377361
-0.12776627 0.0014221496 -0.15541402 0.007825738 0.052674282 0.03206051 -0.07001804 0.07609555
0.07149644 -0.060288742 -0.045668174 0.005347561 -0.08816342 0.046182323 -0.20299664 0.037423678
-0.051083717 -0.06575059 -0.03519991 0.06469167 0.02695976 -0.035060428 -0.07939534 0.027330413
-0.048347086 0.0029746923 -0.089035004 0.025469081 -0.0408321 -0.083891146 -0.045245804 -0.036181305
-0.042693175 -0.07175122 -0.030509643 0.077549 -0.046032388 0.0032358347 0.062333837 0.007068432
-0.037845537 -0.043636613 -0.03188404 -0.05555555 0.009894999 0.07332728 -0.0502631 -0.09943399
-0.12412372 0.08479016 -0.04464757 0.04298288 0.020467777 -0.0070734955 0.033072997 -0.073674165
-0.017286077 0.018868739 -0.010234829 -0.065027885 -0.047057882 -0.06698679 0.07489716 -0.01780335
-0.012875865 0.100966856 -0.0076739592 -0.1142894 -0.05912718 -0.09467951 0.0018715347 0.059098978
-0.052006055 -0.021929564 -0.0996641 -0.017549416 -0.19827192 -0.026426844 0.014345207 -0.009093908
0.107210174 -0.05553823 -0.14095119 -0.10921816 -0.1906557 -0.11210846 0.0069483854 -0.13022788
0.041606896 -0.0132220145 -0.012006795 0.0047184993 0.024707116 -0.11946285 -0.020710658 -0.02038224
-0.08087757 -0.0808297 0.019491734 -0.10955497 -0.016025526 -0.04492075 -0.055939447 -0.033863865
-0.07689256 -0.056105472 -0.056915097 0.0119147245 -0.058461677 0.03645108 -0.039774634 -0.069206856
-0.05222712 0.0070956396 0.016249858 -0.13421915 -0.10881272 0.022328114 -0.16699786 -0.014375525
-0.105302334 -0.08454398 -0.08044326 -0.061706703 0.020598328 0.0029225715 -0.021027891 -0.058942534
-0.13521539 -0.09405652 0.012778667 0.008747164 0.09112695 -0.032069236 -0.024858369 -0.03994952
-0.11522994 -0.1189777 -0.064223155 -0.019895134 -0.071540475 -0.10805506 -0.079552494 0.004660161
-0.03381718 -0.0036075527 -0.028184727 -0.11066612 -0.045863997 0.0065556583 0.025031777 0.059401087
0.0026638506 0.057287797 0.015154779 -0.015424064 -0.031997293 0.056300692 0.0022221925 -0.004762394
-0.0045089424 0.02186909 -0.06889855 -0.030055588 0.058486965 -0.13028803 0.04692893 -0.008306322
0.11514457 -0.0500233 -0.06000251 -0.06276241 -0.020510318 -0.08473826 -0.020419188 0.023807852
-0.027522169 -0.13576674 -0.032455176 -0.07091182 -0.050889112 -0.0003150579 -0.1870642 0.057587914
0.05870952 -0.22470444 0.029416762 0.07574867 -0.13319789 -0.03334961 0.053338207 0.0218284
-2.9107774e-05 -0.109696314 -0.02307742 -0.0077618565 -0.025227746 0.04861339 -0.07087485 0.017452413
0.1133525 -0.037089065 -0.13992268 -0.0046110814 0.033098217 -0.12979412 -0.08085301 0.049849305
-0.03272737 0.10354363 0.045675945 0.033338733 -0.015247805 -0.116533205 0.04879832 -0.03874836

bn1.running_mean f4 [400]
00000000: 1f73 3cbd cb26 b9bc ea77 4e3c a443 583d
00000010: 6084 163c f064 cf3e d4bb 073e 20f2 2ebd
00000020: a02e 523e c699 83be d399 a53e 0c80 e33d
00000030: 3dfc c4be aa56 4fbf c47c 84bd 51d7 b1bc
00000040: 6365 e9be 28b2 08be ab9f f3bd 153d 2c3e
00000050: 8ea3 efbd b48f 10be e196 093e 1ae6 dd3d
00000060: 91b1 323e 6317 8ebc 4338 503e 24cf a0be
00000070: 0292 493d aefd 4cbd e1e1 53be dc21 12bd
00000080: 0dec d93e 8c28 d3bd 8f0c c13e 874b f7bc
00000090: f42f 89be 81ec d4bd edbb 963e b891 16be
000000a0: 754c b03d 500a db3d 3229 9fbd 945c a3be
000000b0: b0a2 babd 3b9d 0a3e b70a b2bd 93d2 bf3e
000000c0: 3b32 4d3e 8e8d 84be 9db4 4bbe 1000 b2bc
000000d0: 0bba 02bc ce8c 34be 7ace 14bf 8525 2b3e
000000e0: d3da a0be b534 7abe ecf8 313d 29c5 1a3e
000000f0: 4706 2cbe 7e03 e3bd b0e5 863e 0604 87be
00000100: 4068 3bbe f4a4 e63d 6637 e0bd 6a17 0abd
00000110: 6201 23bd 1717 08be e500 debe b1ec cabe
00000120: 45d2 a0bd ee8c d7be 8177 6a3e 88f2 603d
00000130: 345d 9e3d df89 d5bd d3c6 933c ae07 7abe
00000140: 5a61 71bd 6b6c a7bd 254a a7bd 36a6 a6be
00000150: 26e7 763c bb2f 11bd c08e 44bd fd1a 9e3d
00000160: 070c 25be ba50 dd3d a4ba 343d 78e3 133e
00000170: 525b d23d 36ce d1bd 9b97 493e 5d76 553e
00000180: 882f f13d b61a bdbe fe16 13be f7b0 51be
00000190: 89bc f4bd a9e8 b3be a66d dc3e 6e9f b03d
000001a0: ad84 18be 0526 c4bd 67c0 273f f5da 9dbd
000001b0: eaa9 6bbe d6fa 6bbe bfec 133d 7141 7a3e
000001c0: d87e 0b3f 8aa1 d4bd 7870 c63e d341 adbe
000001d0: 1c7e 39be a502 843e 4408 673e 7eeb b23e
000001e0: 5362 233e 8f36 a2be 9d8b 863d 0b8e e8bb
000001f0: 34ff 253d baf2 67be 073e 1c3f 9f91 8e3e
00000200: caa5 99bd 268d d8be 8355 753e 5f1b b4bd
00000210: 3e9d e53d 487c 6abb 9962 b6bd 65e1 953e
00000220: 318a bdbe c7e6 1bbf 61a0 063d 6ed3 a5be
00000230: c6f8 003e 3b38 d83d 4472 b0bd 4eb4 70be
00000240: a214 d63c 3a7d 1dbf f4b9 a93d 9223 ea3e
00000250: 7f22 88bd 9313 bcbb 7b5f 93bd b5ae b6be
00000260: 9417 0fbe 325b 8c3d ede1 1cbe 1868 2bba
00000270: 2dad dbbe 8eb5 12bd 6b26 24bf eaff 193e
00000280: 7262 d33b 40d8 f3be 5e4e e53c e858 d8be
00000290: 559b 063e e051 a5be 1596 b1be 6c7c 78bd
000002a0: fbe8 97be 2c5e fa3c 1236 e93e 10d4 003f
000002b0: 9410 073e 7023 21bf 6e8e 263e f858 d5bd
000002c0: 770b 01be 5ecd 943d 793b 553e c1e4 a6bd
000002d0: 18ef d4be 830f 5e3d 1e0e 16be 369a 933e
000002e0: 17b8 273d 7bc8 ca3d b483 5a3e 26d1 4cbd
000002f0: 4f95 d7bd dd0f 243e 4d1e 513e 5530 173d
00000300: 01aa 42be ca3c a63d 72d1 b03d 0a2a bf3d
00000310: aa62 e1be f490 86be bf83 3a3d 2ea7 0c3e
00000320: 96a0 783d 0f5d d1bd f504 0fbe 0dd2 123e
00000330: 1175 94bc 65f1 fbbd 3cb6 e6bd 71e1 cabd
00000340: 6cc9 3d3b e8cb 04bf 7cf5 af3d 25dc 3bbe
00000350: faf5 e8bd 9f01 513e 64c2 d1bd 5e18 933e
00000360: ae1e dbbe b8d2 1fbe eef1 f03d c9be 4abe
00000370: 5f18 293d 007b 18be be9d ed3d 8fff a9be
00000380: ab7c c83c 6d84 823d 3777 8b3e f4e4 463e
00000390: d814 36bd 1a37 24bf 08f6 22bd 69f3 9bbe
000003a0: 7266 dabd f083 7bbe 1421 5e3c c450 7e3e
000003b0: 2a0a 603d a346 e03c 42da 88be b078 4d3e
000003c0: fa60 db3c 44be a2bd ac55 ebbd 8b74 56bd
000003d0: 0543 d43e 4c94 74be db4a ff3e 1047 08be
000003e0: 581c 05bd cdf6 be3d 6347 b83d 238b e03d
000003f0: 0e48 813c 40c4 bcbe c32c dbb9 8f3d c53d
-0.046008226 -0.022601506 0.012601832 0.052798882 0.009186834 0.40506697 0.13255244 -0.042711377
0.20525599 -0.25703257 0.3234392 0.111084074 -0.38473693 -0.80991614 -0.0646911 -0.021709116
-0.45585164 -0.13349211 -0.118956886 0.16820176 -0.117011175 -0.14117318 0.13436462 0.10834904
0.17450549 -0.017345136 0.20333962 -0.31408036 0.04921151 -0.050046615 -0.20691635 -0.035676822
0.42562905 -0.10310468 0.37704894 -0.030187381 -0.26794398 -0.10396672 0.2944025 -0.14704025
0.08608333 0.10695326 -0.07771529 -0.3190657 -0.091130614 0.13536541 -0.0869345 0.37465343
0.20038693 -0.25889248 -0.19893117 -0.021728545 -0.007978926 -0.17631838 -0.5812756 0.16713531
-0.3141695 -0.24434169 0.04345028 0.15114273 -0.1679927 -0.110846505 0.26347113 -0.26370257
-0.18301487 0.11261931 -0.109480664 -0.033713736 -0.03979624 -0.13290058 -0.43360057 -0.39633706
-0.07852606 -0.42099708 0.2289715 0.054918796 0.07732621 -0.104266874 0.018039143 -0.24416992
-0.058930732 -0.08174976 -0.08168439 -0.32548684 0.0150697585 -0.03544591 -0.0479877 0.07719991
-0.1611787 0.10806413 0.044123307 0.14442241 0.10271324 -0.1024441 0.19686739 0.20845933
0.11776644 -0.3693444 -0.1436424 -0.20477663 -0.11950023 -0.35138443 0.43052405 0.08624159
-0.14894362 -0.09577564 0.6552796 -0.07707778 -0.23014036 -0.23044905 0.03611445 0.24439026
0.54490423 -0.10382374 0.38757682 -0.33839282 -0.18114513 0.25783268 0.22561747 0.3494529
0.15955476 -0.3168225 0.06569598 -0.007097011 0.040526584 -0.22651187 0.61032146 0.27845475
-0.07502325 -0.42295188 0.23958401 -0.08794283 0.11211632 -0.0035779644 -0.08905525 0.29273525
-0.37019494 -0.60899013 0.032867793 -0.3238787 0.125949 0.105576 -0.086155444 -0.23506281
0.026132885 -0.61519206 0.08287421 0.45730263 -0.066472046 -0.005739638 -0.07195946 -0.35680166
-0.13973838 0.068533316 -0.15320559 -0.00065386435 -0.4290556 -0.035817675 -0.6412112 0.1503903
0.0064509446 -0.47625923 0.02799147 -0.4225533 0.13145192 -0.32289028 -0.34684816 -0.060665533
-0.29669937 0.030562483 0.45549065 0.5032358 0.13189918 -0.629447 0.1626527 -0.1041736
-0.1260203 0.07265733 0.20823468 -0.081491 -0.41588664 0.054214012 -0.14653823 0.2882859
0.040947046 0.0990152 0.21339303 -0.050004147 -0.10526525 0.16021676 0.20421715 0.036911327
-0.19010164 0.08117063 0.086336985 0.0933419 -0.44020587 -0.26282465 0.0455358 0.13735649
0.06070002 -0.10222828 -0.13966735 0.1433794 -0.018122228 -0.12301902 -0.11265227 -0.09906281
0.0028959168 -0.51873636 0.08591744 -0.18345697 -0.11375041 0.20410775 -0.10242155 0.28729528
-0.42796844 -0.15607727 0.117648944 -0.19799341 0.041283008 -0.14890671 0.116023526 -0.33202788
0.024473509 0.063729145 0.2723939 0.19423276 -0.044453472 -0.6414658 -0.039785415 -0.30459145
-0.10664071 -0.24562049 0.013557691 0.24835497 0.054697193 0.027377432 -0.26729017 0.2006557
0.02677964 -0.079464465 -0.1149095 -0.052357238 0.41457382 -0.23884696 0.49861798 -0.13308358
-0.032497734 0.09324417 0.08997991 0.10964038 0.015781429 -0.36868477 -0.00041804285 0.09630882

bn1.running_var f4 [400]
00000000: 09ea d83d 2bfb b83d c01c 143e 790b af3e
00000010: a905 a13d 9e0a 8c3f 3d98 1c3e 9b5a 213e
00000020: 22aa ca3d ec85 393f 928c 233e f7d0 e23d
00000030: 74a6 973e 2966 333e e875 5e3e 43ff 943e
00000040: c1d0 023e 1dff 293e bc18 1d3e 5ce6 953d
00000050: d175 333e 673c f93d 3499 3d3e 25c1 a13e
00000060: e45c 923d d408 c13e 8edb 043e ffc0 6f3e
00000070: 1dee aa3d f9a0 863f 6fa3 753e 6a3c 343e
00000080: 9d5d 603e b457 903d 88ff 303e 9645 9b3d
00000090: b8bd 993d b7b6 593d 0072 803d 39da dc3d
000000a0: 31dc d33d 0299 903d b8ab e23e 9e2a e73e
000000b0: 577b 903e 30b2 003e 7773 183e 3fe1 783e
000000c0: ad02 c73d 8d79 b33d fd76 e53d 271e ca3d
000000d0: ef10 273e 4d8f a73d 3e1a 7f3e ff18 5c3e
000000e0: cfc4 873e 110c 3d3f 5620 1f3e 2df8 c53d
000000f0: 4694 2d3e 1f01 d43d 28e0 db3e 6714 1c3e
00000100: e1db 453d 2db8 213f 5d96 fa3d d74e 543e
00000110: c12f 233e 6f7f ff3e 617a 7e3e d347 a03e
00000120: a91f ac3e ba70 d13e 7805 883e 035a a43e
00000130: e46b 373f 1a29 5e3e 60c9 cc3d a897 e43e
00000140: 4be4 ca3d d222 493e a757 ea3d 2236 003e
00000150: 18d3 bc3e 029b 203e c2ef 3c3e 62c6 ab3d
00000160: 3cb9 863f a0b1 e53d bd78 343f d6af 213f
00000170: 24d1 f93e 1ad6 c63e fccb 2c3e 4600 0e3e
00000180: eb3c a43d 2915 fd3d 8ad1 3e3e ba50 173e
00000190: c359 a83d 0a4c 393e 212f 343e 97e9 3a3e
000001a0: 440d 223d 2862 ad3e 57da 383e bf57 073e
000001b0: ccac 8b3f 4380 fc3d 4e7c 173d d39b fd3d
000001c0: c608 2e3e 319d 213f ac8f 323e a0fd 2c3f
000001d0: b109 673d 75a0 a63e b279 4c3e c8bd 523e
000001e0: 0701 733e 80db 403f 261e 493e c5d5 5c3e
000001f0: bdec fa3e 80bd 1c3e e47b b33e a298 0e3e
00000200: 3ed2 3d3f f31a d53e adaa d03e 7ca6 053e
00000210: a254 873d b301 833d 478e 993f f24f 233e
00000220: d759 873d 6523 903e 6605 7d3e cc24 023e
00000230: f2f3 f83d 247e 933f 0d9d af3e 6b76 2f3e
00000240: d72c 463d 0504 013e 5ab0 a83e 98f2 983e
00000250: 782e 223f 22a7 3e3e 3dea be3d 3552 163f
00000260: eea4 973e b9dc 2e3e 6807 4c3e 9e53 243e
00000270: 16b7 c33e 4c61 933d 9ad6 6b3e 172d bf3d
00000280: 63e9 c43e 9ce4 253e 393c bd3e 7d05 213f
00000290: 42aa 883e 5e13 5f3d a380 063e 185c db3d
000002a0: d0e5 1a3e caf5 ee3c c350 6e3e ddf8 8f3e
000002b0: e4e3 283e 6a8e a13e ff93 d03d 0af4 dc3d
000002c0: d1bd 933d c856 8d3d 3715 483e 619f b93d
000002d0: c832 483f 5cc1 b93d 0d08 c93e ade5 8e3e
000002e0: 48ea 7e3e acb6 c13d be17 cf3e 9149 093e
000002f0: 387a 3b3f 3e5f 0c3f f5e3 323f 71d9 2c3e
00000300: 53eb a43e 2d48 cb3e d8a7 9c3d 8f9e 093f
00000310: 2cb9 aa3e 19e1 c43d 3d9c bf3d aaea 513d
00000320: e729 133e b5ba 0f3e c893 343e 9d4b a53d
00000330: 1b43 563e a463 be3d 640a 383e 1b10 c03d
00000340: 80f7 463e 9989 873e 3d17 203f 7a8e c23e
00000350: 2857 d83d 0cad a73e df6a 383e ba56 b73d
00000360: c110 333e 7845 da3e d86b 363e e18f 663e
00000370: ddf2 9e3d 2ef0 c63d 216f 8b3d 4465 083f
00000380: c126 a03e 75fd d83d bb41 583d bb1b 003e
00000390: 8621 af3d 2704 3e3e 945d 933e 1fc1 d33e
000003a0: 6407 b63e 1e10 f63e 2d1f d83e 22b7 203f
000003b0: 58c3 f83d b7d4 ce3d 4dec 8e3e 0e13 c93e
000003c0: 535d cc3d a539 af3d 16be 053e c385 1c3f
000003d0: ed33 013f e61e 193e c181 9d3f 6d7b 183f
000003e0: cf15 e23d ef23 8e3e bf4b 2c3e 065c 203e
000003f0: 87ce 333e 25b0 213e b1e8 793e 56ab 883d
0.10591514 0.090322815 0.14464092 0.3418844 0.07862408 1.094074 0.1529245 0.1575722
0.098957315 0.72469974 0.15971592 0.11075013 0.2961918 0.1751944 0.21724665 0.29101
0.12774946 0.16601224 0.15341467 0.07319328 0.17525412 0.12169724 0.18515474 0.3159267
0.07146624 0.37702048 0.12974378 0.23413466 0.08346198 1.0517875 0.23988126 0.17601171
0.2191071 0.07047978 0.17284977 0.07581632 0.07506889 0.053152766 0.06271744 0.1078381
0.103447326 0.07060434 0.44271636 0.45149702 0.282191 0.12567973 0.14887796 0.24304675
0.09717307 0.08763418 0.11204336 0.09869032 0.16315053 0.08181629 0.24912354 0.2149391
0.2651734 0.73846537 0.15539679 0.096664764 0.16951093 0.10351776 0.42944455 0.15242158
0.048305396 0.63171655 0.12235711 0.207332 0.15936185 0.49901912 0.24851371 0.31304798
0.33617905 0.40906316 0.26566672 0.32099923 0.71649003 0.21695367 0.09999347 0.44646955
0.09906825 0.19642189 0.114424996 0.1252065 0.36879802 0.15684131 0.18450835 0.08387448
1.0525279 0.1121552 0.7049673 0.6315893 0.48792374 0.38835222 0.16874689 0.13867292
0.08019432 0.123575516 0.1863462 0.14776888 0.08220246 0.18095413 0.17596103 0.1825317
0.039563432 0.3386395 0.1805204 0.13217066 1.0912108 0.123291515 0.03698378 0.12383237
0.16995534 0.6313048 0.17437619 0.675745 0.056405727 0.32544294 0.19968298 0.20580208
0.2373086 0.7533493 0.19640407 0.21565922 0.49008742 0.15306664 0.3505546 0.13925412
0.7414893 0.41622123 0.40755215 0.1305179 0.06607939 0.063968085 1.1996545 0.15948465
0.066089325 0.28152004 0.2470909 0.1270935 0.12155904 1.152287 0.34299508 0.17135017
0.048382606 0.1259919 0.32947046 0.29872584 0.63352156 0.18618444 0.09322021 0.5871919
0.2961802 0.17076387 0.199247 0.16047522 0.3822562 0.07196292 0.23031083 0.09334772
0.3845931 0.16200489 0.3696001 0.62899 0.26692396 0.05446183 0.13135009 0.10710925
0.15126729 0.029169936 0.23272996 0.28119555 0.16493183 0.31553966 0.10184478 0.10788734
0.07213939 0.06901318 0.19539343 0.09063602 0.78202486 0.090700835 0.39263955 0.27909604
0.24894059 0.0945867 0.404478 0.1340697 0.73233366 0.5483283 0.69879085 0.16879822
0.32210788 0.39703503 0.07649201 0.53757566 0.333444 0.096132465 0.09355972 0.051249184
0.14371453 0.14036067 0.17634499 0.08071063 0.20924036 0.09296349 0.17972714 0.09378072
0.19430351 0.26472166 0.6253546 0.37999326 0.10563499 0.32749212 0.18009518 0.08952089
0.1748686 0.42631125 0.17814577 0.22515823 0.07761166 0.097137794 0.068083055 0.5327952
0.31279567 0.10595218 0.05279706 0.12510578 0.08551316 0.18556271 0.28782332 0.41358277
0.35552514 0.4805917 0.42211285 0.6277944 0.12146634 0.10099166 0.27914658 0.3927235
0.09978738 0.08555917 0.13060793 0.61141604 0.5046986 0.14953193 1.2305223 0.5956333
0.11039316 0.2776179 0.1682577 0.15660104 0.17559253 0.1578985 0.24405171 0.06673305

fc2.weight f4 [300, 400]
00000000: 5dac c1bb 086e bebd edce e63d 232d 73be
00000010: ef13 2cbe df5d a43d 5046 963d f214 d03d
00000020: 1444 bd3d 2439 043d 0954 0c3c d42d 8d3c
00000030: d73b 9b3e e3bb 963c 0014 97bc b8af 5cbd
00000040: 01c7 d3bd 27cd 21bb d876 c03d d3df c93d
00000050: 5cf7 6fbd 41bc 4ebd caed 873c ebe2 9f3c
00000060: d7c8 febd 5e2d 353d fc3e 1c3d 8b64 0c3e
00000070: 46e4 9bbd 31b2 663c a7e4 aebd 20da 9abd
00000080: 7c07 7fbd de4f d23c a8fb f2bc 1cef dfbd
00000090: a9ea be3d 1c82 afbc 6f72 17bd 40de b63c
000000a0: 16a1 ae3d 8caf d6bc e532 8a3b f7b6 483c
000000b0: 369d f6bd 62b1 443c 0b62 cf3d c283 593e
000000c0: 905e 79bc aadf 943d b8a0 e23d 11b9 233a
000000d0: 1f30 fe3b 72a7 b2bd 905f 5a3d d025 8b3d
000000e0: 99d1 b1bd d800 fcbc 1f4f 1abd 964f 803d
000000f0: ce94 273c 31c4 83ba eb3f dcbd b60c 403c
00000100: b147 a9bd 6cba 4a3d c345 93bd f019 f2bd
00000110: 08ff c8bc 8e93 d3bd 0405 ebbc 0648 15be
00000120: 466c e0bd a118 843c ce24 27bd a051 67bc
00000130: 1aa2 35bc e091 003e 73a4 003e df8c 8f3d
00000140: c54b ae3c 59d7 193d 1198 353d 7721 293d
00000150: 45dd 6fbc a9bf 1bbc c89e c0bd 59a3 b8bd
00000160: 1cfb babd 5522 17bd cb20 10bd 6511 9fbd
00000170: a1a7 01bc 64d8 193c 29b5 b03d 21a3 25bd
00000180: d7a4 883d 10a9 8f3d 4c8d 593d 4798 f93b
00000190: d097 a13d 6e51 3f3b 6c2e 5f3d d0f4 553d
000001a0: 3e8d ccbc 42a6 d6bc 23c2 4ebd 8987 ed3d
000001b0: 69fd 48bd be79 503d 7af0 8f3c f922 45bc
000001c0: a2aa 0f3d 7e5c 3ebd 2519 1e3e d189 8c3c
000001d0: b9c9 1a3b f63b 333e 0b94 e6bd 61a2 11be
000001e0: 7e6a 82bd 402b ecbc 4379 b13d 8122 d2bb
000001f0: 0aed 6abd 305b 463d 0a43 25bd ef08 733c
00000200: bea2 573c 1078 81bd 1e1e ec3d 2563 ccbd
00000210: 451c 1ebd 48f3 413e 5259 b3bb c77c a8bc
00000220: 17db 053e 1919 a43d d515 bebc 71aa cc3d
00000230: 763c b23d b3ca c63d 37dd b33d 0a72 843d
00000240: 34aa 7d3d 7ad5 dcbd 5f7c b53c b345 e53b
00000250: c2d5 163e 961b 013b a739 313d 524d 47bd
00000260: aa37 a43d 91e7 213c 5e57 ba3c 3f99 a63d
00000270: 1f33 86bc a1b2 c23c 5103 c53c 93dc 843e
00000280: a157 97bd 8f18 713d 6771 4e3d cf3f c3bc
00000290: ecde cf3d cb4f bd3c c7b7 58bd b6af cf3c
000002a0: 97a3 93bd a92e a73d 809a 33bd 0fa0 273d
000002b0: 7090 babb 2e8a 21bd e923 e5bd 40cc 8c3d
000002c0: 0a4e cb3d 9ad0 15bd 34dc 523c a5b9 543d
000002d0: 99df c73a f71a 113d 9c0c 113e 9e49 833b
000002e0: 5a35 b63d 86e1 c23d 9b39 56bd c71f 3abd
000002f0: aabf 983d f889 c63a 6b59 30bd af76 473d
00000300: b827 4d3d 2327 553c fa90 923c da31 8dbd
00000310: a26b b7bc 3ce9 b7bc a40e 663d 3010 f53b
00000320: 998f fe3d ba79 8ebd 0030 3d3c ec16 7ebd
00000330: ac79 293d eac8 0f3e 3ad1 11bc 2a23 02bd
00000340: de08 54bd 7674 e63b 6251 4e3e 6bae 0e3e
00000350: 3a3a 0f3d d824 3fbd a137 85bd 421e f6bc
00000360: 27f7 cebd 05b4 973d 7c82 f5bc b00a 8fbd
00000370: 673b e7bc 54d6 d43c d302 823d da9e a63d
00000380: 5a13 b5bd 13b2 173d 2925 36bd 7047 a63d
00000390: 9eec e9bd 5ee3 a9bd b96b 9cbd b0c9 263c
000003a0: 4301 83bd 7cd7 18be 235d e33b 574c 8a3d
000003b0: 8f20 eb3d d846 b83d 3345 ecbd 9d50 fb3b
000003c0: a2f3 59bd 3bef 713c c10b 363d 5b2f 89bd
000003d0: 1e84 99bd 3849 96bd 8a19 5fbd b541 db3d
000003e0: 2edc 783c a5d8 21bc 3e6c 803d 8e8b 183d
000003f0: a0e7 d43d 1452 9ebc f54f 25bd 92a2 51bc
-0.00591044 -0.092983305 0.11269937 -0.23747687 -0.16804479 0.08025717 0.0733763 0.10160245
0.092415005 0.032281056 0.008564957 0.017233767 0.30319092 0.018400138 -0.018442154 -0.053878516
-0.10340691 -0.002468893 0.09397668 0.09857144 -0.05858551 -0.0504725 0.016592879 0.019517383
-0.12440651 0.04423272 0.038146004 0.13710229 -0.07611899 0.01408057 -0.08539706 -0.07561135
-0.062262997 0.02567285 -0.029661015 -0.10934278 0.093221016 -0.021424346 -0.036974367 0.022322774
0.085268185 -0.026206754 0.004217493 0.0122506535 -0.12041704 0.012005182 0.10126122 0.21241668
-0.015220299 0.07269223 0.11065811 0.00062455336 0.0077572013 -0.08723344 0.05331379 0.067943215
-0.08682556 -0.030762121 -0.037673112 0.0626518 0.010228349 -0.0010052976 -0.10754379 0.0117217805
-0.08265627 0.049494192 -0.0719104 -0.118213534 -0.02453567 -0.10330878 -0.028688915 -0.14578256
-0.109581515 0.016125025 -0.040806584 -0.014118582 -0.011086011 0.12555647 0.12562732 0.07009291
0.021276364 0.037558887 0.044334475 0.04129168 -0.014640157 -0.009506145 -0.09405285 -0.09015531
-0.091299266 -0.036897976 -0.035187524 -0.077669896 -0.007913501 0.00938997 0.086283036 -0.040438775
0.06672066 0.07014668 0.053113267 0.00761703 0.07890284 0.0029192823 0.05448763 0.052235425
-0.024969693 -0.026202325 -0.050478112 0.11598117 -0.049069796 0.050897352 0.017570723 -0.012032264
0.035074838 -0.046474926 0.1543928 0.01715556 0.0023618771 0.17503342 -0.11258706 -0.14222099
-0.06367968 -0.028829217 0.08665707 -0.0064128046 -0.057354964 0.048426807 -0.040347137 0.014833673
0.013161359 -0.06321728 0.11529182 -0.09979848 -0.03860118 0.1894046 -0.0054732943 -0.020567311
0.13071857 0.080125995 -0.02320377 0.099934466 0.08702938 0.097066306 0.08782428 0.06467064
0.061929896 -0.10782905 0.022154031 0.006996834 0.1472998 0.001970028 0.043267872 -0.048657723
0.080184296 0.00988187 0.022746738 0.08134698 -0.016381798 0.023766818 0.024049433 0.25949535
-0.07389761 0.05886131 0.050401118 -0.023834137 0.10149941 0.023109337 -0.05290964 0.02535234
-0.07208937 0.081631966 -0.043848515 0.04092413 -0.005693488 -0.03943842 -0.1118849 0.06874895
0.09926994 -0.03657589 0.012869883 0.051934857 0.0015249132 0.035426106 0.14164966 0.0040065786
0.08896895 0.095156714 -0.05230103 -0.04544046 0.07458432 0.0015147319 -0.043054026 0.04869717
0.050086707 0.013009819 0.017891396 -0.06894274 -0.02239019 -0.022450082 0.056166306 0.0074787363
0.12429733 -0.06956811 0.011547089 -0.06203358 0.0413758 0.14041486 -0.008899981 -0.031771816
-0.05176627 0.007032926 0.20148233 0.13933723 0.03496764 -0.046665996 -0.06504751 -0.030043725
-0.10105734 0.07407383 -0.029969446 -0.0698446 -0.028226567 0.025981106 0.06348195 0.08135767
-0.08841582 0.03703506 -0.044469032 0.08119094 -0.11422084 -0.0829532 -0.07637734 0.010179922
-0.06396725 -0.14925951 0.006938593 0.06752842 0.114808194 0.089978874 -0.11536636 0.007669522
-0.053210862 0.01476651 0.044444803 -0.066984855 -0.074959025 -0.07338184 -0.054467715 0.10705892
0.015189214 -0.009878312 0.062706456 0.037242465 0.103957415 -0.019326247 -0.040359456 -0.012795107

fc2.bias f4 [300]
00000000: 7b8c 39bd b962 d73b e8b7 0abd e4f6 ac3d
00000010: 2abb 94ba 7a61 7e3d 210f 8bbc 5f9b b33d
00000020: 7c74 35bd 3109 04bd 4c6e 843c bcc8 72bd
00000030: 8ae9 063c b6bb 06bd 3bbd 44bd 5c0a 493d
00000040: 5811 7ebc 3827 d33d a7f8 11bb c714 b53d
00000050: 8c08 dc3c 7566 803d 8270 57bd 61a5 c93c
00000060: 72d5 44bc 47f5 a73c d65d 2bbd e9a3 ec3c
00000070: 662b d43d a8b5 15ba fb29 513d d1e5 03bd
00000080: 9fa6 adbc 8447 31bb c6aa a9bc 9377 debc
00000090: ba83 6d3d 9765 873d a33f 873d 51c5 b73c
000000a0: 9949 a23d 516d 963c 659c b0bc 8c25 ec3a
000000b0: 7d0c cc3b 6d30 c0bc f0ac 163d 0d2d 45bd
000000c0: 13d7 fe3c 7372 afbc 6c59 793d 0d4d 95bd
000000d0: c631 6c3d d554 e5bc 2938 bf3b faa5 e53d
000000e0: 080f ccbc 7153 54bd c629 a5bd 5215 b73b
000000f0: 359f 76bd f2af bebd a7e8 e83c c5f8 503b
00000100: 8217 393d df9e 2f3c 973f 06bd 9200 08bd
00000110: 62ba ac3d ccf6 9a3d 2312 a2bc a128 9dbd
00000120: 1972 233d a5b2 113c 6779 073d f7da c83b
00000130: 4f8d 24bb 1db1 8a3c df06 c23b 6e79 643d
00000140: 6cbc f23c 1731 d13d 88b4 b9bc 4cae 7bbd
00000150: 5b3c b7bd 4722 0c3b fce5 95bc 8714 243d
00000160: 977c 4c3b b8d3 a43c 6791 4d3c 1af6 193d
00000170: 963a 06bd 0aed cf3d 40f5 be3d 2d77 c83b
00000180: b0c4 b73d 7c86 ec3c b0e3 3b3d 3a8a 19bd
00000190: e330 d33c 231c 5ebc 68c1 363d b17c 90bd
000001a0: a05f 953c dece f2bc 7c0b c0bc 2e72 153d
000001b0: 60e1 70bc 09ee 283c 95d4 1bbc 3284 b5bc
000001c0: 4d82 cf3c d62c e1bc a5e6 633d 93b7 633c
000001d0: 57b9 9c39 6184 3abd d0da efbc f67c 4fbb
000001e0: 1823 843c a050 63bb 1a1c 5abd 65f7 443d
000001f0: 5849 133d c837 81bd 2dba 183d 0254 013d
00000200: 5eb5 1abd ff42 923d 900e 54bb 03e3 acbd
00000210: 0e6e 533d cc03 58bc 554e 9a3c 7b52 3a3c
00000220: 26de 8039 1f03 b13d 4edb 863d f765 133d
00000230: dfa2 8b3d 82f3 083d d84f 9e3d 4749 fe3d
00000240: cf3c 933d d34f 203d 95b0 a03c 14f6 c43c
00000250: 0d92 1abd 1828 0d3d fbda 63bd 3602 92bc
00000260: cc59 1b3d 13a6 b0bb a6e1 4abc 15dd 273d
00000270: a005 a0bd 41be 5dbd 7ce1 e9bb 1fb0 85bd
00000280: 2c52 c73c 70d4 78bd 4dfd 383d 1fc1 303c
00000290: 1ec5 51bd d51d c63a 50af 2e3c 0c70 afbc
000002a0: 227f 70bc 33ab dfbc 0dec 563d 371d 75bd
000002b0: c560 dfbc 39f0 a63c 9efe 6a3d 2499 243d
000002c0: efee 2d3d b2bf c93d 1efa 73bd e5ec cdbc
000002d0: 1fc5 10bd a1c9 49bc 9dd8 0a3d d755 c8bc
000002e0: 76f8 8a3d 0e6c 9abc 6951 c1bd 6fd1 693d
000002f0: ec0a 6bbc 883d 39bc abcf aa3c 3b2f 82bd
00000300: 43d8 693d c178 a63b 27ac 1e3c 70d4 51bd
00000310: f475 0fbd 0e20 2b3d 986f 0c3d 6b51 a73d
00000320: c5f7 bd3c 4f0e c63d d600 70bc 5367 92bb
00000330: 25bd 873d c5b5 e0bc 45a1 16bd 3c31 473c
00000340: f992 dabc 18e3 883d 19cc 35bd 0efd 383d
00000350: c53e 8a3c 57ea be3c 4cc2 e23c 3403 5cbd
00000360: 4e8a d7bc b121 9cbd 41ea 533c 01d9 01bd
00000370: 8cbb e2bc 7683 063e 337f f5bb 26d8 163d
00000380: bc4e 99bc 3eb4 fe3c 7ae7 a33b 04c0 573d
00000390: 2c0c 3c3d f2f6 5939 2da9 60bd ba68 afbb
000003a0: 6ec5 9bbd c6df 053d 7987 74bc 0a14 b23c
000003b0: 90e6 e73b 1834 da3c b6e6 64bd eb90 953d
000003c0: c8da 1e3d 14c3 33bd 2873 4a3d 403f 21bb
000003d0: 0820 0d3d 2c1a 07bd 5028 ea3d 5d75 91bd
000003e0: 6f70 54bd 4670 9bbb d4e8 91bd dd8b b5bd
000003f0: 4fc5 3abb 1003 85bd f724 f7bc 8555 b83b
-0.04529999 0.006573048 -0.033866793 0.08445528 -0.0011347283 0.06210468 -0.016974987 0.08769869
-0.04430054 -0.032235328 0.016165875 -0.059273466 0.008234391 -0.03289386 -0.048032027 0.049082145
-0.015507065 0.10310215 -0.0022273452 0.088418536 0.026859544 0.06269542 -0.05259753 0.024614992
-0.01201378 0.0205027 -0.041837536 0.028886752 0.1035984 -0.0005710968 0.051065426 -0.032201592
-0.021197615 -0.0027050683 -0.020711314 -0.027156627 0.057986952 0.066111736 0.066039346 0.022432955
0.07924194 0.018362673 -0.02155895 0.0018016561 0.0062270747 -0.023460591 0.03678602 -0.048138667
0.031108415 -0.021416878 0.060876295 -0.07290087 0.057664655 -0.027994553 0.0058355522 0.11213298
-0.024909511 -0.05183739 -0.08064608 0.0055872584 -0.060210425 -0.09310903 0.02843125 0.003188656
0.045188434 0.01071903 -0.032775488 -0.03320367 0.08433987 0.07566604 -0.019784039 -0.07673765
0.039903734 0.00889269 0.033074763 0.0061296183 -0.002510864 0.016930157 0.0059212293 0.055779867
0.029630862 0.10214441 -0.022669092 -0.06144552 -0.08947059 0.0021382736 -0.018298142 0.04005864
0.003120219 0.020120487 0.012546874 0.037588216 -0.032770716 0.101526335 0.093241215 0.0061177225
0.08973062 0.02887272 0.045871437 -0.03748534 0.025780147 -0.013556513 0.04461804 -0.07055033
0.018234074 -0.029639658 -0.023442976 0.036485843 -0.014702171 0.010310658 -0.009511133 -0.022157762
0.025330687 -0.0274872 0.05563988 0.013898748 0.00029892728 -0.045536403 -0.029279143 -0.0031660176
0.016130015 -0.0034685507 -0.053249456 0.048087496 0.035958618 -0.063094676 0.037286926 0.031574257
-0.03777062 0.07141685 -0.0032357313 -0.084417365 0.05161863 -0.013184499 0.01883618 0.011372204
0.00024579576 0.086431734 0.06584798 0.035985913 0.068181746 0.033435352 0.07730073 0.1241632
0.07189333 0.039138626 0.01961545 0.02404312 -0.03773694 0.034462065 -0.055628758 -0.01782332
0.037927434 -0.0053908913 -0.0123829 0.040982325 -0.07813573 -0.05413652 -0.0071374755 -0.06527733
0.024331175 -0.06074947 0.04516344 0.010788231 -0.051213376 0.0015115092 0.010661915 -0.021415733
-0.014678748 -0.027303314 0.05247121 -0.059842315 -0.027267823 0.020378219 0.057371728 0.04018511
0.042464193 0.09851016 -0.059564702 -0.025137374 -0.03534424 -0.0123161385 0.033897985 -0.024454994
0.067856714 -0.018850353 -0.09439356 0.057084497 -0.014345866 -0.011306174 0.020850977 -0.06356665
0.05709101 0.005080313 0.009684599 -0.051227987 -0.0350246 0.041778617 0.03428611 0.08169826
0.023189435 0.09670698 -0.014648637 -0.0044678836 0.06627873 -0.027430424 -0.036774892 0.0121577345
-0.02668141 0.0668394 -0.044384096 0.045163207 0.016875634 0.023305101 0.027680539 -0.053713992
-0.026311066 -0.076236136 0.012934268 -0.03170109 -0.02767732 0.13136086 -0.00749197 0.03682723
-0.018714301 0.031091806 0.0050019594 0.052673355 0.045910046 0.00020786727 -0.05484884 -0.0053530606
-0.07606016 0.03268411 -0.014924877 0.021738071 0.0070770457 0.026636168 -0.055884086 0.073030315
0.038782865 -0.043887213 0.049426228 -0.002460435 0.034454376 -0.032983944 0.1143347 -0.071024634
-0.051865038 -0.0047436086 -0.071244866 -0.088645674 -0.0028498953 -0.06494725 -0.030168993 0.005625429
