p2_continuous-control/pth_backups/00checkpoint_critic-v1.pth (torch_old, 549484 bytes, 9 tensors)

fc1.weight f4 [400, 33]
000000 26 3e 6e be 9e da b7 be 38 41 2e bf 1d c5 d1 bd
       -0.23265895 -0.3590898 -0.68068266 -0.102426745
000010 d7 ac e4 3d f7 6f 11 be cb cd 97 be 30 4d 42 38
       0.11165779 -0.14202867 -0.29649195 4.632509e-05
000020 3e a1 0f 3f 1f 5e 77 be 7f 99 99 3c 07 c5 97 3d
       0.5610541 -0.24156998 0.01874995 0.07410627
000030 3e 86 32 3e 4f 17 0d 3f c7 d9 96 3e 4f ec fd 3e
       0.17434022 0.5511369 0.29463026 0.49594352
000040 df c7 35 3d f7 91 1c bc 05 3e 09 3e 60 cd b4 be
       0.044380065 -0.009556285 0.13402565 -0.3531294
000050 5e d6 9f 3e 3a 2d d5 3d d1 b7 8e 3c 49 6c ac 3c
       0.31218237 0.10409017 0.017421635 0.021047728
000060 e4 19 17 3e 7a 71 d3 be e4 e9 83 be d5 17 cb 3b
       0.1475597 -0.41297513 -0.25764382 0.0061979094
000070 52 3c a9 3d f7 ea 33 bd c3 66 1f bd 70 36 8f bb
       0.08263458 -0.04392525 -0.03891636 -0.004370503
000080 65 2f 0b 3f 3e 95 cb bd e5 74 e3 be 2d f6 0c 3f
       0.54369193 -0.09940575 -0.4442512 0.55063134
000090 19 a3 62 3e 91 6d 7e 3e d7 fa f5 3c f8 b7 75 be
       0.2213253 0.24846484 0.030026836 -0.2399596
0000a0 4b c5 6b be ca ef 06 be 98 e2 5e be b6 27 7e bd
       -0.2302448 -0.1317741 -0.21766126 -0.06204959
0000b0 2d 11 c9 3d 43 7c d3 3d 48 21 35 be e8 73 22 be
       0.09817729 0.103264354 -0.17688477 -0.15864527
0000c0 d3 f5 49 bf 5a 82 eb bd 25 0d 13 3c 4b 61 f2 bb
       -0.78890723 -0.11499472 0.008975302 -0.007396852
0000d0 bf 25 38 3d c5 c9 e3 3d b2 e5 57 3d 1d 3c 45 3d
       0.044957872 0.11122469 0.05270929 0.04815303
0000e0 60 83 6a 3e e6 cb 3e 3e a5 89 9b be 90 84 d2 3e
       0.22901678 0.18632469 -0.30378452 0.41116762
0000f0 eb 39 b3 bc 4f 2e 20 3e 78 47 0a 3c 39 d6 4b ba
       -0.021878203 0.15642665 0.008439891 -0.0007775757
000100 10 9d 26 bd 80 68 30 3f c6 73 91 3e 72 70 7a be
       -0.04067713 0.68909454 0.2840864 -0.24456957
000110 21 1f 0b bf a3 89 a4 3e 93 10 1e be e0 25 5b 3d
       -0.54344374 0.32136258 -0.1543601 0.053502917
000120 0e f3 5a be d6 e1 d9 3d fa bb 26 be cd 2b 84 3e
       -0.2138178 0.10638778 -0.16282645 0.25814667
000130 23 0e 90 3e b6 51 36 bd a5 2b cd 3d ac c3 03 3d
       0.28135785 -0.04451152 0.1001809 0.03216903
000140 e5 3f ef 3e 5e e4 f1 3e e1 bc 9a 3d 31 c7 b9 bd
       0.46728435 0.47244543 0.07555557 -0.09071196
000150 62 91 20 3e 36 65 bf 3d 9e f0 bf 3d 08 e4 66 3e
       0.15680459 0.09345476 0.09372066 0.22547925
000160 4c 1c b4 3d 73 7b e6 3c e6 31 12 3f 13 98 46 3e
       0.0879446 0.028135037 0.5710739 0.19393949
000170 71 05 c6 3d e9 1d ea 3b da 40 17 3f d8 ac 1c bd
       0.096690066 0.007144679 0.5908333 -0.038250774
000180 e0 45 41 3d 9e 52 e7 3c cd 9f 6b bf c0 17 2c be
       0.04718578 0.028237637 -0.9204071 -0.16805935
000190 1c 9f bf 3e 3c c5 9e be ea 0f 47 be c3 04 c9 3e
       0.37426078 -0.31009853 -0.19439664 0.39261445
0001a0 f7 4a a5 be b7 9f ab be 86 c9 b7 be a9 e4 4b bf
       -0.32283756 -0.3352029 -0.35895938 -0.7964578
0001b0 e5 f0 0a bf d0 d6 8c bd 4e 5b de bc 11 14 60 be
       -0.54273826 -0.0687691 -0.027143147 -0.21882655
0001c0 46 89 15 bf 38 b8 19 be 3f c2 30 bf aa 14 73 3e
       -0.5841259 -0.1501168 -0.69046396 0.23738351
0001d0 16 f6 e3 3d f1 45 f4 bd a5 12 af 3d 1c af cf 3d
       0.111309215 -0.11927403 0.08548478 0.10140821
0001e0 02 6d 28 3e 10 17 51 be e6 96 9c be e4 7e 37 3e
       0.16447833 -0.20418954 -0.30583876 0.17919499
0001f0 3f 67 a8 3d 0c 48 5d 3e 33 13 e6 3c a3 c3 ef be
       0.08222818 0.21609515 0.028085327 -0.46828946
000200 e9 e4 2a 3d 9e 73 10 bd 92 06 b8 3c 29 0d 31 bf
       0.041722212 -0.03526651 0.02246407 -0.69160706
000210 4f 9b 35 bf a5 58 72 3c 3c a2 be be 14 4c c6 3d
       -0.7094011 0.014791642 -0.3723315 0.096824795
000220 5b c1 1a be f3 a4 0f 3e b1 0d 69 3e 31 52 cc bd
       -0.15112822 0.14027767 0.22759129 -0.09976614
000230 4c 67 bb be 5b da 0f be bf 10 bf bd 8c 51 c9 be
       -0.36602247 -0.1404814 -0.09329366 -0.39320028
000240 76 c2 38 3d b3 b4 2d 3f 2b f2 13 bf 91 79 32 be
       0.045107327 0.6785385 -0.57791394 -0.17429186
000250 90 35 44 bd d8 af 43 be 0b 53 99 bd f1 ac db bd
       -0.047902644 -0.19110048 -0.07486542 -0.10726345
000260 eb 68 5d 3e d8 ad 49 be 03 93 6e bd 83 7d af 3e
       0.21622054 -0.19695222 -0.05824567 0.34275445
000270 a8 d8 95 3d 1d 90 76 be 9f 59 f4 3d 2a c0 8d 3c
       0.073167145 -0.24078412 0.11931156 0.017303545
000280 5a 23 07 3e e7 d0 3d 3d bd 07 58 bc b0 61 cb bc
       0.1319708 0.046341803 -0.013185439 -0.024826854
000290 42 75 8a 3f 7f eb bd bd 09 69 75 be 66 06 12 3e
       1.0817034 -0.09273433 -0.23965849 0.14260253
0002a0 e2 98 f4 be 25 98 4d 3f 39 05 ed 3e 0b 1b df 3e
       -0.4777289 0.8031028 0.46293047 0.4357532
0002b0 cf 0a 04 be 0a e6 f3 3e a9 2a 65 bd 75 b0 28 be
       -0.12894748 0.47636443 -0.055948887 -0.16473563
0002c0 de 8a 2f be 92 87 4d be c0 32 13 be 3f 6a 74 3e
       -0.17142817 -0.20071247 -0.14374828 0.23868655
0002d0 52 81 a7 3d d9 c7 c6 be b7 da 45 be 33 76 89 3c
       0.08178963 -0.38824347 -0.19321714 0.016779995
0002e0 19 cb b3 3e 4c fb f4 bc 17 be c1 3e b8 95 08 3e
       0.3511589 -0.029904984 0.3784034 0.13338363
0002f0 6c fd 09 3e ac d2 f5 be af c7 31 bf 3a 33 ed be
       0.13475579 -0.48012292 -0.6944532 -0.46328145
000300 5b 23 22 3c f8 a9 92 be 5a d4 2a bd 8f 75 3c bc
       0.009896125 -0.286453 -0.04170642 -0.0115026375
000310 80 1c 94 bb ee 3e 02 3e 11 55 92 be 26 a8 5d 3d
       -0.004519999 0.12719318 -0.28580526 0.054115437
000320 88 5c 2f 3e c4 d9 a5 be 03 34 be be 3c 10 60 bd
       0.17125142 -0.32392704 -0.37149057 -0.054702982
000330 a8 ed a1 3d dd 86 13 3d 4f ef 37 be be 75 9f 3e
       0.079066575 0.036017288 -0.17962383 0.31144518
000340 25 c7 26 bd 0e c1 10 bd a2 21 3d 3d 71 3a e5 3d
       -0.040717263 -0.03534036 0.046174653 0.111927874
000350 b0 64 96 3d 9d cd dd 3d c9 46 5d 3e c8 4f 01 3d
       0.07343423 0.10830233 0.21609034 0.031570226
000360 73 06 f5 3d 1b 53 81 be cc ff 77 3d 55 80 0c bd
       0.11964121 -0.25258717 0.06054668 -0.034302074
000370 d4 17 55 3c c5 79 a5 3e c3 78 00 3e 65 cf 09 be
       0.013006169 0.32319465 0.12546067 -0.13458021
000380 02 79 94 3e be 16 b7 bc cb f1 2e bf c8 8f 1a 3c
       0.28998572 -0.022349712 -0.68337697 0.009433694
000390 e1 b9 13 3d 46 b8 ea 3c d2 78 08 40 46 2c 21 3f
       0.03606594 0.028652322 2.1323743 0.6295818
0003a0 56 59 3e 3e 18 14 50 3d 40 3e 31 bd 84 0d 1f 3d
       0.18588766 0.050800413 -0.043272257 0.03883125
0003b0 d9 cf 66 3c 06 1b 21 3c fe c5 6c 3d df 34 97 3e
       0.014087641 0.009833103 0.057806008 0.29532525
0003c0 58 6b 16 be 86 9a 36 3d 0e ba 77 3c 81 1b 01 bd
       -0.14689386 0.04458096 0.0151200425 -0.03152037
0003d0 f9 42 48 bf 67 3d e2 bd bb 00 da 3d 67 dd c8 bc
       -0.7822719 -0.11046868 0.106446706 -0.024519635
0003e0 c1 35 65 3c 3f 88 e4 bd ad 17 7e 3b fc 63 9c 3b
       0.013989867 -0.111587994 0.0038771436 0.0047726613
0003f0 21 e1 7a bd 97 ab 59 bc 68 36 58 be 68 da 19 bd
       -0.061249856 -0.013285539 -0.21114504 -0.037561804

fc1.bias f4 [400]
000000 e4 24 1c 3e ad 9e 03 3e 97 23 bf 3d 00 07 db 3d
       0.15248448 0.12853499 0.0933296 0.106946945
000010 56 7f b9 3d 4d 77 21 3e 5c 73 03 3e 35 30 b6 bc
       0.090574905 0.15768166 0.12836975 -0.022239784
000020 93 8b 19 3e b2 95 82 bd 4c 8f 15 3e 93 cc ca 3d
       0.1499465 -0.06376208 0.14605445 0.09902301
000030 d6 7d 19 bd 38 48 2f be 75 f3 21 3e da 33 7a 3c
       -0.037473522 -0.17117393 0.15815528 0.015271151
000040 cc 85 8a 3c 1f ce 09 be ae 3e 6f bd b4 18 26 3e
       0.016909502 -0.13457535 -0.058409385 0.16220361
000050 9c 2c 0a be 2b 0c 29 3e 84 c7 25 3e 29 51 69 bd
       -0.1349358 0.16508548 0.1618939 -0.056962166
000060 ce cd ce bd db f0 5f bd 9c 70 ab bc 7b 0e 5f bd
       -0.10097848 -0.054673057 -0.02092772 -0.05445717
000070 b0 5d 1d bd 93 c3 f7 bd ea b8 4a bd 2a 83 f1 3d
       -0.038419425 -0.1209785 -0.049492754 0.11792596
000080 16 34 ed 3d 4a 64 e1 3a 8b f2 07 3e 92 e7 6f bd
       0.115822 0.0017196026 0.13276117 -0.058570452
000090 06 b7 1e bd 06 ce 0c be 37 45 f4 3d 46 5d 95 bd
       -0.038748764 -0.13750467 0.11927264 -0.07293181
0000a0 09 67 75 bd b3 ad 13 be 25 90 11 3e 4e e5 0e be
       -0.059912715 -0.1442173 0.14215143 -0.1395466
0000b0 20 8d bf 3b 99 55 f6 bd 03 da fd bc 3b 89 93 3d
       0.005845681 -0.12028045 -0.030987745 0.07203909
0000c0 b4 c9 da 3d 7b 6b 12 be 7e 32 0a be cf 52 2a 3d
       0.10683003 -0.14298813 -0.13495824 0.04158288
0000d0 28 cc 4c bc 75 c8 d0 bd c9 f1 12 be 5a d6 c2 3d
       -0.0124998465 -0.10194484 -0.14350046 0.095135406
0000e0 50 21 0d 3d 65 22 dc 3d ee 89 86 3b a4 e8 48 3d
       0.034455597 0.10748748 0.004105798 0.04904999
0000f0 07 79 c4 3c 55 5f 74 bd d9 74 90 3c a1 2c 7b bc
       0.023983492 -0.05966123 0.017633842 -0.015330465
000100 cf e4 11 be 41 14 06 3e c5 af 1d be 2d 08 e9 bd
       -0.1424744 0.13093664 -0.15399082 -0.113785125
000110 4f d4 5c bc 1f c0 14 3e 69 5b 17 be 08 bd a8 3c
       -0.013478353 0.14526413 -0.14780964 0.02059795
000120 cf 26 a8 bb 14 c8 91 bd 7d b4 82 3d e6 dc 12 be
       -0.0051315795 -0.0711824 0.06382082 -0.14342079
000130 58 a1 f5 3a 21 c3 24 be ba 6c 0d be 66 8c dc bd
       0.0018740101 -0.16090061 -0.13811007 -0.107689664
000140 42 2f 27 be e0 d0 aa 3d 9f 8e 09 be 44 2e 65 3c
       -0.16326621 0.08340621 -0.13433312 0.013988081
000150 7d 65 be bd 8a c8 27 be 11 38 06 3e d7 12 1d 3e
       -0.09296701 -0.16385093 0.13107325 0.15339218
000160 8a af d2 bd f6 9d 0c be fb 30 e8 3d 64 ef 1b 3e
       -0.10287388 -0.13732132 0.11337467 0.15228039
000170 47 6d da 3d 69 db a5 bd e2 9f 01 be 5f 20 97 3c
       0.10665374 -0.0809849 -0.12658647 0.018448053
000180 2a 38 0a 3e 81 8b 2d be c4 04 1c 3d f7 29 06 be
       0.13497987 -0.16947748 0.038090482 -0.13101946
000190 df cf cd bd 26 ce b6 3d 75 19 26 3c d1 15 25 3e
       -0.10049414 0.089260384 0.010137905 0.16121604
0001a0 98 64 33 3d c4 3e 01 bd 95 52 0c 3e 3d 2c e5 3d
       0.043797106 -0.031554 0.13703378 0.111900784
0001b0 08 6e 0e be 6f d6 03 be 75 3d 0c 3e e2 8a 29 3d
       -0.13909161 -0.12874769 0.13695319 0.041392215
0001c0 4f 4a f2 3d cb 64 0f be 44 e7 74 3d 6d 47 b1 bd
       0.118305795 -0.14003293 0.059790865 -0.086562015
0001d0 1b c4 1c be 97 b9 8f 3d 53 bb de 3d fc 19 29 3e
       -0.15309183 0.0701782 0.10875573 0.16513819
0001e0 54 1c 26 3e 8b 90 19 be 32 a1 e1 3d a8 d6 13 3e
       0.16221744 -0.14996545 0.11017074 0.14437354
0001f0 48 1f 1b be 21 a2 1d 3e 11 db 1e 3e 01 f6 23 3e
       -0.15148652 0.15393879 0.15513255 0.16011812
000200 8e d0 1f be 08 db e4 3d b9 e7 19 3d ce 5a 41 3c
       -0.15606901 0.111745894 0.037574504 0.011801435
000210 dc 1d c3 3d 38 33 91 bd be 4d 19 bd 5b 16 2f bb
       0.095271796 -0.07089847 -0.037427656 -0.0026716206
000220 4a 14 32 be 4d 1a 14 be 48 2d 1f be 6f dc 09 be
       -0.17390552 -0.14463158 -0.15544617 -0.13462995
000230 ae 51 8f bd 8b 0b e6 3d e8 29 32 be fc 62 19 3e
       -0.06998001 0.112326704 -0.17398798 0.14979166
000240 40 eb 05 bb b1 07 0f be 39 ad da 3d cf 46 fc 3d
       -0.002043441 -0.13967778 0.10677571 0.12318193
000250 c9 7a 13 be 43 06 1c 3e e4 3d b0 bd 38 84 49 3d
       -0.14402308 0.15236764 -0.08605555 0.04919836
000260 fe a1 3c 3d de 71 15 bc 73 62 16 be f3 fd e3 3d
       0.046052925 -0.009121386 -0.14685993 0.11132421
000270 ee c1 1a be 06 f5 ca bd 1b 8d 30 bc 65 53 47 3d
       -0.15113041 -0.09910016 -0.01077583 0.048663516
000280 10 8d 1b 3e 85 76 d6 bb f8 10 05 bd c2 23 ef bd
       0.1519053 -0.0065448903 -0.032486886 -0.11676742
000290 75 bb 23 3e a1 86 2a be 60 86 8d bd 32 70 a7 bd
       0.15989478 -0.1665292 -0.069103956 -0.081756964
0002a0 03 b1 1d be 1a 47 89 3d e1 cf c9 3d f5 0e 08 3e
       -0.15399556 0.06703015 0.09854103 0.13286956
0002b0 e4 5e 70 bc b0 15 31 be b3 2c c8 3d 19 e0 2a be
       -0.014671061 -0.1729343 0.09774151 -0.16687049
0002c0 09 88 d0 bd 85 ef 7d 3d bf 26 9d 3d 88 0d 3b 3d
       -0.10182197 0.061996 0.07673406 0.0456672
0002d0 c5 c4 d9 bd dd bf bb bd 34 8c 8b 3c ee 7c a2 3d
       -0.10633234 -0.091674544 0.017034627 0.07933985
0002e0 a3 6a 0a bc 64 0c c1 bd 4f 48 84 3d 7a be 69 3d
       -0.008448276 -0.094261914 0.06459104 0.05706642
0002f0 ac 19 75 bd be 98 54 bb 50 53 c7 3c d2 0b ae bd
       -0.059838936 -0.0032439674 0.024331719 -0.08498348
000300 db 54 2d bd 32 66 80 bd 38 ff 38 bc bc e9 d5 bd
       -0.042317253 -0.06269492 -0.011291318 -0.10444972
000310 8b 03 ea bd ea 95 e3 bd 08 56 05 3d 51 68 87 3b
       -0.11426457 -0.11112578 0.03255275 0.0041323085
000320 fc 88 5e bd b6 5f cf ba 78 a8 33 3d 4f ac 51 3d
       -0.054329857 -0.0015821371 0.043861836 0.051189717
000330 37 d1 41 3c b8 a2 39 bd 88 96 cd bd 52 83 a4 bd
       0.011829666 -0.045321196 -0.10038477 -0.0803286
000340 b7 7e c0 bc 62 65 04 be f9 16 af bc 84 7f e8 bd
       -0.023497922 -0.129293 -0.021373259 -0.11352447
000350 d7 1a 27 be a4 02 95 3d 6d 2a e4 bc a3 01 32 bd
       -0.16318832 0.07275894 -0.027852261 -0.043458592
000360 ce e1 a1 3d d6 f8 e8 bc 38 8f 1b bd af 14 30 3e
       0.07904397 -0.028438967 -0.03797838 0.1719539
000370 f8 21 9c 3d f2 1d 11 be 47 09 02 3e 63 69 ba bd
       0.076236665 -0.1417158 0.12698852 -0.09102132
000380 7b 3f 1a bd 9a 6d a6 3d 53 16 29 3e 5a 5c 0f be
       -0.037658196 0.081263736 0.16512422 -0.14000073
000390 ed b4 d8 bd b0 28 1b be bc 3b 27 be 63 f6 23 be
       -0.10581384 -0.1515224 -0.1633138 -0.16011958
0003a0 7f 77 0a be 27 ae 1f 3d 6e 0b 8a 3d a9 7f 0c 3e
       -0.13522147 0.038984444 0.06740461 0.13720573
0003b0 ee 24 e8 3d 4e 0b 12 be d7 5c 7b 3b 6f d5 22 be
       0.11335169 -0.14262125 0.0038354897 -0.15901731
0003c0 a4 39 1c 3e 5b 7e 02 bd d4 aa 81 3d 9e cc e4 bd
       0.15256363 -0.031858783 0.06331411 -0.1117184
0003d0 1c 37 15 3e 41 e7 03 be 43 05 6d 3d 7b fc 06 bd
       0.14571804 -0.12881185 0.057866346 -0.032955628
0003e0 54 e0 b0 bc 35 ce 1d bd 9e 82 d4 3d 1b 48 2e 3d
       -0.021591343 -0.038526732 0.10376476 0.042549234
0003f0 e0 49 c0 3d c6 fb 72 bd 41 34 c6 bd bf 2a ea 3d
       0.093890905 -0.05932214 -0.096779354 0.114339344

bn1.weight f4 [400]
000000 fe 43 71 3e 8a d3 c0 3e 20 bd 3b 3f 2c 0e a6 3e
       0.23561093 0.37661391 0.73335457 0.32432687
000010 82 fd b3 3e df 37 ba 3e bd 55 3a 3f 3b 09 32 3f
       0.3515435 0.3637075 0.72787076 0.69545335
000020 4d 08 87 3e fe ef fe 3e 11 05 48 3e 17 fb 00 3f
       0.2637352 0.49792475 0.19533183 0.5038313
000030 30 58 c0 3e c8 ea 68 3e 49 2c e2 3e de de c8 3e
       0.37567282 0.22745812 0.44174412 0.39232534
000040 5c 7f 96 3e 36 34 8d 3e 33 b2 cf 3e 58 b9 85 3a
       0.29394042 0.27578896 0.40565643 0.0010202331
000050 f9 a0 42 3e a2 07 20 3f 59 f7 c1 3f 77 a4 e1 3e
       0.19006719 0.62511647 1.515361 0.4407079
000060 ae 1e de 3e 76 00 cc 3e e2 78 de 3e bf cd bf 3e
       0.43382782 0.39844102 0.434516 0.3746166
000070 38 37 8b 3e 1e 65 ae 3e 67 3f 66 3e fd 4f 13 3f
       0.27190566 0.3406152 0.22485124 0.5754393
000080 7e 70 0e 3f 0d 1f 51 3e 65 5b b4 3e 7f 02 84 3e
       0.556404 0.20422001 0.35225978 0.25783154
000090 5e 41 50 3e ce 50 b1 3e 16 6d 9a 3f 34 7f 4e 3e
       0.20337436 0.34631962 1.206454 0.20165712
0000a0 55 06 e1 3e f2 11 a1 3e 29 e5 cd 3e 43 93 e2 3e
       0.43950143 0.31459004 0.40213898 0.44252977
0000b0 12 24 c6 3e 99 e5 56 bc c2 b2 ee 3e 5d 58 ab 3e
       0.38699394 -0.013116264 0.46620756 0.33465853
0000c0 29 cf 8c 3e 50 f6 96 3e 2b b6 6b 3e 9c 26 a1 3e
       0.275018 0.29484797 0.2301871 0.3147477
0000d0 45 a3 9e 3e cf 17 22 3f 46 a3 66 3e d4 26 79 3e
       0.3098394 0.6331758 0.22523221 0.24331218
0000e0 22 9d 12 3f 2f be b7 3e 88 33 87 3e 4c 1a 13 3e
       0.57271016 0.35887286 0.26406503 0.143655
0000f0 8e 72 8e 3e 4b cd 7d 3e ab 27 00 3f 4d cc 28 3c
       0.27821773 0.24785344 0.5006053 0.010302615
000100 f0 9f 51 3e 4d 52 db 3e fc 5c 84 3e b2 68 3d 3f
       0.20471168 0.42836228 0.2585219 0.7398788
000110 70 60 a1 3e 6a 7e c7 3e 15 5c a1 3e 82 77 f8 3e
       0.31518888 0.38963634 0.31515566 0.48528677
000120 62 38 b3 3e 85 e2 b8 3e bc cb 9b 3e 6f 98 07 3f
       0.35003954 0.3611032 0.30428874 0.5296697
000130 81 c7 fd 3e 4b e3 ad 3e 1b fd 11 3f 59 01 be 3e
       0.49566272 0.33962473 0.57026833 0.37110403
000140 62 2b 24 3f 1f d2 92 3e e9 20 20 bc c8 ba c3 3e
       0.64128697 0.28675935 -0.009773471 0.3822844
000150 3a 09 23 3f eb 03 8b 3e 71 5c e0 3e b0 ac b9 3e
       0.63685954 0.27151427 0.43820527 0.36264563
000160 93 e6 be 3e 7b c7 b1 3e e5 02 a8 3e a6 d1 cb 3e
       0.3728529 0.34722504 0.32814708 0.39808387
000170 8c f9 2f 3e aa 06 2d 3f c8 65 d5 3e e2 ad b3 3e
       0.17185038 0.67588294 0.41679215 0.350936
000180 11 6f 96 3e c2 ad a7 3e b3 d1 9e 3e b8 26 ab 3e
       0.29381612 0.32749754 0.31019363 0.33427978
000190 46 be 8e 3e a1 c9 b5 3b b8 19 00 3f e0 a6 1b 3f
       0.27879542 0.0055477177 0.50039244 0.60801506
0001a0 85 46 bc 3e d2 b7 8d 3e 45 b4 4d 3e 6f 9f c9 3e
       0.36772552 0.27679306 0.20088299 0.3937945
0001b0 a0 da 92 3e 51 48 1a 3f cf d5 b0 3e a0 cf a2 3e
       0.28682423 0.60266596 0.34538123 0.3179903
0001c0 f6 09 a9 3e c3 56 8b 3e ac 07 b0 3e 6e 3d 25 3f
       0.33015412 0.2721463 0.34380853 0.6454686
0001d0 4f e2 86 3e 21 fe 9b 3e 15 e9 76 3e d0 08 e4 3e
       0.26344535 0.30467322 0.24112351 0.44537973
0001e0 cf 51 af 3e d7 6a 00 3f 9e 29 fb 3e db 11 d1 3e
       0.34242103 0.50163025 0.4905519 0.40833935
0001f0 78 90 5e 3e 8f 7d ab 3e e9 65 88 3e 83 ef f7 3e
       0.21734798 0.3349423 0.2664025 0.4842492
000200 45 f7 b1 3e 0b c7 fc 3e 41 2d 8a 3e c3 62 f7 3e
       0.34758964 0.49370608 0.2698765 0.48317537
000210 49 8c c3 3e 00 a5 0b 3f b1 91 0f 3f 05 2d 5a 3f
       0.38192967 0.54548645 0.5608168 0.85224944
000220 e4 9e be 3e 10 81 42 3f 93 ea 82 3e 85 c6 7b 3e
       0.372306 0.75978184 0.2556959 0.24587448
000230 5e 13 c3 3e 5e 75 c7 3e 5c 8f 41 3f e6 f5 f7 37
       0.38100713 0.38956732 0.75609374 2.95592e-05
000240 80 dd b0 3e 1e 55 00 3f a9 3c a6 3e fd 5e 42 3e
       0.3454399 0.5012988 0.32468155 0.18981548
000250 f8 03 93 3e 5e ac b1 3e 58 4b 16 3f 87 bd b5 3e
       0.28713965 0.34701818 0.58708715 0.3549616
000260 d3 46 00 3f dc 93 c7 3e ff d6 d5 3e 99 d6 db 3e
       0.5010807 0.38979995 0.41765592 0.42937163
000270 a4 5c 9d 3e 3a a1 ba 3e 63 a2 09 3f 0c 93 c8 3e
       0.30734742 0.3645113 0.5376341 0.39174688
000280 ba 3f be 3e 73 47 25 3e ab 68 81 3e ef b7 94 3e
       0.37157995 0.16140537 0.25275168 0.2904658
000290 56 39 96 3e f7 df 92 3e 22 62 99 3e 0d 6e e7 3e
       0.2934062 0.28686497 0.29957682 0.4520115
0002a0 ee 07 d9 3e 61 26 65 3e a5 5d 92 3e de f1 56 3e
       0.42388862 0.22377922 0.2858707 0.20990703
0002b0 a5 de 7b 39 85 2e 02 3f 65 4a b4 bb be 27 a9 3e
       0.00024020167 0.50852233 -0.0055020326 0.33038133
0002c0 dd 9f 56 3f 6e 86 0b 3f e7 2f 81 3e 2c 9c 78 3f
       0.8383768 0.54502 0.2523186 0.971133
0002d0 40 63 e7 3e 44 f7 8e 3e 61 09 d2 3e e3 71 e7 3e
       0.4519291 0.27923024 0.4102278 0.45204076
0002e0 2c 3c c6 3e 99 20 40 3e 27 65 e1 3e 62 bb 6d 3e
       0.38717782 0.18762435 0.44022486 0.23216012
0002f0 99 be 27 3f c0 ff 33 3f e2 e9 a8 3e 37 63 c2 3e
       0.65525204 0.7031212 0.32990938 0.3796632
000300 d1 b5 03 3f 19 a2 3c 3f f2 b5 a5 3e 9a 1a 28 3e
       0.51449305 0.7368484 0.32365376 0.16416398
000310 36 70 a3 3e 39 cf af 3e f1 fd e8 3e 9a 6e 05 3f
       0.31921548 0.34337786 0.45506242 0.5212189
000320 a7 bf a7 3e 3f 47 bf 3e a6 71 b8 3a 55 1e b8 3e
       0.32763407 0.37359044 0.0014071956 0.35960642
000330 2f cd ca 3e 4b 43 bb 3e 8a 45 cd 3e b9 78 ac 3e
       0.39609668 0.36574778 0.40092117 0.33685854
000340 d0 23 53 3e 37 eb 7a 3e a6 14 d7 3e ac c3 fd 3e
       0.2061913 0.2450379 0.4200794 0.49563348
000350 b5 fe 69 3f 1e 8e c4 ba 9d 2b ce 3e e9 77 03 3f
       0.9140428 -0.0014995968 0.4026765 0.51354843
000360 7d 66 e1 3e d3 25 c5 3e b4 41 a4 3e 76 43 c6 3e
       0.44023505 0.3850542 0.32081378 0.38723344
000370 07 42 94 3e 74 58 42 3e dd f9 10 3f 04 15 b1 3e
       0.28956625 0.18979055 0.5663126 0.34586346
000380 80 20 f4 3e d6 6d a8 3e db e3 4f 3e 4c 9c 73 3e
       0.47681046 0.32896298 0.20301764 0.23790091
000390 d3 22 fc 3e a5 ec f3 3e 2c 0c 9d b9 80 90 97 3e
       0.4924532 0.47641483 -0.00029954442 0.29602432
0003a0 70 c6 cb 3e 29 5e 23 3f 0c df 7e 3e ed db af 3e
       0.39799833 0.6381555 0.24889773 0.34347478
0003b0 4d ee 06 3f 39 91 72 3e 70 68 11 3b 87 22 c8 3e
       0.5270737 0.2368821 0.0022187494 0.39088842
0003c0 8a 1d 52 3f a5 0e c7 ba cb 35 9d 3e ca 0c d4 3e
       0.82076323 -0.001518686 0.30705103 0.41416007
0003d0 fd ff ad 3e 94 65 cb 3e 2a b1 8f 3e f0 7b 24 3e
       0.33984366 0.39725935 0.28064853 0.16062903
0003e0 ac a4 06 3f bd 48 3c 3f 40 53 7d 3e 28 4a c0 3e
       0.5259502 0.7354849 0.24738789 0.37556577
0003f0 15 47 d8 3e 7a c8 72 3e ed 54 b7 3e 2c 2c 21 3f
       0.4224173 0.23709288 0.3580698 0.62958026

bn1.bias f4 [400]
000000 7f 5c a1 3c 32 bd c6 be 3c 5e 8b be a5 4a d4 be
       0.019697426 -0.3881622 -0.27220333 -0.414632
000010 af 1d 9a be 1a a4 09 bf 9c 86 20 3e 2f b2 8e be
       -0.30100772 -0.53766024 0.1567635 -0.27870318
000020 2a e9 dd be ef 02 13 bf 88 e7 84 be 6e 69 1b bf
       -0.43341953 -0.5742635 -0.25957894 -0.6070775
000030 84 04 57 be d1 da 84 be 2d 33 1a bf 11 65 2c bf
       -0.20997816 -0.25948194 -0.6023434 -0.67341715
000040 b5 24 9e be 4e 4b 09 bf 04 9b ec be 82 cf e3 be
       -0.3088738 -0.5363053 -0.46212018 -0.44494253
000050 9c 8a cf be c1 2c cb be 5a ed af be 4d f4 26 be
       -0.40535438 -0.39682582 -0.34360772 -0.16304131
000060 d7 94 ad be d1 0a d3 be e7 53 1e bf 51 c2 04 bf
       -0.33902618 -0.4121919 -0.61846775 -0.51859003
000070 8e 44 b1 be c6 9c fe be c9 bb 20 bf d7 1e 26 be
       -0.34622616 -0.49728984 -0.6278654 -0.16222702
000080 32 5d 39 bf 49 aa 08 bf d5 ab 10 bf 7f 38 b0 be
       -0.7240783 -0.53384835 -0.56512195 -0.34418103
000090 55 0a 8b be dc 0a 28 bf bd 11 a7 be 9e 2f 84 be
       -0.2715632 -0.6564157 -0.3263072 -0.2581758
0000a0 bd ea c3 be 45 1b c7 be ac 3b d5 be f0 51 61 be
       -0.3826503 -0.38887993 -0.4164709 -0.22003913
0000b0 df 23 bf be e7 4d b9 bd f3 7d da be 94 24 15 bf
       -0.37332055 -0.09048062 -0.42674217 -0.5825894
0000c0 0f 62 b5 be e1 87 13 bf 58 0f 0c bf 15 31 e4 be
       -0.35426375 -0.5762921 -0.5471091 -0.44568697
0000d0 53 f0 e1 be 0b f8 4f bf 87 56 c0 be b8 ea cc be
       -0.44128665 -0.8123786 -0.37566015 -0.40022826
0000e0 da 56 f2 be 34 fa d5 be a8 c8 c3 be a0 2b e0 be
       -0.47331887 -0.41792452 -0.38239026 -0.43783283
0000f0 b2 bc c4 be b1 73 f8 bd af 74 08 bf 21 89 4e bd
       -0.38425213 -0.121314414 -0.53303045 -0.050423745
000100 3c ab b1 be e3 43 c6 be f1 dd 03 bf e5 7a 18 bf
       -0.34700954 -0.38723668 -0.5151053 -0.5956252
000110 84 80 05 bf bf 8f 03 bf 42 6c e7 be 4d 3b e6 3e
       -0.52149224 -0.51391214 -0.45199782 0.44967118
000120 c2 85 ba be 66 51 aa be 42 08 42 be 4a ae b1 be
       -0.36430174 -0.33265227 -0.18948463 -0.34703285
000130 fe 7d fc be 72 af b0 be 37 ea fc be f1 bb 24 bf
       -0.49314874 -0.34508854 -0.49397442 -0.64349276
000140 81 bf 24 bf 7e 6e 71 be 39 fb 9b bd 93 32 cd be
       -0.6435471 -0.23577306 -0.07616276 -0.40077648
000150 51 35 ce be 8b 92 f5 be d4 da 95 be ae d6 6b be
       -0.40275052 -0.47963366 -0.29268515 -0.23031113
000160 fa 94 02 bf 71 d3 e9 be d9 1e e0 be 55 2a be bd
       -0.5100857 -0.4566913 -0.43773535 -0.09285418
000170 f1 90 5a be d6 6d 09 bf e0 45 18 bf cb 18 b8 be
       -0.21344353 -0.5368322 -0.5948162 -0.35956416
000180 92 40 ce be 3b 05 07 be 3f e0 a5 be 0b c4 dc be
       -0.40283638 -0.13185589 -0.3239765 -0.4311832
000190 97 f5 f4 be 45 c4 79 bd ec 0f 8f be 17 90 73 be
       -0.4784362 -0.060978193 -0.27941835 -0.23785435
0001a0 8c e4 aa be 31 91 9e bd 15 a5 9b be a1 cd c9 be
       -0.33377492 -0.07742537 -0.30399385 -0.39414695
0001b0 d9 74 2b bf 44 6f 15 bf 5a 6f 50 be 96 60 c3 be
       -0.6697517 -0.583729 -0.20354977 -0.38159627
0001c0 4c 71 f5 be 0e f0 27 bf 72 48 ee be 09 8b 05 bf
       -0.47938 -0.6560067 -0.46539646 -0.52165276
0001d0 64 0f 1d bf 82 5b cf be 1b 68 88 be d4 9f f3 be
       -0.6135161 -0.40499502 -0.26641926 -0.47582877
0001e0 a9 60 35 be 4f bf b5 bd bb a0 17 bf 73 73 db be
       -0.17712654 -0.0887438 -0.5922963 -0.42861518
0001f0 55 88 8e be a8 07 dd be 6c 25 df bd 2c b5 71 be
       -0.27838388 -0.43169904 -0.108958095 -0.23604268
000200 8c e1 b3 be 66 73 5f be 6f 2a 97 be 9d 8a 0f bf
       -0.35133016 -0.21821365 -0.29524562 -0.5607088
000210 de e6 39 be 1f 02 cb be 79 fe dd be 1a e2 dd be
       -0.18154475 -0.39650056 -0.4335821 -0.43336564
000220 5e 42 c7 be 36 89 00 bf 94 05 00 bf 7a db 8d bd
       -0.38917822 -0.5020937 -0.5000851 -0.069266275
000230 c7 9b d5 be fb cb 1f be f4 fe 85 3d e6 48 82 bd
       -0.4172041 -0.15605156 0.06542769 -0.063615605
000240 e2 b2 db be f6 de 09 bf b6 b7 f4 be 3d 06 d1 be
       -0.42909914 -0.53855836 -0.4779641 -0.40825072
000250 7c cd 8d be 52 47 f0 3c c2 11 50 3e dd 52 08 bf
       -0.27695835 0.029330883 0.20319274 -0.5325144
000260 3e 6f 93 be 4c b2 08 bf e7 e0 28 bf 23 3d a2 be
       -0.2879581 -0.5339706 -0.65968174 -0.3168727
000270 ae 9e 46 bf 16 6a 1f bf c5 e1 ab be b7 c3 c1 be
       -0.77585876 -0.6227125 -0.33570686 -0.3784463
000280 d0 14 3c bf 89 fa 6d be 78 0a b9 bc 4b 3c 1c bf
       -0.7346926 -0.23240103 -0.022588 -0.610295
000290 5c f4 fa be 3a dc 21 bf e5 d7 4d bf f8 83 c9 bb
       -0.49014556 -0.63226664 -0.80407554 -0.006149765
0002a0 a8 ce 08 bf 4d ec 0b bf 9c 65 b0 be 6c 2d 40 be
       -0.5344033 -0.5465744 -0.34452522 -0.18767327
0002b0 f5 95 09 bf 96 0d ba be 27 14 58 bd f3 2b f7 be
       -0.5374444 -0.3633849 -0.052753594 -0.48275718
0002c0 79 c9 04 be 29 19 87 be f5 d5 82 be 89 4e 07 bf
       -0.1296748 -0.26386383 -0.2555386 -0.5285421
0002d0 63 38 10 bf 79 f0 08 bf e1 d2 46 bf a6 a9 c8 be
       -0.5633604 -0.5349193 -0.77665526 -0.3919193
0002e0 c7 72 12 bf 18 27 c7 be 50 7c d1 be 6c be aa be
       -0.57206386 -0.38897014 -0.40915155 -0.33348405
0002f0 d0 e6 16 3d 4c c8 d8 be 1c d7 4d be a9 7c 1f bf
       0.036841214 -0.42340314 -0.20101589 -0.6229959
000300 d4 ee 50 bf f8 e5 00 bf f2 d6 84 be bf 1b f9 be
       -0.8161442 -0.50350904 -0.2594524 -0.4865398
000310 b6 25 04 be c2 76 f1 be b4 99 ee bd 38 f9 8c be
       -0.1290501 -0.47160918 -0.1165041 -0.2753389
000320 95 23 dd be a1 39 54 be 2f dc c7 be 7e f2 f9 be
       -0.4319121 -0.20725109 -0.39035174 -0.4881782
000330 ed 6b de be 1a 6e 56 be a1 51 83 3c 6a 61 aa be
       -0.43441716 -0.20940438 0.016030135 -0.33277446
000340 ea 8c fa be 11 64 d8 bd 18 7f cf be 91 a9 d9 be
       -0.48935634 -0.10565961 -0.40526652 -0.4251218
000350 72 1c a8 be 72 6b 0e bf 01 59 35 bf 2a 1a ad be
       -0.32834202 -0.556327 -0.70838934 -0.33809024
000360 d6 a5 e6 be ad 52 52 be 13 a6 b6 be 76 7b 2f be
       -0.45048398 -0.20539351 -0.3567358 -0.1713694
000370 17 a2 c2 be 89 4b a1 be 7b dd 82 3e 72 a2 fb be
       -0.3801429 -0.3150294 0.255596 -0.49147373
000380 93 2a a4 be b4 10 de be 58 28 8e be 88 e2 f4 bd
       -0.32063732 -0.43372118 -0.27765155 -0.1195727
000390 0e 8d 28 bf c2 da 10 bf a9 04 2a bf 2e 39 a8 be
       -0.6584023 -0.565838 -0.6641336 -0.32856125
0003a0 69 a8 00 bf b8 48 52 bf f7 8e a2 be 7a 85 f7 be
       -0.50256974 -0.8214221 -0.317497 -0.48344022
0003b0 68 cb 47 be 65 f8 de be b0 50 b9 be 7a 27 93 be
       -0.19511187 -0.43548885 -0.36194372 -0.28741056
0003c0 99 b9 6b be bf 43 c2 be b4 79 b9 be b3 6d 23 bf
       -0.23020019 -0.3794231 -0.36225665 -0.6383926
0003d0 79 a5 a1 be 7f d7 fc be a5 35 02 bf 7b bd ca be
       -0.31571558 -0.4938316 -0.50863105 -0.39597687
0003e0 d4 1d 14 bf c5 e2 2f bf ce 36 15 be 74 c7 04 bf
       -0.57858014 -0.687054 -0.14571688 -0.5186684
0003f0 42 88 18 bf 9d ea fe be c4 98 00 bf 0f 78 ce be
       -0.5958291 -0.4978837 -0.502331 -0.40325972

bn1.running_mean f4 [400]
000000 18 27 59 bc 89 e6 e1 3f 9b fb 99 be e0 03 6b bf
       -0.01325395 1.7648479 -0.30074772 -0.9180279
000010 97 b3 b8 3f 2d 06 a2 be 93 30 70 be 26 aa 61 be
       1.4429806 -0.31645337 -0.2345603 -0.22037563
000020 00 bd 66 c0 6e 45 1f c0 ae 63 bf 3f c0 bd 9e be
       -3.6052856 -2.4886127 1.4952295 -0.31004143
000030 0d c5 87 3d 85 ce 87 be b9 75 ad be b2 3a 34 c0
       0.06629381 -0.2652475 -0.33878878 -2.8160825
000040 15 e7 80 bf bf 20 ea bf 68 bc ab 3d b2 87 29 c0
       -1.0070521 -1.8291243 0.08385545 -2.6489072
000050 9e ce ab 3e 65 e1 02 bf da 91 07 3f e5 26 e3 3f
       0.33556074 -0.51125175 0.52956927 1.7746245
000060 97 f7 7a bf 43 27 66 3f 8f 04 47 40 ab 36 6f bf
       -0.9803404 0.8990366 3.1096532 -0.9344279
000070 c2 15 e3 3f 65 9b 08 bf 25 1e 8c 3f f8 e2 4b be
       1.7741015 -0.53362113 1.0946699 -0.199108
000080 2f b0 23 bf 12 d9 81 bf 97 b5 02 c0 79 7c 73 c0
       -0.6394071 -1.014437 -2.0423334 -3.8044722
000090 50 60 a0 bf 0b d9 be bf aa 56 a6 bd 61 11 0d 40
       -1.2529392 -1.4909986 -0.081219986 2.2041857
0000a0 81 47 1d be 43 3e 98 3f 64 73 e3 3e 31 28 f0 be
       -0.15359308 1.1894001 0.44423974 -0.46905664
0000b0 84 ff 25 bf f8 7f 18 bf ad bd e1 bf 47 b6 83 be
       -0.6484301 -0.59570265 -1.763601 -0.25725004
0000c0 24 7c b0 3f 89 d7 df bf 48 46 86 bf 7a a6 10 bf
       1.3787885 -1.7487651 -1.0490198 -0.56504023
0000d0 dc f9 74 be 76 e9 a6 be a7 db df 3f 38 07 a0 3d
       -0.23923439 -0.32599992 1.7488908 0.07813877
0000e0 4a 16 cb 3e de 36 1c c0 f9 08 f8 bf 81 24 e0 bf
       0.39665443 -2.4408488 -1.9377738 -1.751114
0000f0 4a 08 bc 3f 55 79 c6 3d 52 5d 6c bf 6e b1 97 bf
       1.469003 0.09691111 -0.92329895 -1.1851022
000100 5d 05 6a bf db 04 82 3f 96 2b ac 3e 70 38 2b bf
       -0.91414434 1.0157732 0.33627003 -0.6688299
000110 cf 5b 12 bf aa ce 09 3f e0 c7 50 c0 7f 05 b8 3f
       -0.5717134 0.5383097 -3.2621994 1.4376677
000120 13 5a 1f c0 c4 49 a5 3f da 13 bd bf 19 f4 c1 be
       -2.4898727 1.2913136 -1.4771683 -0.37881544
000130 db 97 bc 3f ce 83 c2 bf 2e 5c 7a be a6 f2 d4 bf
       1.4733843 -1.5196474 -0.24449226 -1.663655
000140 f2 d3 34 3e 34 bb f6 3e d9 a0 03 3f 10 76 0e 3e
       0.17658976 0.481897 0.5141731 0.13912225
000150 94 41 e0 bd 21 7c cf bf 67 ba 55 be ed 5d 1c bf
       -0.10950008 -1.6209756 -0.20871888 -0.6108082
000160 88 44 8f bf 55 f0 24 c0 0e 3f 87 3f c2 c9 4b 3f
       -1.1192789 -2.5771687 1.0566118 0.79604733
000170 3c 16 b1 3e 66 bc 24 be 41 3e 13 c0 00 0a 33 3f
       0.34587276 -0.16087493 -2.3006747 0.69937134
000180 b3 68 e4 be b2 17 54 bf a1 e0 84 3f c9 8d 13 c0
       -0.4461113 -0.82848656 1.0381051 -2.3055289
000190 84 1c 11 c0 02 71 56 be e7 e1 1f bd 34 0c 8e be
       -2.2673655 -0.20941547 -0.039033797 -0.27743685
0001a0 d7 0c a9 bf cc b9 c3 be 24 09 a5 be bb 3d bd 3f
       -1.3207043 -0.3822769 -0.32233536 1.4784464
0001b0 12 30 62 c0 93 99 17 bf c0 13 26 be 53 2b 4c be
       -3.534184 -0.5921871 -0.16218472 -0.19938402
0001c0 e4 7d 7c bf f2 3d 90 3f a8 42 96 3f 14 28 71 3e
       -0.98629594 1.1268904 1.1739092 0.23550445
0001d0 4a 39 59 3f 2e 17 38 3f 17 9c ff be 32 67 0f c0
       0.8485304 0.7191037 -0.49923775 -2.2406735
0001e0 cc 5d 58 40 b1 19 65 be e7 2d 0f c0 43 35 29 c0
       3.380725 -0.22373082 -2.2371767 -2.6438758
0001f0 ba 1a 8d bf d8 ba 70 3f cc 8b 67 3f 39 d0 0c 40
       -1.1023781 0.940351 0.9044769 2.200209
000200 2c 35 7c be 88 a8 11 40 88 1f bf bf 74 54 e0 be
       -0.24629658 2.2759113 -1.4931498 -0.43814433
000210 fa 3a fa be 46 ea 18 be 85 50 1a be 72 6e 8b 3d
       -0.4887312 -0.14933118 -0.15069778 0.06808175
000220 00 f5 a0 3f 44 09 8b bf 27 fe 26 bf 0b 0a 41 3f
       1.2574768 -1.0862203 -0.65231556 0.7540595
000230 22 80 fb bf ca 16 9e 3e 68 51 72 3d 97 5a 37 40
       -1.9648478 0.30876762 0.059159666 2.8649042
000240 6c 41 f1 be ab dc cf 3f fe 9e c2 3f 63 9c 26 c0
       -0.47120225 1.6239218 1.520477 -2.603295
000250 01 54 8e 3d 9e ee 6d 3f 64 17 81 3f d8 97 1d c0
       0.06949616 0.92942226 1.0085263 -2.4623928
000260 51 5d e0 bf 82 fd 2d bf ac 39 c6 be 08 8b 9e be
       -1.7528478 -0.6796495 -0.38715875 -0.30965447
000270 00 17 45 3e 0c b8 36 c0 51 55 9a be 87 a5 8d bf
       0.19247055 -2.8549833 -0.30143216 -1.106614
000280 c8 89 29 c0 c1 f2 b7 3e 22 d1 86 3e 76 c9 ee bf
       -2.6490345 0.35927394 0.2633143 -1.8655231
000290 fc 45 86 3f 76 08 61 3f 08 e0 20 3e 0e f3 89 be
       1.0490108 0.87903535 0.15710461 -0.2694325
0002a0 a2 6c 0e 3f 06 c6 e6 bf b1 ed 9c 3e f2 ca 8b bd
       0.5563451 -1.8029182 0.30650094 -0.06825818
0002b0 b1 f3 91 be ca 8e a5 3f ba f5 7f bf 5d 87 c7 bf
       -0.28506234 1.2934201 -0.99984324 -1.5588185
0002c0 49 63 27 3f c7 97 b3 bd 1b b3 31 3f 58 ea f2 bc
       0.6538587 -0.087691836 0.6941392 -0.02965276
0002d0 3c e9 39 c0 52 55 c9 bf 8e af 2a 3f 02 25 21 bf
       -2.9048605 -1.5729163 0.66674125 -0.62947094
0002e0 2e 0c a4 bf c8 66 96 bf e9 ad 2f 3f ca 2d 23 40
       -1.2816217 -1.1750116 0.6862474 2.5496697
0002f0 b3 1d 26 3f a5 89 cb 3d 02 7d f7 3f 74 05 a2 bf
       0.6488907 0.09938363 1.9335024 -1.2657914
000300 2e c1 64 bf 6e e0 11 bf 5b 36 69 bf a4 cd f6 bf
       -0.8935727 -0.5698308 -0.91098565 -1.9281507
000310 33 c8 b0 bf 8a 76 87 bf a4 56 1b 3f c0 1b 87 3f
       -1.3811096 -1.058305 0.6067908 1.0555344
000320 90 72 d6 be 13 56 01 3f 44 b6 43 c0 2b 7a 1a 3e
       -0.4188428 0.50521964 -3.0579996 0.15085666
000330 5b 13 c7 3f c8 35 9b 3f 71 de 99 3f 46 42 a9 3f
       1.5552782 1.2125788 1.2021009 1.322335
000340 b9 f4 39 be 13 b3 b4 bf ed 5a 0c c0 2c 47 79 3f
       -0.1815976 -1.4117149 -2.1930497 0.97374225
000350 0a 70 1e bf f9 22 48 40 93 64 0c c0 9d 32 dd 3e
       -0.6188971 3.1271346 -2.1936386 0.43202677
000360 19 e6 03 bf dc 2b 3d 3e 13 21 8e 3f f7 de 9c 3e
       -0.51522976 0.18473762 1.1103843 0.3063886
000370 07 12 61 3e 98 92 15 40 b8 a5 b8 bd b2 ba 7a 3f
       0.21979533 2.3370724 -0.09015983 0.97941124
000380 f4 6f 8c bf 76 e1 e6 3f 75 3b 67 c0 d2 7d d7 3f
       -1.0971665 1.8037555 -3.613004 1.6835272
000390 59 15 03 c0 0e c1 72 bf d1 85 61 3f 00 58 c2 bf
       -2.048178 -0.9482583 0.8809481 -1.5183105
0003a0 73 23 6f c0 bb 4c f3 3e c1 88 6d bf 4c 06 37 40
       -3.7365386 0.47519478 -0.92786795 2.8597593
0003b0 b7 79 a7 be d0 e4 43 be 5e 45 21 c0 da c0 a2 bf
       -0.3271005 -0.19130254 -2.5198588 -1.2715104
0003c0 98 eb 13 3e bb 44 b4 3f 2e 20 9e bf c7 07 72 bf
       0.1444534 1.4083475 -1.235357 -0.9454312
0003d0 4a 97 a6 3f 52 65 bf bf 56 31 40 c0 14 e7 e1 3d
       1.301492 -1.4952796 -3.0030112 0.11030403
0003e0 c2 8d 77 3f f0 aa 60 be b4 cc 18 3c ee a9 fd 3d
       0.9670068 -0.21940207 0.009326149 0.12385927
0003f0 d8 a1 bf 3f 70 05 f4 3e 22 17 03 c0 73 f8 c8 3f
       1.4971266 0.47660398 -2.048287 1.5700821

bn1.running_var f4 [400]
000000 11 1d 87 40 d1 a7 0f 41 7c 7c cd 41 23 ea 31 42
       4.222298 8.978471 25.685783 44.47865
000010 ea 6e 1b 41 da bc 98 41 65 22 72 41 76 1b 9b 3f
       9.714579 19.092213 15.133397 1.2117755
000020 0b be 8b 41 22 86 40 41 0e 20 26 41 84 b9 1b 41
       17.467794 12.032747 10.382826 9.732792
000030 cf fe 8b 40 ec ca 64 40 a9 f7 3e 40 ef 63 2e 41
       4.3748546 3.5748854 2.983866 10.899398
000040 bf 04 8a 40 dc 3c 07 41 f5 28 f5 3f 83 2c 6f 40
       4.3130794 8.452358 1.9153124 3.7370918
000050 47 7e 6d 40 83 96 e0 40 c2 33 b4 40 bb 80 15 41
       3.7108324 7.018373 5.631318 9.343928
000060 a7 0c 2e 42 3d 0f 60 41 65 0a 91 41 3d 05 eb 40
       43.512356 14.00372 18.130075 7.3443894
000070 fd d0 ec 41 ec f7 39 40 a4 9c 9b 41 1b 94 c7 40
       29.602045 2.905757 19.451485 6.2368293
000080 6b 3d 5f 41 16 03 f7 40 da ad 10 42 2f 1d 9c 40
       13.952495 7.7191267 36.169777 4.8785625
000090 2a e7 99 40 c0 bf e9 40 eb 1c cf 40 fd 33 99 40
       4.8094683 7.304657 6.47228 4.787596
0000a0 6b 59 8e 3f b2 d2 81 41 44 c6 45 41 de 8a 99 3f
       1.1121038 16.227879 12.360905 1.1995504
0000b0 c4 cc 26 41 d4 89 79 40 83 bb 91 40 15 77 e3 40
       10.424992 3.8990374 4.5541396 7.1082864
0000c0 25 40 c6 40 47 b2 2a 41 4e 31 1f 41 b9 6b 94 40
       6.19533 10.668525 9.949537 4.6381497
0000d0 9a 46 e1 40 33 c5 cb 41 f7 8c d3 40 67 c1 8f 40
       7.0398684 25.471289 6.6109576 4.4923587
0000e0 1e 91 74 40 0c ed 0f 41 ff 32 0c 41 ad ca 26 41
       3.8213573 8.995373 8.76245 10.424481
0000f0 0f 2c 22 41 47 8e 24 41 27 a0 e9 40 a7 c5 12 41
       10.1357565 10.284736 7.3008 9.173255
000100 3d d4 31 41 1b 31 9c 41 1b 7b c0 41 e6 2d cf 40
       11.114316 19.523977 24.06011 6.474353
000110 32 26 36 40 d5 96 7f 41 89 98 b9 40 5f 63 2f 40
       2.8460813 15.974324 5.79987 2.7404401
000120 1c 78 df 40 91 9e b4 40 1c ae e8 41 5c 33 b9 40
       6.983412 5.6443563 29.085014 5.7875195
000130 e1 4e 20 41 66 d1 07 41 a8 22 81 40 c5 38 c4 41
       10.019258 8.488623 4.0354805 24.52772
000140 43 fc 82 42 ca eb 9b 40 25 24 62 40 e8 05 86 40
       65.4927 4.872533 3.533456 4.188221
000150 06 4a f0 40 ae 93 c7 41 45 eb b2 40 60 95 1e 41
       7.509036 24.94711 5.5912194 9.9114685
000160 bf d0 fc 40 9b 40 c3 40 3f 7c a7 41 7e 31 57 40
       7.9004817 6.1016364 20.935667 3.3623958
000170 6a a9 c2 40 2c 06 cf 40 b7 55 fe 40 c5 45 38 41
       6.0831804 6.4695034 7.947963 11.517034
000180 ee 6c 64 40 d2 c5 b2 40 99 47 b6 40 b3 b0 0a 41
       3.5691485 5.586648 5.69624 8.668139
000190 ac 97 05 41 9d 31 b7 40 26 b3 cf 40 e2 d0 f7 40
       8.349529 5.7248063 6.4906187 7.7442484
0001a0 38 19 fb 40 88 3a b5 40 3d a3 62 41 d2 bb 46 41
       7.8468285 5.663395 14.164853 12.420855
0001b0 5a 06 2f 41 fc 57 e8 40 05 c9 25 41 4b b1 02 41
       10.939051 7.2607403 10.361577 8.168284
0001c0 03 98 88 41 e6 41 d5 41 40 dc ac 40 9d f3 0e 42
       17.074224 26.657177 5.401886 35.737904
0001d0 10 3a 2d 41 c5 a3 27 41 5a 6c 59 40 86 94 75 40
       10.826675 10.477483 3.3972383 3.8371902
0001e0 e7 3b 1f 41 fe 96 73 41 f1 13 0f 42 34 17 78 41
       9.952125 15.224363 35.769474 15.505665
0001f0 25 5b 34 41 cb 30 06 41 0e 7e f4 40 b4 bb 33 41
       11.272252 8.386912 7.6403875 11.233326
000200 2a a8 02 41 a9 75 76 41 4d 8a 93 41 b3 7a 79 40
       8.166056 15.403726 18.44253 3.898114
000210 47 71 e6 41 0c ff 26 40 3d 32 d3 40 ab c2 d7 40
       28.805311 2.6093168 6.5998826 6.742513
000220 de 2c 81 41 4f 0f c3 40 47 a4 31 42 9d 1a 02 41
       16.146908 6.0956187 44.410427 8.131497
000230 b7 be 2a 41 0e 50 63 41 c5 63 8b 40 c8 53 53 40
       10.671561 14.207045 4.355929 3.3019886
000240 86 37 a0 41 0a cb 0a 42 ff f5 ba 40 79 12 10 41
       20.027111 34.69828 5.842529 9.00451
000250 8d d4 92 40 4c c2 f0 41 35 9d 3d 42 28 4b db 41
       4.588446 30.094872 47.403522 27.411697
000260 fa a4 85 41 dd 78 23 41 38 e6 70 40 92 18 cc 41
       16.705555 10.217008 3.7640514 25.511997
000270 39 1c 47 41 16 f9 42 41 77 b3 8b 40 4a dd 4e 41
       12.44439 12.185812 4.3656573 12.929026
000280 60 6a e0 41 65 8c 37 41 2b 44 86 41 14 48 03 41
       28.05194 11.471776 16.783285 8.205097
000290 8c fa 85 41 5a 8d 07 41 7d 0c 02 41 c3 1b 85 41
       16.747337 8.47201 8.128049 16.638556
0002a0 97 07 8d 41 23 bd cf 40 69 ac 41 41 02 d0 90 40
       17.628706 6.491838 12.104592 4.5253916
0002b0 e9 dd 1e 40 6e 07 5d 41 af cd bd 3f 78 95 80 41
       2.4822943 13.814314 1.4828395 16.072983
0002c0 0e 44 d2 40 a8 71 08 41 ea d9 71 41 47 15 b5 40
       6.5708075 8.527748 15.115702 5.6588473
0002d0 73 ff c9 41 c6 6c f3 40 92 35 08 42 e7 9d ec 40
       25.249731 7.607028 34.052315 7.394275
0002e0 91 7c ca 41 5f 2e 2c 41 43 fb 31 41 01 38 aa 41
       25.310823 10.761321 11.123843 21.277346
0002f0 6a e4 da 40 2a 4a b4 40 31 fe 61 41 61 d6 94 40
       6.8403826 5.634053 14.124558 4.6511693
000300 6d f1 55 40 d9 dc 9d 40 27 ff 6d 41 7a b4 78 41
       3.3428605 4.933209 14.874793 15.544062
000310 47 0a 4e 41 2f 18 c6 40 d2 00 04 42 9e 61 85 40
       12.877509 6.190452 33.0008 4.168166
000320 5c d1 82 41 af 92 f6 41 4c 37 8e 40 01 d5 80 41
       16.352226 30.821623 4.44425 16.104006
000330 80 e3 94 41 28 14 c7 40 ed e1 96 41 f2 ba 09 42
       18.611084 6.2212105 18.860315 34.432564
000340 40 37 50 41 1d 6c 8c 40 ec ea f9 40 a4 1e 2e 42
       13.013489 4.3881974 7.809927 43.529922
000350 93 81 9f 40 4b e6 84 40 8a 4e 1c 41 a0 eb ec 41
       4.984567 4.153112 9.769175 29.615051
000360 b1 57 c5 40 a6 7c 5e 40 8e bc 19 41 14 96 ea 40
       6.1669545 3.476358 9.608534 7.33082
000370 37 ca b3 40 63 fd 4e 41 7f 84 bc 41 4b 04 28 41
       5.6184344 12.936862 23.564695 10.501048
000380 a4 13 16 40 1b 04 e5 40 2b 8d 0b 41 27 81 12 41
       2.3449488 7.156751 8.721965 9.156531
000390 64 5e 1d 41 38 64 5e 40 cf 16 53 41 e7 05 37 42
       9.835545 3.4748669 13.1930685 45.755764
0003a0 82 a7 84 41 8d 38 6d 40 98 2e ae 41 16 cf 18 41
       16.58179 3.7065766 21.77275 9.550558
0003b0 a4 ed 99 3f c9 d2 a3 41 1c aa 77 40 1f 95 35 41
       1.2025647 20.477922 3.8697577 11.3489065
0003c0 08 f2 92 40 5f 1c dc 40 12 35 b1 41 ea 6e 18 41
       4.592045 6.8784633 22.150913 9.527079
0003d0 5a 82 af 40 b9 dd 3e 40 30 6d 5b 41 80 e3 ea 40
       5.484662 2.9822829 13.714157 7.340271
0003e0 67 02 b9 41 f0 01 ad 40 db 1a 00 42 89 b9 b1 41
       23.126173 5.4064865 32.026226 22.215593
0003f0 e0 76 80 41 38 d8 ca 40 96 e3 43 42 86 1b dd 40
       16.058044 6.338894 48.97225 6.90961

fc2.weight f4 [300, 404]
000000 7b 6e 9b be b1 ef a1 be 9c c9 43 bd 72 c4 73 3e
       -0.30357727 -0.31628183 -0.04779969 0.23805407
000010 70 5c 09 3d f0 14 19 be e0 98 e2 be f0 f7 be bb
       0.03353542 -0.14949393 -0.4425726 -0.0058278963
000020 5d b4 45 3e 4a b5 e7 be 5e 71 0c b8 e7 2c ed bd
       0.19307084 -0.452555 -3.3484182e-05 -0.1158083
000030 ba 1a e0 bd 64 b1 a7 bd 7a 0c 2b 3e 35 65 21 3d
       -0.10942598 -0.081881315 0.16703978 0.03940316
000040 59 4b b6 3d 7c 8f 82 be 13 88 94 be 29 1f c0 3d
       0.0890109 -0.25500095 -0.29010066 0.09380943
000050 af 48 ef 3c cb 6b 3a 3c 1f 29 c0 be 68 5d 7b bd
       0.029209463 0.011378239 -0.37531373 -0.061368376
000060 d6 6e 07 bd 84 1f c5 3d 1a e0 8a bd fb 89 76 be
       -0.033064686 0.09625152 -0.06781025 -0.24076073
000070 46 98 9f be 87 d1 78 be 37 32 73 3c 9e 63 bb be
       -0.31170863 -0.24298678 0.014843515 -0.3659944
000080 34 7d ef bd f6 5a 87 bd 8e 51 91 3c d4 1e 89 3e
       -0.116938025 -0.06609146 0.017739084 0.26781332
000090 79 4c 45 3e fc 74 4a be 1f 1f e1 be bb b9 9d 3e
       0.19267453 -0.19771188 -0.43969056 0.30805764
0000a0 51 e6 37 3e ad 80 8a 3d 58 07 6e 3c d2 37 54 bd
       0.17958952 0.06762824 0.014528118 -0.051811047
0000b0 99 68 40 bd 0b 95 9d bc a1 6c 09 3d b4 38 79 3d
       -0.046974752 -0.019236108 0.033550862 0.060845092
0000c0 50 d8 d9 bd 3e 4a 52 be 9b 81 11 3e 32 64 72 be
       -0.106369615 -0.20536134 0.14209597 -0.23671034
0000d0 7f ef c8 bd ef 96 3e bd 4e 69 af bd b2 32 fb bc
       -0.09811305 -0.04653066 -0.08565007 -0.030663822
0000e0 d3 a0 57 bd f0 cc f0 3d 26 e7 37 3e 02 6b d2 be
       -0.05264361 0.11757839 0.1795927 -0.41097265
0000f0 15 43 0b be 1a 59 e8 bd a0 38 29 bd dd a3 22 bb
       -0.13599809 -0.1134512 -0.041313767 -0.0024816908
000100 7d 4d 0c 3e c6 3b 4e bd 04 d5 07 3e bb 20 94 be
       0.13701434 -0.050349973 0.13264853 -0.2893122
000110 d5 75 27 be cd 0c 21 3a 62 15 87 bd 25 b9 c1 be
       -0.16353543 0.000614357 -0.06595875 -0.37836567
000120 a2 e6 43 3e 8a 96 a4 be f1 4c 10 3c d9 82 38 be
       0.19130948 -0.32146102 0.008807407 -0.18018664
000130 6a 3f 6b bd 70 2f da 3d 7d 01 fe bc 00 33 cf ba
       -0.057433523 0.10653579 -0.031006569 -0.0015808046
000140 66 e4 81 bd b5 a7 52 3e 47 e8 dd 3c 31 9d 0d be
       -0.06342392 0.20571788 0.027088298 -0.13829495
000150 32 64 65 be 61 4b b6 be ef e0 e6 3c c4 86 89 be
       -0.22401503 -0.35604385 0.028183429 -0.2686063
000160 fc de 8d bd ff 64 a0 be 58 21 92 3c d0 23 7e be
       -0.069272965 -0.31327054 0.017838165 -0.24818349
000170 ff a6 93 3e 76 fa 79 3e de 10 14 be 25 f8 fb bd
       0.28838345 0.2441195 -0.1445956 -0.12303189
000180 51 9f 2f be 94 98 c8 3d 23 f5 45 be bc 56 28 3d
       -0.17150618 0.09794727 -0.19331793 0.04109834
000190 4d cb 09 be fb 6a 8e 3c 3d b6 d3 bd d1 62 4e 3d
       -0.1345646 0.017384997 -0.103374936 0.050387207
0001a0 96 c6 ea bd b1 e8 a6 bd 52 05 45 be 0b 23 e9 3d
       -0.114636585 -0.08149851 -0.19240311 0.11383637
0001b0 de f4 b1 bc b2 b1 96 be 03 e8 ae be 2d 76 3e be
       -0.021723207 -0.29432446 -0.34161386 -0.18599768
0001c0 9a 77 47 3e ae b4 c1 be 66 87 45 3b 02 fa 51 bc
       0.19479218 -0.3783316 0.0030140518 -0.012815954
0001d0 9c e2 ce bd ab 81 29 be 93 a4 d7 3d 57 9d 03 3e
       -0.10101816 -0.1655337 0.10529437 0.12852989
0001e0 15 0b ce bb fe 64 9f be e6 7d 86 be 1b 50 95 3b
       -0.006287942 -0.31131738 -0.26267928 0.0045566685
0001f0 95 c1 be be 79 e4 89 3d d6 5c 50 be 0c 51 bb bd
       -0.37257066 0.06733031 -0.20347914 -0.09146318
000200 d8 5b ee 3c 2e 7b 51 3d 3b a0 08 be 62 57 5b bd
       0.029096529 0.051142864 -0.13342373 -0.05355013
000210 d1 99 3f be 67 57 8d bb a0 83 71 bd d7 ef c7 3d
       -0.1871102 -0.0043133977 -0.058963418 0.09762543
000220 63 da 25 be 00 7d 05 be 5e 57 62 3b a0 51 dd bd
       -0.16196589 -0.13035965 0.0034536938 -0.10806584
000230 7b 31 84 be e6 e3 77 be 5e 26 d2 bd b7 f6 e5 3d
       -0.25819 -0.2420803 -0.10261224 0.11228698
000240 31 c5 2a be 7c 94 d3 bd 79 06 5a 3e b6 0f 72 be
       -0.16676785 -0.103310555 0.21291532 -0.23638806
000250 8a d6 bf 3d 41 24 53 be ef ea 95 bd c8 b7 09 3e
       0.09367092 -0.20619299 -0.07320201 0.13449013
000260 3d 05 a6 be 9a 5d 45 be 72 ef d8 3d 20 f7 65 3e
       -0.32425871 -0.19273987 0.105925456 0.22457552
000270 01 10 52 be 3d a9 f7 3c 5f 70 b1 3d f8 8d cf 39
       -0.20513918 0.030232066 0.08664011 0.00039587892
000280 95 32 39 bd 1f 0d 0a bd 67 40 18 3e 06 1b 04 3e
       -0.045214254 -0.03370392 0.14868318 0.12900934
000290 4a 46 5b be c5 21 1f 3e c3 21 30 3b cf c5 fd bd
       -0.21413532 0.15540226 0.0026875592 -0.123912446
0002a0 a4 bf 3f bd 11 cd db 3c bb d9 fb 3d 59 68 d6 3e
       -0.046813622 0.026831182 0.12297388 0.41876486
0002b0 0e 36 0f 3e 72 7f 8d be dd f7 05 3e 30 bf b9 bd
       0.13985464 -0.27636296 0.13082834 -0.09069669
0002c0 d5 2b ec be 36 42 2d be 57 1d 1f 3e 2f 73 97 be
       -0.4612719 -0.16919789 0.15538536 -0.29580066
0002d0 f9 de 17 be 42 cc d7 bd 1a 06 ea bc 9a 44 02 3e
       -0.14831151 -0.10537006 -0.028567363 0.12721482
0002e0 38 5c 1e be df 35 2f 3e d2 95 fe bd ec 38 6c be
       -0.15464866 0.17110394 -0.1243092 -0.23068589
0002f0 75 d3 68 bf fe 1a 85 3d 84 e8 ed be 0b 21 06 be
       -0.9094766 0.06499289 -0.46466458 -0.13098542
000300 f9 73 06 bf 31 41 d5 bd fe a9 20 3e 3c 97 d5 3d
       -0.5252071 -0.10412825 0.15689847 0.10429236
000310 7d ed 97 be fa 76 71 3e 4e 24 37 3d fd 6d 12 be
       -0.29673377 0.23580542 0.044712357 -0.1429977
000320 94 8e 82 be fa 87 e9 bc 94 fb e2 3d 44 d6 f9 3d
       -0.25499403 -0.028507221 0.11083141 0.12199071
000330 f2 f9 be 3d e1 e1 4c 3e 57 48 44 be 98 9d ce 3c
       0.09325017 0.20008041 -0.1916822 0.02522163
000340 6f c3 b7 3d 68 3b 16 3d cb a3 6b bc 15 77 95 3d
       0.08972823 0.036677748 -0.014382313 0.07298104
000350 bd f4 12 be db b8 c7 3d b8 86 cf bd fd fd f5 bd
       -0.14351173 0.09752055 -0.101331174 -0.12011335
000360 7b 6f b4 be 2d 52 a0 3e 41 8f 4e 3e 50 1a 19 be
       -0.35241303 0.31312695 0.20171835 -0.14951444
000370 56 8c f1 bc df 02 23 be 32 f7 2e 3d 70 8a 1c 3d
       -0.029485863 -0.15919064 0.042716213 0.03821796
000380 40 f0 91 be 2f de 9f 3d 6d 09 0f 3e 40 f0 b5 be
       -0.2850361 0.0780605 0.1396844 -0.3553486
000390 e7 db 84 be 33 e0 a9 3d aa bc 70 3e a4 d7 36 be
       -0.25949022 0.08294716 0.2350947 -0.17855698
0003a0 02 22 b5 be ad b7 a4 be 7c 38 e7 bb a9 6f 22 3e
       -0.35377508 -0.32171384 -0.007056294 0.15862907
0003b0 f3 cf 83 3e 5a b6 10 3e 71 2e 12 3e a0 0e 67 be
       0.2574459 0.14132062 0.14275528 -0.22564173
0003c0 53 f8 26 be 8f 3e e7 3d b3 a6 84 bd ee bd 8c bd
       -0.16305666 0.11291229 -0.06477108 -0.06872164
0003d0 f4 26 64 bd 3d 75 4b 3e 7a 9f e0 3d 0f 3e 88 be
       -0.05570121 0.19868942 0.10967918 -0.26609847
0003e0 89 46 10 be d8 65 13 be 9a 86 62 3d 09 09 23 3e
       -0.14089407 -0.14394319 0.055304147 0.15921415
0003f0 c5 56 13 3c 41 91 00 bf 7d 67 cb bc f1 91 98 bc
       0.008992855 -0.5022164 -0.02482962 -0.018624278
